TSF_Finance/checkpoints/ixic_all_0613__PatchTST_custom_ftMS_sl96_ll48_pl36_dm16_nh4_el3_dl1_df128_fc1_ebtimeF_dtTrue_Exp_0/checkpoint.pth (torch_old, 175258 bytes, 65 tensors)

model.backbone.W_pos f4 [38, 16]
0.0148192085 0.016716244 0.00037159724 0.019982005 -0.016678058 0.0139286695 -0.024405269 0.038718123
-0.00867504 0.030694664 -0.02296325 -0.0032084659 0.009603906 -0.0070657665 0.005833641 -0.014118963
0.03323325 -0.0073222746 -0.0015371762 0.021227038 -0.015898045 0.035046693 -0.039625123 -0.018311596
-0.015103553 0.0047796075 0.04190685 -0.010340567 -0.015967717 0.0026465019 -0.014930699 -0.0026926287
0.0061856154 0.0010305551 0.032391783 0.010533155 -0.027520487 0.047977366 -0.04130351 0.027651075
0.05493181 -0.008912269 0.03177256 -0.027397642 -0.022178134 -0.0015794209 0.029535824 -0.008754166
-0.036014363 0.027088277 0.033385374 0.024261145 -0.017802928 0.04631049 -0.011216079 0.010032978
0.042398505 -0.010363387 0.0086194165 -0.040603142 0.006500782 -0.0028686142 0.011212807 -0.01589792
0.018968023 0.011830229 0.01976707 -0.00018430641 -0.014417064 0.035693847 -0.025551798 -0.035624675
0.041481342 -0.024221033 0.034146402 -0.020505974 -0.0046310336 0.014217114 -0.03470515 -0.035784334
-0.018324703 -0.017027387 0.0065244385 0.011179276 0.030850613 0.011544417 -0.010275989 0.035890203
0.023644334 -0.0040577576 0.039646875 0.018601563 -0.041326474 0.014302686 -0.024229657 0.0042995214
0.023472108 -0.007083567 0.03702659 0.018764643 -0.034754254 0.021971425 -0.01436 -0.030205475
0.0023290338 0.0003503156 -0.0021514073 0.0019129214 -0.009400802 -0.01691254 0.02440635 0.025257302
-0.014705252 0.007821463 0.037091065 0.0119505245 0.010137859 0.020546194 -0.041165102 0.021816563
0.046293646 0.015909567 0.03520977 -0.015435247 -0.016205197 0.0053999056 0.026150288 0.0058166767
-0.006482395 -0.007821279 0.025906669 -0.0039029245 0.01477474 -0.017654723 0.036042612 -0.036092263
-0.02899691 -0.00425297 -0.021628028 -0.014859293 0.01639074 -0.027974406 -0.034308206 -0.021505347
-0.05002149 0.017496647 0.0059341528 -0.019111061 0.02081097 0.045076624 -0.015662428 0.04321789
0.019668294 -0.040605593 -0.001303378 0.007110797 -0.016622439 -0.004413863 0.016484594 0.0027053384
0.0015753742 0.0060080453 0.022124706 0.009879933 0.00712937 0.02308278 -0.043662682 0.003413937
0.015257771 0.0073089823 0.003750073 -0.037461672 0.017406452 -0.020815369 0.029978154 0.021056991
-0.02328178 -0.011344817 0.031878673 -0.0010656698 -0.02238499 0.012050574 -0.0036491111 -0.027611507
0.04678983 -0.031195981 -0.015941985 -0.044552103 -0.020429827 0.026358776 -0.006905891 0.03562306
-0.042605627 -0.012311413 0.01436839 0.020701272 -0.03275177 0.048329514 -0.047017552 0.033951517
0.01607617 -0.030395005 -0.011099903 0.025593618 -0.03297752 0.004217107 0.00283457 0.03217455
-0.018059468 0.0036546425 0.037384674 -0.020831391 0.004150585 0.013261926 -0.028436475 0.041220307
0.007984177 -0.021684408 0.025334133 -0.04607103 -0.038391102 -0.02214242 0.008308363 0.0067819557
-0.045463078 0.0046752575 0.0112291975 0.0035873547 0.007524073 0.016129967 -0.048330415 0.019238193
0.053181745 -0.011613942 0.023813428 -0.039501894 0.00047101086 -0.019186573 -0.0021256045 -0.0013086604
0.0035196638 -0.022306897 0.041722726 -0.009058244 -0.0055747167 0.018677264 -0.034351528 0.00789824
0.020709079 -0.02637155 0.018211462 -0.018916707 0.0031093583 0.0012571291 0.045657787 0.02268901
00000000: 44cc 723c 81f0 883c f0d2 c239 4db1 a33c
00000010: 6ca0 88bc 1335 643c 8fed c7bc e596 1e3d
00000020: c121 0ebc 6073 fb3c 6d1d bcbc 2045 52bb
00000030: b459 1d3c f287 e7bb 2128 bf3b 3953 67bc
00000040: 971f 083d b1ef efbb 137b c9ba 53e4 ad3c
00000050: 9e3c 82bc 1f8d 0f3d f44d 22bd 3302 96bc
00000060: e574 77bc 419e 9c3b 84a6 2b3d 7b6b 29bc
00000070: bbce 82bc ef70 2d3b e49f 74bc d076 30bb
00000080: b4b0 ca3b b113 873a 3fad 043d 4193 2c3c
00000090: a572 e1bc ea83 443d df2d 29bd 8284 e23c
000000a0: 2d00 613d c404 12bc f223 023d 0571 e0bc
000000b0: ebae b5bc 9204 cfba 1df5 f13c a26d 0fbc
000000c0: cc83 13bd 3ce8 dd3c 1abf 083d 4fbf c63c
000000d0: 72d7 91bc 12b0 3d3d a5c3 37bc 5c61 243c
000000e0: 0eaa 2d3d 32cb 29bc 7438 0d3c 7b4f 26bd
000000f0: 8304 d53b 5cff 3bbb ecb5 373c 5b3c 82bc
00000100: d462 9b3c 94d3 413c 8dee a13c 6042 41b9
00000110: 8d35 6cbc b633 123d 0152 d1bc 2eeb 11bd
00000120: 57e8 293d 306b c6bc 19dd 0b3d 25fc a7bc
00000130: edbf 97bb e6ee 683c fd26 0ebd 9892 12bd
00000140: b01d 96bc 057d 8bbc f5ca d53b 4829 373c
00000150: 6dba fc3c cb24 3d3c 9f5c 28bc 9b01 133d
00000160: c3b1 c13c f0f6 84bb c364 223d 4e62 983c
00000170: f345 29bd d055 6a3c 467d c6bc 00e3 8c3b
00000180: 9448 c03c 441d e8bb 32a9 173d 4fb8 993c
00000190: 7a5a 0ebd 6bfd b33c 3546 6bbc 7971 f7bc
000001a0: b4a2 183b 90aa b739 a0fe 0cbb feba fa3a
000001b0: d205 1abc 2b8c 8abc d3ef c73c 67e8 ce3c
000001c0: 4cee 70bc 9825 003c cdec 173d 22cc 433c
000001d0: 4319 263c 7e50 a83c bd9c 28bd a6b8 b23c
000001e0: 689e 3d3d c854 823c 1f38 103d 1ee4 7cbc
000001f0: c3c0 84bc b1f1 b03b 2139 d63c d299 be3b
00000200: 456a d4bb d224 00bc 393a d43c 35c8 7fbb
00000210: c011 723c a3a0 90bc 6ba1 133d 7bd5 13bd
00000220: ee8a edbc 805c 8bbb 432d b1bc 6474 73bc
00000230: e045 863c 952a e5bc c386 0cbd fb2b b0bc
00000240: 55e3 4cbd 2155 8f3c 4873 c23b cd8e 9cbc
00000250: c47b aa3c 44a2 383d 7e4e 80bc 3e05 313d
00000260: 671f a13c 0d52 26bd 1cd6 aaba b001 e93b
00000270: c82b 88bc 2ba2 90bb b30a 873c 0c4c 313b
00000280: c97c ce3a 23df c43b df3e b53c 71df 213c
00000290: 7d9d e93b 1918 bd3c a4d7 32bd 5cbc 5f3b
000002a0: bbfb 793c 3080 ef3b c9c3 753b 6971 19bd
000002b0: fa97 8e3c fe84 aabc bf94 f53c b67f ac3c
000002c0: 6eb9 bebc 9cdf 39bc 3693 023d f2ad 8bba
000002d0: ba60 b7bc c56f 453c ed25 6fbb 8731 e2bc
000002e0: b1a6 3f3d b78e ffbc c498 82bc 447c 36bd
000002f0: 745c a7bc 5cee d73c d04a e2bb 7ce9 113d
00000300: 3d83 2ebd cfb5 49bc 6569 6b3c b795 a93c
00000310: b826 06bd 2bf5 453d 7a95 40bd bf10 0b3d
00000320: 2cb2 833c f2fe f8bc 5edc 35bc b5a9 d13c
00000330: 7013 07bd a82f 8a3b 31c4 393b 76c9 033d
00000340: 73f1 93bc ba82 6f3b ac20 193d 98a6 aabc
00000350: a101 883b 8d48 593c 9cf3 e8bc a0d6 283d
00000360: 11d0 023c 80a3 b1bc 8789 cf3c fab4 3cbd
00000370: fd3f 1dbd 0564 b5bc cd1f 083c 2b3b de3b
00000380: 7e37 3abd e732 993b abfa 373c d319 6b3b
00000390: 808c f63b fe22 843c 1df6 45bd 6a99 9d3c
000003a0: 1ad5 593d 6748 3ebc 6114 c33c bdcc 21bd
000003b0: 02f2 f639 292d 9dbc ba4d 0bbb 5b87 abba
000003c0: 29aa 663b f4bc b6bc 73e5 2a3d 0769 14bc
000003d0: 1dac b6bb 1001 993c 30b4 0cbd 9f67 013c
000003e0: 16a6 a93c 2609 d8bc 3430 953c 36f7 9abc
000003f0: 60c6 4b3b 41c6 a43a a903 3b3d 4dde b93c

model.backbone.W_P.weight f4 [16, 24]
-0.14664556 0.007879239 0.099585995 0.08829574 0.029746376 -0.1353839 -0.18373951 0.18822505
-0.084529415 -0.16506289 0.121728204 -0.20235863 0.12383245 -0.16025986 0.09358076 -0.0626425
-0.00036778534 -0.08922865 0.1105444 0.09411096 0.12367365 -0.074500576 0.21058482 0.01638761
-0.046276208 -0.18157573 0.14438008 -0.17119879 -0.12353441 -0.05893562 0.08354282 0.08711462
0.14025766 0.013972406 0.10386974 0.13629581 -0.19613887 -0.17556342 -0.2016768 -0.14969015
0.096998 0.17527388 0.062920496 -0.1676921 0.0873344 0.1034774 0.16802014 -0.19963688
-0.026388714 -0.1022982 0.179742 0.11605246 0.029193062 0.019282106 0.09463783 -0.14918546
-0.0075288718 -0.13795982 0.087131925 0.07802734 -0.16054143 0.0065747197 0.10715697 0.113179676
0.2024478 -0.16859224 -0.046274588 -0.063147046 -0.15559755 -0.19467601 -0.16666248 0.06819211
-0.17684744 -0.096002966 -0.13924049 -0.16135211 0.17990176 -0.027147908 -0.07396236 0.18178895
-0.12128121 -0.08815681 -0.06795945 -0.14068025 -0.10591862 -0.061788924 0.00025913172 -0.13575204
-0.022971297 0.18676089 -0.009072594 -0.03612717 -0.21281388 -0.16189688 0.08962387 0.10582841
-0.19043793 0.047390018 0.045927763 -0.07634212 0.16345157 0.03444068 -0.15039146 0.17704336
0.10011087 -0.09300994 0.021456245 0.15516585 0.16431195 0.10665814 0.06675836 0.00091379444
0.04572349 -0.13546564 0.015881006 -0.18650593 0.13173516 -0.1275177 -0.12206979 0.17948523
-0.05006339 -0.11812699 -0.14790842 0.10683241 -0.16623016 0.16811423 0.075282685 0.20185545
-0.0670833 -0.16339909 -0.0063861967 0.17534645 -0.08387882 -0.17668884 0.16508988 0.14882103
0.16878638 0.13378505 0.011600316 -0.16173014 -0.140045 -0.10098629 -0.14434299 -0.17751145
0.14931223 0.1466 -0.1371252 -0.01917237 0.1882163 0.09241963 -0.04698913 -0.06132301
0.099748865 -0.08260967 -0.15684524 -0.059834972 0.12596545 -0.084771164 -0.14331174 -0.07568441
-0.077344716 -0.14991869 -0.0043796203 0.101766646 0.1884626 0.058645356 0.16922362 0.094520874
-0.056913324 -0.15915339 -0.057322532 0.09419627 0.038063236 -0.059958212 -0.013742094 0.06409083
-0.033258665 0.14441293 -0.13428432 0.017361922 0.099325 0.1546977 0.020328829 0.006247116
0.16926801 -0.15277928 -0.106894396 -0.12891164 0.18253213 -0.006849441 -0.18463494 0.0004641824
-0.19641487 0.105226725 0.153413 0.079160005 -0.046739835 -0.11756238 0.17343599 -0.038425688
0.07998864 -0.014674463 0.16643202 -0.034693144 0.13196462 -0.14855793 -0.16902569 0.0342698
0.17030628 -0.13368893 0.13394077 0.022927145 -0.18345675 -0.13016085 -0.039964776 0.015413096
0.09578926 0.19061857 0.1880497 -0.16606432 0.115177885 -0.05622664 -0.016123949 0.18545876
-0.0456692 -0.09580674 0.10048146 -0.011194657 0.04300382 0.0035658237 0.17846628 0.15676075
0.06559442 0.024944289 0.06755985 -0.07106198 0.12681085 0.1781857 0.1736475 -0.0977908
-0.092594355 0.1761572 0.1645176 0.12765682 0.17113659 0.19037785 -0.1062699 -0.1591905
0.0010420763 0.12886421 -0.086709626 -0.1200674 -0.19660507 0.03157789 0.025547592 -0.11267856
00000000: 412a 16be ec17 013c bef3 cb3d 66d4 b43d
00000010: acae f33c 14a2 0abe 3626 3cbe 11be 403e
00000020: c21d adbd 3f06 29be a34c f93d 1a37 4fbe
00000030: de9b fd3d 291b 24be 45a7 bf3d b64a 80bd
00000040: 50d3 c0b9 83bd b6bd 1a65 e23d 3fbd c03d
00000050: 9c48 fd3d c293 98bd 8ca3 573e 4f3f 863c
00000060: 1f8c 3dbd fdee 39be 5fd8 133e bc4e 2fbe
00000070: 9cff fcbd 7a66 71bd 7f18 ab3d 2669 b23d
00000080: b49f 0f3e 85ec 643c a9b9 d43d 2191 0b3e
00000090: a1d8 48be e6c6 33be 5d84 4ebe 6048 19be
000000a0: e3a6 c63d ff7a 333e 76dc 803d 7ab7 2bbe
000000b0: 61dc b23d f6eb d33d 790d 2c3e 9c6d 4cbe
000000c0: 252d d8bc b881 d1bd 490e 383e eaac ed3d
000000d0: 4a26 ef3c 82f5 9d3c 7bd1 c13d 13c4 18be
000000e0: c1b4 f6bb 5745 0dbe 3972 b23d cccc 9f3d
000000f0: f964 24be bf70 d73b 1d75 db3d bfca e73d
00000100: 7a4e 4f3e 72a3 2cbe 6c8a 3dbd 3d53 81bd
00000110: f754 1fbe 2659 47be 92a9 2abe 4ea8 8b3d
00000120: 7f17 35be 349d c4bd 0f95 0ebe 7d39 25be
00000130: 2b38 383e 4a65 debc 9479 97bd e226 3a3e
00000140: 4862 f8bd 8f8b b4bd 532e 8bbd 7c0e 10be
00000150: ddeb d8bd 6216 7dbd 12dc 8739 9502 0bbe
00000160: 4d2e bcbc 3f3e 3f3e 38a5 14bc 15fa 13bd
00000170: e2eb 59be 4cc8 25be b88c b73d 91bc d83d
00000180: 2902 43be 091c 423d c01e 3c3d 4259 9cbd
00000190: d95f 273e ac11 0d3d 3800 1abe db4a 353e
000001a0: ee06 cd3d ff7b bebd 02c5 af3c cce3 1e3e
000001b0: 6441 283e 956f da3d 9bb8 883d b58b 6f3a
000001c0: 8e48 3b3d 81b7 0abe e218 823c 69fb 3ebe
000001d0: 95e5 063e 0094 02be baff f9bd faca 373e
000001e0: 450f 4dbd 90ec f1bd 4e75 17be f3ca da3d
000001f0: 3d38 2abe 2326 2c3e cf2d 9a3d 32b3 4e3e
00000200: f862 89bd 1752 27be 4d43 d1bb 058e 333e
00000210: a9c8 abbd ebed 34be 520d 293e 8a64 183e
00000220: 56d6 2c3e f3fe 083e 400f 3e3c 969c 25be
00000230: f567 0fbe e6d1 cebd a6ce 13be 90c5 35be
00000240: 4ee5 183e 4f1e 163e 8c6a 0cbe 600f 9dbc
00000250: c6bb 403e 8146 bd3d ad77 40bd d62d 7bbd
00000260: 2249 cc3d 422f a9bd 0a9c 20be 8415 75bd
00000270: 16fd 003e 819c adbd 50c0 12be 6e00 9bbd
00000280: e866 9ebd 4984 19be eb82 8fbb 086b d03d
00000290: 57fc 403e 1d36 703d f548 2d3e 2994 c13d
000002a0: f21d 69bd 1bf9 22be 08cb 6abd f9e9 c03d
000002b0: 32e8 1b3d be96 75bd 8526 61bc 0e42 833d
000002c0: 3d3a 08bd fce0 133e d481 09be 973a 8e3c
000002d0: e86a cb3d 1369 1e3e a588 a63c 9bb4 cc3b
000002e0: 9854 2d3e 2c72 1cbe 73eb dabd 6a01 04be
000002f0: b4e9 3a3e 4771 e0bb f110 3dbe 825d f339
00000300: fb20 49be 1c81 d73d 4c18 1d3e a41e a23d
00000310: 4572 3fbd 8cc4 f0bd 3499 313e 4164 1dbd
00000320: 16d1 a33d 296d 70bc 286d 2a3e 661a 0ebd
00000330: bc21 073e 921f 18be 1215 2dbe 7d5e 0c3d
00000340: c564 2e3e c0e5 08be c527 093e b5d1 bb3c
00000350: 16dc 3bbe e348 05be 1bb2 23bd 3687 7c3c
00000360: 292d c43d 8431 433e 1a90 403e c40c 2abe
00000370: 62e2 eb3d e84d 66bd 5f16 84bc e7e8 3d3e
00000380: a10f 3bbd 5336 c4bd 39c9 cd3d cb69 37bc
00000390: c624 303d 98b0 693b ddbf 363e e485 203e
000003a0: 5e56 863d f757 cc3c d25c 8a3d f288 91bd
000003b0: b4da 013e 5076 363e a6d0 313e 8b46 c8bd
000003c0: 1ca2 bdbd 8e62 343e 4d77 283e 78b8 023e
000003d0: 6e3e 2f3e 69f2 423e 09a4 d9bd d602 23be
000003e0: 4796 883a fbf4 033e d194 b1bd e6e5 f5bd
000003f0: d752 49be d157 013d 2f49 d13c 04c4 e6bd

model.backbone.W_P.bias f4 [16]
-0.08978145 0.012845341 0.052856106 -0.06411833 0.13995837 -0.056363158 0.02805251 -0.14663866
-0.04517035 0.16847576 -0.0008770474 0.09371244 0.030129088 0.15736988 -0.12028808 0.055637162
00000000: 56df b7bd 4475 523c a57f 583d 7950 83bd
00000010: 3f51 0f3e 0edd 66bd 61ce e53c 7228 16be
00000020: 8b04 39bd e984 2c3e a8e9 65ba 4fec bf3d
00000030: 47d1 f63c 9225 213e 9959 f6bd cbe3 633d

model.backbone.encoder.layers.0.self_attn.W_Q.weight f4 [16, 16]
-0.21174882 -0.089665934 0.21912217 0.021287596 0.1452602 -0.054428 0.1365667 0.050215688
-0.16308616 0.23754807 -0.21550366 0.17925242 -0.14711204 0.25666153 0.07847019 0.27078983
0.2267841 0.050329387 0.2198195 -0.14673129 -0.18542725 -0.20398103 -0.15612745 0.13692415
0.12548144 -0.24291956 -0.20509164 0.15563552 0.22285344 0.12908792 0.063518375 -0.107252255
0.030549567 0.15447621 -0.21209005 -0.119791456 0.039074868 -0.25984398 0.010680096 0.02997124
0.069025755 -0.10820058 0.1510195 -0.21383442 -0.23056935 0.06476752 0.12150802 0.01087162
0.1622487 0.11759733 0.16721742 -0.051818732 0.17915608 -0.1839255 -0.15015705 -0.11021001
0.15948285 0.21949483 -0.12697276 0.1359433 -0.13249616 0.07355238 0.18009323 0.08121536
0.0009379007 0.004183686 -0.03568604 -0.24313252 0.05163365 -0.020788744 0.2681671 -0.20603858
0.20797235 0.23890898 -0.2390289 -0.029358903 0.10135667 0.12405997 -0.11821973 -0.17560102
-0.13150293 -0.09646518 0.108294286 -0.023034493 0.102195166 -0.02528206 0.03870622 0.111541726
-0.18285377 -0.11405308 -0.2317846 -0.10778799 -0.18260315 -0.24685225 0.23170511 -0.0955555
0.011605438 -0.15769339 -0.012594182 -0.2461954 -0.038604107 -0.0735369 0.07023168 -0.0070321956
0.13427688 0.022941574 -0.13130204 0.2657111 -0.041656137 0.24215321 -0.21802457 -0.14945269
-0.19116665 -0.15278682 -0.010118022 0.182342 -0.18326986 0.052220166 0.19570583 0.21975377
0.058176342 -0.09186881 -0.23549631 0.054794773 0.13243665 0.031527665 0.101402044 0.20771559
-0.026677663 -0.14786592 -0.024140146 -0.054876823 0.126923 0.12548253 -0.019585721 0.114012614
-0.26136035 -0.19432575 0.016803442 0.043971177 0.19040707 0.006600126 -0.13914126 -0.067734614
-0.20447916 -0.14069878 -0.06843438 0.13857983 0.25163746 0.0710226 -0.20728773 -0.20473696
-0.07576451 -0.19946042 -0.15658571 -0.23353796 0.050293986 0.029438762 -0.028854491 0.03704716
0.008973937 0.045540374 0.02791214 -0.06715922 -0.008541631 -0.21802393 -0.19554086 -0.12280585
0.20809782 0.20087291 -0.17612031 0.09880127 -0.011095686 0.06653598 -0.20718929 -0.2193467
-0.14332351 0.10515333 0.07938331 -0.009489521 -0.09251456 0.019918123 -0.14288233 0.08423546
0.06457549 -0.1293211 0.101362795 -0.07977889 0.06267566 0.08005617 0.24177545 0.14422813
-0.20800026 0.027925016 -0.058069285 -0.18038042 -0.21392062 0.17459187 -0.17241128 0.14439912
0.10425785 -0.08315324 -0.12219396 0.16664833 0.13510716 -0.008942441 -0.10852935 -0.08150533
-0.009896189 -0.21734767 -0.05238406 -0.12969124 -0.19304453 0.11638576 -0.2023611 -0.04843733
0.101172246 0.09756921 -0.002936746 -0.2713976 -0.008859422 -0.18887329 -0.16241203 0.09948236
0.22581868 0.16132748 -0.2442961 -0.13768825 -0.15445887 0.1524228 0.2541084 -0.19378947
-0.16045937 0.2612081 0.12640692 0.009745027 0.21360941 0.17350867 -0.21901357 -0.17353928
0.061859548 0.19489013 0.014229674 -0.02113771 0.17047794 -0.18187934 -0.21385245 0.09884854
-0.101980984 -0.21993104 -0.18351263 -0.07424561 -0.0005134348 0.0066231443 -0.20703237 0.22799845
00000000: afd4 58be c6a2 b7bd 9061 603e 5363 ae3c
00000010: 17bf 143e e5ef 5ebd 24d8 0b3e f7ae 4d3d
00000020: 0f00 27be cd3f 733e feac 5cbe f28d 373e
00000030: 8aa4 16be 2469 833e fbb4 a03d f7a4 8a3e
00000040: 173a 683e 3026 4e3d 5d18 613e ba40 16be
00000050: a4e0 3dbe 67e0 50be e0df 1fbe d835 0c3e
00000060: 357e 003e e8bf 78be 8b03 52be eb5e 1f3e
00000070: b133 643e a02f 043e ec15 823d 12a7 dbbd
00000080: 1643 fa3c 032f 1e3e 222e 59be 3955 f5bd
00000090: f80c 203d 450a 85be 92fb 2e3c 3f86 f53c
000000a0: 605d 8d3d 4498 ddbd dba4 1a3e 69f7 5abe
000000b0: 5f1a 6cbe d5a4 843d 32d9 f83d e11e 323c
000000c0: 8624 263e ded6 f03d 0b3b 2b3e e13f 54bd
000000d0: b174 373e f756 3cbe c5c2 19be c9b5 e1bd
000000e0: 794f 233e 41c3 603e 2605 02be b834 0b3e
000000f0: 13ad 07be a1a2 963d 5c6a 383e 3d54 a63d
00000100: 73dd 753a 4d17 893b 862b 12bd bbf7 78be
00000110: ce7d 533d 284d aabc 334d 893e c7fb 52be
00000120: b4f6 543e 8ea4 743e fec3 74be 1582 f0bc
00000130: 1694 cf3d 2713 fe3d 301d f2bd c1d0 33be
00000140: b4a8 06be 898f c5bd 65c9 dd3d d5b2 bcbc
00000150: b34b d13d 531c cfbc 6a8a 1e3d fd6f e43d
00000160: 053e 3bbe a994 e9bd f158 6dbe f3bf dcbd
00000170: 52fc 3abe d6c6 7cbe 1b44 6d3e 9ab2 c3bd
00000180: bc24 3e3c 607a 21be d457 4ebc a61a 7cbe
00000190: 571f 1ebd 849a 96bd a1d5 8f3d 556e e6bb
000001a0: e17f 093e f8ef bb3c 0b74 06be 490b 883e
000001b0: a09f 2abd 03f7 773e d541 5fbe 200a 19be
000001c0: 31c1 43be 2674 1cbe 0fc6 25bc dcb7 3a3e
000001d0: 18ab 3bbe d0e4 553d 1c67 483e 2207 613e
000001e0: 514a 6e3d b725 bcbd f225 71be 7c70 603d
000001f0: 799d 073e 2723 013d e0ab cf3d 65b3 543e
00000200: 1d8b dabc 2a6a 17be 8ec1 c5bc 85c6 60bd
00000210: 1af8 013e 7e7e 003e 3c72 a0bc 727f e93d
00000220: 06d1 85be 54fd 46be 5fa7 893c 1f1b 343d
00000230: 12fa 423e df45 d83b 0c7b 0ebe 72b8 8abd
00000240: fc62 51be 5713 10be 5327 8cbd dfe7 0d3e
00000250: a0d6 803e 4c74 913d 3c43 54be 91a6 51be
00000260: 6c2a 9bbd 5a3f 4cbe 0158 20be 9324 6fbe
00000270: 1101 4e3d 8f29 f13c 4160 ecbc c3be 173d
00000280: 6b07 133c 8b88 3a3d 00a8 e43c c68a 89bd
00000290: 32f2 0bbc aa41 5fbe dd3b 48be a281 fbbd
000002a0: 9817 553e a1b1 4d3e e258 34be 5258 ca3d
000002b0: aeca 35bc 0444 883d 6e29 54be 6c9c 60be
000002c0: 66c3 12be a15a d73d b893 a23d f079 1bbc
000002d0: 4678 bdbd 552b a33c bf4f 12be a483 ac3d
000002e0: 2840 843d c06c 04be 4c97 cf3d 1d63 a3bd
000002f0: 195c 803d 7df4 a33d fc93 773e 8ab0 133e
00000300: 05fe 54be 01c3 e43c 0fda 6dbd a5b5 38be
00000310: 020e 5bbe 36c8 323e 958c 30be 5ddd 133e
00000320: 2485 d53d 3f4c aabd d440 fabd dca5 2a3e
00000330: 8859 0a3e 5183 12bc a344 debd 44ec a6bd
00000340: a023 22bc 6390 5ebe ab90 56bd c8cd 04be
00000350: 77ad 45be a85b ee3d c037 4fbe 3966 46bd
00000360: 6533 cf3d 5ed2 c73d 6c76 40bb a0f4 8abe
00000370: 1c27 11bc 0068 41be 574f 26be 68bd cb3d
00000380: 033d 673e 0833 253e c228 7abe 26fe 0cbe
00000390: 772a 1ebe b914 1c3e 7f1a 823e bf70 46be
000003a0: 764f 24be 11bd 853e d170 013e 9ba9 1f3c
000003b0: 6dbc 5a3e 42ac 313e 1845 60be 48b4 31be
000003c0: 7060 7d3d 4791 473e 9423 693c fe28 adbc
000003d0: c591 2e3e 943e 3abe 23fc 5abe 1a71 ca3d
000003e0: 68db d0bd 9a35 61be bcea 3bbe 150e 98bd
000003f0: 0798 06ba f606 d93b 4b00 54be 6d78 693e

model.backbone.encoder.layers.0.self_attn.W_Q.bias f4 [16]
0.13148554 0.19105662 -0.14485261 0.22851728 0.07114635 -0.17163002 0.05852157 0.19992952
-0.088301815 0.13993877 -0.17802471 -0.22695583 0.23093647 -0.07123289 -0.1873632 0.13616994
00000000: 25a4 063e 59a4 433e 3e54 14be 6f00 6a3e
00000010: 2db5 913d c8bf 2fbe 50b4 6f3d 53ba 4c3e
00000020: 95d7 b4bd 1c4c 0f3e 1c4c 36be 1c67 68be
00000030: 9c7a 6c3e 8de2 91bd 24dc 3fbe 2270 0b3e

model.backbone.encoder.layers.0.self_attn.W_K.weight f4 [16, 16]
0.12912185 -0.105805226 0.24229121 -0.2315174 0.18183786 0.0048094215 0.2345021 -0.13503943
-0.03217688 -0.23329125 -0.23278564 0.04206094 0.18332104 0.1524249 -0.18002222 0.032027036
-0.09679922 0.01848493 -0.1471481 -0.054430313 0.108229086 0.14284226 -0.006954167 0.10377721
0.15383492 -0.21047232 -0.11006838 0.040350087 -0.13181515 -0.17386124 0.019063467 0.033943143
0.18000141 -0.19769247 -0.09043508 0.078792244 0.14131682 -0.22762139 0.0910499 0.22943534
0.06511781 0.04982316 0.0806269 -0.098912194 0.07935604 0.092446715 0.021290908 -0.10838751
0.17167498 0.11387951 -0.24435809 -0.020896481 -0.16164796 -0.05834478 0.062371105 -0.02503224
0.22951744 0.19416095 -0.033831365 0.243754 -0.06615336 8.246964e-05 -0.11915497 0.112057745
-0.24262923 -0.20620514 -0.15937628 0.1120118 0.029877193 -0.24065211 0.17833538 0.20783874
0.19888803 0.04591647 -0.010065551 -0.17494269 0.08135064 0.25402808 -0.12055405 -0.22274627
-0.1319822 0.10476056 -0.13995674 0.18884821 0.10300312 0.14156014 -0.11279718 -0.10171816
-0.1814552 0.033293974 0.19154269 0.14708713 0.13639471 -0.23775497 0.17533782 0.1186722
0.19574136 -0.19828585 0.20345841 -0.02724511 0.06892069 -0.19614047 0.074156664 0.12076146
-0.017917017 -0.142309 -0.07289692 0.08094429 0.002305998 0.044578798 -0.1125169 0.2471366
0.037191086 -0.16813956 -0.12269144 -0.14490613 0.19455056 -0.19673912 0.19333784 0.12480581
0.05442758 0.054899324 -0.22226557 0.109115206 -0.18063203 0.1946457 -0.21595778 0.19800305
0.23315597 0.10556699 -0.23892933 0.22283906 -0.11536459 0.01504994 0.22925638 -0.048208464
0.09861558 0.063222066 0.18118636 -0.12384152 0.11194272 0.17747316 -0.09071825 0.18251616
0.0074114404 0.2002753 -0.08955418 0.16389273 0.2215659 0.18168198 0.16624267 0.2046436
0.00041345626 0.22542833 0.24104002 -0.0655314 0.17427213 -0.08735278 -0.18962651 -0.22846544
-0.2262567 0.066624686 0.20024224 0.042749193 0.17154053 -0.1866966 -0.014780303 0.17308182
-0.11462404 0.11746523 -0.15310185 0.19278355 -0.1793959 0.14099681 -0.05946932 0.09611857
0.19927618 -0.101267785 -0.23906721 -0.044959303 -0.22555861 0.1411265 0.0731821 -0.0074395137
-0.040612664 -0.024484435 0.22475456 -0.030019278 0.20709382 -0.19014011 -0.25984722 -0.13149545
0.17569765 -0.07273618 -0.08264648 0.053667583 0.22178727 -0.12996522 -0.110271394 0.0692653
0.14165771 0.04328751 -0.2060904 -0.21350352 -0.0070227836 0.08615542 0.030150924 -0.22458275
0.07572388 -0.014439325 0.083702765 -0.16590424 -0.110216506 -0.03270477 0.004280584 0.079252414
-0.12062757 0.061514318 0.15421869 0.015467163 -0.02260009 0.20776705 0.19669224 0.21652603
-0.11220023 0.17203751 0.07550644 0.12541316 0.08622784 -0.023424458 -0.01983427 0.19248901
-0.19191681 -0.2428615 -0.21288167 -0.0430629 -0.13862576 0.08718684 0.15042691 0.099448964
0.055721294 0.008251231 -0.13144037 0.037262816 0.121908925 0.13479526 -0.10805478 0.07799334
-0.22885393 0.19684193 0.117411986 -0.020095685 -0.15749569 0.17879274 -0.21625584 0.17819737
00000000: 8538 043e 69b0 d8bd 301b 783e e612 6dbe
00000010: b433 3a3e 5a98 9d3b 5221 703e c747 0abe
00000020: e7cb 03bd e7e3 6ebe 5c5f 6ebe 1848 2c3d
00000030: 83b8 3b3e 4615 1c3e bf57 38be c82e 033d
00000040: ab3e c6bd b56d 973c fead 16be 52f2 5ebd
00000050: 36a7 dd3d 3e45 123e c8df e3bb 2589 d43d
00000060: e786 1d3e 0e86 57be 886b e1bd 2246 253d
00000070: 8dfa 06be ae08 32be fd2a 9c3c f707 0b3d
00000080: 4a52 383e e56f 4abe 0736 b9bd d45d a13d
00000090: 5bb5 103e 9515 69be 5f78 ba3d 19f1 6a3e
000000a0: 7d5c 853d 5f13 4c3d b71f a53d 7a92 cabd
000000b0: 6b85 a23d b454 bd3d 456a ae3c 45fa ddbd
000000c0: 91cb 2f3e a939 e93d 0239 7abe 192f abbc
000000d0: 0b87 25be f0fa 6ebd d878 7f3d 6a10 cdbc
000000e0: 9f06 6b3e 21d2 463e c292 0abd a69a 793e
000000f0: 6a7b 87bd 8df3 ac38 8507 f4bd 887e e53d
00000100: cc73 78be 7127 53be 8933 23be 7166 e53d
00000110: 04c1 f43c 826d 76be 8d9d 363e aed3 543e
00000120: 4ea9 4b3e e912 3c3d fbe9 24bc 2d24 33be
00000130: 2a9b a63d f80f 823e 0be5 f6bd 9917 64be
00000140: 5826 07be b48c d63d d250 0fbe 6d61 413e
00000150: 4df3 d23d 24f5 103e 3502 e7bd 9c51 d0bd
00000160: 64cf 39be 435f 083d c423 443e 029e 163e
00000170: 0eab 0b3e 0a76 73be c28b 333e 690a f33d
00000180: 6c70 483e 720b 4bbe 6757 503e 2331 dfbc
00000190: 4a26 8d3d 0cd9 48be 73df 973d c951 f73d
000001a0: b5c6 92bc 73b9 11be fb4a 95bd 1fc6 a53d
000001b0: 3a20 173b 4298 363d 436f e6bd 6011 7d3e
000001c0: ae55 183d c72c 2cbe a645 fbbd 4662 14be
000001d0: 4338 473e fb75 49be 5bfa 453e 309a ff3d
000001e0: 74ef 5e3d 1dde 603d 9699 63be cb77 df3d
000001f0: 9af7 38be 3451 473e 0924 5dbe 50c1 4a3e
00000200: 70c0 6e3e 8233 d83d e4a9 74be ec2f 643e
00000210: 4544 ecbd 0694 763c 2fc2 6a3e 3d76 45bd
00000220: f7f6 c93d 927a 813d eb88 393e 9fa0 fdbd
00000230: 3a42 e53d 86bb 353e 7dca b9bd 84e5 3a3e
00000240: abdb f23b f814 4d3e 2f68 b7bd 7fd3 273e
00000250: 2ce2 623e d70a 3a3e 853b 2a3e 188e 513e
00000260: 29c5 d839 afd6 663e 32d3 763e 5435 86bd
00000270: 6574 323e 04e6 b2bd 742d 42be d8f2 69be
00000280: d6af 67be 8672 883d 4d0c 4d3e c719 2f3d
00000290: 52a8 2f3e 652d 3fbe 1629 72bc 5c3c 313e
000002a0: 02c0 eabd 9c91 f03d bbc6 1cbe 0d69 453e
000002b0: 8fb3 37be 7861 103e 1a96 73bd d0d9 c43d
000002c0: 0e0f 4c3e 7c65 cfbd 09ce 74be 3f27 38bd
000002d0: d6f8 66be 7783 103e 7fe0 953d 2ac7 f3bb
000002e0: 7759 26bd 9593 c8bc 0f26 663e fdea f5bc
000002f0: 6710 543e 17b4 42be b20a 85be bea6 06be
00000300: 16ea 333e b5f6 94bd 8f42 a9bd 8ad2 5b3d
00000310: 341c 633e 9a15 05be f8d5 e1bd f7da 8d3d
00000320: b80e 113e 3e4e 313d 5d09 53be aba0 5abe
00000330: 611f e6bb 4172 b03d 12ff f63c 05f9 65be
00000340: 1f15 9b3d eb92 6cbc 5b6c ab3d cde2 29be
00000350: 31b9 e1bd 70f5 05bd 2444 8c3b 174f a23d
00000360: 960b f7bd 70f6 7b3d 81eb 1d3e fc69 7d3c
00000370: d323 b9bc e3c0 543e b169 493e 00b9 5d3e
00000380: 3cc9 e5bd 9a2a 303e 1fa3 9a3d 4f6c 003e
00000390: 3998 b03d a6e4 bfbc 7b7b a2bc d71b 453e
000003a0: d785 44be afb0 78be a7fd 59be b962 30bd
000003b0: e9f3 0dbe 048f b23d 8309 1a3e e6ab cb3d
000003c0: 033c 643d 2c30 073c 4e98 06be e5a0 183d
000003d0: 63ab f93d c507 0a3e d34b ddbd f9ba 9f3d
000003e0: af58 6abe ee90 493e b275 f03d b59f a4bc
000003f0: 8d46 21be 7215 373e 2c72 5dbe 5f79 363e

model.backbone.encoder.layers.0.self_attn.W_K.bias f4 [16]
-0.06674015 0.098809704 -0.15845512 -0.0063412962 0.03955525 0.22006918 -0.11037023 -0.20371705
-0.057108644 -0.09527788 -0.13823345 -0.06481558 -0.11481768 0.11961506 -0.06480785 0.10018031
00000000: 0faf 88bd be5c ca3d 0f42 22be a6ca cfbb
00000010: b004 223d d159 613e ca09 e2bd 349b 50be
00000020: c1ea 69bd 0d21 c3bd 128d 0dbe 08be 84bd
00000030: 8825 ebbd bef8 f43d fab9 84bd 562b cd3d

model.backbone.encoder.layers.0.self_attn.W_V.weight f4 [16, 16]
0.13636482 0.072114624 -0.13008136 -0.08833512 -0.008147712 -0.020223394 0.236915 0.23889728
-0.22811198 0.009365605 -0.12744099 0.14606805 -0.19531614 -0.06124699 0.18671927 -0.1720786
0.172962 -0.1556392 0.23823504 0.07539835 -0.04396825 0.0120920995 0.10283452 -0.14266956
0.21636035 0.14766106 -0.19951794 0.07882877 0.23111168 -0.095612176 0.24133018 -0.13615985
-0.22309087 -0.2019223 0.10973267 0.21209052 0.16476393 -0.018559713 0.18039282 0.07624938
-0.16837291 0.0662472 -0.018420987 0.14294535 0.24296233 -0.035974417 0.10155835 -0.21158686
-0.0326532 -0.1062916 -0.013408814 -0.16554263 0.05213298 0.1616995 -0.19879588 0.22370142
0.08863158 -0.120769046 0.0035208152 -0.1572432 0.231917 -0.19907843 0.24038853 -0.122841746
0.06887983 -0.15880448 0.037276044 0.08598689 0.01262458 0.10611689 -0.11470664 -0.11466971
-0.19586489 -0.19696417 -0.07068588 0.019830765 -0.011153688 -0.055873703 -0.20414492 -0.011441495
0.16803724 -0.10561959 -0.16774222 0.0458334 -0.14119664 -0.048590727 0.041692365 0.02234594
0.22809555 0.13330364 -0.2083889 0.04583912 0.02388926 0.080433935 0.1341319 0.17814274
-0.124979295 0.16594462 0.07742662 0.010788253 0.11449714 0.16005927 -0.16223367 -0.13945003
0.11890763 0.20666127 -0.11044266 -0.1499197 -0.22043246 -0.09234993 -0.008639744 -0.1529167
-0.053162076 -0.06357322 0.036914695 0.13757445 0.18827964 0.111952566 -0.21866132 0.112774804
0.027147232 0.20065759 -0.017141568 0.04406375 -0.2000903 -0.09602325 -0.1534031 -0.14830935
0.055009518 -0.05164988 0.17476586 0.056300465 -0.21397059 -0.018212086 -0.16533142 -0.19218658
-0.07575149 -0.030453727 -0.02570784 -0.17193568 -0.1893071 0.055945717 -0.13735606 -0.14470655
-0.17276716 -0.22954972 -0.03596593 0.15371983 -0.09521017 -0.06315977 -0.09449428 -0.044969585
-0.24502929 -0.23115002 -0.18373816 0.0033006307 -0.17427735 0.079691514 -0.05975796 0.19354565
0.10015148 0.05243101 -0.09135129 -0.23314665 -0.18248034 -0.23011854 0.17478654 -0.121988446
0.05245591 0.21740715 0.20306137 0.092260316 0.1652184 -0.19904904 -0.08718178 -0.20038952
0.16437441 -0.017133638 0.18716832 0.098425984 0.10486676 -0.26251656 0.12936644 0.10058669
-0.26234937 -0.18906364 -0.08380255 -0.004602222 0.17352305 -0.17489944 -0.24222125 -0.10776371
-0.094586894 -0.16683865 -0.057178654 0.103773005 0.19499888 -0.13230637 -0.06285708 -0.14747328
-0.18827988 0.22452961 -0.09522632 -0.23362401 0.09475576 -0.04204314 -0.114014655 -0.12919495
-0.19463463 -0.14648354 -0.2576729 0.13513614 0.13087232 -0.18698889 0.091048025 0.22721207
-0.14431037 -0.22880429 -0.24466296 -0.060216952 0.214847 -0.07055785 0.2536963 0.18735892
0.10378157 0.05504537 -0.022765946 0.08666957 -0.22535677 -0.21993205 0.050673537 -0.085795514
-0.1743327 -0.06638516 0.14484514 0.1689935 0.106047116 0.0017802976 -0.122167274 0.2326104
0.12637961 -0.075105414 0.0129445335 -0.023178134 -0.039486315 0.22951284 0.1413793 0.25240242
-0.037923884 0.025510298 0.100932166 -0.15897273 0.24739857 -0.119415745 -0.08087712 -0.029596943
00000000: 38a3 0b3e d5b0 933d 0c34 05be 0be9 b4bd
00000010: fb7d 05bc 88ab a5bc d999 723e 7da1 743e
00000020: 3096 69be 3272 193c e47f 02be dd92 153e
00000030: f400 48be 20de 7abd 5633 3f3e 5f35 30be
00000040: f31c 313e e25f 1fbe e3f3 733e 736a 9a3d
00000050: 0d18 34bd f11d 463c e89a d23d f817 12be
00000060: 918d 5d3e 7634 173e 6e4e 4cbe fa70 a13d
00000070: 8aa8 6c3e 51d0 c3bd 421f 773e 7d6d 0bbe
00000080: ef71 64be b8c4 4ebe 86bb e03d 422e 593e
00000090: e0b7 283e 8a0a 98bc e5b8 383e a328 9c3d
000000a0: f369 2cbe 9dac 873d 9ce7 96bc 4460 123e
000000b0: 1ecb 783e e959 13bd d3fd cf3d 3aaa 58be
000000c0: 5dbf 05bd 69af d9bd a4b0 5bbc 0284 29be
000000d0: 6489 553d 8e94 253e 2691 4bbe fc11 653e
000000e0: 7984 b53d c355 f7bd 7abd 663b 5d04 21be
000000f0: a67b 6d3e 37db 4bbe 6928 763e 7494 fbbd
00000100: de10 8d3d a49d 22be c4ae 183d e519 b03d
00000110: 54d7 4e3c d053 d93d 51eb eabd f4d7 eabd
00000120: ce90 48be fab0 49be c2c3 90bd 2174 a23c
00000130: f5bd 36bc d3db 64bd 5e0b 51be 1c75 3bbc
00000140: f411 2c3e 154f d8bd 9ec4 2bbe cebb 3b3d
00000150: da95 10be 1207 47bd 9dc5 2a3d d50e b73c
00000160: e191 693e c080 083e e663 55be cdc1 3b3d
00000170: 69b3 c33c 8cba a43d df59 093e 0d6b 363e
00000180: 25f5 ffbd 63ed 293e d991 9e3d 36c1 303c
00000190: 7a7d ea3d 94e6 233e 9520 26be fdcb 0ebe
000001a0: d885 f33d 039f 533e c32f e2bd 8d84 19be
000001b0: 0cb9 61be f621 bdbd b68d 0dbc 3296 1cbe
000001c0: 7ac0 59bd ad32 82bd dd33 173d 51e0 0c3e
000001d0: 61cc 403e 6347 e53d c1e8 5fbe 7af6 e63d
000001e0: df63 de3c 2f79 4d3e 796c 8cbc 317c 343d
000001f0: 79e4 4cbe d6a7 c4bd b415 1dbe 68de 17be
00000200: a951 613d d38e 53bd d2f5 323e 519b 663d
00000210: 1b1b 5bbe 8331 95bc a44c 29be 8fcc 44be
00000220: 9923 9bbd 187a f9bc 4099 d2bc e80f 30be
00000230: b8d9 41be 5627 653d 11a7 0cbe f42d 14be
00000240: e0e9 30be 150f 6bbe 0351 13bd bb68 1d3e
00000250: 8dfd c2bd e959 81bd 3886 c1bd 0732 38bd
00000260: f5e8 7abe 97b2 6cbe db25 3cbe 654f 583b
00000270: c375 32be 4e35 a33d c3c4 74bd d530 463e
00000280: 381c cd3d e6c1 563d 6316 bbbd ffbd 6ebe
00000290: 20dc 3abe 32a4 6bbe 3efb 323e 14d5 f9bd
000002a0: 02dc 563d fb9f 5e3e 52ef 4f3e faf2 bc3d
000002b0: 032f 293e 83d3 4bbe 5c8c b2bd e932 4dbe
000002c0: c451 283e d85b 8cbc 0da9 3f3e 9093 c93d
000002d0: 62c4 d63d 9268 86be a378 043e 6500 ce3d
000002e0: a852 86be e699 41be aca0 abbd 3cce 96bb
000002f0: 07b0 313e d718 33be d908 78be 38b3 dcbd
00000300: c6b6 c1bd c0d7 2abe 2a34 6abd f186 d43d
00000310: c9ad 473e 527b 07be 36bb 80bd 3c03 17be
00000320: 71cc 40be 17eb 653e 0406 c3bd 223b 6fbe
00000330: 4f0f c23d 6d35 2cbd 8480 e9bd ae4b 04be
00000340: 4d4e 47be c8ff 15be b4ed 83be 2161 0a3e
00000350: 6503 063e 047a 3fbe 6377 ba3d 48aa 683e
00000360: 19c6 13be ac4b 6abe ed88 7abe 0da6 76bd
00000370: da00 5c3e a280 90bd 7be4 813e 04db 3f3e
00000380: 6f8b d43d 4177 613d a67f babc d17f b13d
00000390: edc3 66be de35 61be 0e8f 4f3d 8fb5 afbd
000003a0: 4584 32be f1f4 87bd 4952 143e a20c 2d3e
000003b0: 3b2f d93d e058 e93a d632 fabd 6c31 6e3e
000003c0: a869 013e ded0 99bd 4f15 543c 12e0 bdbc
000003d0: 67bc 21bd 6a05 6b3e bcc5 103e e43a 813e
000003e0: 1356 1bbd f9fa d03c 86b5 ce3d bfc9 22be
000003f0: 0d56 7d3e 3e90 f4bd e7a2 a5bd 4a75 f2bc

model.backbone.encoder.layers.0.self_attn.W_V.bias f4 [16]
-0.05820412 -0.048244614 -0.073005795 0.14293358 0.06278132 0.16261478 0.08469682 -0.19764218
-0.048834257 0.080241166 -0.14979187 -0.14807415 0.25488228 0.18842271 -0.124719046 0.167062
00000000: 7167 6ebd 259c 45bd 1084 95bd 2e5d 123e
00000010: 7e93 803d 7d84 263e 8775 ad3d b662 4abe
00000020: 6e06 48bd 7b55 a43d 0a63 19be c0a0 17be
00000030: ee7f 823e e2f1 403e b36c ffbd 4d12 2b3e

model.backbone.encoder.layers.0.self_attn.to_out.0.weight f4 [16, 16]
-0.15322138 0.04020281 0.12669554 0.112004615 -0.017574375 0.21701516 -0.11441518 -0.26148868
0.23048232 0.19467011 0.20283106 0.107566826 0.10517329 0.12218377 -0.09810817 -0.18931971
-0.02549879 -0.20728287 -0.085445836 0.055872895 -0.0629746 -0.122526854 -0.07869871 -0.087677345
0.19903927 -0.15088777 0.016315239 0.022623817 -0.05857964 0.056772657 0.2586286 -0.17721786
-0.17326206 -0.23650566 0.0065244464 -0.1993631 0.17315216 0.106215134 -0.12657298 0.12953131
-0.21629126 0.10913556 0.21143797 -0.19913577 0.17764665 -0.18877038 0.0045281798 0.2424087
-0.18602186 0.18774304 -0.041155025 -0.20616135 0.12290261 0.20379595 0.121368475 0.22834696
-0.08895137 0.14727122 -0.19657126 -0.17478766 0.018314175 0.10253403 0.15566185 0.12854978
-0.15310872 0.04615759 0.007254343 -0.14351878 -0.17321941 0.04363329 0.111022934 0.058976427
0.15945584 0.09340099 -0.19359337 -0.1727504 0.2140858 0.020104641 0.19789895 -0.20473342
0.20321892 -0.10965028 -0.011407139 0.241464 0.044581067 -0.089821324 0.032901533 -0.104005545
-0.09792474 -0.19074094 0.14510038 -0.13794093 -0.075782634 0.20313917 0.1094951 -0.20494503
-0.1472871 -0.24012184 0.18832946 -0.23332067 0.03963133 -0.20195764 -0.015871549 0.100008026
0.10312668 0.18072328 0.13251087 -0.2554371 -0.16480538 0.060080927 -0.14582661 -0.022084571
-0.17466082 0.11212348 0.19892518 -0.21874385 0.07798145 0.047335256 -0.17144078 -0.12944593
-0.1506776 -0.08032381 -0.11088813 -0.21377668 -0.037873503 -0.043476418 0.13508047 0.16628546
0.15740962 0.075723134 -0.23381443 -0.17393252 -0.119579844 0.13551141 -0.22133084 0.20909055
-0.08378817 -0.15062796 0.18627994 0.14638636 -0.080346145 -0.10861598 -0.12758884 -0.06712393
0.05786512 0.029612575 -0.031235928 0.020331046 -0.12688082 0.061887767 -0.23645307 -0.057163965
-0.2434005 -0.09982131 -0.071358874 -0.007988926 0.17638364 -0.24253966 0.087541744 0.19024682
-0.23537473 0.056195494 0.06951859 -0.22315654 0.22908744 0.22520658 -0.117424965 -0.18181981
0.12686102 -0.17571007 -0.18191707 0.09744119 0.051471893 -0.008409127 0.20454669 0.18272564
0.06862204 0.0820435 -0.2309205 -0.02866854 -0.15439022 0.064369686 -0.2165209 -0.025296465
-0.12481734 -0.15986277 -0.25893226 0.13371521 0.14194854 -0.18702121 0.041586 -0.18542992
-0.24510662 -0.19037373 0.17674252 -0.23452401 -0.027565636 0.20282958 -0.04268135 -0.14776443
-0.015487206 0.09845082 -0.12863927 -0.15777847 0.18876432 -0.15718955 -0.0540787 0.0066963653
-0.021958638 0.13541315 0.0814035 -0.11086978 0.18499805 -0.042636137 -0.14898 -0.09287455
-0.17441982 -0.07199579 0.07675889 0.12640029 0.19965068 0.020142768 0.009905849 0.05889862
-0.056198027 -0.030000666 0.07021358 -0.1925079 -0.12928334 -0.09076304 0.1354516 0.049299113
0.069348626 0.1062717 0.15337475 0.0635582 -0.057139233 -0.0775564 0.029000957 -0.012989922
-0.03316836 -0.17187345 -0.026303036 0.10214679 0.21357721 0.11102624 -0.069162235 0.07618749
0.23379727 -0.22679856 0.12331919 -0.24707858 -0.17707701 -0.15119329 -0.16293168 -0.2353918
00000000: 11e6 1cbe b4ab 243d 7abc 013e ad62 e53d
00000010: 23f8 8fbc 3939 5e3e 8252 eabd d8e1 85be
00000020: 8f03 6c3e 9a57 473e f2b2 4f3e ff4b dc3d
00000030: 1865 d73d 7c3b fa3d f0ec c8bd 07dd 41be
00000040: d7e2 d0bc f641 54be 3afe aebd fada 643d
00000050: d4f8 80bd 5cef fabd ca2c a1bd 2e90 b3bd
00000060: f3d0 4b3e 5382 1abe 89a7 853c 9555 b93c
00000070: 34f1 6fbd 728a 683d f86a 843e 9978 35be
00000080: 9c6b 31be 8a2e 72be 06cb d53b d725 4cbe
00000090: cd4e 313e 5287 d93d 599c 01be dba3 043e
000000a0: 757b 5dbe 7782 df3d 3283 583e 3fea 4bbe
000000b0: 01e9 353e 064d 41be 2061 943b fc39 783e
000000c0: 847c 3ebe b63f 403e 2c92 28bd f61b 53be
000000d0: 5db4 fb3d e3af 503e 0990 f83d c9d3 693e
000000e0: 232c b6bd 44ce 163e fa49 49be 89fb 32be
000000f0: 9c07 963c 5dfd d13d d265 1f3e 8ea2 033e
00000100: 88c8 1cbe be0f 3d3d d7b5 ed3b 96f6 12be
00000110: 6e60 31be d2b8 323d fe5f e33d 4491 713d
00000120: 6448 233e 0549 bf3d 573d 46be 7be5 30be
00000130: 4f39 5b3e 7db2 a43c 06a6 4a3e a3a5 51be
00000140: 9f18 503e 5390 e0bd 02e5 3abc 5742 773e
00000150: a39a 363d 3ef4 b7bd c2c3 063d dc00 d5bd
00000160: c48c c8bd 9851 43be 3295 143e 6340 0dbe
00000170: ed33 9bbd b703 503e f83e e03d 1cdd 51be
00000180: 6ed2 16be 80e2 75be 70d9 403e 9deb 6ebe
00000190: 7654 223d fccd 4ebe 0d05 82bc 02d1 cc3d
000001a0: 1534 d33d 860f 393e eeb0 073e a7c8 82be
000001b0: bec2 28be 6b17 763d 9253 15be b4ea b4bc
000001c0: 49da 32be ffa0 e53d 0bb3 4b3e 63fe 5fbe
000001d0: bdb4 9f3d 9de2 413d 2c8e 2fbe 798d 04be
000001e0: 3b4b 1abe cf80 a4bd 5119 e3bd 46e8 5abe
000001f0: 3f21 1bbd 5414 32bd 8952 0a3e bc46 2a3e
00000200: fd2f 213e bb14 9b3d 0d6d 6fbe 5e1b 32be
00000210: 47e6 f4bd 81c3 0a3e 8da4 62be d51b 563e
00000220: 2299 abbd 373e 1abe 2bc0 3e3e 4ee6 153e
00000230: 858c a4bd 0e72 debd a6a6 02be 4578 89bd
00000240: fa03 6d3d 1296 f23c 7de2 ffbc 4b8d a63c
00000250: 0ced 01be 077e 7d3d c120 72be c324 6abd
00000260: fb3d 79be 1d6f ccbd 9a24 92bd fce3 02bc
00000270: ea9d 343e 515c 78be 1649 b33d 10d0 423e
00000280: 1306 71be 3f2d 663d c35f 8e3d 2683 64be
00000290: e695 6a3e 8e9c 663e 807c f0bd f92e 3abe
000002a0: dbe7 013e 57ed 33be 7848 3abe 3f8f c73d
000002b0: 31d4 523d 6fc6 09bc b074 513e 6e1c 3b3e
000002c0: b689 8c3d 6c06 a83d 6c76 6cbe 49da eabc
000002d0: 7818 1ebe 41d4 833d a8b7 5dbe 883a cfbc
000002e0: 3ca0 ffbd 11b3 23be c592 84be a4ec 083e
000002f0: f55a 113e 7d82 3fbe 1556 2a3d 57e1 3dbe
00000300: 3bfd 7abe 55f1 42be fefb 343e 1027 70be
00000310: 54d1 e1bc 8fb2 4f3e a4d2 2ebd 8f4f 17be
00000320: 0dbe 7dbc 95a0 c93d 03ba 03be ae90 21be
00000330: 6f4b 413e 4cf6 20be a081 5dbd 2f6d db3b
00000340: 9ae2 b3bc bfa9 0a3e e1b6 a63d b20f e3bd
00000350: 2170 3d3e 3ba3 2ebd 378e 18be 0335 bebd
00000360: 1c9b 32be 8772 93bd c433 9d3d 146f 013e
00000370: 3a71 4c3e 7202 a53c 244c 223c ae3f 713d
00000380: e72f 66bd f5c3 f5bc 23cc 8f3d ca20 45be
00000390: da62 04be f9e1 b9bd d3b3 0a3e deed 493d
000003a0: a706 8e3d faa4 d93d 450e 1d3e cd2a 823d
000003b0: d40a 6abd e4d5 9ebd 6a93 ed3c afd3 54bc
000003c0: 8cdb 07bd 98ff 2fbe 7779 d7bc 5632 d13d
000003d0: fcb3 5a3e ba61 e33d eea4 8dbd 3008 9c3d
000003e0: 8d68 6f3e e23d 68be c68e fc3d 2b02 7dbe
000003f0: ad53 35be 6ad2 1abe 90d7 26be 8c0a 71be

model.backbone.encoder.layers.0.self_attn.to_out.0.bias f4 [16]
-0.19063614 0.061054084 -0.109768026 -0.08040909 -0.15399808 0.18159781 0.0072920932 0.074318334
0.09926412 -0.044804025 0.22695859 -0.006985672 -0.2034418 -0.23616333 0.11286273 0.21933122
00000000: 1f36 43be d913 7a3d 0fce e0bd 85ad a4bd
00000010: acb1 1dbe c7f4 393e 83f2 ee3b 3634 983d
00000020: fd4a cb3d 6d84 37bd d567 683e 10e8 e4bb
00000030: 0c53 50be cdd4 71be 9324 e73d 5d98 603e

model.backbone.encoder.layers.0.norm_attn.1.weight f4 [16]
1.0053552 1.0056561 1.0079787 0.9842921 0.98745537 1.028987 1.0312548 0.994888
1.0194736 0.9893986 0.98370236 1.0064439 0.9920233 0.9791913 0.9841754 0.9873161
00000000: 7baf 803f 57b9 803f 7205 813f 91fa 7b3f
00000010: e0c9 7c3f d9b5 833f 2800 843f fbb0 7e3f
00000020: 1c7e 823f 3a49 7d3f ebd3 7b3f 27d3 803f
00000030: 3df5 7d3f 48ac 7a3f ebf2 7b3f bfc0 7c3f

model.backbone.encoder.layers.0.norm_attn.1.bias f4 [16]
-0.009564893 -0.0068723746 -0.004528541 -0.011606315 -0.010578567 -0.0025226588 -0.008279717 -0.004750997
-0.011247042 -0.016953506 0.006510655 -0.0031142961 0.011526714 0.009101436 0.0085390415 -0.009029439
00000000: 12b6 1cbc a831 e1bb 2864 94bb 6a28 3ebc
00000010: ba51 2dbc 3153 25bb a6a7 07bc 40ae 9bbb
00000020: 8345 38bc 14e2 8abc 5557 d53b 3819 4cbb
00000030: 8bda 3c3c 301e 153c 56e7 0b3c 36f0 13bc

model.backbone.encoder.layers.0.norm_attn.1.running_mean f4 [16]
-0.20209086 -0.0077478345 0.042976614 -0.03555586 0.08978148 0.079359256 -0.0060521676 -0.012476871
-0.08631532 0.17445971 0.28319046 0.08546063 0.0075983186 -0.038297188 -0.07624167 0.20019343
00000000: e8f0 4ebe 8ce1 fdbb 3f08 303d 05a3 11bd
00000010: 5adf b73d 1b87 a23d 4351 c6bb ca6b 4cbc
00000020: 16c6 b0bd 91a5 323e 57fe 903e fc05 af3d
00000030: 51fb f83b 83dd 1cbd 9824 9cbd 82ff 4c3e

model.backbone.encoder.layers.0.norm_attn.1.running_var f4 [16]
0.23096228 0.22159295 0.34111843 0.9363989 0.2930751 0.35992628 0.29221696 0.13968605
0.17344587 1.2193314 0.73412544 0.21999808 0.19314383 0.2478745 0.22936869 0.2665079
00000000: 6081 6c3e 43e9 623e 13a7 ae3e d7b7 6f3f
00000010: f10d 963e 4248 b83e 769d 953e dc09 0f3e
00000020: cb9b 313e 0d13 9c3f a5ef 3b3f 2d47 613e
00000030: 7fc7 453e d0d2 7d3e a0df 6a3e b973 883e

model.backbone.encoder.layers.0.ff.0.weight f4 [128, 16]
0.15619607 -0.06134036 0.2387881 0.1971019 0.123312734 0.14542118 0.05038247 -0.14526491
0.22793742 -0.106547095 -0.1613581 0.12850627 -0.021504369 0.21323599 -0.1209271 -0.031969264
-0.21359795 0.0045260703 0.13091645 -0.19801408 -0.025052086 0.14850578 0.15761097 -0.04273072
-0.11632957 0.00079284195 0.1906987 0.011331091 -0.12016812 -0.07462034 -0.11753854 0.15974873
0.10442115 -0.07498939 0.18571255 0.2179385 0.047212977 -0.21781364 0.2421373 0.013981497
-0.10124309 0.08101348 0.19827452 0.21424954 -0.045790438 0.1991588 0.03423735 -0.01848142
0.10998023 -0.08013668 -0.011644395 0.056779552 0.10269538 0.236959 -0.13231708 -0.06535541
-0.047572922 0.01976782 -0.07186985 0.04409278 -0.13773708 -0.19528915 0.109345764 -0.23605348
-0.16114846 0.07159364 -0.23567876 0.024710912 0.18027185 -0.04645396 -0.23561114 -0.11861596
-0.14361286 -0.07687547 -0.079524375 -0.23145497 -0.06803345 -0.11490729 0.16287002 -0.11404169
0.10708701 -0.030813886 -0.2416776 -0.084733196 -0.21552104 0.15098889 -0.13136107 -0.039733667
-0.069256194 -0.05242271 0.08675788 -0.22307838 -0.028315742 0.017447092 -0.051849935 0.020235127
-0.15840574 0.24364111 -0.1664652 -0.18232366 0.2075981 -0.11660215 0.0339251 0.18174158
0.14992644 0.19277517 -0.15403286 0.03685046 -0.006773346 -0.15116388 0.08993073 -0.11135796
0.1171057 -0.0076250895 0.016457545 -0.08786326 0.23604214 -0.15966645 0.04173414 -0.22122754
-0.21773492 -0.12652141 -0.20746395 0.070597604 -0.08429667 -0.2215237 0.13583776 -0.18752438
0.18082653 -0.17584264 0.1468029 0.14899108 -0.004231011 0.17627029 -0.040152214 0.100834176
-0.08003924 0.10932022 0.16133712 -0.11819761 -0.076037 -0.23937693 -0.13119717 -0.017325351
-0.07804302 -0.15670477 -0.2044195 0.20370068 -0.22581881 -0.19498584 -0.078033 0.18099582
-0.18126293 -0.0921166 -0.15245561 -0.06289406 0.10715688 -0.028929932 -0.10818751 -0.033563323
0.17087105 0.14016184 -0.03981767 0.1800287 -0.16890292 -0.1802811 0.15176488 0.08233563
-0.09799716 -0.030707331 0.0028160755 -0.19959207 -0.118785925 -0.18910383 0.09995621 0.055618715
0.08755688 0.24427865 -0.22174591 -0.10548368 -0.114032194 0.1324876 -0.119933054 0.07059437
0.23970722 -0.014517732 -0.182538 0.08009843 0.14494616 -0.06569197 -0.21859466 0.2080189
0.0006738941 -0.18754457 -0.06024762 0.17393911 -0.049489867 -0.18468036 0.09600326 -0.14066209
0.013438205 0.0358573 -0.18265292 -0.11962473 -0.17210132 0.18536957 -0.009668563 -0.018677836
0.08201454 -0.18055436 -0.13854642 -0.19861016 -0.14368759 -0.028746167 -0.25067964 -0.2270208
0.13618787 -0.16452311 -0.22616379 -0.007964083 -0.23273918 -0.22945893 -0.09060953 -0.07555318
-0.17251188 -0.11036756 0.23220749 0.23262091 0.12779392 -0.07416522 0.08188818 0.111651234
-0.19657399 0.1268761 -0.23278004 -0.10529586 0.17081138 -0.14233029 -0.14579199 0.18260878
0.17339419 0.0033937434 0.21406233 -0.22967802 0.13494252 -0.021239351 0.16854575 0.15680031
-0.20707332 0.16281545 0.0884733 -0.21930571 -0.013617048 0.08890915 0.18650638 -0.12282492
00000000: ddf1 1f3e 0840 7bbd de84 743e 15d5 493e
00000010: 638b fc3d 4ae9 143e d95d 4e3d 53c0 14be
00000020: 6d68 693e 5d35 dabd 0f3b 25be 2697 033e
00000030: ee29 b0bc 895a 5a3e a1a8 f7bd 34f2 02bd
00000040: 6cb9 5abe 6e4f 943b f60e 063e 34c4 4abe
00000050: 083a cdbc e611 183e c564 213e 6806 2fbd
00000060: 333e eebd b9d6 4f3a 8546 433e 0aa6 393c
00000070: b41a f6bd 8cd2 98bd 0cb8 f0bd 2c95 233e
00000080: c2da d53d 0a94 99bd 6e2b 3e3e 452b 5f3e
00000090: 6562 413d 8a0a 5fbe d7f2 773e a612 653c
000000a0: 8a58 cfbd 65ea a53d 7a08 4b3e 3b64 5b3e
000000b0: c18e 3bbd 49f0 4b3e 773c 0c3d 5966 97bc
000000c0: 513d e13d b31e a4bd 22c8 3ebc ad91 683d
000000d0: f551 d23d 61a5 723e 217e 07be 0fd9 85bd
000000e0: d3db 42bd 20f0 a13c 8030 93bd a29a 343d
000000f0: f30a 0dbe e1f9 47be acf0 df3d 01b8 71be
00000100: 1a04 25be b09f 923d c655 71be 8a6e ca3c
00000110: 2f99 383e 8246 3ebd 0c44 71be edec f2bd
00000120: 400f 13be e370 9dbd addd a2bd 8802 6dbe
00000130: 1f55 8bbd 8354 ebbd 66c7 263e b18e e9bd
00000140: 6f50 db3d 676d fcbc 557a 77be 9988 adbd
00000150: 8cb1 5cbe d59c 1a3e 8483 06be c5bf 22bd
00000160: 31d6 8dbd 32b9 56bd 1eae b13d a96e 64be
00000170: 6af6 e7bc 34ed 8e3c 9960 54bd 23c4 a53c
00000180: 1d35 22be 0e7d 793e da75 2abe 0eb3 3abe
00000190: 9994 543e 1ccd eebd 0cf5 0a3d 771a 3a3e
000001a0: 5186 193e db66 453e caba 1dbe 82f0 163d
000001b0: f2f2 ddbb b4ca 1abe 9a2d b83d a40f e4bd
000001c0: 1dd5 ef3d e3db f9bb f9d1 863c a7f1 b3bd
000001d0: 08b5 713e 9a7f 23be 6bf1 2a3d 7989 62be
000001e0: e7f5 5ebe d48e 01be 6e71 54be 7a95 903d
000001f0: bca3 acbd 1cd7 62be 0e19 0b3e 6406 40be
00000200: 972a 393e 1810 34be 8053 163e 1e91 183e
00000210: 4ba4 8abb 3380 343e a676 24bd 2682 ce3d
00000220: 9deb a3bd 48e3 df3d 8f35 253e 9711 f2bd
00000230: 49b9 9bbd 3a1f 75be 8d58 06be e5ed 8dbc
00000240: 05d5 9fbd 3777 20be 5853 51be e996 503e
00000250: 0c3d 67be 5eaa 47be c4cf 9fbd f856 393e
00000260: fd9c 39be a1a7 bcbd 531d 1cbe 9ace 80bd
00000270: 1175 db3d 77fe ecbc 6a91 ddbd b279 09bd
00000280: d2f8 2e3e 9686 0f3e da17 23bd 7259 383e
00000290: e3f4 2cbe 9c9b 38be 4168 1b3e 959f a83d
000002a0: bcb2 c8bd f18d fbbc e88d 383b dd61 4cbe
000002b0: 0946 f3bd 6fa4 41be d7b5 cc3d 73d0 633d
000002c0: 0651 b33d 2f24 7a3e 5c11 63be d407 d8bd
000002d0: b689 e9bd d4aa 073e 769f f5bd c893 903d
000002e0: cf75 753e c8db 6dbc 3eeb 3abe a50a a43d
000002f0: c46c 143e 8389 86bd 47d7 5fbe e802 553e
00000300: 44a8 303a af0b 40be 35c6 76bd 181d 323e
00000310: e3b5 4abd d91c 3dbe 5b9d c43d b909 10be
00000320: eb2b 5c3c 1bdf 123d 5e09 3bbe cffd f4bd
00000330: 543b 30be 85d1 3d3e e468 1ebc 4302 99bc
00000340: 3df7 a73d 3ee3 38be 1ddf 0dbe 7660 4bbe
00000350: d722 13be 157d ebbc 1559 80be 2478 68be
00000360: d574 0b3e bf78 28be 7b97 67be c97b 02bc
00000370: 2e53 6ebe 48f7 6abe 7d91 b9bd a0bb 9abd
00000380: f4a6 30be 6308 e2bd cdc7 6d3e 2d34 6e3e
00000390: 69dc 023e efe3 97bd fdb4 a73d 67a9 e43d
000003a0: b14a 49be cfeb 013e e45d 6ebe 5ba5 d7bd
000003b0: 2ee9 2e3e 08bf 11be 7f4a 15be ccfd 3a3e
000003c0: 3f8e 313e 9169 5e3b 2833 5b3e b730 6bbe
000003d0: 5f2e 0a3e 26fe adbc 4297 2c3e 4390 203e
000003e0: 070b 54be 18b9 263e 7d31 b53d ad91 60be
000003f0: 0a1a 5fbc 0016 b63d 87fb 3e3e a28b fbbd
