TSF_Finance/checkpoints/ixic_104__PatchTST_custom_ftM_sl104_ll48_pl36_dm16_nh4_el3_dl1_df128_fc1_ebtimeF_dtTrue_Exp_0/checkpoint.pth (torch_old, 184730 bytes, 65 tensors)

model.backbone.W_pos f4 [42, 16]
00000000: 9032 4d3d 76c8 edbc 2d82 0ebc 4e9e 033c
00000010: 7c4b 3cbd 6183 09bb 5532 bdbb e581 0bbc
00000020: 4366 02bc 259f 8e3c cf5c f73c 72e0 8ebd
00000030: 6331 59bd 09c0 413b d219 283d 5634 18bd
00000040: 6e14 603d fdc6 cf3d f163 583d 18f5 5d3d
00000050: 5916 96bc c68e 51ba 80a4 413c f70d ff3c
00000060: 92d6 023d 26b9 a83c b66c 5d3d 79e9 65bd
00000070: be2b eabc a26b 9d3d e913 a9bd 7838 88bd
00000080: 48e5 0abd ad39 133d 3d40 debc 544f 3bbd
00000090: 367e 0abd d100 043d 2ae2 89bd a3a9 73bd
000000a0: 68d2 253d be24 90bc 697e 583d bd22 093d
000000b0: 440e 7cbd a1b1 983d 0856 4d3c d310 bebc
000000c0: e4e7 86bd cc6a bf3d ad50 953d 2ad6 dd3c
000000d0: 7a74 123c 72d6 b03d 7019 c9bd 741d d5bd
000000e0: 0f2a 613d d6ca 43bd f967 f3bc a2f8 21bd
000000f0: 455d 8a3d c373 9a3d fff2 ae3c 2136 abbd
00000100: c680 77bd d99c 233d c082 58bd b17f b73c
00000110: b1e1 e23c 6ba8 a83d 6685 86bd a14f 153d
00000120: 7817 edba 9db7 443b 5807 853d db92 753d
00000130: d65b 4fbd 3190 ce3d 2755 a83c 1e03 81bd
00000140: 19a1 b7bc 0a99 65bd de66 0b3d 3e28 353d
00000150: f257 803c 22d8 d63c cceb 913d 9073 313d
00000160: 1f29 993c c594 d0bd e598 a13d a133 0cbb
00000170: 9076 4dbc da04 01bd b292 8ebc 2ef6 80bd
00000180: 2d5e 84bd 6030 87bd 58fb ed3d 9a53 a23c
00000190: 8554 75bd b1dd e13d cd94 8cbc 0b8e 95bd
000001a0: 2292 95bc d7e4 b8bd 51cf 923d e83a 24bd
000001b0: 2c87 3abd 0e22 e3bc 0a04 643d 03b5 70bd
000001c0: 41d7 64bd 5d45 9bbc 0392 943d 100c f33c
000001d0: e3d0 b0bc 852b 643d 8a1d 8bbd af3d 2bbd
000001e0: 24d6 123d bef5 143d e090 733d fdcf 923d
000001f0: 3d9a d9bc 576e e03d 6576 853d 93da 3cbd
00000200: f38f 89bd 0459 2abd 0411 563c ca92 a73d
00000210: 8e99 f6bc 63a4 043d 6140 5dbc 6a72 8dbd
00000220: fddf 70bd 52d9 62bd f4b3 4a3d a11d f7ba
00000230: 2a02 933c 364f 06bd 5328 a9bd 6172 88bd
00000240: 4490 b3bd 8c82 cdbc 7434 4fbd c2e6 d13c
00000250: e0da 873d 228c 403d 354a 873c b997 2cbd
00000260: 9aea 37bd ccb6 8abd 0fd8 b9bc da15 85bd
00000270: c457 2c3d cdd1 d83c 83ed b83c ddc2 543d
00000280: 3bf4 26bd 722c 203d a739 c33c 1d6a 58bd
00000290: aa93 003d 26d3 d03c 59c5 58bd 46f4 863d
000002a0: 48cd 523d 2841 46bd 57b8 5b3d 02eb a6bd
000002b0: 1d5d efbc 46cf 273d eb4c b33d e35b bd3c
000002c0: e3c1 26bd d3d5 653d 8fca 013d 02f5 623c
000002d0: 6473 92bc af8d 7e3d 7642 71bd dd1f ed3c
000002e0: f980 323d 04ee 97bd 7aa4 413d 29cf 45bd
000002f0: be55 1e3d 323b 943d a119 81bb 0945 c53b
00000300: f57c 3a3d e4f1 813d 051b 70bd bb9e 18bd
00000310: 0fb7 493d ad8b 63bd 48f1 3bbd 8773 d23b
00000320: 976a b0bd 5b50 2d3c 5e0f 47bc f58c 143d
00000330: f075 683b 1e57 e9bd b1e2 97bd 74c2 2f3d
00000340: 1630 61bd 9328 02bd 000f 8f3d 65b1 9c3b
00000350: f7f8 7abb 007c 353d 9f31 4cbd e6cf 51bd
00000360: a768 173d 16fc 99bd 1970 693d 1f60 79bd
00000370: 1d50 7cbd 2a72 8e3d 16e8 51bd 68ba 8abd
00000380: c7b2 04bd 9645 c53c 75a5 2f3d 756e 393c
00000390: 2988 053d e906 923d 77b7 8abc 8e59 f2bc
000003a0: 5ac0 ce3d c4d2 34bd 07fb 9d3d 5147 cabc
000003b0: 3bf3 57bd 033a 403d bf1f 513d ccd0 18bd
000003c0: ce11 2c3c aa72 42bb 4e27 ad3d 6ab8 873d
000003d0: ce62 a93c 12c8 753d d988 97bd e257 aebd
000003e0: 7143 243d a1c7 81bd 3b70 913d a4e8 a13d
000003f0: 6a53 04bd aabb dfbb 07c7 963d 14a5 4a3d
0.05009705 -0.029026251 -0.0086980285 0.008033348 -0.045970425 -0.002098285 -0.0057738223 -0.008514856
-0.007958951 0.01740987 0.030195622 -0.06976403 -0.053025614 0.0029563925 0.04104025 -0.037159286
0.054706983 0.10145376 0.052829687 0.054188818 -0.018321203 -0.0007993992 0.011819005 0.031134589
0.03194291 0.020596098 0.054058753 -0.05613086 -0.028585311 0.07686545 -0.08255751 -0.066513956
-0.033910066 0.035943676 -0.02713024 -0.04572995 -0.03381177 0.03222734 -0.067325905 -0.05948795
0.040483862 -0.017595645 0.05285493 0.033480395 -0.061537042 0.07455755 0.0125327185 -0.023201382
-0.065871984 0.09346542 0.07290778 0.02707966 0.008938903 0.08634652 -0.09819305 -0.10406008
0.05497175 -0.04780086 -0.029712664 -0.039543755 0.06756071 0.07541611 0.021356104 -0.08359934
-0.060425542 0.039944503 -0.052859068 0.022399755 0.027695509 0.08235248 -0.065684125 0.036452893
-0.0018088659 0.0030016669 0.06495541 0.059954505 -0.05062469 0.10086096 0.020548416 -0.06299423
-0.022415685 -0.056054153 0.03403365 0.04422783 0.015666936 0.026226107 0.07125053 0.0433231
0.018696366 -0.101846255 0.078904904 -0.0021393078 -0.0125404745 -0.031498767 -0.017403934 -0.06296955
-0.06463275 -0.06601024 0.11620206 0.019815255 -0.059895057 0.110286124 -0.017160797 -0.07302483
-0.018258158 -0.09028023 0.07168449 -0.04009524 -0.045539066 -0.0277262 0.055667914 -0.058766376
-0.055869345 -0.018953973 0.07254412 0.029668838 -0.02158398 0.055705566 -0.067927435 -0.041806873
0.03584875 0.03636717 0.059464335 0.07168577 -0.026562804 0.10958546 0.065167226 -0.046106886
-0.06716909 -0.0415888 0.01306558 0.08182295 -0.030102517 0.032383334 -0.013504119 -0.069065884
-0.058807362 -0.055383034 0.049488023 -0.0018853435 0.017945368 -0.032790385 -0.08259644 -0.06662441
-0.08767751 -0.025086664 -0.050587133 0.02562273 0.06633544 0.04700864 0.016514877 -0.04213688
-0.044901468 -0.06773147 -0.022686033 -0.064983085 0.042075887 0.026467228 0.022574192 0.05194365
-0.04076026 0.039104886 0.023831202 -0.052835573 0.031390823 0.025491308 -0.05292258 0.0658956
0.051465303 -0.04840198 0.053642597 -0.08150293 -0.029219205 0.040969156 0.08754905 0.023115104
-0.04071225 0.05611212 0.031687316 0.01385236 -0.017877288 0.06214684 -0.058901273 0.028945858
0.04358003 -0.07418445 0.047275998 -0.048293266 0.03865599 0.07237853 -0.003939823 0.0060201925
0.045529325 0.06344965 -0.058619518 -0.037260752 0.049246844 -0.055553127 -0.0458844 0.0064224633
-0.086140804 0.01057824 -0.01214966 0.03626724 0.0035470687 -0.113935694 -0.07416285 0.042910054
-0.0549775 -0.031776976 0.06985283 0.0047818893 -0.0038295367 0.04430771 -0.04985201 -0.051223658
0.03696504 -0.07518785 0.05699167 -0.060882684 -0.06159984 0.06955369 -0.051246725 -0.067738354
-0.032397058 0.024081033 0.0428824 0.011317839 0.032600556 0.07130224 -0.016933186 -0.029583719
0.10095282 -0.044146314 0.07713895 -0.02469221 -0.052722197 0.046930324 0.051055666 -0.0373085
0.010502292 -0.0029670396 0.084547624 0.06626971 0.020676997 0.060005255 -0.073991485 -0.08512856
0.04010338 -0.06336904 0.071014844 0.07905701 -0.032306112 -0.006827791 0.0736218 0.049473837

model.backbone.W_P.weight f4 [16, 24]
00000000: fbc4 0fbe a3d2 973c 7d2d cf3d 5f9e b13d
00000010: e572 be3b 27b8 20be 7de1 4cbe 2319 233e
00000020: 716f d3bd ab22 34be 1b1f c03d 3324 54be
00000030: bc15 c73d 5bfe 31be 40f9 aa3d cafb 69bd
00000040: 9266 a33c 8fb1 a8bd 1c95 e83d f81f f03d
00000050: da7e 1b3e 12b7 c7bc 9d21 7c3e 0c00 843d
00000060: 01c3 66bd 74d8 57be ebd9 eb3d 3d6f 4ebe
00000070: db74 24be 8700 babd d1b1 5b3d 51c0 673d
00000080: e27d f23d 5615 78bc 9a14 853d 995b b63d
00000090: 07d3 84be 8498 6bbe 2db0 7abe eac8 40be
000000a0: ce63 9a3d d952 283e e0df 703d 20a0 29be
000000b0: e7ce a73d e274 f73d 89d3 463e 9f50 24be
000000c0: 5171 bbbc 0578 bbbd 1c83 403e 45ca fc3d
000000d0: ea60 343d 68ce cf3c 49e9 d03d 71a1 0abe
000000e0: de6a 28bb 369b 05be adc2 ba3d b898 a93d
000000f0: 70f5 15be b5ad cb3b 11c6 db3d e934 dc3d
00000100: 918f 433e 8757 3cbe 5a12 93bd 2eec c1bd
00000110: 87de 47be 9af7 7bbe 07f1 62be 45db a03c
00000120: b520 12be 863c 88bd 36a4 e6bd 553e f3bd
00000130: 0191 3d3e 5ef8 bbbb f959 d2bd f8c3 283e
00000140: 6906 15be 1566 dfbd 0e28 f2bd a0ba 27be
00000150: 2be3 12be bf30 c8bd eb9c 38bd 1092 1cbe
00000160: f1a8 7bbd 8ac8 2a3e e8c9 48bd b0d7 92bd
00000170: 7fbb 85be 6e74 43be 9160 593d 3eef 8f3d
00000180: 064b 64be 5bb0 eb3b 819a 863c c26a c3bd
00000190: 05a6 203e 3cff 443d d9df 0bbe db0a 4c3e
000001a0: bc7c 0a3e 8f54 85bd b12a 6c3d ccca 383e
000001b0: ff85 4a3e 5c4b 053e 37bb c23d 8b30 803c
000001c0: 0866 873d c71e f3bd b128 003d 790b 2cbe
000001d0: 6ea2 1f3e 3dca e6bd 5977 dbbd d901 363e
000001e0: 4da6 68bd 1bd2 ffbd acb0 20be 06f6 c63d
000001f0: 166d 2abe fbdd 2a3e 59b2 9b3d 2bbf 4e3e
00000200: 8539 6bbd 2a13 17be 7a5a 4a3b 0334 383e
00000210: 8f54 8abd f7b3 2abe 5eab 2a3e 3624 133e
00000220: 1083 283e 7157 053e c562 e93a e53e 45be
00000230: 23a5 35be 4539 20be 54f2 41be 3357 81be
00000240: 2aea 153e 993b 113e 2124 04be 1dc9 2dbc
00000250: 7cd2 383e 4d61 ab3d ef50 48bd d8ed 86bd
00000260: 0b13 d03d 6f0c 9dbd 1cf6 20be 2007 7abd
00000270: 07e8 e03d db33 abbd d2bb 12be a008 9fbd
00000280: 0749 9ebd 5bba 13be 49b6 623c 10ea 083e
00000290: d14d 663e 45fe f83d a3d8 643e aa01 273e
000002a0: e9a3 65bd 4eff 1abe 9ffa 4ebd c6fb c93d
000002b0: a60f 503d dab9 1dbd 714c db3b a73f ad3d
000002c0: c57c 98bc c3a6 263e 8f42 d6bd 30df 3f3d
000002d0: 155f 033e d775 423e d234 6b3d 33be 4f3d
000002e0: 29e3 5b3e 8b1c f2bd 92a6 6dbd 1a24 9bbd
000002f0: 3e2c 7a3e 3ac3 873d 393a ddbd ca4b ac3d
00000300: a3d8 3fbe 55de f13d 71ff 223e 1cd8 ce3d
00000310: 0535 61bc be02 bebd b27f 4f3e 8b62 2dbc
00000320: 5d15 c03d b54d 823b 250a 353e a987 e5bc
00000330: bc84 0e3e 16a3 14be f397 22be 3282 703c
00000340: d138 123e c5ef 1fbe 0f7b bc3d 895a 9fbc
00000350: 1471 5dbe b443 2cbe 0ec2 97bd 102e e0bc
00000360: c717 a63d dd61 2f3e 7847 2f3e a274 39be
00000370: c2c7 d03d 2b79 84bd b722 5dbc fa2a 2c3e
00000380: d651 64bd 59eb d5bd 5688 913d 2712 73bd
00000390: fe2a 1fbc 58b3 dcbb 1a61 433e 14b2 2c3e
000003a0: fb3d c43d faf1 173d 4fab ac3d 65b6 2ebd
000003b0: 4937 1f3e 2a3b 503e 723c 523e 86d7 6bbd
000003c0: 2883 a2bd 1c91 3d3e 35ac 2a3e 4457 053e
000003d0: ab86 3b3e 5233 473e 3f8d b4bd 5c38 0ebe
000003e0: 9504 623c caa8 0c3e 31d8 9dbd 561e ecbd
000003f0: c3bb 43be 8bbe ce3c 0fab bb3c 2668 f9bd
-0.14039986 0.018533057 0.10116098 0.08672785 0.0058120363 -0.15695249 -0.20007892 0.15927558
-0.1032399 -0.1759135 0.09380933 -0.20716934 0.097209424 -0.17382185 0.08348322 -0.05712489
0.01994637 -0.082369916 0.11356565 0.117248476 0.15185109 -0.024379287 0.24622197 0.064453214
-0.056338314 -0.21078664 0.11516174 -0.20159622 -0.16060202 -0.09082132 0.053636376 0.05657989
0.118404165 -0.015141806 0.0649807 0.089041896 -0.2594225 -0.23007399 -0.24481268 -0.18826643
0.075385675 0.16437854 0.058807254 -0.16564989 0.0819376 0.120828405 0.19416632 -0.1604638
-0.022881182 -0.09153751 0.18800014 0.12343267 0.044037737 0.025366977 0.102007456 -0.13538148
-0.0025698463 -0.1304749 0.09119163 0.08281082 -0.14644408 0.006215776 0.107311375 0.10752279
0.19097735 -0.18392764 -0.07181235 -0.09468876 -0.19518481 -0.24606171 -0.22162257 0.019635806
-0.14270289 -0.06652169 -0.112617895 -0.11877123 0.18512346 -0.005736395 -0.10271067 0.16481006
-0.14553227 -0.109081425 -0.11824046 -0.16379786 -0.1434447 -0.097749226 -0.045071524 -0.15290093
-0.061440412 0.16678062 -0.049020678 -0.071700454 -0.2611961 -0.19087383 0.05307061 0.07028054
-0.22294244 0.007192654 0.016431095 -0.09541847 0.15688331 0.048094973 -0.1365961 0.19926016
0.13524145 -0.06510269 0.0576579 0.18046111 0.19777678 0.13017029 0.09508365 0.015648147
0.06611258 -0.11871105 0.031288806 -0.16801251 0.15589306 -0.11269043 -0.10716123 0.17774142
-0.05679922 -0.12491246 -0.15692395 0.09714894 -0.16643175 0.16686241 0.076023765 0.20190112
-0.0574279 -0.14753404 0.0030876682 0.17988591 -0.067544095 -0.16670214 0.16666934 0.14369282
0.16456246 0.13021637 0.0017805925 -0.19262274 -0.17738776 -0.15646847 -0.18940097 -0.2526184
0.14640108 0.14182891 -0.12904407 -0.010607031 0.18049043 0.08368168 -0.04890531 -0.06588334
0.10159882 -0.07668387 -0.15718883 -0.06104195 0.10981756 -0.083595 -0.1432946 -0.07765317
-0.077287726 -0.14426558 0.0138374055 0.13370538 0.22490622 0.12157873 0.22348265 0.16309229
-0.05606452 -0.15136454 -0.05053198 0.09862475 0.050796174 -0.03850732 0.006692462 0.08459406
-0.018614182 0.16274552 -0.10461914 0.046843708 0.1282924 0.18990265 0.05742342 0.050718497
0.21473373 -0.118218504 -0.058020182 -0.07575245 0.2443094 0.066290334 -0.10802121 0.08412893
-0.18734984 0.118099846 0.15917756 0.10099813 -0.013745551 -0.09277867 0.20263556 -0.0105825765
0.09379075 0.0039765486 0.17679651 -0.02801879 0.13917822 -0.14515337 -0.15878277 0.0146794785
0.14279486 -0.15618809 0.09203159 -0.01945235 -0.21625167 -0.16822702 -0.0741006 -0.027365714
0.08110004 0.17127176 0.17117107 -0.18110898 0.10194351 -0.064684235 -0.013497046 0.1681327
-0.055742107 -0.1044528 0.07106082 -0.059343483 -0.00971484 -0.0067352466 0.1908001 0.16864806
0.09582134 0.037096 0.08431112 -0.042654414 0.15548433 0.2033507 0.2053087 -0.057578586
-0.07935172 0.18512386 0.16667254 0.1302157 0.1831309 0.19453171 -0.08816003 -0.13888687
0.013795038 0.13736263 -0.07707251 -0.115292236 -0.19114594 0.025237342 0.022908716 -0.12178068

model.backbone.W_P.bias f4 [16]
00000000: dab5 3fbd 0ba8 ab3d 4b97 cf3d e337 9cbd
00000010: 0e74 543e 7022 94bb 585a 443d f1a5 2bbe
00000020: 106f cfbd e59c 0f3e 9dea 1d3d 9dac c63d
00000030: b6ad d93c b14b 3a3e b77d 1fbe b431 6e3d
-0.046804287 0.08381661 0.10136279 -0.07627847 0.20747396 -0.004520707 0.04793772 -0.1676252
-0.10128605 0.14024694 0.038553823 0.09700892 0.02657209 0.18192936 -0.155753 0.05815287

model.backbone.encoder.layers.0.self_attn.W_Q.weight f4 [16, 16]
00000000: fa8d 3a3d d2ee ebbc 377c 05bd e110 69be
00000010: b10c 1a3d 8f2b b4bc 8357 833e 6c2d 18be
00000020: f386 563e c91f 613e 0539 69be 67a4 e6bc
00000030: c8b4 da3d df84 b63d 305a febd 4f03 2bbe
00000040: 1c39 1fbe 8f57 9dbd eb1a 1e3e dbad a7bc
00000050: 6c26 e33d 02be ddbc b788 583d 3cf4 923d
00000060: 4ace 0fbe e068 f1bd 0b19 4bbe d897 21be
00000070: 6ad5 38be 0197 5cbe e8ab 763e 7595 d0bd
00000080: 7d02 633d c9ae 29be 2538 713a 6a99 5cbe
00000090: 9575 61bd 3365 92bd 767e 873d 9afe 6d3d
000000a0: 2611 183e 95a7 b8bc f4f9 08be ca20 953e
000000b0: 2423 26bd 11d8 503e 8639 6dbe 962d 0dbe
000000c0: c4ad 21be d905 37be b0e5 b33a 6cc3 493e
000000d0: 0159 55be 1cc1 2f3d 5a96 513e 5a24 893e
000000e0: 903b 493d 0e6e e1bd 966d 63be 2b17 913d
000000f0: fd27 0a3e 80d9 febc 8e45 cc3d 9b17 613e
00000100: 62fc 06bc 6363 1ebe cdf6 d7bc 82a0 8dbd
00000110: b225 003e 8c65 ec3d 6038 80bb 0ec5 033e
00000120: b63e 8cbe d410 33be c8c9 91bc 58e3 323d
00000130: c47f 4b3e fc99 863c 2a10 1fbe 552c a2bd
00000140: cd36 40be ea6b 1ebe 259e 49bd aa5d 133e
00000150: 03bd 7e3e 73c9 643d 1726 30be 0fe3 61be
00000160: 0af8 b5bd 14e5 44be c830 18be c69c 5abe
00000170: bd75 733d 4873 f93a 9bc7 c5bc 3fed 3a3c
00000180: 43e1 d83c 8c3a 4d3d 34f2 f93c 689b 32bd
00000190: c1f2 bbbc d954 4bbe 1e7a 47be 2e8a 20be
000001a0: d1e8 3f3e 18ca 3d3e 6fc6 3bbe 0e3e da3d
000001b0: 5ea1 65bc bec9 843d 8cbb 46be c540 73be
000001c0: 0269 02be 624f c4bb bce6 7c3d 049d 8fbd
000001d0: 4e11 4cbd 834a 8bbd 2745 45bd f132 193e
000001e0: 3c13 d43d 662d 0bbd b008 903d 092f c53c
000001f0: e7a5 fa3d bc35 b23d 38dd 323e 1055 263e
00000200: 1bb3 83be cdfc 563b b777 dc3c 4a14 16be
00000210: 3c7c 7dbe faa1 813e f251 80be ec5a 433e
00000220: 2467 2f3e 8382 d2bd 5dc6 71bd eafd 193e
00000230: 2ff0 173e 84e1 273d ccda b7bd 5f2e a8bd
00000240: 4da6 d33c dc16 7bbe 16d7 02be e51c 1fbe
00000250: 0f26 48be 4e07 8f3d 8937 10be 8874 27bd
00000260: 0460 af3d a5ee 1a3e bef2 95bd 9789 49be
00000270: ec9f 283c cd41 d9bd 2e40 4ebe 2be9 f73d
00000280: 64a4 6d3e d7e2 283e 6d64 12be 2cd9 9ebd
00000290: 7bfd 41be 2534 643e 9a9c 463e 5581 65be
000002a0: 803b 93bd 1da3 4d3e e7fc 623e ddd7 70bd
000002b0: 5d0c 343e c54d eb3d 4714 44be dc19 65be
000002c0: 5403 9f3c 8e5d 303e 20ba b2bc 1bbb b0bd
000002d0: 33fe 373e d712 51be eac0 30be f74b 283e
000002e0: 55a3 debd d298 40be 8555 4cbe da2e e1bb
000002f0: 649f 4f3d 564f c53c e6a9 7abe 2e96 8e3e
00000300: b5b2 eb3d 223a 1e3e 3e8a 32be 2406 363e
00000310: 5888 df3d f602 4cbe d198 c93d dba9 6f3e
00000320: 3bd4 efbd cde0 443e 2ade 09be 9a3a 40be
00000330: 5733 933e 543b adbd b9b1 74be 1bed 463e
00000340: eca0 1e3e 18d9 1bbe bca7 153e bd4d 93be
00000350: 8308 843e ba4e 5fbd 9548 8f3e 9d8f 91bd
00000360: fb47 6ebc 277d 0abe 658c a9be d3d6 ac3d
00000370: bf1e 5e3e 7b2e 383e cef3 81be 1a51 703d
00000380: 12cc 12be 168f 413d c02c 88bd 8219 083c
00000390: 2861 433c 5a42 4d3e 33fc c8bd be74 063d
000003a0: a977 513e 3251 83be ffd7 febc 2d48 48bd
000003b0: 4ccc 62be 0855 0ebe f7c0 b03d bb51 3cbd
000003c0: 8f11 363e 2a23 6bbe 2699 b1bd 198a 7a3d
000003d0: ba15 043e d3e4 6ebe e138 853d 3656 6c3e
000003e0: 62d7 963d 2816 4d3d 6985 893d a5e3 e2bd
000003f0: e123 963d bda9 153e 6d03 453c 9aa4 07be
0.045545556 -0.028800402 -0.032589164 -0.22760345 0.03760976 -0.021993427 0.25652704 -0.14861077
0.20949917 0.21984781 -0.22775657 -0.028154565 0.106790125 0.08912062 -0.12419546 -0.16700481
-0.15549129 -0.07682716 0.15439956 -0.020468643 0.11091313 -0.027068142 0.052864756 0.0717549
-0.14043537 -0.117875814 -0.19833772 -0.1578058 -0.18050161 -0.21541978 0.24089015 -0.10184757
0.055422295 -0.16570581 0.00092017866 -0.21542898 -0.055043776 -0.071482085 0.066159174 0.058104135
0.14850292 -0.022540847 -0.133766 0.2912658 -0.040560856 0.20394923 -0.23166475 -0.13786921
-0.15788943 -0.17873324 0.0013725068 0.19703454 -0.20834734 0.042908773 0.20467511 0.26785547
0.04912907 -0.110073194 -0.22209772 0.07084497 0.13491817 -0.031109571 0.09974204 0.21981661
-0.008238884 -0.154676 -0.026362801 -0.0691538 0.1251438 0.11542806 -0.0039129704 0.12868139
-0.27391595 -0.17486888 -0.017796412 0.043673843 0.19872957 0.016430847 -0.1553351 -0.07918612
-0.18770905 -0.15470853 -0.049223084 0.14391199 0.2487679 0.05585618 -0.1720203 -0.22059272
-0.088852 -0.19228011 -0.14862359 -0.21348867 0.059438456 0.0019031549 -0.02414303 0.011409103
0.0264746 0.050104663 0.030511 -0.04360524 -0.022942903 -0.19856586 -0.19480178 -0.15677711
0.18741156 0.18534124 -0.18337415 0.10656367 -0.014015524 0.06483792 -0.19407481 -0.23755176
-0.1273537 -0.0059909085 0.061743483 -0.0701237 -0.04982119 -0.06801321 -0.048161652 0.14960839
0.10355231 -0.033978842 0.07032907 0.02407028 0.122386746 0.08701655 0.17467201 0.16243386
-0.25722584 0.003280449 0.026912553 -0.14656177 -0.24754423 0.2531889 -0.2506252 0.19077653
0.17129189 -0.102787994 -0.059027065 0.15038267 0.14837717 0.040986553 -0.08977279 -0.082119696
0.025836134 -0.24520439 -0.12777361 -0.15538366 -0.19545768 0.06983815 -0.14083685 -0.040882617
0.085632354 0.15130098 -0.0732169 -0.19681393 0.010292035 -0.10608254 -0.2014167 0.1210502
0.23207241 0.16492783 -0.14296122 -0.07756266 -0.18944351 0.22285517 0.19395676 -0.22412618
-0.07189083 0.20081754 0.22166787 -0.058799613 0.17582841 0.11489443 -0.1914836 -0.22373146
0.019410767 0.17223188 -0.021817267 -0.086294375 0.17968063 -0.20417343 -0.17261091 0.16435228
-0.10870997 -0.18808296 -0.19954498 -0.00687204 0.050689116 0.024085682 -0.24478874 0.27848953
0.11508695 0.15451863 -0.17435548 0.1777578 0.109146774 -0.19923005 0.098436005 0.23404638
-0.117104016 0.1922638 -0.13463655 -0.18772355 0.28750107 -0.084585816 -0.23895921 0.19426386
0.15491074 -0.15219533 0.14614767 -0.28770247 0.25787744 -0.05451844 0.27985063 -0.0710747
-0.014543529 -0.13524304 -0.33114925 0.08439412 0.21691416 0.17986481 -0.2538132 0.058671094
-0.14335659 0.047255598 -0.066491604 0.008306863 0.011925019 0.20044842 -0.09813728 0.032826178
0.20455803 -0.25647885 -0.031108854 -0.048896957 -0.22148246 -0.13899624 0.08630555 -0.04597638
0.17780136 -0.22962633 -0.08671789 0.061166856 0.12898913 -0.23329477 0.065049894 0.23079762
0.073653 0.050069958 0.06714899 -0.11078576 0.07331062 0.14615531 0.012024743 -0.13246384

model.backbone.encoder.layers.0.self_attn.W_Q.bias f4 [16]
00000000: 881d 1a3e 6044 1c3e d719 94be d4b9 41bd
00000010: 298f 07be 71b3 95bd 9563 af3c 2818 91bd
00000020: e175 6a3e 51d4 253e 1146 30be e112 8e3e
00000030: 8c10 c6bb 2652 3a3d 02ac 4bbe 5923 943d
0.15050328 0.15260458 -0.28925964 -0.04729636 -0.13238205 -0.07309616 0.02140979 -0.070846856
0.2289653 0.16194274 -0.17214228 0.27748778 -0.006044453 0.0454885 -0.19889835 0.072333045

model.backbone.encoder.layers.0.self_attn.W_K.weight f4 [16, 16]
00000000: 3afc 95be ab39 4abe 6586 05be cc38 0f3e
00000010: 881a b8bc 56c1 46be bbd3 023e e551 3f3e
00000020: 9d5d 6c3e 8101 a93c 2dbd db3c 8c59 65be
00000030: 6dfc 523d 6da4 623e eab4 06be b597 6ebe
00000040: 9c66 38bd 685c ec3d a944 33be 6c5e 3a3e
00000050: cbd1 e23d 3cc8 d63d d2a7 a1bd 26aa b8bd
00000060: 1b23 88be a497 593d 1a48 1d3e f7bb 383e
00000070: 81c5 f33d cf18 91be 4898 553e 06b0 c93d
00000080: 4fcf 0f3e e6c7 4fbe fb8e 5b3e f5e5 cbbc
00000090: 3831 843d d1d3 34be 8066 3a3d 0cc3 163e
000000a0: cfdd 1f3d b90e 26be 87de 8cbd ff5e 703d
000000b0: c2e5 bcbb feaa a33d de39 0bbe 6071 883e
000000c0: 73bb ebbc 84a1 70be cf71 e7bd c45f 3abe
000000d0: 5acb 8b3e 572c 4cbe a5c5 553e d288 443e
000000e0: 75a1 a93d 5144 cc3d 0b45 73be 5c4c 2e3e
000000f0: de38 0dbe 43d6 643e 80cf 8cbe 44e8 783e
00000100: db5f 733e f728 da3d 48b4 94be 3813 643e
00000110: 6bc4 edbd 4d55 82bc 61e0 753e 1f22 1ebd
00000120: afd3 943d 6a7a a33d 6b99 ce3d d492 f4bd
00000130: 1cd0 eb3d fb29 143e 2cc5 babd 8ca3 3d3e
00000140: 7bd2 cebc 783c 5b3e 8f8c 34bd 9b00 293e
00000150: 6b8f 613e 49d8 603e 3e2a f73d 55ac 613e
00000160: 933c 083d 84c4 633e 7ae2 933e a10f 9ebd
00000170: 95b8 1b3e a83f 44bc ffa9 3dbe 5481 66be
00000180: 8fe4 1cbe ee3c 8f3d b6c7 413e b12c 703d
00000190: ead3 1a3e 6c79 4abe 6e34 823c 545e 133e
000001a0: 5084 25be fb79 ca3d e07b 3abe 6e9b 3c3e
000001b0: a8cb 37be 1a0a 8b3d de58 0abd b776 9d3d
000001c0: 949b 0d3e 4031 cdbd 3f80 6abe 3f84 4cbd
000001d0: cff2 5bbe 21ad 0f3e 83ba 6a3d ffc2 c43c
000001e0: 734f 733c 9902 0bbc 4b12 623e 2d1e 09bd
000001f0: 21e8 5c3e dbe6 0fbe 84ab 8ebe 0806 e5bd
00000200: 015c 173e b29b 1abe 5013 13be 8782 c73c
00000210: a1ef 883e 4d4c 2ebe 4f04 8ebd c6a7 e43d
00000220: 4aaf 4b3d 7153 e43d c570 8abe eca9 44be
00000230: 9bd7 1a3c 3c78 72bd 1db0 f03b 25b1 4ebe
00000240: acae 233d 2dfb b3bd 4141 6c3d 973c 2fbe
00000250: e07c 9cbd 601a 34bd e9a0 0b3d 57e2 db3d
00000260: 6170 ebbd 4573 b73d ab41 133e 60cc 393d
00000270: 69bf 80ba 6690 313e a412 253e 8d7c 683e
00000280: 25af 12be bf73 023e 362b ca3c 0381 853d
00000290: 1e06 0e3e 6386 c0bd cce9 683d 84e0 653e
000002a0: de21 33be fa70 3dbe 1cd8 4ebe 9483 493d
000002b0: c1b8 7abd 5603 d53d b99f b43d b936 3a3e
000002c0: 76f5 d53c 79dc 8ebc 0603 a2bd 15ff a73d
000002d0: 5c7f bb3d f326 4f3e 0d24 11be 4ad9 c13c
000002e0: 4536 38be 514c 403e 34bd 723e 272a c0bd
000002f0: 437b 3bbe 52de bc3d 62ea 4ebe d7e1 1c3e
00000300: 7330 a6bd c393 ef3d a0c3 73be e750 83bd
00000310: 10aa ac3d 4ec1 343e 21bd 96bd c472 10be
00000320: d1a2 18be bc63 45bd e706 64be 7b8e 74bd
00000330: c5b5 11be 470e 2d3e 8b56 8dbd aa40 e13d
00000340: 82f8 1e3e 50ad a93d 218f 5dbe f118 ddbd
00000350: 8848 af3c 5dc4 22bd ee8f 7a3e 624a 833e
00000360: e85c 93be fdfa 963c afbf 40be 853d 0f3e
00000370: 02f1 5ebe 84b7 8abd 6666 3e3e 8a39 2cbe
00000380: c2d3 083e 065f 5bbe c5b7 973e 8a42 ca3d
00000390: abca 8ebd ad9f 153d 1d87 d13d f716 3fbe
000003a0: 9b19 953e 8208 033e 2ba6 09be 010d 9e3d
000003b0: adf5 803e d8f6 b6bd 3cba 5a3e f287 edbd
000003c0: 2748 1bbe 70ad 25be 22b7 8abb 38c5 473e
000003d0: d49c 3d3e 0c9c 6cbd 0053 3c3e 140d 0b3e
000003e0: 18c8 8dbe 4ba8 b23d 6a3b 24be c6b0 093e
000003f0: 7f42 4c3e ab9a 2ebd 355d f43d 61e8 70be
-0.29293996 -0.19748561 -0.13039549 0.1398651 -0.022473589 -0.1940969 0.12776081 0.18683584
0.23082586 0.0206306 0.026823604 -0.2239744 0.051510263 0.22133036 -0.1315495 -0.23300059
-0.04501973 0.115410626 -0.1750666 0.18200082 0.11075171 0.104874104 -0.07893337 -0.09016828
-0.26589283 0.05312313 0.15359536 0.18040453 0.11902905 -0.2833924 0.20858872 0.09848027
0.14043926 -0.20291099 0.21441261 -0.024889925 0.064547 -0.17658927 0.045507908 0.14722842
0.039029893 -0.16216554 -0.06878381 0.058684345 -0.005764694 0.079915985 -0.13596293 0.26648998
-0.028775906 -0.23499113 -0.11301004 -0.18200594 0.27303582 -0.1993879 0.20876177 0.19192818
0.082827486 0.09973968 -0.23756807 0.17021316 -0.13791224 0.2234736 -0.2750206 0.24307352
0.23767035 0.10652345 -0.29043794 0.22272956 -0.116097294 -0.015909815 0.24011375 -0.03860676
0.07266938 0.07982333 0.10087856 -0.11942068 0.11514303 0.1446914 -0.09119639 0.1851942
-0.02524685 0.21409786 -0.04407936 0.16504137 0.22027366 0.21957506 0.12068604 0.22038396
0.033260893 0.22242934 0.28883725 -0.07717825 0.15207131 -0.011978067 -0.1852188 -0.22510272
-0.15321563 0.06994043 0.1892384 0.05863637 0.15119901 -0.19772881 0.015894141 0.14391452
-0.16163754 0.09886547 -0.18211317 0.18418667 -0.17948782 0.06789036 -0.033776157 0.07688659
0.1382888 -0.10019159 -0.22900485 -0.049930807 -0.21479343 0.14030887 0.057306778 0.024018763
0.014850485 -0.008484506 0.2207729 -0.033476043 0.21572925 -0.14052908 -0.2786523 -0.11182791
0.1478119 -0.15098456 -0.14362836 0.024354232 0.26745322 -0.17021294 -0.069344155 0.11164813
0.049727716 0.11148728 -0.2703916 -0.19205445 0.009450818 -0.059196696 0.007345213 -0.20184763
0.039961502 -0.08788142 0.05767942 -0.17112957 -0.076410055 -0.043970466 0.034089003 0.1073653
-0.11496044 0.08957533 0.14380519 0.045360923 -0.000982267 0.1734024 0.16120392 0.22703762
-0.14324625 0.12739466 0.024678808 0.06518748 0.13869521 -0.09400632 0.05686359 0.22448927
-0.17493388 -0.18500128 -0.20199627 0.04919775 -0.06121135 0.10401027 0.08819527 0.18184938
0.026118021 -0.017439114 -0.07910733 0.0820295 0.09155151 0.20229702 -0.14173909 0.023663182
-0.17989452 0.18779112 0.23704988 -0.0938304 -0.1830874 0.09222092 -0.20206597 0.15320526
-0.0811471 0.11698105 -0.23805094 -0.06411915 0.08430874 0.17651865 -0.07360292 -0.1410628
-0.1490586 -0.048190817 -0.22268258 -0.059706192 -0.14229496 0.16899978 -0.069012724 0.10998662
0.15524486 0.0828501 -0.2163663 -0.10795773 0.02139689 -0.039738048 0.24468967 0.25642687
-0.2878182 0.018430227 -0.18823121 0.13988312 -0.21771625 -0.06773284 0.1859375 -0.16818824
0.13362029 -0.21422967 0.29632393 0.098759726 -0.069722496 0.03652923 0.10230849 -0.18661104
0.29121098 0.12796214 -0.13442294 0.07717324 0.25187436 -0.089338005 0.21360105 -0.11598195
-0.15164243 -0.16179442 -0.004233257 0.19508827 0.18516856 -0.057766005 0.18391037 0.13579208
-0.27691722 0.087235056 -0.1603829 0.1344634 0.19947241 -0.04262797 0.1193184 -0.23526146

model.backbone.encoder.layers.0.self_attn.W_K.bias f4 [16]
00000000: 26f3 46bd 5c6f eebd 8102 0bbb 2949 36be
00000010: 13fa 833d 1838 303e bdd6 54be f740 643e
00000020: 18a6 d13d 7251 efbd 968d 533c 3ab7 23be
00000030: db5f 763e f257 3ebe d47e 6e3e 5019 e1bd
-0.04857173 -0.11642334 -0.002121121 -0.17801346 0.06444182 0.17208898 -0.20785041 0.22290407
0.10236758 -0.11685456 0.012912175 -0.15987864 0.24060003 -0.18588236 0.23290569 -0.10991156

model.backbone.encoder.layers.0.self_attn.W_V.weight f4 [16, 16]
00000000: f34c 2c3d 6a87 09be 84d4 443d 56db 043e
00000010: 9829 b73b 9afb f43d 3e36 fcbd ba2f 13be
00000020: 2d8d 55be ad48 73be 24a3 64bd eefd 86bc
00000030: 93f3 203a 97ec 1cbd 29a9 17be db69 f8bc
00000040: 64ce 343e 49dc a2bd faaa 01be e761 c33d
00000050: cf88 5cbe e536 64bb d226 17bb c5c2 cbbc
00000060: 1cc3 763e 4c36 283d 9f97 23be 7c5c d73b
00000070: 4c00 c63b fcde 813d b17b 1a3e 6591 0d3e
00000080: 4388 06be 313c d23d a05c 6a3d 7fb3 4dbd
00000090: 42b3 623e c8c5 d83d 95ed c9bd 00cf aebd
000000a0: 0d31 0e3e b11f 9e3e bcb4 0ebe 8a2a ddbd
000000b0: 5275 29be e085 80bd 53ff 48bd 5428 d9bd
000000c0: b7b4 bbbd 8479 72bd 1083 8a3d 0ab9 283e
000000d0: e7b2 373e 7eea 0e3e cf24 72be 1092 eb3d
000000e0: 1a4b 3b3d f6e1 253e 7b58 943c f387 c1bb
000000f0: 46ab 32be f700 89bd cffd f9bd 7594 20be
00000100: 0164 e13c 72d6 bebd 2145 253e 148f 153d
00000110: a359 6bbe 771a 8dbc e8b1 21be 155f 1fbe
00000120: c321 85bd cb01 3ebc 4f43 babb 9a46 3cbe
00000130: f021 13be 9132 2d3d 6087 21be bc04 0dbe
00000140: 64b0 2dbe 3104 96be 42af 4cbd 9eb1 013e
00000150: 53f2 f1bd a49d 5bbd b49f 8bbd f698 d23c
00000160: da8c 74be e47f 6cbe fd2b 3abe 89b3 36ba
00000170: ac88 e9bd a512 c13b 2d04 cabd 5c61 4e3e
00000180: 23b9 873d f772 393d 49d1 4dbd 21f1 87be
00000190: 494b 20be 0192 6cbe 545f 373e 8343 08be
000001a0: 1194 ce3d b7e2 6d3e 997d 613e a055 ad3d
000001b0: 02e3 223e df83 1dbe af31 cabd 2020 18be
000001c0: 8fce 2a3e d32a 0d3c e006 473e 90b1 d13d
000001d0: cbbe f63d cede 74be 1cd7 7f3d 37d8 e93d
000001e0: 921e 83be 324e 3ebe 6039 bbbd 5471 c8ba
000001f0: 243f fa3d f777 1abe a724 6abe df36 02be
00000200: 0127 08be fbdf 6ebe 452d 84bd 485c 943d
00000210: d90c 573e b312 24be d1ae 23bd 9819 f0bd
00000220: a364 23be e437 923e 0af4 84bd 8fa2 5abe
00000230: 1c3c 173e a01e cabc 576a 15be e8e5 e6bd
00000240: 2cb6 45be 687c 1dbe 524d 74be db5d d53d
00000250: ee20 2c3e 48bb 69be 0398 c73d cdc5 653e
00000260: c4d2 dbbd ba3d 4abe 8cf9 7dbe 9a09 52bd
00000270: 4293 4e3e 649f e9bc fef9 723e a693 573e
00000280: 1ad3 ef3d b080 b33d 5007 aebc 304c 863d
00000290: 52b3 26be 5705 86be 511d 703d c573 d1bd
000002a0: 765e 42be 467b 19bd 6626 e03d fca5 3b3e
000002b0: 2174 b03d d691 2c3d 6360 03be 45c9 733e
000002c0: 2124 e13d d348 86bd 77a3 a63c 92f6 953c
000002d0: fc5f 5dbd bada 8b3e 90c5 fc3d c24f 803e
000002e0: fa85 26bd 5b8c 1bbc 9948 f03d 1a0a 3dbe
000002f0: 9962 7f3e 86d4 eabd 4682 96bd 51b7 5abd
00000300: 781b 22bd 2494 e5bc 35ca 82bd 18e9 563e
00000310: fa5a 683c 02b2 723e e2eb 5b3d aebc 63be
00000320: 21ef debd 3b33 10bc e1ef 21be 9f70 57be
00000330: 9b94 4d3e 0eac 1b3e 3488 5abd 12d4 fa3d
00000340: 4e9a 47be 69cb f3ba 3b15 e53d 3f81 7d3d
00000350: 2127 d73c da4b 273e 96ed 5abd b34d 42be
00000360: db0c 6d3e 80db 7a3e 7302 603e c185 3a3e
00000370: 9f51 203e 80cf f63d 1809 b0bd 7d8a 14be
00000380: 17da 3ebd ab01 4ebe ed7c 79bd 238b f73d
00000390: ec1a 19be 2539 ffbc 70b9 0fbe e357 e6bd
000003a0: 6e8b 0c3e 79f7 58be 42b1 183d c528 a8bc
000003b0: 5a54 e6bd 0d0c 01bc 81bd 983e 6a0c 6cbe
000003c0: e98f febd 2a5b 47be d101 1abd f1e8 5dbe
000003d0: ae81 433e 8b9f 143d cc52 a6bd 8026 1d3e
000003e0: 0511 20be f671 003e 6ef5 393e 98fe 2abe
000003f0: cd34 1a3e e667 2fbe b6af 13bd c9a0 773e
0.042065572 -0.13430563 0.048054233 0.12974295 0.005589675 0.11962052 -0.123150334 -0.14373675
-0.20854636 -0.23758192 -0.055819646 -0.016478505 0.0006139811 -0.038311567 -0.14810623 -0.030323913
0.17656857 -0.07952172 -0.12662879 0.09540158 -0.21536563 -0.0034822759 -0.002306391 -0.024873147
0.24097866 0.041067407 -0.15975808 0.0065723043 0.006042516 0.06341359 0.15086247 0.13824995
-0.13137917 0.10265387 0.05721724 -0.05022001 0.22138694 0.10584599 -0.09859768 -0.08535576
0.13885899 0.30883554 -0.13936132 -0.10799129 -0.1654866 -0.06275535 -0.04907162 -0.10603395
-0.09165328 -0.059197918 0.067632794 0.16476837 0.1793934 0.13956639 -0.23646854 0.115024686
0.04572592 0.16199479 0.018108597 -0.005906099 -0.17448148 -0.06689637 -0.12206613 -0.15681632
0.027513506 -0.09318246 0.16139652 0.036513403 -0.22983412 -0.017224533 -0.15790522 -0.15563615
-0.0650058 -0.011597107 -0.0056842933 -0.18386307 -0.14368415 0.042284552 -0.15774298 -0.13771337
-0.16961819 -0.29300073 -0.049971826 0.12665412 -0.11813798 -0.053617135 -0.0681757 0.025707703
-0.23881856 -0.23095661 -0.18180843 -0.0006969502 -0.11403021 0.005892115 -0.09864078 0.20154327
0.06627109 0.045275655 -0.050248418 -0.26551154 -0.15653719 -0.23102571 0.17907459 -0.13307004
0.10086835 0.23231016 0.22020568 0.08463597 0.15906909 -0.15382336 -0.09872758 -0.14856005
0.16680358 0.008616167 0.19436216 0.102389455 0.120481096 -0.23913118 0.062461004 0.11418193
-0.2560926 -0.18584517 -0.09141803 -0.0015292563 0.12219074 -0.15084825 -0.22865544 -0.12716244
-0.13296129 -0.2332763 -0.06453947 0.07244164 0.21000995 -0.16022758 -0.03996164 -0.117236316
-0.15956359 0.28558266 -0.06491859 -0.21351074 0.14769024 -0.024672806 -0.14591347 -0.1127432
-0.19307774 -0.15379488 -0.2385762 0.10418292 0.16809437 -0.22825348 0.09745791 0.22438736
-0.1073356 -0.1975011 -0.24802226 -0.051278688 0.20173362 -0.028518386 0.23728177 0.21052417
0.11710186 0.087647796 -0.021243721 0.065575 -0.16279343 -0.2617595 0.05862171 -0.102271594
-0.18981346 -0.03747108 0.10944824 0.18325037 0.086159 0.042131267 -0.12829737 0.23807247
0.10993219 -0.06556859 0.020341618 0.01830605 -0.054046616 0.27315313 0.123423696 0.2506085
-0.040655114 -0.009493913 0.11732597 -0.18460885 0.24939956 -0.11466317 -0.073490664 -0.05339748
-0.039576977 -0.02802474 -0.06386224 0.20987356 0.014181847 0.23700717 0.053691752 -0.22239944
-0.10885454 -0.008801277 -0.15814163 -0.21039055 0.2007622 0.15202352 -0.05335255 0.122474805
-0.19492456 -0.001860005 0.1118569 0.061890837 0.026263775 0.16337529 -0.053449236 -0.18974952
0.23149435 0.24497795 0.21875934 0.18215086 0.15656136 0.12051296 -0.085954845 -0.14505954
-0.046594705 -0.20117824 -0.060910154 0.12087085 -0.14951676 -0.031155178 -0.14035583 -0.11247232
0.13725063 -0.21188153 0.03727842 -0.020527253 -0.112465575 -0.007876408 0.2983208 -0.2305161
-0.124297924 -0.1946837 -0.03759939 -0.21670891 0.19092438 0.036284965 -0.08121261 0.15346718
-0.15631492 0.12543473 0.1816003 -0.16698682 0.15059204 -0.17129478 -0.036056243 0.24182428

model.backbone.encoder.layers.0.self_attn.W_V.bias f4 [16]
00000000: b737 4abe f98a 213e e138 4dbc ff9c 4ebe
00000010: 0da9 de3d 4591 2d3e 117e 133e 2219 6a3e
00000020: e0a7 82bd df91 343e bf13 3fbe ea2c 38be
00000030: cea1 ecbb fa2f dc3d 2e4a ee3d adc2 013e
-0.19747816 0.1577567 -0.012525768 -0.20177077 0.10872088 0.16949947 0.1440356 0.2286115
-0.06379676 0.1763377 -0.18659876 -0.17985883 -0.007221437 0.10751338 0.116352424 0.12671919

model.backbone.encoder.layers.0.self_attn.to_out.0.weight f4 [16, 16]
00000000: c9ce 0abe 8da1 443c 897c 2bbc 201e 17be
00000010: 3b95 01be 17e9 6a3d 18d0 a83d 40f4 353d
00000020: d0d0 073e cd4a 643d 220b 2fbe ded0 1cbe
00000030: da9a 6f3e 4b53 3f3d 9472 6d3e a799 3dbe
00000040: e708 693e 2e24 2abe 463b 81bd 91e2 413e
00000050: fe24 a53d fe41 11bd e7b7 823c c905 01be
00000060: 4a0a a4bd 799c 1fbe 6888 123e bc98 1dbe
00000070: b42a 76bd b837 523e 338e a03d 8b08 44be
00000080: a901 3bbe 4fe3 15be fbee 1d3e 50c5 6fbe
00000090: 8b71 853c 2d15 52be d547 66bc bff6 f13d
000000a0: 3372 043e 6985 423e 4565 fe3d 0edc 83be
000000b0: f7a9 22be 7c01 863d 8b12 0bbe 47d5 59bc
000000c0: b6d5 20be c83c ca3d 606a 3a3e 842e 81be
000000d0: dda3 b73d 5257 803d 98ae 1dbe 768d 1cbe
000000e0: 8986 08be a30f a6bd 1ea5 e8bd bb1d 55be
000000f0: bcfd 0abd e65e 51bc 46ec 803d 2911 453e
00000100: d484 2e3e f5ba f63d 0950 3cbe a75d 4abe
00000110: 755b e6bd dd77 183e 7f15 59be d8ed 863e
00000120: c469 7fbd 9ea8 bcbd 98e8 283e c02e 043e
00000130: c352 63bd 0958 ebbd 0945 b6bd 7ff7 f4bd
00000140: bc8b 9f3d 4a8b 993d 48b3 aabd d8ef 323c
00000150: e0e2 fcbd 7e86 983d ccff 84be 1648 65bd
00000160: 111d 85be 4c6e d3bd 055e 21bd 7842 763c
00000170: fbe9 2b3e 3461 85be 8a7b dd3d 09b4 1e3e
00000180: 2b4c 3bbe 229c 273c b700 033d 5d55 5abe
00000190: 8323 783e eb5c 763e b2a4 c1bd de16 50be
000001a0: 31c5 f33d ef2d 20be 96ef 2cbe a96d df3d
000001b0: 7142 a23d c1fe 8b3a 26bb 703e 320e 1f3e
000001c0: 8d14 103e 2619 993c e40f 35be 9aa5 86bb
000001d0: 62ff 2dbe 9bf9 553d a27c 5cbe 30a5 41bd
000001e0: 038b 15be 25e2 2fbe 4c67 58be 7eba 343e
000001f0: 6d2a 293e d24f 30be bf1c c83d 9ad9 58be
00000200: 903d 69be cda6 00be ce60 513e 9443 5dbe
00000210: 2f7c 94bd 5346 393e d89e 94bc 7733 ccbd
00000220: d79c d83c 0da8 073e ef8b 01be 0ef6 1fbe
00000230: cee6 193e eeb8 52be 61fa 5fbd a7f5 bbbc
00000240: 2e01 2c3c 5182 0b3e bd25 ee3d e925 bbbd
00000250: c69f 4a3e 98ae 50bd 2694 23be 92f3 afbd
00000260: 1f33 45be 761a d0bd 5409 973d 8a66 0c3e
00000270: 2a3d 533e 4a50 e9b9 528f 623d 731a 143d
00000280: ae1c 0ebe 24ce 4c3d 4735 5f3d 1620 6fbe
00000290: 1a2b 1bbe 3972 b6bd adf0 3b3e 0157 a23d
000002a0: 51db f03d 0156 183e f3a3 ac3d 6860 b23c
000002b0: 3377 1abd 347a 6bbd 02a4 18bd e370 e53c
000002c0: 3b89 e0bb f9f9 44be a3f9 79bb aae9 c93d
000002d0: 80bb 503e c2b2 ee3d 7abf aabc 36f8 9e3d
000002e0: 4b9d 833e a0a4 2fbe 4ca4 d63d 9392 73be
000002f0: a578 0dbe 3d17 20be 75fe d9bd 97cd 82be
00000300: b752 56be 21e0 773d 6287 41bd eb87 17bc
00000310: ae4f 42be 8913 1a3e e4ce b2ba 1e13 7c3d
00000320: c049 953d 14f0 89bd 275f 7d3e 0ead e83c
00000330: e281 60be e6c4 85be 9abd 093e 5903 4e3e
00000340: 06c9 c33d 8ec4 71bd ba1b 953e 269d 493e
00000350: 362a 6b3d 59ec c83d f724 e33d 997c 15be
00000360: cc82 963e 260e 9cbd 2518 2fbe 6dcd 023e
00000370: d5a6 e4ba 4642 5a3e 5995 40be 88d8 303d
00000380: 3e72 5fbe 2067 8e3c a4fc e13d 50fc 63be
00000390: 52e4 e5bc 09ed 063e 0aaa 2a3e 3cbd c7bc
000003a0: c90c ccbd ee53 393c 7c46 313e 1d02 4b3c
000003b0: 8958 fdbd 10e3 8bbd 7359 0abe f757 243e
000003c0: 5214 eb3d 265c cfbd 0beb 4e3e bc8b 6f3e
000003d0: f08d b63a 1d40 8cbe d4d3 843e 5e24 5bbc
000003e0: d8fc 0dbe 0180 483d 892b 643e 376f 723e
000003f0: ff0f 3ebd af5b 403e bc8e a6bb 9690 d6bc
-0.13555445 0.012001407 -0.010466703 -0.14757586 -0.12654583 0.057351198 0.08242816 0.044422388
0.1326325 0.055735398 -0.1709409 -0.15314052 0.23398915 0.046710294 0.2318824 -0.18515645
0.22757302 -0.16615364 -0.06310134 0.18934084 0.08063696 -0.035463326 0.015956832 -0.12599863
-0.08009775 -0.15587033 0.14309847 -0.15390295 -0.06009932 0.20529068 0.07839622 -0.19143884
-0.18262352 -0.14637493 0.15423195 -0.23415112 0.016289493 -0.2051589 -0.014055212 0.11814641
0.12934189 0.18996204 0.124216594 -0.25753826 -0.15885149 0.06543252 -0.13581292 -0.013295478
-0.15706524 0.09874874 0.18204641 -0.252308 0.08966801 0.06266655 -0.15398633 -0.15288338
-0.13332571 -0.08108451 -0.113596186 -0.20812123 -0.033933386 -0.012778973 0.062950656 0.19244827
0.17042857 0.12047378 -0.18389906 -0.19762288 -0.11247913 0.14889474 -0.21199606 0.26353335
-0.062356725 -0.09211849 0.16494977 0.12908459 -0.05549885 -0.11491401 -0.08899886 -0.11961269
0.07790324 0.074972704 -0.083349764 0.010921441 -0.123479605 0.07447527 -0.25976408 -0.05597695
-0.25998738 -0.10323772 -0.039396305 0.015030496 0.16788475 -0.26050723 0.10814579 0.15498365
-0.18290775 0.010230096 0.031983104 -0.21321626 0.24232297 0.24058883 -0.09455241 -0.20321223
0.11902846 -0.15642522 -0.1688827 0.10909588 0.07922829 0.0010680781 0.23508891 0.15532759
0.1407034 0.01868875 -0.17681843 -0.0041090967 -0.16991952 0.052239995 -0.21531919 -0.047276676
-0.1460381 -0.17176111 -0.21133155 0.17649266 0.1652009 -0.17217949 0.09771108 -0.21176758
-0.2277739 -0.1256363 0.20447084 -0.2160781 -0.07250249 0.18093233 -0.018142149 -0.09970754
0.026441975 0.132477 -0.12651037 -0.15621206 0.15029451 -0.20578358 -0.05468214 -0.022944285
0.010498328 0.1362393 0.11628292 -0.0913809 0.19787511 -0.050947756 -0.15974483 -0.08591379
-0.19257782 -0.10161297 0.07374826 0.1371099 0.20628801 -0.00044501043 0.055312462 0.036158036
-0.13878128 0.05000128 0.05449417 -0.23352084 -0.1515316 -0.08908505 0.1835353 0.07926751
0.11760581 0.14876558 0.08429708 0.021774486 -0.037711333 -0.05748959 -0.037265785 0.02800793
-0.0068522966 -0.19235982 -0.003814318 0.09859021 0.20384026 0.11655189 -0.020843256 0.07762186
0.25705943 -0.17152643 0.10480556 -0.23786382 -0.13815553 -0.15633865 -0.10644237 -0.25547478
-0.2092999 0.06051648 -0.04724825 -0.009248714 -0.18975708 0.15046515 -0.001364198 0.06154167
0.07289457 -0.067352444 0.24743329 0.028402831 -0.21924546 -0.26126784 0.13451234 0.20118465
0.095598266 -0.05902534 0.29122716 0.19688854 0.057413302 0.09810705 0.11091035 -0.14598311
0.29396665 -0.07619886 -0.17099054 0.12773676 -0.0017444739 0.21314344 -0.18806972 0.04317525
-0.21820924 0.017383158 0.110345155 -0.22264218 -0.028062973 0.13176359 0.16666427 -0.024382226
-0.09963376 0.011311514 0.17312044 0.012390641 -0.12370402 -0.06830418 -0.13510685 0.16049181
0.11478485 -0.10124998 0.2020685 0.23393148 0.0013927799 -0.27392665 0.25942862 -0.01337537
-0.13865983 0.0489502 0.22282232 0.23675238 -0.046401974 0.18784975 -0.005082933 -0.02619199

model.backbone.encoder.layers.0.self_attn.to_out.0.bias f4 [16]
00000000: 0db6 f23d 9d93 a0bd ac23 47bc f1ba 4f3d
00000010: c62f fa3d 1237 493e c38f 02be 856d e7bd
00000020: 0ebd 4abd 47ca cf3c 89b5 0bbd b791 753d
00000030: 5bb1 35be ef1e 49be ecdb f93d 35de 82be
0.1185113 -0.07840655 -0.012154501 0.05071539 0.12216143 0.19649914 -0.12750153 -0.11300186
-0.049496703 0.025365008 -0.034108672 0.059953418 -0.17743437 -0.19640706 0.1220015 -0.25560156

model.backbone.encoder.layers.0.norm_attn.1.weight f4 [16]
00000000: e97c 7e3f dbb5 713f 2546 8c3f b55a 7f3f
00000010: af3f 733f 18a3 843f cc2a 873f 53f3 753f
00000020: 3225 7a3f a104 803f 8a3e 843f 3735 7a3f
00000030: 3dc0 673f a3f5 7b3f c7b9 7e3f b215 6f3f
0.9940935 0.94418114 1.0958906 0.9974778 0.9501905 1.0362272 1.0559936 0.9607441
0.97713006 1.0001413 1.0331585 0.9773745 0.9052771 0.98421687 0.99502224 0.9339248

model.backbone.encoder.layers.0.norm_attn.1.bias f4 [16]
00000000: b5c9 f43b a542 3b3d 9ce6 943b 0b22 233d
00000010: d45d bdbd a114 a73c 61a7 033d d364 8abc
00000020: 97fc c7bb 8bb3 0abd 631e f63b 6039 643c
00000030: 82ab 20bd c99d eebb ef14 e03c 543e 18bc
0.0074703344 0.045717854 0.0045440923 0.039827388 -0.09246412 0.020395579 0.032142047 -0.01689378
-0.006103109 -0.03386263 0.0075109466 0.013929695 -0.039226063 -0.007281993 0.027353732 -0.009292204

model.backbone.encoder.layers.0.norm_attn.1.running_mean f4 [16]
00000000: fdd7 943e 0ade c5bd 396d 503e efe5 5a3d
00000010: 2494 a93e db00 493a b2cd 6ebc 44c5 d8be
00000020: 1d22 cbbd 3d98 f63d 99d5 10bb af0f 833e
00000030: ee86 1bbe c0ad b5bd daca 113e ff4e b0be
0.29071036 -0.09661491 0.20354165 0.053441938 0.33120835 0.0007667669 -0.014575409 -0.42338002
-0.09918616 0.12040756 -0.002209997 0.25597903 -0.1518819 -0.08871031 0.14237538 -0.3443527

model.backbone.encoder.layers.0.norm_attn.1.running_var f4 [16]
00000000: 2dde d63e 62e6 833f 8286 263f 0e56 ee3f
00000010: 1b7f 273f 4e2c 123f 11aa fb3e d1b1 353f
00000020: 250c c03e 201e a53f c8e9 413f 85fb 323f
00000030: 2ec8 aa3f 5473 8e3e d0f3 ee3e e3e6 493f
0.41966382 1.0304682 0.6504899 1.8620012 0.6542832 0.57098854 0.49153188 0.7097445
0.37509266 1.2899818 0.75747347 0.6991504 1.334234 0.27822363 0.4667039 0.7886793

model.backbone.encoder.layers.0.ff.0.weight f4 [128, 16]
00000000: 45fa 0fbe 24dc 8a3d 09ca 93be 01f0 983c
00000010: 19b0 3e3e a2de b4bd 5391 3cbe 6050 a7bd
00000020: caa0 69be 5995 9ebd b9d2 17be b4cf 74be
00000030: f6bc 1bbd 2931 c2bd 75a8 263e a4c3 f1bd
00000040: b996 973d 56e1 a0bd 2ce3 61be caf4 ebbd
00000050: fe24 41be e622 4f3e c1b5 29be 44ed 63bd
00000060: 35ad 0e3c f000 25bd 569a 0a3e 25b8 86be
00000070: 3542 553c 19dc e83c 5a29 9abd ba86 8b3d
00000080: a446 46be 10ec 823e e95d 06be 085e 1bbe
00000090: c794 313e 479a 9fbd c5ee fdbc d659 073e
000000a0: 17ea 263e 4203 1c3e a6b3 0fbe 103d 2ebc
000000b0: ad3e c9bc 9e42 20be ac1a 073e 1941 eebd
000000c0: 8e7b 6b3c b8dd 1fbd be29 973d 3268 bebd
000000d0: 49c5 843e f3c8 11be fd90 94bc efc1 5fbe
000000e0: d85d e7bd 0053 0cbe f977 16be 2918 763d
000000f0: e765 58bd a079 54be ef7d 033e 9e29 fabd
00000100: ae21 263e a208 2bbe d3df 5b3e 7108 823e
00000110: b80e a1bd b75f 513e 1021 8abd 6840 90bc
00000120: ea15 75bd 8f44 8f3d 80ff 4d3e b261 01be
00000130: 666d c4bd a42f 4fbe ef30 dcbd cae8 31bd
00000140: cc9e a7bd a7f6 2cbe e1c9 4bbe 11aa 313e
00000150: 196c 55be 6f2b 3fbe cc23 a6bd c560 6d3e
00000160: 8bbb 29be f6d1 c1bd 2ce8 17be 863c 60bd
00000170: 368a f73d 3867 4e3c e20c f9bd 7fc5 cdbc
00000180: 8e7d e13d 0c0b f93d e126 8f3c 3cf5 2d3e
00000190: c9c5 22be 79cb 3cbe 9ba0 083e a935 a43d
000001a0: 8431 90bd 697e f8bc 5312 883d 9770 49be
000001b0: 0c43 03be d386 3cbe cc5e d03d 0a60 d53d
000001c0: 41e4 c53d 8e85 7b3e 7293 4bbe b75f dabd
000001d0: 2318 04be a616 0a3e 5cd9 14be ef94 ec3c
000001e0: e590 5f3e e86a 00bc c285 2abe ea9a 8b3d
000001f0: bf07 133e b822 aebd 6e1b 6dbe 59dc 513e
00000200: 6a18 cfbb 29b8 75be f305 9fbd 3223 163e
00000210: 084a 4fbc 6b1e 57be 30a7 003e bcf7 edbd
00000220: 86b9 273d 4cb4 9e3d 9ccf 59be c07a 63bd
00000230: 9d30 dfbd 4b86 2d3e 5a4d c13b 870e 11bc
00000240: 0c8c 393d 87cb 3abe 119f e4bd 5da8 41be
00000250: 822c 1cbe ed89 a7bb 84fa 81be f9c2 7bbe
00000260: caf3 363e 58da 0abe cdca 48be c607 533a
00000270: 9757 60be fc4f 5bbe 0ffa 9bbd 17be 5bbd
00000280: 5f4f 08be ccfa 2cbd 0bd7 7e3e f4c1 8c3e
00000290: b666 e23d d284 4dbd 5449 013c 861e c33d
000002a0: ace0 45be ce27 9c3d e6e9 65be 8f63 08be
000002b0: 9799 d63d 3762 ffbd e30e fbbd 732c 043e
000002c0: e9cc e33d 617f 233c 3762 8c3e d9cb 64be
000002d0: ac44 133e cd87 4b3d d40f b73d 3512 1c3e
000002e0: 48c2 34be 4924 043e d129 fd3d 00ba 83be
000002f0: 0b1f b0bc 6a4c 933d 396e 433e 5756 08be
00000300: 1317 28be a85f abbd ff30 c3bd 6b23 953c
00000310: 1f5c 26be 6722 613c 131f 1f3e 5739 74be
00000320: 158c ddba a2d7 513e 789c 7ebd ec72 84bd
00000330: 53e8 243e 9e3a fe3c 4281 cd3d 7aad d5bd
00000340: f984 3ebd 94a2 5e3d 5961 3abe d8b7 eebc
00000350: a7fc 3b3d 88c5 05be f051 063c 13d9 b9bd
00000360: 6454 493e 0c84 dd3d 5910 0d3e 764c b9bd
00000370: e94e 9a3b 208d 87bd 5300 7e3e f64c 2fbb
00000380: 50ea 44be 7ce3 4e3e 2ef1 1cbd f809 0e3e
00000390: 7c43 2bbe 3342 533e fa7c edbd 397b 4bbe
000003a0: eda1 9f3d 83b3 bfbd 913f 983e 9105 d9bd
000003b0: f4ac fcbb 93cf de3d 9d79 063e f110 99bd
000003c0: e9f4 b2bd 57d4 cf3d 9c84 0a3e c8ae f8bc
000003d0: ff0b ff3b ac69 983d b907 20be 32b7 0bbe
000003e0: 5419 ea3b 7ca8 47be 23ad 783e 4d23 76be
000003f0: dd42 9bbd 4c12 02bd 735b 3dbe 7a76 173d
-0.14060314 0.0678027 -0.28865078 0.01866913 0.18621863 -0.08831526 -0.18414812 -0.08169627
-0.22815242 -0.077433296 -0.14826478 -0.23907357 -0.038022004 -0.09482033 0.16275199 -0.118048936
0.07401795 -0.078554794 -0.22059315 -0.11521299 -0.18861768 0.20228156 -0.1657324 -0.055646196
0.008708288 -0.040284097 0.13535437 -0.26312366 0.013016273 0.028425263 -0.075274184 0.068128064
-0.19362885 0.25570726 -0.13121761 -0.15172589 0.1734191 -0.07793098 -0.030997643 0.13217863
0.16300236 0.15235618 -0.14033374 -0.010634676 -0.024566019 -0.15650412 0.13193768 -0.1163351
0.014372719 -0.039029807 0.073810086 -0.092972174 0.25931767 -0.14236812 -0.018135542 -0.21851324
-0.11297196 -0.13703537 -0.14694203 0.060081635 -0.052831557 -0.20749521 0.12841009 -0.12214969
0.16223785 -0.16702512 0.21472101 0.25397065 -0.078641355 0.20446669 -0.067445874 -0.017608836
-0.059835352 0.069954984 0.20116997 -0.12634924 -0.095911786 -0.20233017 -0.10751521 -0.043434896
-0.08184585 -0.16890965 -0.1990123 0.17350031 -0.20842017 -0.18668912 -0.081122965 0.23181446
-0.16575448 -0.09463875 -0.1483466 -0.05474522 0.120869085 0.012597851 -0.1216066 -0.025118588
0.11010276 0.1216031 0.017474594 0.1698808 -0.15895762 -0.18436994 0.13342516 0.08018047
-0.07040694 -0.030333715 0.0664412 -0.19671856 -0.12818545 -0.18410806 0.10174331 0.104187086
0.096626766 0.24562666 -0.19880465 -0.106627874 -0.12899832 0.13485202 -0.14536041 0.02887961
0.21832617 -0.007837988 -0.16652587 0.06816657 0.14358424 -0.08502716 -0.23154995 0.20494212
-0.006320049 -0.23996033 -0.077648066 0.14661863 -0.012651928 -0.21007697 0.12563777 -0.11619517
0.040948413 0.07749233 -0.21270603 -0.055536985 -0.10897944 0.1694576 0.0058991136 -0.008853561
0.045299575 -0.18241702 -0.11163152 -0.18911882 -0.15251353 -0.0051128776 -0.2538644 -0.24586095
0.17866436 -0.13559854 -0.19608612 0.00080501696 -0.21908413 -0.2141723 -0.07616054 -0.05364808
-0.13311528 -0.042231366 0.2488672 0.27491724 0.11054747 -0.050175495 0.007891018 0.09527306
-0.19323987 0.0762478 -0.22452506 -0.13319229 0.10478514 -0.12469905 -0.12258699 0.12907581
0.11123068 0.0099791 0.27418682 -0.22343387 0.14381665 0.049690057 0.08938566 0.1524132
-0.17652237 0.12904467 0.123614915 -0.25727844 -0.021499177 0.07192309 0.19085015 -0.13314186
-0.16415052 -0.08367854 -0.0953083 0.018205365 -0.16246079 0.013741112 0.15539198 -0.23849998
-0.001690271 0.20492414 -0.06216094 -0.06467232 0.1610425 0.03103381 0.100344196 -0.10433479
-0.04651353 0.054354265 -0.18201198 -0.029140398 0.045895245 -0.13063633 0.008198246 -0.09074607
0.19661099 0.108162016 0.13775767 -0.09047787 0.004709114 -0.06618714 0.24804811 -0.0026748753
-0.19230008 0.20203966 -0.038315944 0.1387099 -0.16724962 0.20630722 -0.11596103 -0.19871224
0.07794557 -0.09360411 0.29735997 -0.10596765 -0.0077110473 0.108794354 0.1313233 -0.074739344
-0.08738119 0.101479225 0.13527149 -0.03035678 0.0077834125 0.0744203 -0.15627946 -0.13644102
0.0071441326 -0.19497865 0.24284796 -0.24036904 -0.075811125 -0.03175573 -0.18491916 0.036978222

model.backbone.encoder.layers.0.ff.0.bias f4 [128]
00000000: 3fb7 6dbe 4b75 a33c 72c7 06be 4e4e aabb
00000010: 2821 4c3e 6445 5e3e 20ee 5cbe 10fd 93bd
00000020: 5469 8cbe deb5 af3b be6f 70be 080c 1a3e
00000030: 926f 4f3d 3b7c 23be 65cb cd3d ea03 443e
00000040: f0fd 603e 6c47 2abe 704a 583e cffd 30bd
00000050: 87f0 05bd 93f6 1fbe 88ae af3d bba3 a3bd
00000060: e458 febd e838 7ebe 4fc1 50bc 5935 d2bd
00000070: 65a6 1d3d fdb9 5a3e e1dd b0be 949d 21be
00000080: 23b9 cf3d 895a 04be 31e5 b03d be09 b13d
00000090: aaab a23d 75af 29be 0002 00be 32c7 903c
000000a0: 44b8 ba3d 9e48 a23c 42c6 6d3e 3ea9 20be
000000b0: 1ed7 3b3e e5a9 98bd a6db 693d 9b9d 193e
000000c0: e74d 683e c2b2 db3d c90f 2bbe 79ac 173e
000000d0: 38b5 3fbe d784 623d 110c ed3d 5e7d 673e
000000e0: a0f7 3b3e 4df3 343e d871 3ebe c9ae 8e3e
000000f0: 628c bb3d 8a82 bebd d82e 4a3e f937 823d
00000100: 5871 103e 05cf 633e 9dce 943d 0531 fb3c
00000110: de1b 203e 5dba 023e d174 0e3e 1a8e 66bd
00000120: eeb3 f6bc fba9 053e 86ed 193e b902 c0bd
00000130: 0fbf 7bbe 8f31 3ebd 14ef 04be 821d 6dbe
00000140: 1687 903c 117d 19be 6020 22be 8027 ecbd
00000150: 6b84 85bc 2a59 d0bc c8f4 5fbe bdbd 0bbe
00000160: 4abc 2a3e b5ef 613e 0b7b 31be 1047 8ebd
00000170: a17f 7d3e 13cb 733d 9fd7 4dbd 71ce 25bd
00000180: e253 163e 7a90 6e3e e6ac c53d 9215 a9bd
00000190: 95f2 0dbc f8a4 1ebd 4f80 5abe 34bc 9d3d
000001a0: 23fd 0bbb 730f 10be 3f4b 0cbe dc63 66bd
000001b0: 94d5 3bbd 834b 463e d2c9 443e 3372 6ebe
000001c0: 6d01 2b3e 0414 b83d 178a 44bd 1e39 0ebd
000001d0: de80 7dbe b01a 03be 4b0a f03c ed31 2a3e
000001e0: 4614 0c3e cbdb e63c 6535 893d fdbc e13d
000001f0: 34e9 c2bd 7414 bc3d fa77 cc3a dac4 0d3d
-0.23214434 0.01995339 -0.1316202 -0.005197323 0.19934523 0.21706158 -0.21575212 -0.07226002
-0.2742411 0.0053622564 -0.23480126 0.15043652 0.05064351 -0.15965359 0.1004856 0.19142118
0.2197187 -0.16628808 0.21122146 -0.0432108 -0.032700088 -0.15621404 0.08578211 -0.079902135
-0.12419298 -0.24826396 -0.012741401 -0.102640815 0.038488764 0.21360011 -0.3454428 -0.15782768
0.10142734 -0.12925161 0.08637465 0.08644436 0.079428986 -0.16570838 -0.12500763 0.017673109
0.09117177 0.019810017 0.2322016 -0.15689561 0.1834378 -0.0745428 0.05709424 0.15001528
0.22685967 0.10727455 -0.1670524 0.14811887 -0.18721473 0.055302467 0.11574567 0.22606418
0.1835618 0.17670937 -0.18598115 0.27867725 0.09157635 -0.09302242 0.19744432 0.06358332
0.14105737 0.2224694 0.07265971 0.030663023 0.1563563 0.12766404 0.1391175 -0.056287862
-0.030115094 0.13053124 0.15032014 -0.09375519 -0.24584602 -0.04643398 -0.12981826 -0.23155788
0.017642539 -0.14989115 -0.15832663 -0.115309715 -0.016298493 -0.025433142 -0.2187072 -0.13646598
0.16673389 0.22064097 -0.17332093 -0.06947148 0.24755718 0.05951984 -0.05025446 -0.04048008
0.14680436 0.23297301 0.096521184 -0.08256067 -0.008663793 -0.038731545 -0.21338008 0.077019125
-0.0021360598 -0.14068393 -0.13700579 -0.056247577 -0.04585798 0.19364743 0.19217613 -0.23285751
0.16699763 0.08988193 -0.047983255 -0.03472244 -0.2475619 -0.12803149 0.029301783 0.16620608
0.13679609 0.028180977 0.06699637 0.11022375 -0.09517136 0.091835886 0.0015599721 0.03461156
