TSF_Finance/checkpoints/ixic_fred_0613__PatchTST_custom_ftM_sl96_ll48_pl36_dm16_nh4_el3_dl1_df128_fc1_ebtimeF_dtTrue_Exp_0/checkpoint.pth (torch_old, 175258 bytes, 65 tensors)

model.backbone.W_pos f4 [38, 16]
000000 d9 c5 73 bc 1a 67 ca ba 7b 44 30 bc 82 44 f7 3c
       -0.0148787135 -0.0015442104 -0.0107585145 0.030184034
000010 85 30 95 3b 68 be 3f 3c a0 a5 e8 bc 3a 79 69 3c
       0.004552903 0.011703111 -0.028399289 0.014250094
000020 2f 46 70 3b 90 b5 35 3c 72 0b b1 bb 9c d1 88 bc
       0.0036662926 0.011090651 -0.0054029757 -0.016701512
000030 af f9 48 3a 00 2c 14 bc 04 86 20 bc cc 64 80 3c
       0.00076666 -0.009043694 -0.009797577 0.015673064
000040 aa 62 5b 3b 3f b7 89 3c 21 67 73 3c f1 d5 f4 3a
       0.0033475556 0.016811011 0.014856131 0.0018679482
000050 20 30 55 3b 95 6b 23 3c 6d 95 a5 bc 5f 34 f8 3b
       0.0032529905 0.00997438 -0.020212853 0.0075746025
000060 1f e9 72 bc 1f b8 ce 3a d1 b8 1c 3c a2 9d 0f 3c
       -0.014826088 0.0015771425 0.009565548 0.00876561
000070 ed f0 cb bc 00 70 4a 38 f0 ad 47 bb b3 cd 27 bc
       -0.024895156 4.826486e-05 -0.0030468665 -0.010241914
000080 6e cd d2 bb 4f 37 1a bc 62 63 9d 3a b2 50 bf ba
       -0.0064331805 -0.009412601 0.0012007768 -0.0014596193
000090 90 60 7b bc 29 54 32 3c 3c 93 34 bc e0 1a 39 3c
       -0.0153428465 0.010884323 -0.011021432 0.011297911
0000a0 12 da ed 3c 22 9f 8f 3c 52 98 d9 bb e1 26 20 bb
       0.029034648 0.017531935 -0.0066404724 -0.0024437236
0000b0 06 aa 91 3b 4a 35 44 3c 02 98 79 3c 83 d0 96 3c
       0.004445317 0.011975596 0.015233995 0.018409973
0000c0 03 ce e9 bb 3b 71 38 3c 10 65 78 3c 50 33 c9 3c
       -0.007135154 0.011257465 0.015160814 0.0245606
0000d0 c9 41 e9 bb a9 eb 4c 3c fd 44 f1 3a 53 21 b5 bc
       -0.007118438 0.012507358 0.0018407401 -0.022110617
0000e0 ad fa 19 3c 28 01 6d 3c 4a 00 92 bc 85 ca 39 bc
       0.009398145 0.014465608 -0.017822403 -0.011339788
0000f0 b0 ae 67 3c 5a 21 e7 3b 6a e2 92 bc 85 ed 86 bb
       0.01414077 0.0070535364 -0.017930228 -0.00411767
000100 be d0 8e bb f1 8f 10 bc a8 41 55 3b 8e 51 b5 3c
       -0.00435838 -0.008823381 0.0032540355 0.022133615
000110 64 d7 a4 bc 7a 71 e0 3c 37 0e 0d bc 14 7f 4a bc
       -0.020122238 0.02739786 -0.008609346 -0.012359399
000120 07 94 75 3c cb 8a ff bb 52 8d 8c 3b 9b b8 8f ba
       0.014988906 -0.007798528 0.0042893076 -0.0010965051
000130 33 51 ee 3b 53 ba 33 3c 8f ce 1a bc 97 24 4a bc
       0.0072728633 0.010969716 -0.0094486615 -0.012337825
000140 e1 01 5e 3b 21 44 c8 3b ca a8 7e 3c 7a 53 69 3b
       0.0033875632 0.006111637 0.015543172 0.0035602734
000150 a9 37 c3 3b 39 ed 4b 3c ab ee 8b 3c 33 de 90 3b
       0.005957563 0.012446695 0.01708158 0.0044210195
000160 3d bc 7a 3c df 82 f7 ba 6e 29 2a 3c 26 e1 8f 3c
       0.015303669 -0.0018883607 0.010385854 0.017563414
000170 5e 8c 8e bc 91 f0 68 bc 85 75 8c bc 72 2b 60 bc
       -0.017400917 -0.014217512 -0.017145881 -0.013682233
000180 72 6e a5 3c f2 c3 ab 3c aa 32 59 3c 3a ee 13 3d
       0.020194266 0.020967457 0.013256708 0.036115862
000190 b9 22 bc bc b7 58 02 bc 08 e0 59 3a a4 d6 1b bc
       -0.022965776 -0.007955722 0.00083112763 -0.0095116235
0001a0 ad b2 0b bb a3 c8 c5 ba 92 fe 3c 3b 23 ef 83 bc
       -0.0021316216 -0.0015089702 0.002883826 -0.01610524
0001b0 08 05 fa 3b 10 c7 a9 ba 9a a0 89 3b e6 f5 27 3b
       0.0076299943 -0.0012953002 0.0042000534 0.0025628745
0001c0 7d ce cc bb ca 4d 03 bc b0 86 fd 3b 93 07 ce 3b
       -0.0062502013 -0.008014152 0.0077370033 0.006287524
0001d0 92 a3 36 3c 5e 29 63 bc 64 4d 54 bc 09 d9 95 3b
       0.011147397 -0.013864843 -0.0129579045 0.0045729917
0001e0 00 04 a0 3c 63 18 4a 3c f2 68 46 39 9f 31 18 3c
       0.019533157 0.012334916 0.00018921847 0.009289174
0001f0 39 9c eb 3b 65 09 8f 3c c5 74 4d 3c d4 59 f4 bb
       0.007190254 0.017460534 0.012540047 -0.0074569974
000200 60 4b 92 bc 37 e7 91 3c 12 46 d3 3b ce 41 90 3c
       -0.017858207 0.017810447 0.006447562 0.017609503
000210 06 bf 9e 3a 34 fc e0 3b 3c 7e 43 3c 6f 05 53 bc
       0.0012111373 0.0068660025 0.011931952 -0.012879713
000220 f8 6c 07 bc 6e d5 a5 bc 3e fd 81 bb 11 59 be 3b
       -0.008265726 -0.020243373 -0.0039669564 0.0058089574
000230 92 b3 fb 3a 7d a5 0a bc df e2 44 bc 65 d0 2a bc
       0.0019203296 -0.008462307 -0.012016981 -0.010425662
000240 34 9e d0 bc ec 9b 4c 3c 6d 52 18 3c 3b 15 21 3c
       -0.025466062 0.012488347 0.009296996 0.009831722
000250 f7 66 79 3b 5b c7 44 3c 6b 11 3e 3c 16 5b 60 3c
       0.0038055757 0.012010421 0.011600832 0.013693592
000260 d5 7b fb 3b 1d 1f a0 bc e5 48 f3 bc 3d ed 08 bc
       0.007674674 -0.019546086 -0.029697845 -0.008357343
000270 ca c9 cb 3a 4b 16 9d bc 07 5b bc bb 40 d8 0a 3c
       0.0015547809 -0.01917567 -0.005748156 0.00847441
000280 5f 43 81 3c 8c 88 63 3b 47 73 f0 bb 1f a4 2b 3c
       0.015779195 0.003471884 -0.007337961 0.010476141
000290 ce 56 90 bc dd 9c a0 ba 1b 89 df bc 8b aa 6d 3c
       -0.017619517 -0.001225378 -0.027287057 0.014505993
0002a0 94 ba 8d bc f9 b9 30 3b 92 42 08 3c 68 3b 96 bc
       -0.017300881 0.0026966317 0.008316653 -0.018338874
0002b0 a0 64 01 ba 68 9e ad bc 78 07 2f 3c bc cd 09 bc
       -0.0004935954 -0.021193698 0.010682933 -0.008410867
0002c0 97 11 83 3c b5 83 a9 3c 5e 19 d4 3c 9d 07 85 bc
       0.015999598 0.020692686 0.025891002 -0.016238982
0002d0 5b 85 1a bc 85 e9 bf 3b 5f 9d 35 bb d4 8a 55 bc
       -0.0094312085 0.005856695 -0.0027712209 -0.0130335875
0002e0 d3 16 4a 3c cc a6 7c bc e7 34 a2 bc 67 89 b8 bc
       0.012334543 -0.015420627 -0.019800616 -0.022526456
0002f0 53 d0 56 bb ac 75 a2 ba f6 8d 73 3c 01 08 bb 3c
       -0.003277798 -0.0012394688 0.014865389 0.022830965
000300 63 ee 4a 3b 6c 5e 4a bc 0d 94 9a bc 01 a6 b8 3b
       0.0030964843 -0.0123516135 -0.018869424 0.0056350236
000310 96 fe e5 bb b6 ce 3e 3c 9d e4 31 bc e9 d6 ba 3c
       -0.0070188744 0.011645963 -0.010857728 0.022807555
000320 36 6b d5 bc c9 1f 7e bb 69 da a7 bc d6 a3 80 3b
       -0.026052099 -0.003877627 -0.020489888 0.0039257808
000330 7b 98 39 bc 38 45 a5 bc 4a 28 88 bc d3 43 92 3c
       -0.011327858 -0.020174608 -0.016620774 0.017854607
000340 e7 8b c9 3c db d5 87 bc 17 05 ba 3b 64 1e 86 bb
       0.024602843 -0.016581466 0.0056768763 -0.0040929783
000350 23 49 96 3c b2 9f 28 bc 46 bd 98 3b ae fe 6f 3b
       0.018345421 -0.010291981 0.004661235 0.0036620307
000360 1c 6e 55 bc af 1a 8d ba 3f 73 90 bc 5e 47 4a bc
       -0.01302674 -0.0010765399 -0.017633079 -0.012346117
000370 ce a7 7c bc 70 48 a7 ba ec 50 ec b8 54 9e 44 3c
       -0.015420867 -0.0012762677 -0.0001126843 0.012000639
000380 a5 b6 ba bb ae 3b f8 36 2c fd f2 ba 0c 31 38 3c
       -0.0056980425 7.3979236e-06 -0.0018538586 0.011242162
000390 37 ab 79 3c 2b fc 01 bc e3 f0 fb bb 23 15 86 bc
       0.015238575 -0.007933657 -0.007688628 -0.0163675
0003a0 74 fe 80 3c 3b e9 49 3b ab a4 76 bc 79 78 b7 bb
       0.015746333 0.0030809182 -0.015053908 -0.0055990783
0003b0 e7 db 48 bc e8 11 9f bb f4 b5 29 3c 41 f8 07 bc
       -0.01225946 -0.0048544295 0.010358322 -0.008298934
0003c0 bf e8 68 3c 29 2b 3a bc b0 37 4d 3c c8 70 7a 3c
       0.014215647 -0.011362829 0.012525484 0.015285678
0003d0 5b bb 17 ba 45 2c 5d bc 43 bb 52 bb 34 35 98 bc
       -0.0005788111 -0.013499324 -0.0032155074 -0.018580057
0003e0 34 dd db bb 44 78 9b ba 65 ce a4 bc 65 39 99 3b
       -0.006709719 -0.0011861403 -0.020117948 0.0046760314
0003f0 64 a8 d8 3b 1f c8 4c 3c 20 1b b9 3c e1 13 ca bb
       0.0066118706 0.012498884 0.022595942 -0.0061669205

model.backbone.W_P.weight f4 [16, 24]
000000 ad 63 17 be aa 53 f6 3b 90 09 ce 3d 9b bd ba 3d
       -0.14784117 0.0075172978 0.10060418 0.091181956
000010 fd 89 06 3d 45 c2 06 be 63 67 3a be 61 a5 42 3e
       0.03284644 -0.13160045 -0.18203501 0.190084
000020 a6 42 ab bd 94 71 28 be ef 83 fc 3d 40 dd 4d be
       -0.083623216 -0.16449577 0.12329852 -0.20103931
000030 c0 04 00 3e 76 8e 24 be 3b 28 bf 3d 5f 94 84 bd
       0.12501812 -0.1606997 0.09333845 -0.06473612
000040 de 85 1d bb 2b e4 ba bd 21 7f de 3d e5 77 c1 3d
       -0.002403609 -0.09125551 0.10864092 0.09446696
000050 ae 69 02 3e f5 cf 85 bd 47 c4 63 3e 67 f2 ee 3c
       0.12735626 -0.06533805 0.22242843 0.02916832
000060 e8 70 82 bd 30 63 4b be 3b 8f 01 3e 9c 25 42 be
       -0.063691914 -0.19862056 0.12652294 -0.1895966
000070 c4 42 12 be 53 6f a2 bd 51 57 88 3d 2b 2a 8f 3d
       -0.14283282 -0.0793139 0.06657279 0.06990465
000080 0b 19 01 3e 88 5c 34 3b 7e 7b c1 3d cb 97 04 3e
       0.1260721 0.0027520973 0.094473824 0.1294853
000090 df 35 4c be 20 be 32 be 04 e5 4c be cc 6d 16 be
       -0.19942425 -0.1745534 -0.20009238 -0.14690322
0000a0 75 dd c6 3d 39 09 34 3e ba 03 85 3d ee d4 27 be
       0.09710208 0.17581643 0.064948514 -0.1638982
0000b0 db 07 bd 3d c3 4f df 3d 96 d9 34 3e 69 b8 3f be
       0.09230014 0.10903885 0.17661127 -0.1872269
0000c0 c5 0d 00 bd 5f 60 dc bd 85 1c 32 3e c1 48 e0 3d
       -0.03126313 -0.10760569 0.17393692 0.10951377
0000d0 50 27 bb 3c fd e5 54 3c 28 6c b7 3d 6f 58 1d be
       0.022845894 0.012994287 0.08956176 -0.15365766
0000e0 03 e6 44 bc 3a 1d 12 be 60 0e aa 3d 1e df 98 3d
       -0.01201773 -0.14268962 0.08303523 0.07464431
0000f0 35 9b 27 be 69 7d b2 3b 54 4a dc 3d e0 05 eb 3d
       -0.163678 0.005447079 0.107563645 0.1147573
000100 86 b8 51 3e c4 f6 29 be 3b 5f 33 bd a7 5e 82 bd
       0.20480546 -0.1659804 -0.04379199 -0.0636571
000110 3e ae 28 be c8 f4 61 be 66 7c 3e be 05 e2 62 3d
       -0.16472718 -0.22066033 -0.18602142 0.05539133
000120 c9 2a 35 be b3 3e c9 bd 70 10 11 be ec d7 26 be
       -0.17692102 -0.09826412 -0.14166427 -0.16293305
000130 58 a6 35 3e 41 5e fe bc f4 f9 9f bd ee 7f 34 3e
       0.17739236 -0.031050803 -0.07811347 0.17626926
000140 33 a4 02 be ff 8d c3 bd 56 71 9b bd 71 3a 14 be
       -0.1275795 -0.09548568 -0.075899765 -0.14475419
000150 90 09 d3 bd 25 55 5d bd eb 72 26 3c 69 27 00 be
       -0.10304558 -0.05403628 0.0101592345 -0.12515034
000160 72 df 53 bc 8b 71 48 3e b0 f8 89 ba 86 a5 eb bc
       -0.0129316915 0.19574563 -0.0010526385 -0.028765451
000170 84 a8 53 be 31 3a 21 be c0 71 be 3d 68 7c df 3d
       -0.20669752 -0.15744855 0.0929904 0.109124005
000180 05 1c 3d be d7 4c 58 3d 22 eb 5d 3d f3 56 86 bd
       -0.1846772 0.052807655 0.05417932 -0.06559553
000190 ca ad 34 3e 09 71 47 3d 95 6d 0b be e5 47 43 3e
       0.1764442 0.048691783 -0.13616021 0.19070394
0001a0 47 5e e8 3d 5a 67 9f bd 71 6b 0a 3d a7 ec 29 3e
       0.11346107 -0.077833846 0.03379387 0.16594182
0001b0 cd 95 31 3e 15 2c e8 3d 34 fe 8f 3d 76 f3 e7 3a
       0.173423 0.11336533 0.07030907 0.0017696458
0001c0 29 19 38 3d bb 47 0c be 6b f9 6f 3c ec 37 3f be
       0.04494587 -0.13699238 0.014646868 -0.18673676
0001d0 03 46 06 3e c6 7a 03 be 1c c5 fd bd b2 f8 33 3e
       0.13112645 -0.12839803 -0.12391111 0.17575338
0001e0 02 72 51 bd 39 f5 f5 bd 99 64 1b be 5b a3 d1 3d
       -0.051134117 -0.12009663 -0.15175094 0.10236236
0001f0 57 73 2f be dc 7e 27 3e 35 7a 93 3d 08 c7 4c 3e
       -0.17133842 0.16356987 0.072010435 0.199978
000200 e6 62 8b bd 76 ea 27 be 63 d6 e0 bb b8 c1 32 3e
       -0.06805973 -0.16398033 -0.0068614944 0.1745671
000210 f4 e9 aa bd 0d fd 32 be 87 f1 2c 3e 24 e1 1c 3e
       -0.08345404 -0.17479344 0.1688901 0.1532026
000220 6a d7 31 3e a3 fb 0e 3e 5f 74 95 3c 20 06 1f be
       0.1736733 0.1396318 0.018243967 -0.1552968
000230 28 2c 0c be 77 48 d0 bd 97 91 16 be ef 93 3b be
       -0.1368872 -0.101700716 -0.14703976 -0.18318151
000240 ff 1a 15 3e fc 87 13 3e 66 4b 0d be 5e 8f 9a bc
       0.1456108 0.14407343 -0.13798293 -0.01886719
000250 d2 7b 41 3e 42 15 bf 3d fd d4 3e bd 2b af 7b bd
       0.1889489 0.093302265 -0.04658984 -0.06144635
000260 55 31 cc 3d 2f de a9 bd c1 f1 20 be 74 ff 74 bd
       0.09970347 -0.08294331 -0.15717222 -0.05981393
000270 f1 5d 01 3e 5e 20 ad bd b3 d0 12 be a2 25 9b bd
       0.12633492 -0.08453439 -0.14337425 -0.07575537
000280 f9 61 9f bd 51 03 1b be 6c 48 c9 bb ef ad cc 3d
       -0.07782359 -0.15137984 -0.0061426666 0.09994113
000290 d2 99 41 3e cc 39 7d 3d fb 57 32 3e 1b 9b d0 3d
       0.18906334 0.061822698 0.17416374 0.10185834
0002a0 25 1d 3d bd 2e 54 19 be a2 8d 47 bd 42 1e cd 3d
       -0.046170373 -0.14973518 -0.048719056 0.10015537
0002b0 14 b5 3a 3d 8e 7e 5e bd 0f d2 16 bc 29 e9 91 3d
       0.045582846 -0.05431991 -0.009205355 0.0712455
0002c0 b3 93 c6 bc 40 d9 1f 3e e1 28 00 be 29 5f e1 3c
       -0.02424035 0.15610218 -0.12515594 0.027511196
0002d0 58 a5 dd 3d 6c a8 27 3e 1f f7 d4 3c 05 95 0e 3c
       0.108225524 0.16372842 0.025996743 0.008702521
0002e0 fd f1 2f 3e f5 b3 1c be 5c 7a dc bd e9 d8 08 be
       0.17182155 -0.15303023 -0.10765526 -0.13363995
0002f0 9e 1d 34 3e 95 c5 84 bc 57 2c 47 be 2a 79 18 bc
       0.17589423 -0.016207496 -0.19450508 -0.0093062315
000300 a5 37 48 be ef fe d5 3d 47 e8 19 3e 90 f6 9a 3d
       -0.19552477 0.10449015 0.15030013 0.07566559
000310 d5 ec 4b bd 5c cd f3 bd 82 41 32 3e 82 fc 19 bd
       -0.049786408 -0.119044036 0.17407802 -0.037594326
000320 c1 5a a6 3d 22 9e 5d bc 08 00 2c 3e c3 1c 08 bd
       0.08122779 -0.013526471 0.16796887 -0.033230554
000330 7b ac 08 3e 74 59 16 be 92 77 2b be 42 29 12 3d
       0.13347046 -0.14682561 -0.16744831 0.035683878
000340 ed 34 2f 3e 92 ba 08 be 86 06 08 3e e9 b2 a5 3c
       0.17110033 -0.13352421 0.13283738 0.020226913
000350 0c d2 42 be 42 a5 10 be a5 f1 55 bd bf d7 4a 3b
       -0.19025439 -0.14125541 -0.052232403 0.0030951349
000360 39 6f bb 3d b4 9e 3f 3e 1d ae 3f 3e 88 54 27 be
       0.091520734 0.18712884 0.18718763 -0.1634084
000370 4a 7c f5 3d 7c dc 49 bd 23 46 f5 bb bb 66 48 3e
       0.11986597 -0.049282536 -0.0074851676 0.19570439
000380 cc e0 00 bd 57 b4 9b bd 4b 0e fc 3d 2d b4 84 3c
       -0.031464383 -0.076027565 0.12307414 0.016199196
000390 dc 2e 93 3d 36 59 fa 3c 94 c9 4c 3e 4f 64 30 3e
       0.07186672 0.030560117 0.19998771 0.17225765
0003a0 1c 56 9a 3d 85 e6 ff 3c d1 21 94 3d 7e df 88 bd
       0.07535955 0.03123785 0.072330125 -0.06683253
0003b0 0e 07 05 3e c2 90 38 3e ee 39 32 3e 41 4a c9 bd
       0.12990972 0.1802397 0.17404911 -0.09828616
0003c0 28 51 c0 bd 72 ea 31 3e 25 af 23 3e 56 75 f9 3d
       -0.09390479 0.1737459 0.15984781 0.12180583
0003d0 ca e3 28 3e d4 be 3d 3e d5 48 e1 bd 6d 4d 26 be
       0.16493145 0.18529826 -0.1100022 -0.16240473
0003e0 26 44 4c bb 93 56 00 3e 53 2f b9 bd 60 b7 fd bd
       -0.003116855 0.12533025 -0.090422295 -0.12388492
0003f0 a6 9d 4d be 3d 14 e6 3c 8b 93 ba 3c 1b 0b ed bd
       -0.2007967 0.028085822 0.022775432 -0.11574384

model.backbone.W_P.bias f4 [16]
000000 12 84 92 bd c8 8a 8f 3c 66 bc 33 3d e0 5d 74 bd
       -0.07154097 0.01752223 0.043880843 -0.05965984
000010 34 80 0e 3e 1a 58 89 bd 44 c8 ac 3c 27 94 16 be
       0.13916093 -0.06706257 0.021091588 -0.14704953
000020 1d 30 5e bd d7 a0 2c 3e 66 ad 89 bc b4 47 b4 3d
       -0.054245103 0.1685823 -0.016806316 0.08802739
000030 bc f0 b0 3c cc 39 19 3e 8e 8b f8 bd 74 ec 33 3d
       0.021599166 0.14963454 -0.12135993 0.04392667

model.backbone.encoder.layers.0.self_attn.W_Q.weight f4 [16, 16]
000000 19 a9 3e be 25 05 90 bd 66 c2 58 3e b8 70 0e 3d
       -0.18619193 -0.07032231 0.21167907 0.034775466
000010 9d 0e 08 3e c1 c7 4c bd be da 07 3e bf 03 4d 3d
       0.13286825 -0.049995188 0.13267037 0.0500524
000020 75 32 37 be ef f7 65 3e 82 5c 68 be a4 89 30 3e
       -0.17890342 0.2245786 -0.22691539 0.17240006
000030 86 f7 26 be a3 36 78 3e 5a 3c bb 3d b1 11 7e 3e
       -0.1630536 0.24239592 0.091423705 0.24811436
000040 12 7b 61 3e 5f 04 34 3d 09 cc 61 3e 46 37 1c be
       0.22019604 0.04394948 0.2205049 -0.1525546
000050 c1 03 3b be ad ae 5e be 1c 7c 10 be 5f ae e5 3d
       -0.18263151 -0.21746321 -0.14109844 0.11214899
000060 61 80 ed 3d be fb 71 be 8d ae 4f be 42 20 26 3e
       0.11596752 -0.23631188 -0.2028143 0.16223243
000070 05 24 72 3e 06 05 13 3e 28 f1 5b 3d a0 24 bd bd
       0.23646553 0.14357385 0.05369678 -0.09235501
000080 59 58 22 3d b6 ad 28 3e 07 2f 5b be 56 a5 df bd
       0.039635036 0.16472515 -0.21404658 -0.10920207
000090 e8 41 ca 3c ad cc 7b be 2e 30 80 bb 24 02 82 3d
       0.02468963 -0.24589796 -0.0039119935 0.063480645
0000a0 4f c0 a2 3d f1 dc f2 bd 01 c9 17 3e 10 5a 67 be
       0.07946836 -0.118585475 0.1482277 -0.2259295
0000b0 9b 0f 80 be d6 c3 20 3d 79 18 0f 3e f0 5f a5 bb
       -0.25011906 0.039249264 0.1397418 -0.005046837
0000c0 08 ea 35 3e 35 e5 f4 3d 14 05 21 3e 4d 55 3a bd
       0.17765057 0.1195778 0.15724593 -0.045491505
0000d0 b6 fe 31 3e 87 a6 3d be d1 db 17 be e1 86 ca bd
       0.17382321 -0.18520556 -0.14829947 -0.09889007
0000e0 19 f5 20 3e 45 dd 5b 3e 4c e5 0b be fb a7 09 3e
       0.15718497 0.21471126 -0.13661689 0.13442986
0000f0 d5 c8 0e be 74 aa 7f 3d 3f a3 40 3e 6c 38 85 3d
       -0.13943799 0.062418416 0.18812273 0.06504902
000100 2f ca 6c bb 8f bf b5 bb 04 51 f6 bc d0 97 7f be
       -0.0036131253 -0.005546517 -0.030067928 -0.24960256
000110 f3 d9 4a 3d 8c e7 36 bc 13 e6 84 3e 74 52 38 be
       0.04952426 -0.0111636035 0.25956783 -0.18000203
000120 21 f0 5c 3e da f4 72 3e 4a 0b 70 be f7 77 17 bd
       0.21575977 0.23726216 -0.23441806 -0.03697964
000130 d3 c7 ce 3d ff a1 f2 3d 9b ec f3 bd 6c 11 34 be
       0.10096707 0.118473046 -0.11910363 -0.17584771
000140 e3 78 f0 bd e7 25 a8 bd 02 1d d0 3d 0f 66 07 bc
       -0.11741807 -0.08210354 0.10161783 -0.008264079
000150 f7 e1 c8 3d e8 5c 00 bd 66 7c 2a 3d ac 18 c5 3d
       0.098087244 -0.031338602 0.04162254 0.096238464
000160 c5 bb 4b be f2 b2 f5 bd 42 02 76 be 90 9c da bd
       -0.19895847 -0.11997022 -0.24024299 -0.10674393
000170 9b dc 45 be 41 3a 83 be 3a e0 75 3e 28 12 e0 bd
       -0.19322436 -0.25630382 0.24011317 -0.10940963
000180 1c ec 50 3c da 4b 22 be 0c e8 11 bc ad bb 71 be
       0.012751605 -0.15849248 -0.008905422 -0.23606749
000190 ab 64 36 bd ad 3b 7a bd 6b 0d 59 3d d0 5c a6 3c
       -0.0445296 -0.061092068 0.052991312 0.020307928
0001a0 9c ee 14 3e 24 73 3b 3c 16 65 05 be 0d 0e 80 3e
       0.14544147 0.011441026 -0.13026842 0.2501072
0001b0 59 bd 5c bd ad fa 64 3e d0 56 4f be 50 19 20 be
       -0.053891513 0.2236125 -0.2024796 -0.15634656
0001c0 82 2a 49 be bf 4b 25 be d5 3e b1 bb 44 02 33 3e
       -0.19645122 -0.16142176 -0.0054091015 0.17481333
0001d0 3b 04 3e be 50 9b 75 3d 62 04 41 3e de be 79 3e
       -0.18556301 0.05996257 0.18849328 0.24389216
0001e0 0e ec 80 3d 54 2a bb bd cc 3f 6c be a4 0c 43 3d
       0.06295024 -0.09138933 -0.23071212 0.047619477
0001f0 9c 2e 07 3e 78 89 df 3c cb e7 ca 3d 15 7b 54 3e
       0.13201374 0.02728723 0.09907492 0.20750077
000200 c3 44 0b bd a5 e3 3d be ac b6 c8 bc e3 55 91 bd
       -0.034001123 -0.18543871 -0.024501167 -0.0709646
000210 0c 6f 01 3e 9b 26 0f 3e 0c 18 af bc e1 13 28 3e
       0.12640017 0.1397957 -0.021373771 0.16413833
000220 3a 46 67 be 71 e4 40 be 1d 86 a1 3c 2f ff fe 3c
       -0.22585383 -0.18837143 0.01971727 0.03112754
000230 99 07 52 3e 28 c7 34 bb 50 17 05 be 87 51 5c bd
       0.20510711 -0.0027584527 -0.12997174 -0.053788688
000240 61 2e 39 be 68 37 08 be 7c a8 bb bd 6f fe 05 3e
       -0.18084098 -0.13302386 -0.09162995 0.1308534
000250 61 44 86 3e 7e c4 50 3d eb f9 49 be fe 08 66 be
       0.26224044 0.05096864 -0.19724242 -0.22464368
000260 5a 6b e3 bd c6 8e 41 be 20 1c 3a be 33 79 69 be
       -0.1110446 -0.1890212 -0.18174791 -0.2280014
000270 ea 4b 37 3d a5 c6 28 3d ca 7e 1d bd 82 ff 89 3c
       0.04475013 0.041205067 -0.038450994 0.016845468
000280 ba 3a 38 3d 83 5c 8e 3d 8e d2 75 3b d7 1b 8b bd
       0.04497788 0.06951239 0.0037509534 -0.067924194
000290 7c 2c 83 bb 97 33 6f be 42 54 3f be d8 85 16 be
       -0.0040031057 -0.23359524 -0.18684486 -0.14699495
0002a0 58 de 2a 3e 3b 2d 53 3e 82 97 4d be bc 57 d1 3d
       0.1668638 0.20622723 -0.20077327 0.10221812
0002b0 af 25 e6 bc 47 17 92 3d 85 04 59 be 4c 24 80 be
       -0.02809414 0.07133346 -0.2119313 -0.25027692
0002c0 84 89 11 be f5 e8 8c 3d 36 a0 a0 3d 62 b2 b3 bc
       -0.14212614 0.068803705 0.07843058 -0.021935645
0002d0 69 8d c2 bd 24 20 c8 3c 99 fc 08 be 33 69 ef 3d
       -0.09499628 0.024429388 -0.13377608 0.11689987
0002e0 9a 3e af 3d 94 e5 00 be 9d f0 d5 3d 14 75 ae bd
       0.08556862 -0.12587577 0.10446284 -0.08518425
0002f0 f5 70 ab 3d 4f 0c 8d 3d 84 d5 7d 3e bf ae 22 3e
       0.08371154 0.06887113 0.24788481 0.15886973
000300 e1 9d 4f be 02 51 7a 3d e3 c1 4b bd a3 31 21 be
       -0.2027507 0.06111241 -0.04974545 -0.15741591
000310 83 1f 6a be f1 bd 39 3e d7 d6 41 be af 9e 15 3e
       -0.22863583 0.18138863 -0.18929611 0.14611314
000320 c3 5f c8 3d 3d 06 d8 bd de 8a fc bd 83 de 1c 3e
       0.0978389 -0.10548065 -0.12331174 0.15319256
000330 a4 05 d7 3d c5 16 a9 bc 08 e0 c2 bd 80 e2 ce bd
       0.10499123 -0.02064074 -0.09515387 -0.10101795
000340 b1 d2 db bc 6d b7 62 be 1d 23 5b bd cd b1 12 be
       -0.026833864 -0.22140284 -0.053500284 -0.14325638
000350 f0 20 2e be 1c 53 d2 3d c9 72 40 be 47 9e ab bd
       -0.17004752 0.10269758 -0.18793787 -0.083797984
000360 6b 86 cd 3d 6b 26 e2 3d f3 5e c6 3a 46 a5 7b be
       0.10035404 0.11042484 0.0015134498 -0.24574766
000370 41 2a ac 3b 10 60 23 be a8 66 40 be ee e7 01 3e
       0.0052540605 -0.15954614 -0.1878916 0.1268613
000380 c5 36 68 3e db 74 1b 3e 2d 91 70 be 7f bf 09 be
       0.22677143 0.15181296 -0.2349288 -0.13451956
000390 67 47 26 be 14 a0 2b 3e 1f 6c 77 3e 82 f6 2e be
       -0.16238175 0.16760284 0.24162339 -0.17086223
0003a0 56 86 19 be 79 c9 83 3e 35 38 08 3e 6a af 98 bb
       -0.14992651 0.2573965 0.13302691 -0.004659583
0003b0 2e 60 5e 3e d8 a8 26 3e 40 60 51 be 8d b3 35 be
       0.21716377 0.16275346 -0.20446873 -0.17744274
0003c0 5f 93 85 3d a0 85 66 3e 44 ee 62 3c cb fd 4c bc
       0.065222494 0.22511911 0.013850752 -0.012511681
0003d0 e9 c4 2f 3e fd 61 43 be 58 b9 5b be 64 c8 96 3d
       0.17164959 -0.19080348 -0.21457422 0.0736244
0003e0 09 1a f1 bd 1d 55 65 be e4 42 44 be 13 e0 81 bd
       -0.11772544 -0.2239575 -0.19166142 -0.06341567
0003f0 c8 51 a2 bc 0b d5 7e 3c 40 17 60 be 84 ab 60 3e
       -0.019814387 0.015553723 -0.21883869 0.21940428

model.backbone.encoder.layers.0.self_attn.W_Q.bias f4 [16]
000000 83 a9 05 3e 1d af 60 3e 2c 6b 41 be f8 66 52 3e
       0.13052945 0.219418 -0.18888539 0.20547092
000010 ce e4 07 3d c9 ba 1e be 6e 46 78 3c be d1 29 3e
       0.03317719 -0.1550094 0.0151535105 0.16583917
000020 cb 1d 22 be 76 d8 32 3e 2c 54 18 be 45 33 93 be
       -0.15831678 0.17465386 -0.14875859 -0.28750053
000030 8d 0b 7e 3e 72 b4 99 bc bb b5 5c be 21 63 34 3e
       0.24809094 -0.0187628 -0.215537 0.1761594

model.backbone.encoder.layers.0.self_attn.W_K.weight f4 [16, 16]
000000 c5 dc f7 3d b6 dc b7 bd 55 b5 84 3e ac 5a 6b be
       0.12102655 -0.08977644 0.25919595 -0.22983807
000010 5b 86 33 3e a9 f9 07 3d 49 6a 5a 3e 03 a8 14 be
       0.17531721 0.03319708 0.21329607 -0.14517216
000020 52 09 2a bc 56 e5 77 be 09 eb 62 be 04 b6 96 3c
       -0.010378199 -0.24208578 -0.22159971 0.018397339
000030 09 34 36 3e 90 04 0f 3e 8d 3f 2c be 98 ff 21 3d
       0.17793287 0.13966584 -0.16821118 0.039550394
000040 72 75 00 be 0d 2d c3 3c 5e 66 01 be 6c 8f 89 bd
       -0.12544802 0.023825193 -0.12636706 -0.06716809
000050 08 97 fb 3d 55 1d 27 3e f2 bf b5 bc 64 77 d0 3d
       0.12284666 0.16319783 -0.022186253 0.10179022
000060 a9 ae 44 3e 52 95 5d be 40 55 b3 bd 2f a2 eb 3c
       0.19207253 -0.21638992 -0.087564945 0.028763859
000070 a9 27 f4 bd c8 50 2a be 79 09 8a 3c 4d 92 89 3d
       -0.11921627 -0.16632378 0.01685022 0.06717358
000080 8a 1d 4a 3e 52 97 5c be 70 97 e3 bd 0e 1d 9a 3d
       0.19737831 -0.21542099 -0.11112869 0.07525073
000090 16 9a 18 3e 3f 6a 83 be d8 88 e2 3d 23 c4 76 3e
       0.14902529 -0.25666997 0.11061257 0.24098258
0000a0 cc 08 11 3d b7 89 82 3d 9b 00 80 3d 0e 9b 8e bd
       0.03540878 0.06373923 0.062501155 -0.06963168
0000b0 f3 23 a5 3d 02 3f e1 3d ab d4 2b 3c 5f 29 f7 bd
       0.080634974 0.10998346 0.010487716 -0.12068438
0000c0 1f f0 1e 3e 2a 9c ff 3d 94 6a 64 be ca 08 db bc
       0.15521286 0.12480958 -0.22306281 -0.02673759
0000d0 8f 3f 22 be ab 23 e9 bc 00 6e 29 3d 76 e2 01 bd
       -0.15844558 -0.02845939 0.04136467 -0.03171011
0000e0 6a 81 85 3e f4 86 41 3e fc b6 83 bc 73 12 64 3e
       0.26075298 0.18899137 -0.016078465 0.22272663
0000f0 03 5f 83 bd 62 4a c9 ba 20 82 e5 bd 73 13 04 3e
       -0.064146064 -0.0015357251 -0.1120646 0.12898044
000100 16 25 77 be 17 f5 53 be f9 3b 23 be 6f a9 d7 3d
       -0.24135241 -0.20698963 -0.15940847 0.10530364
000110 25 25 c2 3c 6a da 6f be 20 4c 2e 3e 3e 64 4c 3e
       0.023699353 -0.23423162 0.17021227 0.19960114
000120 48 89 4b 3e 87 62 51 3d 38 fc 8f bc 9d fb 46 be
       0.19876587 0.051119354 -0.017576322 -0.1943192
000130 4c b7 8d 3d 67 ae 80 3e 38 fa ec bd f9 6c 6b be
       0.06919727 0.25133058 -0.11571163 -0.22990789
000140 02 90 00 be b6 66 b3 3d c2 59 16 be 95 48 3d 3e
       -0.12554935 0.08759825 -0.14682677 0.18484719
000150 bf 9e db 3d bc 8f f2 3d 1b 84 ae bd c4 03 ca bd
       0.10723638 0.118438214 -0.08521291 -0.098639995
000160 e5 10 44 be 66 71 13 3d a4 e2 4a 3e 88 01 3f 3e
       -0.1914707 0.035996817 0.19813019 0.18652928
000170 15 99 1f 3e 82 6f 70 be ca 4d 23 3e ca d8 f6 3d
       0.1558574 -0.23480037 0.15947643 0.12053068
000180 31 13 47 3e 23 e1 4d be f6 25 51 3e ba f0 14 bd
       0.19440915 -0.20105414 0.20424637 -0.036362387
000190 56 e7 89 3d 73 f5 40 be ec a8 83 3d 91 13 f1 3d
       0.06733577 -0.18843631 0.06428704 0.1177131
0001a0 54 9e 7d bc 46 c4 09 be c1 8c a2 bd 2f e4 7d 3d
       -0.015479643 -0.13453779 -0.07937003 0.06198519
0001b0 ca be 15 bc d3 64 3c 3d c2 b3 e0 bd f6 11 78 3e
       -0.009139726 0.04599459 -0.10971786 0.24225602
0001c0 e5 b7 2f 3d a7 55 0b be 7c a7 fd bd a4 70 f7 bd
       0.042899985 -0.13606893 -0.12385461 -0.12082031
0001d0 ea 6e 35 3e 7b 7a 45 be d2 52 41 3e d9 f2 e1 3d
       0.17718092 -0.19285004 0.1887925 0.11032648
0001e0 72 a4 64 3d 6d 81 1b 3d ee 6c 65 be a9 35 bb 3d
       0.05582089 0.037965227 -0.22404835 0.09141094
0001f0 08 32 4a be 7a b9 35 3e 24 61 4b be c4 50 43 3e
       -0.19745648 0.17746535 -0.19861275 0.19073778
000200 ff 12 91 3e d6 52 0a 3e 9a ae 86 be f7 65 70 3e
       0.28334805 0.13508162 -0.26305085 0.23476397
000210 6b 71 28 be 98 ec 53 bc d9 f9 82 3e 67 35 cb bd
       -0.16449516 -0.012934826 0.25581244 -0.09922295
000220 a1 cf 62 3d fd 94 80 3d 59 f8 28 3e 32 da 00 be
       0.05537379 0.06278417 0.16500987 -0.12583235
000230 14 43 d7 3d 3d 23 0c 3e e6 8e b3 bd 83 a4 18 3e
       0.10510841 0.13685317 -0.0876749 0.14906506
000240 6a ef 27 bd b4 7e 34 3e 45 dd 80 bd 2b b7 1e 3e
       -0.040999807 0.17626458 -0.06292204 0.1549956
000250 2b c0 82 3e 33 7f 59 3e 03 94 06 3e 68 eb 80 3e
       0.25537238 0.21239929 0.131424 0.251796
000260 64 27 1e 3d 1d 8a 65 3e d8 88 80 3e 2c 0b 92 bd
       0.038611785 0.22415967 0.25104403 -0.07131037
000270 7a 12 34 3e c0 ea 86 bd 78 17 45 be 21 f2 4f be
       0.17585173 -0.06587744 -0.19247234 -0.20307209
000280 9a ef 57 be ec e6 93 3d 6d bf 3f 3e f0 23 24 3d
       -0.21087494 0.07221779 0.18725367 0.040073335
000290 0d 67 34 3e cf 9c 49 be 1d 72 dc 3a 21 f9 26 3e
       0.17617436 -0.19688724 0.0016818676 0.16305973
0002a0 dd a5 f7 bd 3a 11 00 3e e7 84 16 be b4 0b 54 3e
       -0.12092183 0.12506571 -0.14699136 0.2070759
0002b0 b3 90 2e be ba 45 18 3e 95 63 84 bd 27 7f ca 3d
       -0.17047386 0.14870349 -0.06464306 0.09887534
0002c0 8a 60 81 3e 53 fe 8c bd 0e 4a 88 be ef 61 d9 bc
       0.25268966 -0.06884446 -0.26619 -0.026535956
0002d0 d9 74 8d be b0 77 f1 3d 19 3d ba 3d a9 26 30 bd
       -0.2762821 0.11790407 0.09093685 -0.04300562
0002e0 7e f9 b8 bd 42 e1 f1 bc 6b 89 45 3e 92 54 23 bd
       -0.09031962 -0.029526357 0.19290702 -0.039875574
0002f0 1c 83 3e 3e 0a 43 6d be 4c 12 7f be 2e 60 39 be
       0.18604702 -0.23170105 -0.24909323 -0.18103096
000300 c2 c4 17 3e d6 e2 d5 bd 40 d1 a4 bd 5c 7d 88 3c
       0.14821151 -0.10443656 -0.08047724 0.016661339
000310 54 72 83 3e bc cd fa bd d0 c7 03 be d5 9b d6 3d
       0.25673163 -0.12246272 -0.12869191 0.10478941
000320 59 b6 1d 3e 9f c7 81 3d e5 40 5d be bb 24 4e be
       0.15401591 0.06336903 -0.21606787 -0.20131199
000330 bd cd 49 ba 47 a6 05 3e 7b 60 a7 3c 7a 2f 4c be
       -0.0007698199 0.13051711 0.020431748 -0.19939986
000340 f2 0a cd 3d 96 ee b7 3b 2a 3a bb 3d 3f 91 0e be
       0.10011853 0.0056131585 0.09141953 -0.13922594
000350 d1 5d 0a be 61 62 07 bd de 2f 5e 3c eb 62 6d 3d
       -0.1351235 -0.033052806 0.013561217 0.057955664
000360 57 13 06 be 3d 90 22 3d 95 7c 25 3e b0 34 f1 3b
       -0.13093315 0.039688338 0.16160806 0.007361017
000370 e1 73 b1 bc 00 36 31 3e 72 a9 59 3e f7 13 50 3e
       -0.0216617 0.17305756 0.21256045 0.20320116
000380 8e a0 b6 bd d8 a1 3c 3e d6 3c 77 3d 02 76 0e 3e
       -0.08917342 0.18421113 0.060360752 0.13912204
000390 6a d3 62 3d 5b df 75 bd 53 df bf 3c 34 ad 15 3e
       0.0553774 -0.06002746 0.023421919 0.14616853
0003a0 f1 e9 57 be d4 57 7d be 04 5c 4b be df 6a ec bc
       -0.21085335 -0.24740535 -0.1985932 -0.028859554
0003b0 0a 06 00 be 80 49 84 3d 20 4e 16 3e 9a 68 d8 3d
       -0.12502304 0.064593315 0.1467824 0.10566826
0003c0 0d f1 c8 3c b0 bd 99 bc 26 cc 10 be b7 2d f8 b9
       0.024529004 -0.018767208 -0.14140376 -0.00047336306
0003d0 a5 18 23 3e 4e f7 0e 3e 78 c2 02 be 00 dd eb 3d
       0.1592737 0.13961527 -0.12769496 0.11516762
0003e0 b5 49 60 be bf 54 67 3e d7 43 c9 3d 75 8d ec bb
       -0.21903117 0.22590922 0.098273925 -0.0072190114
0003f0 64 a5 24 be cb 7b 68 3e 43 36 72 be 62 fc 46 3e
       -0.16078717 0.22703473 -0.23653512 0.19432214

model.backbone.encoder.layers.0.self_attn.W_K.bias f4 [16]
000000 3a ac 88 bd 6d 58 ca 3d 25 44 22 be e3 25 d0 bb
       -0.066734746 0.09880147 -0.15846308 -0.0063521727
000010 9c 01 22 3d 8c 58 61 3e 1a 09 e2 bd d6 9b 50 be
       0.039552316 0.22006434 -0.11036892 -0.20371947
000020 31 ee 69 bd ca 20 c3 bd 57 8f 0d be 82 bb 84 bd
       -0.057111923 -0.095277384 -0.13824211 -0.06481077
000030 b2 25 eb bd c9 f7 f4 3d 74 b9 84 bd e7 2a cd 3d
       -0.11481799 0.11961324 -0.06480685 0.100179486

model.backbone.encoder.layers.0.self_attn.W_V.weight f4 [16, 16]
000000 e7 57 0d 3e 41 76 9f 3d 91 c2 06 be 12 76 ad bd
       0.13803063 0.07786227 -0.13160159 -0.08469786
000010 d9 1c 46 bc 97 69 d6 bc 3e 6c 7d 3e 84 91 6b 3e
       -0.012091839 -0.026173396 0.24748322 0.23004729
000020 53 84 6d be 09 96 b6 3b c3 3f fb bd 15 bb 16 3e
       -0.23195009 0.005572085 -0.12268021 0.14719804
000030 20 c7 44 be 8e 72 82 bd eb eb 40 3e 91 86 2c be
       -0.19216585 -0.06369506 0.18839996 -0.16848208
000040 7f 9d 2b 3e 61 8f 22 be de 13 76 3e 0c 71 8e 3d
       0.16759299 -0.15875007 0.24031016 0.06955156
000050 f3 fc 11 bd fa 5b 25 3c a3 05 d9 3d 77 eb 12 be
       -0.03564162 0.01009273 0.10596778 -0.14347635
000060 d3 85 60 3e df 48 1a 3e 82 59 49 be 77 2b ac 3d
       0.2192605 0.1506686 -0.19663051 0.08406728
000070 53 0a 71 3e 1f e4 b0 bd fa eb 70 3e d9 76 04 be
       0.23539095 -0.08637261 0.23527518 -0.12935962
000080 fb ef 62 be 87 87 57 be 0b a2 d6 3d 0a 48 52 3e
       -0.22161858 -0.21047793 0.10480126 0.20535293
000090 0e 6d 2e 3e 52 1c 44 bc 2c 3a 2d 3e 1e f4 bb 3d
       0.17033789 -0.011969643 0.16916722 0.09177421
0000a0 ad db 27 be f6 1e 97 3d 12 98 ec bc 13 0e 0e 3e
       -0.16392393 0.07378952 -0.028881107 0.13872556
0000b0 88 0d 75 3e 88 9d 08 bd c7 e5 ce 3d 7b 1f 5f be
       0.23930943 -0.03335336 0.1010242 -0.21789353
0000c0 bb 01 0a bd f1 56 d5 bd 58 76 74 bc 8f d0 29 be
       -0.033693057 -0.104169734 -0.0149207935 -0.16583465
0000d0 ff 5d 5c 3d 95 3f 1f 3e 0d a3 44 be 93 37 5d 3e
       0.05380058 0.15551598 -0.19202824 0.21603231
0000e0 15 24 b6 3d ab eb f8 bd 6e 33 ca 3b 23 70 1b be
       0.08893601 -0.12154325 0.0061706817 -0.15179496
0000f0 db 52 6f 3e cf 60 48 be c4 74 74 3e 90 37 f4 bd
       0.2337145 -0.1956818 0.23872668 -0.1192466
000100 02 2a 98 3d f3 e7 19 be 79 48 07 3d ff e5 bd 3d
       0.07429887 -0.15029888 0.0330281 0.09272384
000110 dc 3e ba 3b da c6 f2 3d f8 99 01 be ad 01 e6 bd
       0.005683763 0.11854334 -0.1265639 -0.112307884
000120 9b 06 4b be 23 09 4e be 18 5f a5 bd 03 c5 0b 3c
       -0.19826739 -0.20120673 -0.08074778 0.008530858
000130 b9 68 b4 bc 99 fb 83 bd 69 96 46 be 95 dd be bc
       -0.022022592 -0.06444473 -0.19393314 -0.023299018
000140 40 09 2b 3e 9a 53 d1 bd 7e 5d 27 be 79 4a 49 3d
       0.16702747 -0.10221024 -0.16344258 0.04914329
000150 01 78 12 be d9 ef 0b bd 28 92 e7 3c a9 39 e9 3c
       -0.1430359 -0.034164283 0.028267935 0.028469877
000160 93 11 6b 3e c3 e5 07 3e 78 d2 58 be 98 43 17 3d
       0.22955923 0.13271241 -0.21174037 0.036929697
000170 d4 74 95 3c b7 b3 a2 3d 22 8b 0d 3e f9 1e 31 3e
       0.018244185 0.07944434 0.13822606 0.17296971
000180 35 76 fc bd 53 5f 28 3e 1d db 99 3d f3 8c 29 3c
       -0.12327234 0.16442613 0.07512496 0.010348546
000190 b3 40 e9 3d 0b 06 18 3e 5a b5 1b be be 08 14 be
       0.113892935 0.14846055 -0.15205899 -0.1445646
0001a0 93 4a f2 3d b3 b4 4f 3e 80 df da bd 23 07 13 be
       0.1183063 0.20283775 -0.106871605 -0.14358191
0001b0 96 64 5e be a1 d2 bc bd c9 74 1e bc 9b a4 19 be
       -0.21718058 -0.09219862 -0.009671398 -0.15004198
0001c0 fa f7 6c bd f6 15 76 bd 17 50 36 3d 0d 6e 13 3e
       -0.057853676 -0.060079537 0.044509973 0.1439745
0001d0 7c e3 3b 3e 5a 83 fc 3d 89 d3 6a be 2c a1 e1 3d
       0.18348497 0.12329741 -0.22932257 0.11017069
0001e0 39 e0 e5 3c e1 e1 45 3e 17 83 78 bc d5 d1 17 3d
       0.02806102 0.19324447 -0.015167973 0.037065346
0001f0 c1 a8 4e be ca 45 ca bd 62 32 17 be 9b c0 17 be
       -0.20181562 -0.098765925 -0.14765313 -0.14819567
000200 2f 45 6a 3d bd 3c 52 bd 87 1b 37 3e 8d fb 79 3d
       0.057194885 -0.051327456 0.17881595 0.061030913
000210 18 3a 65 be 44 94 db bc d5 2b 1d be 98 73 52 be
       -0.22385442 -0.026804097 -0.15348752 -0.20551908
000220 5d 3e 9f bd ed 95 15 bd f8 a3 6c bc 9d f0 2b be
       -0.07775567 -0.036519933 -0.01444339 -0.16791005
000230 c9 90 39 be 4e 25 3d 3d 44 0b 0d be 75 86 0f be
       -0.18121637 0.046178155 -0.13773829 -0.14016135
000240 9b c8 34 be 99 27 6c be ba d1 b3 bc 43 df 20 3e
       -0.1765465 -0.2306198 -0.021950591 0.15710168
000250 86 51 dd bd c9 e6 8c bd 11 c9 a7 bd ac 2f 55 bd
       -0.10806565 -0.06879956 -0.08192647 -0.052047417
000260 b8 28 7b be 39 c2 75 be 26 2a 2b be 8e 17 c5 3b
       -0.24527252 -0.23999871 -0.16715297 0.006014771
000270 9c 6d 26 be 48 a2 8c 3d f4 f8 80 bd 2b 19 51 3e
       -0.1625275 0.0686689 -0.06297484 0.20419757
000280 c2 8c a4 3d 3c 71 34 3d c8 6c 8d bd b6 4a 6e be
       0.0803466 0.0440533 -0.06905514 -0.23270687
000290 d4 f9 37 be ca 82 52 be 7a 56 16 3e df 3d ef bd
       -0.17966396 -0.20557705 0.14681426 -0.11681723
0002a0 23 b3 8a 3d 11 3f 57 3e 79 be 5b 3e 40 b4 a6 3d
       0.06772449 0.21020152 0.21459378 0.08139849
0002b0 98 33 2d 3e 8b c1 47 be 8b b3 ab bd 68 15 40 be
       0.16914213 -0.19507425 -0.083838545 -0.18758166
0002c0 3d a2 26 3e a2 80 90 bc 04 dc 48 3e aa 7b d2 3d
       0.16272826 -0.017639462 0.1961518 0.10277493
0002d0 c8 d8 c7 3d 61 08 8a be d9 f5 0d 3e 59 bf bf 3d
       0.097581446 -0.26959518 0.13863315 0.093626685
0002e0 97 73 86 be 70 7b 48 be a5 0d 8e bd 07 36 e7 b9
       -0.26260063 -0.19578338 -0.06936196 -0.00044100007
0002f0 60 ff 39 3e 97 e5 3a be c9 d4 78 be 11 8d cd bd
       0.18163824 -0.18251644 -0.24299921 -0.10036672
000300 ac e1 cc bd 41 38 34 be d8 c6 42 bd 67 13 c2 3d
       -0.10003981 -0.17599584 -0.047552913 0.09476357
000310 25 78 48 3e fd f7 f6 bd c3 1f 90 bd 28 94 16 be
       0.19577082 -0.12059019 -0.07037308 -0.14704955
000320 04 39 37 be d4 34 66 3e ff f7 ad bd e9 c1 77 be
       -0.17892843 0.2248109 -0.08494567 -0.24195065
000330 fa 3f d1 3d 60 d8 28 bd ac 29 f6 bd 7b 08 f8 bd
       0.10217281 -0.041221976 -0.12019667 -0.121109925
000340 69 33 48 be 65 ff 18 be 67 aa 82 be b9 79 0a 3e
       -0.19550861 -0.14941175 -0.25520632 0.13522996
000350 e1 93 03 3e 5d cc 48 be c7 43 d2 3d 4e 44 5d 3e
       0.1284938 -0.19609208 0.10266834 0.21608087
000360 2b 87 12 be a6 27 6f be 7a 9c 71 be 5b 08 5a bd
       -0.14309375 -0.23354968 -0.23594847 -0.053230625
000370 13 d7 64 3e 1a 44 95 bd b7 7c 80 3e c7 01 47 3e
       0.2234767 -0.0728838 0.2509515 0.19434272
000380 0b ad dc 3d 21 44 74 3d a4 d8 d7 bc 86 d5 be 3d
       0.10775193 0.059635285 -0.02634842 0.0931807
000390 a9 57 6a be 52 1e 6c be c0 97 7a 3d c3 7d bc bd
       -0.22885002 -0.23058441 0.061179876 -0.09203675
0003a0 fa 7b 37 be 71 16 96 bd e9 be 14 3e fb 1e 31 3e
       -0.17918387 -0.07328499 0.14525951 0.17296974
0003b0 4d 0e d7 3d 58 1e 14 bb 6a 53 f3 bd 9a 20 6c 3e
       0.105007745 -0.0022601094 -0.11881144 0.23059312
0003c0 d3 dc 11 3e cb 6f 79 bd eb ed d1 b8 b4 d0 37 bc
       0.14244394 -0.06089763 -0.00010010212 -0.011219192
0003d0 47 a2 42 bd c5 6e 69 3e ed de 07 3e 6d f9 83 3e
       -0.04751804 0.22796161 0.13268633 0.25776234
0003e0 07 6d 4a bd b8 fb 9c 3c bc 07 ae 3d 1f 98 26 be
       -0.049420383 0.019162998 0.08497569 -0.16268967
0003f0 52 3c 6a 3e 06 4d 03 be 73 86 8d bd 91 35 48 bd
       0.22874573 -0.12822351 -0.0691041 -0.04887921

model.backbone.encoder.layers.0.self_attn.W_V.bias f4 [16]
000000 50 56 72 bd 52 5b 3d bd 8a 1d a4 bd 6c b2 13 3e
       -0.059164345 -0.046229668 -0.08013447 0.14423531
000010 52 60 73 3d 78 de 2a 3e ce 6e a3 3d 91 dc 44 be
       0.05941803 0.16686428 0.07980119 -0.19224764
000020 7d e2 33 bd fd 59 a6 3d 8c 04 14 be be 6b 11 be
       -0.043917168 0.08122633 -0.1445486 -0.14201257
000030 7c f1 83 3e 4a 65 3d 3e 6a d3 06 be 6c c8 28 3e
       0.25770175 0.1849567 -0.13166586 0.16482705

model.backbone.encoder.layers.0.self_attn.to_out.0.weight f4 [16, 16]
000000 e6 d0 35 be 3e 18 03 3d 81 84 fb 3d be 31 02 3e
       -0.1775547 0.03200554 0.122811325 0.12714288
000010 2b ca ac bc ed ed 5e 3e 02 f8 f6 bd ee 57 89 be
       -0.021092495 0.21770449 -0.120590225 -0.26824898
000020 ac 64 65 3e 27 07 45 3e 7f 98 4f 3e 70 4a cc 3d
       0.22401685 0.1924101 0.20273016 0.09975135
000030 99 c2 de 3d 45 98 f7 3d 80 57 be bd c7 b6 2f be
       0.1087696 0.1208959 -0.09294033 -0.17159568
000040 ec 75 e7 bc 07 b3 55 be 17 e8 b4 bd 4a 35 51 3d
       -0.028254472 -0.20869075 -0.0883333 0.05107621
000050 5b 19 83 bd e5 4b fb bd b3 d8 ca bd 5f a8 ca bd
       -0.064013205 -0.12270335 -0.09904613 -0.098953955
000060 08 bf 51 3e e2 f6 16 be 05 eb 9e 3c 30 87 f8 3c
       0.20483029 -0.14742616 0.019399175 0.0303379
000070 3f ef 7d bd 24 eb 65 3d 69 6e 8b 3e ed 6d 2e be
       -0.06199574 0.05613245 0.27232674 -0.17034121
000080 3e 42 32 be 0e 14 72 be 9a 97 c7 3b ed fd 45 be
       -0.17408082 -0.23640463 0.0060910704 -0.19335146
000090 d3 7f 39 3e 38 df d0 3d df 03 ee bd 60 3a 0a 3e
       0.18115167 0.101988256 -0.11621832 0.13498831
0000a0 1c 4e 58 be 45 05 ed 3d 7c b4 4b 3e 86 ab 50 be
       -0.21123546 0.11573271 0.19893068 -0.20377931
0000b0 b5 64 33 3e a7 f7 3d be e8 6e b4 bb f1 72 73 3e
       0.17518885 -0.18551503 -0.005506385 0.23774315
0000c0 ea f3 45 be c4 20 38 3e 7c 7c 5d bd 49 af 49 be
       -0.19331327 0.17981249 -0.054073796 -0.19695772
0000d0 f5 7d 0c 3e 0c e2 40 3e 8f a6 d7 3d ea f9 5b 3e
       0.13719924 0.1883623 0.105298154 0.21482053
0000e0 6e 61 8b bd 66 1e 2b 3e bc a7 56 be 13 3e 2d be
       -0.068056926 0.16710815 -0.20962423 -0.1691821
0000f0 b7 6a 3e 3c 3b 53 cc 3d 85 1b 2c 3e 1a 9f 0c 3e
       0.0116221225 0.099768125 0.16807373 0.13732567
000100 a1 c1 1c be 21 4c 3d 3d ad b9 b4 3b 8f b3 0f be
       -0.15308239 0.04621518 0.0055152983 -0.1403334
000110 a3 ad 35 be d0 2c 4a 3d 31 79 f0 3d c7 07 81 3d
       -0.17742018 0.049359143 0.117418654 0.063003115
000120 06 2f 21 3e 5a 75 b3 3d 76 bc 40 be 00 0f 31 be
       0.15740594 0.087626174 -0.18821892 -0.17290878
000130 37 15 5b 3e 7f b7 ab 3c e0 26 47 3e b6 6f 51 be
       0.21394812 0.020961521 0.19448423 -0.2045277
000140 22 1c 5a 3e 73 2f dc bd e9 f3 49 bc ac 63 73 3e
       0.21299794 -0.10751238 -0.012326219 0.2376849
000150 b6 bb 55 3d ee de c5 bd 5a a3 20 3d c6 cf ce bd
       0.05218097 -0.09661661 0.039218284 -0.100982234
000160 8a 87 c3 bd 9d 99 3b be dc 8b 07 3e 97 35 11 be
       -0.095473364 -0.18320318 0.13236946 -0.14180599
000170 53 6b a8 bd e5 50 51 3e 7a 4a c5 3d 5b 91 5d be
       -0.082235955 0.20441015 0.09633346 -0.2163748
000180 09 5a 17 be 0e 3b 75 be 27 f7 43 3e 8d a0 69 be
       -0.1478044 -0.23948309 0.1913725 -0.22815152
000190 f2 c9 11 3d 9b 34 4e be 3f 22 cc bb c5 2f d5 3d
       0.03559298 -0.20137255 -0.0062296684 0.10409502
0001a0 9c a8 c0 3d 43 3e 2c 3e 93 0c 10 3e a1 50 84 be
       0.0940716 0.16820626 0.14067297 -0.25842765
0001b0 c4 4b 21 be be a8 56 3d 49 42 16 be c8 5b a7 bc
       -0.15751559 0.05240702 -0.14673723 -0.020429507
0001c0 c0 e2 23 be aa 1b f6 3d 91 a9 51 3e 4d 9b 68 be
       -0.16004467 0.12016995 0.2047484 -0.22715493
0001d0 60 ef a3 3d 1c 9d 45 3d 28 27 1e be 02 da f5 bd
       0.080046415 0.048245534 -0.15444624 -0.12004472
0001e0 2d 3d 24 be 5a 97 a2 bd bc 58 ed bd 5c 37 64 be
       -0.16038962 -0.07939024 -0.1158919 -0.22286743
0001f0 d7 2a 1d bd 7e 3f 22 bd e5 0a e5 3d 37 cb 1a 3e
       -0.038370933 -0.039611332 0.111837186 0.15116583
000200 36 11 17 3e 6b ce 90 3d ba 6e 6d be 72 9b 29 be
       0.14752659 0.07070621 -0.2318677 -0.16563204
000210 c6 7a f0 bd 56 30 0b 3e 6e 55 5a be 68 d6 52 3e
       -0.11742167 0.13592657 -0.21321651 0.20589602
000220 0e ab b0 bd ef be 15 be 3d 3d 30 3e cc 11 0b 3e
       -0.08626376 -0.14623617 0.1721086 0.13581008
000230 03 25 99 bd 71 94 da bd c9 52 14 be 03 78 80 bd
       -0.074777626 -0.10672844 -0.14484705 -0.062728904
000240 bb d3 73 3d 5e e0 eb 3c 39 3d 03 bd c6 d0 ea 3c
       0.059528094 0.02879351 -0.03204081 0.028664004
000250 f6 24 00 be 98 62 6c 3d 5b 62 66 be ec ec 4d bd
       -0.125141 0.057711214 -0.22498457 -0.050274774
000260 3a 80 7e be 82 d5 dc bd a5 39 8f bd 69 65 4d bc
       -0.24853602 -0.10782911 -0.06993417 -0.012536385
000270 1d 0b 37 3e 7b 98 7d be 4e 9f a8 3d 25 6d 41 3e
       0.17875333 -0.24765198 0.0823351 0.18889292
000280 a4 f9 56 be 45 b2 82 3d 4c 18 9c 3d 08 f5 81 be
       -0.20993668 0.063816585 0.07621822 -0.25382257
000290 12 00 6a 3e d8 04 72 3e c8 f2 ef bd 01 60 37 be
       0.2285159 0.2363466 -0.11716229 -0.17907716
0002a0 47 47 0a 3e 89 80 2b be 72 28 35 be 77 a3 db 3d
       0.13503753 -0.16748251 -0.1769121 0.10724538
0002b0 dd 8e 55 3d cd 06 23 bb b4 55 54 3e 24 f2 2f 3e
       0.0521382 -0.002487588 0.20735818 0.17182213
0002c0 f3 73 90 3d b3 df a4 3d 1d a3 69 be e4 f9 ca bc
       0.070533656 0.0805048 -0.22816129 -0.02477736
0002d0 12 1e 21 be 02 b7 86 3d 16 26 50 be b5 4e a5 bc
       -0.15734127 0.06577875 -0.20327029 -0.020179132
0002e0 57 70 0d be a4 3f 30 be 47 4a 80 be 0c 99 04 3e
       -0.13812385 -0.17211777 -0.2505667 0.12949008
0002f0 55 67 17 3e 3a 8c 40 be f4 c3 0a 3d 29 6b 3e be
       0.14785512 -0.18803492 0.03387828 -0.18595566
000300 ef 52 7a be 50 73 3f be ad fa 38 3e 62 b9 66 be
       -0.24445699 -0.18696332 0.18064375 -0.22531655
000310 ff ca ec bc c7 7e 4c 3e 8d 27 e7 bc b8 cd 0a be
       -0.02890539 0.19970237 -0.028217101 -0.13555038
000320 19 9d b0 bc 8b f0 b6 3d 9f 13 00 be cf d2 26 be
       -0.021559285 0.08932599 -0.12507485 -0.16291355
000330 d1 99 42 3e 88 61 28 be a5 e3 70 bd 3d b4 93 3b
       0.19003989 -0.16443455 -0.05881085 0.00450757
000340 c2 f6 f7 bc ee 7e 09 3e ba 92 ab 3d 20 a4 c0 bd
       -0.03026903 0.13427326 0.08377595 -0.09406304
000350 a4 71 3d 3e 43 13 4d bd 46 ca 09 be 17 25 b7 bd
       0.18500382 -0.050067198 -0.13456067 -0.08942621
000360 f1 9f 39 be 86 61 a5 bd 0a b0 93 3d 37 71 ed 3d
       -0.18127419 -0.08075242 0.07211311 0.1159386
000370 6c 6f 4f 3e 3c 5f 55 3c 37 e8 88 3b 5a 6f 81 3d
       0.20257348 0.013023194 0.004178073 0.06320067
000380 93 34 6f bd b7 5e 08 bd 3f 3f 8e 3d 70 2e 41 be
       -0.058399748 -0.033293452 0.06945657 -0.18865371
000390 1e 3f ff bd 2d 08 c7 bd 46 d0 00 3e ad 78 3c 3d
       -0.124632105 -0.09718356 0.1257945 0.046013523
0003a0 7c ea 9a 3d 26 46 f1 3d 1a bc 0f 3e be 42 83 3d
       0.075642556 0.11780958 0.14036599 0.064092144
0003b0 b9 64 7d bd 63 af 96 bd 0d 71 f3 3c 5f bb 65 bc
       -0.061863635 -0.07357671 0.029716993 -0.0140217235
0003c0 2b 68 02 bd e8 17 2e be db d2 d3 bc 65 fa dc 3d
       -0.031837624 -0.17001307 -0.02585738 0.107899465
0003d0 14 98 5f 3e ff 89 db 3d 07 be 51 bd 30 ad a5 3d
       0.21835357 0.1071968 -0.051206615 0.080896735
0003e0 ea ac 6a 3e 09 cd 68 be 94 21 ee 3d f2 9f 84 be
       0.22917524 -0.22734465 0.11627498 -0.2590328
0003f0 6b f1 32 be 7c ca 1a be 17 e9 38 be 57 52 78 be
       -0.17474906 -0.15116304 -0.18057667 -0.2425016

model.backbone.encoder.layers.0.self_attn.to_out.0.bias f4 [16]
000000 8f 5a 40 be 2c 32 76 3d 34 4e e2 bd ee a2 a7 bd
       -0.18784545 0.06010644 -0.11050072 -0.08185373
000010 ed 33 1d be c5 33 35 3e d8 94 16 3c b7 3e 8c 3d
       -0.1535184 0.1769553 0.009190761 0.068478994
000020 8e c0 d9 3d ee 14 3e bd ad 24 67 3e 12 8f a5 bb
       0.1063243 -0.04640668 0.22572584 -0.0050524557
000030 2a e2 51 be ed 0c 6d be 4c 5e e3 3d 56 d3 60 3e
       -0.20496431 -0.23149462 0.1110197 0.21955618

model.backbone.encoder.layers.0.norm_attn.1.weight f4 [16]
000000 a0 a9 81 3f 64 c3 82 3f ec 92 7f 3f 6f 39 7f 3f
       1.012989 1.0215878 0.9983356 0.9969701
000010 18 53 7f 3f 63 6b 82 3f 3e 3b 84 3f 8c 5b 7d 3f
       0.99736166 1.0189022 1.0330579 0.98967814
000020 1a 93 80 3f 25 15 7b 3f 1d 90 7a 3f f7 46 83 3f
       1.0044892 0.9807914 0.9787615 1.0256032
000030 fb e1 7f 3f 00 48 7c 3f bb 52 7d 3f e9 92 77 3f
       0.99954194 0.98547363 0.9895436 0.9670854

model.backbone.encoder.layers.0.norm_attn.1.bias f4 [16]
000000 41 bd a8 bc bf 52 c0 bc c2 74 9a bb 7e cb 96 bc
       -0.020598056 -0.023476956 -0.0047136256 -0.01840758
000010 43 35 20 bb c8 02 80 bb f4 4e 61 bc 8c a5 15 b9
       -0.002444581 -0.0039065816 -0.013751734 -0.00014271418
000020 c9 0c 23 bc ae 2d 4b bc 28 57 53 3b 10 86 66 3b
       -0.009951779 -0.012401028 0.0032247994 0.0035175122
000030 20 2c d4 3c e4 52 45 3c f3 2d 05 3b 12 0e 43 bc
       0.025899947 0.012043688 0.0020321577 -0.01190521

model.backbone.encoder.layers.0.norm_attn.1.running_mean f4 [16]
000000 ea 14 1a be 68 d5 31 bb f9 22 93 3c 73 b4 f8 bc
       -0.1504704 -0.0027135257 0.017961012 -0.030359482
000010 87 4e ba 3d d3 91 5b 3d 93 4c 69 bc 26 04 11 bd
       0.09097009 0.053605866 -0.014239448 -0.035404347
000020 b8 cd a9 bd 0d 9e 41 3e 9f 1b 6a 3e bc 98 d6 3d
       -0.08291191 0.18907948 0.22862099 0.104783505
000030 b8 79 ff bb d2 b3 15 bd 13 9f b0 bd a7 85 3c 3e
       -0.0077964924 -0.036548443 -0.08624091 0.1841036

model.backbone.encoder.layers.0.norm_attn.1.running_var f4 [16]
000000 d9 f5 63 3e 60 cc a1 3e 79 e9 cc 3e 72 be 68 3f
       0.22261752 0.31601238 0.40021876 0.90915596
000010 23 5b d5 3e 65 54 ad 3e 1e a8 90 3e ed 9b 19 3e
       0.41671094 0.3385345 0.28253263 0.15000887
000020 c5 2d 38 3e 95 52 de 3f b3 03 40 3f 93 58 46 3e
       0.1798621 1.7368952 0.75005645 0.19369726
000030 e4 82 5a 3e ca 29 b6 3e c8 8f 35 3e 1f 89 6c 3e
       0.21338993 0.35578758 0.1773063 0.23099183
