TSF_Finance/checkpoints/ixic_90__PatchTST_custom_ftM_sl90_ll48_pl36_dm16_nh4_el3_dl1_df128_fc1_ebtimeF_dtTrue_Exp_0/checkpoint.pth (torch_old, 168154 bytes, 65 tensors)

model.backbone.W_pos f4 [35, 16]
00000000: b0ae 8ebd c097 a5bd 140b e8bc cf70 923d
00000010: fbc7 0b3d 568c 29bd ba58 8fbd bd48 c3bc
00000020: fb98 223d c9da cf3c 3dee 823d e52a 49bd
00000030: c910 35bd 4306 b1bc 05f3 3a3d 56b0 63bc
00000040: 20b7 82bd 46b0 b2ba 967a 1b3d 360e bf3d
00000050: 0e73 fe3b df02 6ebc d531 06bd d262 9a3d
00000060: 11ad 41bd 2300 7bbc d14c 9f3d 4a8a 3ebd
00000070: 50c7 8fbd 8e0c 10bd 2454 453d 7845 5bbd
00000080: dca9 60bd 44b5 a3bd d0a8 133d ee45 833d
00000090: 4e46 b73c a04f cc3d ed78 c8bd 1e0e 7ebd
000000a0: 4922 39bb 88ed 9d3d 67cc b2bc 2a1d 59bd
000000b0: f9cb 90bd ef3a 84bc fc5b b63c adc9 66bd
000000c0: 71f9 aabd 8b00 8fbd 04cc a33d 53e9 893d
000000d0: fe9e 8cbd b647 813c b200 93bc 8d04 133d
000000e0: 70a5 9d3d 0f93 9b3d 525b e13c d7ca ccbc
000000f0: a575 42bd 00c9 5d3d 8363 c03b 7d04 e83c
00000100: e2fa 3abd 4e48 183d a8a9 893c 8fa7 303d
00000110: facb ae3c 12b3 7d3d 428c 00bd 5c4c 1fbd
00000120: 0481 b2bc c6e5 4abc 9364 703d 7b15 3fbd
00000130: a47d 2bbd 9940 973d 0c64 ff3c 6453 6bbd
00000140: 4576 2dbd 1e19 74bd 7733 773d 7ee4 893d
00000150: 8243 dfbc 3ccc 3c3c ab5e 03bd a9fc 88bd
00000160: 150b a93c 72a4 c73d 007b 1b3d 9a75 f6ba
00000170: e726 98bd 8075 0a3d 2eda 9f3c a521 663d
00000180: 412a 11bd fdce 59bd f632 833c 184d a33d
00000190: 69a2 4bbd cc1b 213d 710a 1b3d ee34 5abd
000001a0: d983 20bd 1f20 063c 7783 b13d c391 81bd
000001b0: 2508 45bd fa68 803d 7e4d 3e3d b4f6 71bd
000001c0: fecb 57bd 6a00 4d3d 58c1 a53d d876 2e3d
000001d0: 0bcc 823d 2b7d 23bd 9c17 a53b 1459 8f3d
000001e0: c6e2 e6bc ea43 eb3b d5f8 963d 4f7c 44bd
000001f0: b7a8 80bd f0e0 663d 5863 513d 6acb 7abd
00000200: e688 a7bd 7061 9fbc bf43 83bc 5cd3 333d
00000210: c26b 173d ef9b 733d f086 7e3d c4a1 463d
00000220: f219 73bc 1e63 80bd d002 03bd 7242 2dbd
00000230: b434 38bd 7bd8 95bd 6417 66bc 3d70 bd3c
00000240: 46bc ccbd 8ab4 b7bc ad6c d13c 1cd7 b9ba
00000250: 55fe c5bc 84aa 073c 7eac 6c3d 78ad 943d
00000260: 96c9 8a3d ba0e 5abd 8938 45bd 19cf 6e3d
00000270: 4f4a 6f3c 428e 033d 1b93 80bd 598c 573d
00000280: beb4 3fbd 7f8c 583d 198f b0bb 4b3a a03d
00000290: ce7e babd 4748 133d c558 6fbd 6a06 1bbd
000002a0: 58cc 513d 5131 3cbd 98a2 b03c 804a d5bc
000002b0: ca89 663d b199 9cbd 8d2f a03d 123f ca3c
000002c0: f7be 6ebd b2cc 15bd 7264 b13d 5178 9c3b
000002d0: 0616 a7bd 4665 7f3c d434 213b 908e 98bd
000002e0: d261 cabc 254d d0bd 9f38 1a3d 9199 0fbd
000002f0: f4dc 653d 96d2 12bd 7dc6 7b3d d580 703d
00000300: 0513 8dbd 5d8b 7fbd 8772 273c 5d3f d4bc
00000310: c09e bfbd 94ab f9bb 39e8 b9bd a909 7ebd
00000320: 6f2e 5e3d 4f15 42bb 801a f73c 615f 343d
00000330: 97a9 9f3c 306e 83bd 3e91 d73c b2f1 fbba
00000340: d661 0f3d 32fa 8eb9 d8cc 99bc 1018 63bc
00000350: cf2a acbc e9d8 81bd 8c46 273b ff7a 5b3d
00000360: 219e e5bc be5f e53c 8953 1fbd 7095 58bd
00000370: a385 493d 3013 653c 26b1 edbb 325f 2abd
00000380: b204 843c 01c3 e93c ac5e e4bb 9dc7 dcbc
00000390: 2113 923c 60ad a73c 8b4e 88bd 8eba a8bc
000003a0: cad7 1b3c 5421 913b 1eda 893d 6ce4 bebd
000003b0: a43f 24bd c6e8 353b ec83 723c 6181 a1bd
000003c0: bd41 3dbc fbd2 483d f1e3 423d 053f 9e3d
000003d0: 57a3 373d 669a 62bd 4d11 423d 1019 aebd
000003e0: f408 a83c 94a9 87bc f1dc 9c3d f2ee 3f3d
000003f0: 280d 8cbc e0a7 a7bc 6380 903d f019 203d
-0.06966913 -0.08085585 -0.028325595 0.07150423 0.034126263 -0.0413936 -0.06999345 -0.023838395
0.039696675 0.02537288 0.063930966 -0.049113173 -0.04420546 -0.021609431 0.045641918 -0.013897022
-0.063825846 -0.0013632856 0.037958704 0.093288824 0.0077651804 -0.014527052 -0.032762367 0.0753838
-0.04728419 -0.015319857 0.077783234 -0.0465186 -0.07020438 -0.035168223 0.048175946 -0.053533047
-0.05484949 -0.07993558 0.036049664 0.064098224 0.022372391 0.09976125 -0.0978869 -0.062025182
-0.0028249195 0.07711321 -0.021825982 -0.05300633 -0.07070155 -0.016141383 0.022260658 -0.056344677
-0.083483584 -0.069825254 0.07997897 0.06733956 -0.06866263 0.015781265 -0.017944667 0.03589301
0.0769757 0.075964086 0.027509365 -0.024999065 -0.047475476 0.054146767 0.0058712377 0.028322453
-0.045649417 0.03717833 0.016804531 0.043128546 0.021337498 0.061938353 -0.03138376 -0.03889118
-0.021790035 -0.012383884 0.058689665 -0.046651345 -0.041867867 0.07385368 0.031175636 -0.057452574
-0.04234912 -0.059594266 0.060351815 0.067330346 -0.02725387 0.011523303 -0.032072704 -0.06688816
0.020635167 0.09748162 0.0379591 -0.0018803359 -0.07429295 0.033803463 0.019513216 0.05618443
-0.035440687 -0.053175915 0.016015511 0.07973689 -0.049715433 0.03933315 0.037851755 -0.053273134
-0.03918824 0.008186369 0.08667653 -0.0632663 -0.04810347 0.06270023 0.04646062 -0.059073165
-0.052684776 0.050049223 0.08093518 0.042593807 0.06386574 -0.03991429 0.005038215 0.06999412
-0.028184306 0.007179727 0.0737168 -0.047970112 -0.0628218 0.05636686 0.051120132 -0.061229147
-0.08180408 -0.019455642 -0.016023515 0.04390274 0.036968 0.05947488 0.062140405 0.048494115
-0.014837729 -0.06268905 -0.031985104 -0.042299695 -0.044972137 -0.07316681 -0.014043663 0.023124808
-0.09996848 -0.022424955 0.025564516 -0.0014178487 -0.024169127 0.0082804 0.05778169 0.07259649
0.06776731 -0.0532367 -0.04814962 0.058302972 0.014605119 0.03211809 -0.06278058 0.05262408
-0.04680323 0.052868363 -0.0053881523 0.078236185 -0.09106217 0.0359576 -0.058434267 -0.037847914
0.051220268 -0.04594547 0.021561906 -0.0260365 0.05628375 -0.07646502 0.078215696 0.024688277
-0.058287587 -0.036572166 0.086617365 0.004775085 -0.081584975 0.01558811 0.0024598138 -0.07449067
-0.024704847 -0.10170964 0.037651654 -0.03505856 0.05611892 -0.03584536 0.06146859 0.058716614
-0.06888393 -0.062388767 0.010220177 -0.02590912 -0.09356451 -0.0076193307 -0.09077496 -0.06202093
0.0542435 -0.0029614752 0.030164003 0.044036273 0.019490046 -0.06417501 0.026314374 -0.0019221811
0.035005413 -0.0002727076 -0.018774435 -0.013860717 -0.021016506 -0.063402005 0.0025524227 0.053584095
-0.028029503 0.027999755 -0.038898025 -0.05287689 0.04919971 0.013981625 -0.0072537838 -0.04159469
0.01611552 0.028535368 -0.0069692936 -0.026950652 0.017831387 0.020468414 -0.06655606 -0.020596769
0.009511897 0.004429022 0.06731056 -0.09320912 -0.040099755 0.0027757152 0.01480196 -0.07886005
-0.011551318 0.04902933 0.047580663 0.07726864 0.044833507 -0.055323027 0.04737978 -0.08500874
0.020512082 -0.016560353 0.07659329 0.046858735 -0.017096117 -0.020465791 0.07055738 0.039087236

model.backbone.W_P.weight f4 [16, 24]
00000000: 92bd 1abe aabf cb3b ef6a b63d 4799 9c3d
00000010: fac0 823c 85ac 08be bd33 42be 1d13 2b3e
00000020: 84ce cdbd 5e04 37be 68d5 d63d 4164 50be
00000030: d361 e03d 4725 19be 3734 d43d 549c 22bd
00000040: 0ba5 d13c 6fa7 85bd d40e fa3d 1cc1 073e
00000050: 7bfb 343e 1c0a 40b8 eef7 863e 404f d33d
00000060: fe3f 9ebd 1a34 56be f25b e43d 350e 3ebe
00000070: 61a8 1dbe 9625 b6bd 9a62 753d 831a 873d
00000080: 3e0f fb3d 1173 ac3b 4dea af3d f9de 053e
00000090: 5cd8 47be bd11 06be c6d8 3ebe e44e f1bd
000000a0: a995 e03d 861c 593e b7cd bf3d 9fd8 06be
000000b0: 4f6a eb3d 2c13 253e 2f69 723e bdbc d4bd
000000c0: 4454 02bc 5455 abbd 7658 473e c087 013e
000000d0: e2cf 393d 8793 0a3d 9a8b e93d 4972 ffbd
000000e0: 93eb 9a3c 0897 e2bd 4f27 d23d bb17 b73d
000000f0: f6f1 07be fce1 fe3b 02ab e43d a3de f23d
00000100: 6593 4f3e 1733 34be 016c 42bd 21aa b9bd
00000110: e627 42be 4a8d 8dbe e421 66be 55a1 e23b
00000120: 8986 1ebe 7f76 c7bd 338d 03be bd5b 30be
00000130: 7c6e 303e 099a 07bd a814 c1bd fd01 133e
00000140: ab32 07be a290 f0bd f032 dfbd 7aa2 2fbe
00000150: a454 dfbd 2f81 a9bd 92c8 b6bc 8244 29be
00000160: 97c7 35bd 3501 193e a72b 50bd cc14 8cbd
00000170: e877 7cbe 8880 53be 234e 583d 38a0 7e3d
00000180: 2869 58be 6d42 ad3c 78da 533b 6354 b6bd
00000190: f88b 023e bdf9 003d 3efb 03be 5f20 373e
000001a0: 68dc 193e 382f 6dbd 2f4f 573d dc80 3e3e
000001b0: 9fb1 3c3e 7e05 0f3e 2187 e93d 2a32 333d
000001c0: c2de 783d d785 efbd 07cc 1a3d 498c 29be
000001d0: 72af 1d3e c02d e8bd 5d7e f8bd 13df 4d3e
000001e0: 9350 6abd 4a5a f9bd a31b 1ebe d5de c03d
000001f0: f586 28be f51a 2c3e 2f84 a63d 6645 513e
00000200: 0f7a 69bd 236d 15be 211f e03b b074 3b3e
00000210: ba72 81bd a2bc 2dbe adbb 333e d37c 263e
00000220: 476e 3f3e e9ab 113e 853c d53c 7155 25be
00000230: 1e5c 10be 7631 20be 1ca9 3ebe 9b92 7bbe
00000240: cb5f 033e 4900 0a3e 1aa5 16be 36f8 7bbc
00000250: 0dba 3c3e 3951 963d 13c1 8bbd 43b2 b9bd
00000260: b25c 8e3d e65d e0bd ea40 3bbe 26fe bfbd
00000270: 7d99 923d f1d6 d0bd c8d6 1bbe 52e3 b2bd
00000280: 4890 b8bd 9a81 16be 5ca5 58bc 28ac c33d
00000290: 1420 403e 2f64 af3d 7c4a 463e 88e6 153e
000002a0: ca5e dabd 6bd4 4ebe 9bd0 eebd 39c5 1c3d
000002b0: 48b9 603b 6934 c4bd 1e33 69bd 0a5d 263d
000002c0: d774 4bbd cc62 0d3e edab 0cbe 0481 053d
000002d0: ac97 c23d e8a2 283e c76c 7a3d f777 143d
000002e0: 297f 3a3e 2d6e febd c25b 8ebd 39bf babd
000002f0: 6c5b 683e 08da 0e3d 02ba f9bd 868d 6f3d
00000300: 7459 48be 0f13 cf3d 8d87 253e 6a92 aa3d
00000310: d202 e8bc f661 b6bd 0844 573e 4f7e 133c
00000320: 4889 ec3d 4f0d 333c 3540 493e 5e90 c1bb
00000330: da47 263e 12fb ebbd a206 0abe c0e3 553d
00000340: 9a79 4f3e 312e d1bd ace3 293e da0a 583d
00000350: 13b4 1abe 21c8 b7bd 07d6 a13b 3e3c 703d
00000360: cd38 b83d 9811 3d3e 9e5b 2b3e d687 28be
00000370: 04fb d43d ba25 66bd df2b f93a 2f96 3b3e
00000380: 192f 8fbd ac27 d6bd 0633 d93d a458 c7bb
00000390: 36e2 093d 6deb a33c c8b8 613e 85c2 3f3e
000003a0: e875 c53d aafd 623d 03eb 983d 0696 92bd
000003b0: d49c 0b3e 92fb 403e 0d0e 333e f03e a9bd
000003c0: 75c0 dcbd fe74 233e 1343 1d3e 7d6d e73d
000003d0: 8ca0 1f3e f390 303e 2ef7 ddbd e912 2dbe
000003e0: 6d29 0abb 4a53 e23d 1e08 cebd 110b 17be
000003f0: 4572 4fbe 56e5 333b 6b9c 4ebb cdab 08be
-0.15111378 0.0062179165 0.08907115 0.07646423 0.015961159 -0.13347061 -0.18965049 0.1670651
-0.10049155 -0.1787276 0.10489923 -0.20350744 0.109561585 -0.14955626 0.10361522 -0.039699867
0.025591394 -0.06526076 0.122098595 0.13257259 0.17674057 -4.5785782e-05 0.2636103 0.1031785
-0.07727049 -0.20918313 0.1115035 -0.18560107 -0.15396263 -0.08893888 0.059908487 0.065968536
0.122587666 0.0052627404 0.08589611 0.13073339 -0.19516128 -0.13092704 -0.1863738 -0.11782625
0.109660454 0.21202287 0.09365409 -0.13168572 0.11494886 0.16120595 0.23672937 -0.103875615
-0.007954661 -0.083658844 0.19467339 0.12649441 0.045364268 0.0338321 0.1140358 -0.1247297
0.018911159 -0.11063963 0.10261404 0.08940073 -0.13275895 0.0077784043 0.1116543 0.11858871
0.2027107 -0.17597614 -0.04746628 -0.09065653 -0.18960533 -0.27646858 -0.22473866 0.006916205
-0.15481009 -0.09739398 -0.12846832 -0.17222495 0.17229646 -0.033105884 -0.09427768 0.14356227
-0.13202922 -0.117463365 -0.108983874 -0.17151824 -0.10904816 -0.08276593 -0.022312436 -0.1653004
-0.044379797 0.14941867 -0.05082288 -0.06839904 -0.24655116 -0.206545 0.052808892 0.062164515
-0.21133864 0.021149838 0.0032326262 -0.08902814 0.12748706 0.03148817 -0.1288881 0.17883442
0.15025485 -0.05790636 0.05256575 0.18603843 0.18427132 0.13966939 0.11402727 0.043749012
0.060759313 -0.1169545 0.037792232 -0.16557421 0.15398958 -0.11336851 -0.12133477 0.20104627
-0.057205748 -0.121754244 -0.1544023 0.09417502 -0.16457732 0.16807158 0.08130681 0.2043663
-0.05700117 -0.14592414 0.0068396484 0.18306231 -0.063207105 -0.16966489 0.17552061 0.16258554
0.18694411 0.14225735 0.026029835 -0.16145875 -0.1409764 -0.15643868 -0.18619198 -0.24567644
0.12829511 0.13476671 -0.14711419 -0.015379002 0.18430348 0.07339711 -0.06823935 -0.09067204
0.06951274 -0.1095541 -0.18286481 -0.09374647 0.07158182 -0.10197247 -0.15218651 -0.08734764
-0.090118945 -0.14697877 -0.0132230185 0.095543206 0.18762237 0.085640304 0.19364351 0.14638722
-0.10662611 -0.20198219 -0.11660882 0.038274024 0.0034290124 -0.09580309 -0.056933515 0.040616073
-0.049671974 0.1380722 -0.1373746 0.032593742 0.09501585 0.16468394 0.061138894 0.03624722
0.1821257 -0.12423358 -0.06951095 -0.09118504 0.22691125 0.0348759 -0.12193681 0.058484577
-0.19565374 0.10111057 0.1616499 0.083287075 -0.028321657 -0.08905403 0.21022046 0.009002282
0.11549622 0.010928466 0.196534 -0.0059071025 0.16238347 -0.11522497 -0.13479093 0.052219152
0.20261231 -0.102138884 0.16590756 0.052744724 -0.15107755 -0.089737184 0.004938844 0.0586512
0.08995209 0.18463743 0.16734168 -0.16458067 0.1039944 -0.056188323 0.0019010267 0.18319009
-0.06991405 -0.104567856 0.10605435 -0.006083565 0.033662997 0.02000972 0.22043145 0.18726547
0.096416295 0.055417694 0.074667 -0.07157521 0.13634044 0.18845966 0.17485829 -0.082639575
-0.10778896 0.15962598 0.15357618 0.1130018 0.15588588 0.17242794 -0.108381614 -0.16901745
-0.002108182 0.110510424 -0.10060142 -0.14750315 -0.20258434 0.0027449927 -0.0031526338 -0.13346787

model.backbone.W_P.bias f4 [16]
00000000: b13f 92bd a4c7 023d 264e 833d e087 75bd
00000010: e566 f03d ed4c e0bc c127 093d 7b4a 39be
00000020: b8b2 c3bc f23e 5b3e e7a5 ff3c 1cb7 863d
00000030: abea f9bb 201d 293e 9fe2 e3bd 883a 803d
-0.071410544 0.031928673 0.0641139 -0.059944034 0.117383756 -0.027380431 0.033485178 -0.18094818
-0.02388893 0.2141073 0.031207038 0.06577894 -0.0076268516 0.16515017 -0.11127209 0.06261164

model.backbone.encoder.layers.0.self_attn.W_Q.weight f4 [16, 16]
00000000: 9f88 553e 4d75 77bd af95 05be bfbb 553e
00000010: 6535 82be 7eb1 0f3e 3e09 f33d eefe b73d
00000020: 7c4e 303e 64b3 40be 9949 45be 62f9 393e
00000030: 14c8 083d aaa7 bc3d b57c 1c3e c2e1 43be
00000040: 4993 1b3e 3ab2 02bd 9801 d13d cebd 35be
00000050: cb75 3dbe c3d5 7dbd 900a 41be b0df 03bd
00000060: 8b94 e63c 31ba 09be 9f6b 603c f176 013e
00000070: 030d 1dbe 37f5 453d a36c 223e 3b66 073e
00000080: d360 6bbe 598f 733c 5939 e23d 8106 59bd
00000090: a114 a23d a607 c73d 6763 6abe 6696 153e
000000a0: b932 02be 8089 913d f3ae 503e fd58 bf3d
000000b0: b74b b6bd 2177 25be 702b 283e 09dc 483e
000000c0: ddd9 1abe 112b c1bd fbad 513e c1df bf3d
000000d0: a6c4 8a3d 59b0 71bd 42be 1e3e cf4d 4e3d
000000e0: 2c0a 8bbe b2ba 4d3e 9d8a 59be a4a5 193e
000000f0: 89aa 4cbe 6cfe 213e f308 143e 64b1 133e
00000100: 0ed4 6f3e 2a99 e93c 53c1 4b3e 43e8 2dbe
00000110: ba11 24be ac3d 84be c130 e6bd 4be7 b73d
00000120: 21a0 0a3e 5ddd 57be 30f6 3cbe 0d0f 593e
00000130: 634a 863e 1f1d 1d3e 6291 913c c08d 1ebd
00000140: a926 233d 788f 143e f18c 4bbe 1114 e6bd
00000150: 6966 1a3d 362d 6bbe c469 cabc 2672 813d
00000160: a05f 9a3d 8b19 f2bd 6487 133e 6bdf 6cbe
00000170: de80 73be e877 443d 3531 0d3e 6bea 61bc
00000180: 1206 363e ec84 f13d d87d 133e bcd4 97bd
00000190: e352 4c3e 055c d5bd e950 30be 16bb 04be
000001a0: 0dbf 2e3e 2087 693e 46cd 23be 7cf9 033e
000001b0: f8b9 e9bd 34da d83d 4bee 303e 1dd5 9d3d
000001c0: d65a 8e3a 817a 113c 5479 3ebd 1b2f 42be
000001d0: 1a4f 203d f806 7c3d b867 733e ba09 48be
000001e0: 7fe6 3c3e 7c35 663e 5a05 65be 1c7b 74bd
000001f0: e617 933d 9f87 873d 195c 62bd ec30 21be
00000200: 20dd 4bbe 9491 11be 646d 303e d905 42bd
00000210: 6010 033e 2ba1 4abd 8e1b a13d 322c 373b
00000220: 971b 27be cafb c6bd 9a01 34be ca8b c7bd
00000230: 708f fabd b0b3 64be c932 433e 2f2d 8cbd
00000240: 1e68 423c 6f1f 03be 445a 16bd e110 59be
00000250: 6ebd 6ebd d8a1 583c 4ba8 873b 7206 673d
00000260: 66f6 0e3e cc35 213b 0653 1cbe f2e8 703e
00000270: a48f adbd 17eb 493e 8200 2ebe 4ce7 2fbe
00000280: 2789 28be e3fb 0abe 65e0 fcbc 1cd0 553e
00000290: c18f 56be 1e59 d33d 8f18 1e3e c911 8a3e
000002a0: 5400 743d 3ade cebd 5f6c 89be b225 3e3d
000002b0: f119 ab3d 686e 1e3b 3523 173e bcc0 453e
000002c0: eb4a 6f3d 45c3 01be 8ec0 dbbd 7a4d b4bd
000002d0: 2f4c 0d3e ab9e e4ba 83e3 b33d 0f53 f43d
000002e0: 5eea 76be 5f9b 23be b5fa 01bc dcaa c03d
000002f0: 387e 7a3e 66a2 fb3c fa8c 63be 2d05 29bd
00000300: 30f8 7dbe 250b 26be c4ad 3fbc 251d 083e
00000310: 59dc 833e d557 a63d 5d6d 0abe eb4f a1be
00000320: 77be 99bd ce58 4dbe 622a e1bd f166 5cbe
00000330: b36c 803d 0f4d 543d 2f6c acbc 41e5 1e3d
00000340: 24cf 8d3d fff9 913d 8cd3 9bbc b961 a4bd
00000350: 1df7 643b d0ed 5ebe 92c9 2abe 6ea4 f9bd
00000360: 0465 633e 14f0 5d3e e23d 57be 0d5b f43d
00000370: 014e ca3c 8ee5 f53d 99ab 6ebe 7bf9 44be
00000380: 8928 48be b616 cd3d e704 d83d b3ec 823d
00000390: c366 1fbe 2b10 463d 9769 0bbe cee6 a33d
000003a0: 661a a4bb 278e 4abe 0d35 123e 94ad e9bd
000003b0: a8b1 3bbc fd6f 283c 6eec a53e b36a 2c3d
000003c0: c64e 85be d3af 643d f14f 3bbc 12bf f2bd
000003d0: 2945 85be 2885 7f3e 45dd 27be e311 2b3e
000003e0: 9d0d b53d c7e0 2abe c311 9fbd 1089 b33d
000003f0: 99bd a43d c8a0 89bd 9e51 36bc c084 fdbd
0.20852898 -0.0604146 -0.13045381 0.208724 -0.25431362 0.14032552 0.11866997 0.08984171
0.1721744 -0.18818432 -0.19266357 0.18161538 0.033393934 0.09211667 0.15281947 -0.19129089
0.15192904 -0.03190825 0.10205382 -0.17748186 -0.18501966 -0.061971437 -0.18851686 -0.032195747
0.028147003 -0.13449933 0.013697534 0.12643029 -0.15336995 0.04832956 0.15861754 0.13222592
-0.22986154 0.01486572 0.110460944 -0.05298472 0.07914091 0.09718256 -0.22889481 0.14608154
-0.12714662 0.07106304 0.20379238 0.09343145 -0.0890116 -0.16158725 0.1642282 0.19615187
-0.15122171 -0.094320424 0.20476525 0.093688495 0.06775789 -0.05900607 0.15502265 0.050367173
-0.27156198 0.2009075 -0.21244283 0.15004593 -0.19986929 0.1581971 0.14456539 0.14423138
0.23420736 0.028515417 0.19897966 -0.16983132 -0.16022387 -0.25828302 -0.11239768 0.089796625
0.13537647 -0.21080537 -0.18453288 0.21197148 0.26228628 0.1534314 0.01776952 -0.038709402
0.03983179 0.14507854 -0.19877984 -0.11234296 0.037695322 -0.22966465 -0.024708636 0.063206
0.0753777 -0.11821278 0.14407116 -0.23132102 -0.23779628 0.047965914 0.13788302 -0.0137888
0.17775753 0.11792931 0.14403474 -0.07413623 0.19953494 -0.10417942 -0.17218365 -0.12961993
0.17065068 0.22805452 -0.15996274 0.1288814 -0.11412424 0.10588494 0.17278402 0.07706664
0.0010860811 0.008879305 -0.046502426 -0.18963282 0.039137937 0.061530083 0.23770034 -0.1953496
0.18447302 0.2248134 -0.22365323 -0.05968772 0.07182293 0.066176645 -0.055263612 -0.15741318
-0.19908571 -0.1421569 0.17229229 -0.047368858 0.12799215 -0.049470108 0.07866584 0.0027949926
-0.16319118 -0.09715994 -0.17578736 -0.097434595 -0.1223439 -0.2233417 0.19062342 -0.068445556
0.011865644 -0.1280496 -0.036707178 -0.21197845 -0.058286123 0.01322218 0.004139935 0.05640263
0.13961181 0.0024598716 -0.15266046 0.23526362 -0.08474663 0.19718586 -0.16992381 -0.17178077
-0.1645857 -0.1357265 -0.030868718 0.20880169 -0.20953275 0.10319732 0.15439056 0.26966694
0.059570625 -0.1010098 -0.26840493 0.046422668 0.08354557 0.0024174694 0.14759524 0.19311804
0.058421057 -0.12672146 -0.10730086 -0.0880384 0.13798593 -0.0017442306 0.08783629 0.11929905
-0.24112841 -0.15977238 -0.007933308 0.09407589 0.24462211 0.030717086 -0.22221747 -0.0412647
-0.24801707 -0.16215189 -0.011699144 0.13292368 0.2575405 0.081222214 -0.13518281 -0.31506285
-0.075070314 -0.20053408 -0.10994412 -0.21523644 0.06270733 0.0518313 -0.02104768 0.038792852
0.069242746 0.07127761 -0.019021772 -0.080264516 0.003493733 -0.21770406 -0.16678455 -0.121895656
0.22206503 0.21673614 -0.210197 0.11931429 0.024695398 0.12006675 -0.23307647 -0.19235794
-0.19546713 0.100140974 0.1054781 0.06392803 -0.15566544 0.048355263 -0.13614498 0.08003007
-0.0050080298 -0.1978079 0.1427805 -0.114100605 -0.011455931 0.010280606 0.32406944 0.042093944
-0.26036662 0.05583174 -0.011432634 -0.1185285 -0.26029328 0.24953139 -0.16393001 0.16706042
0.08840487 -0.16687308 -0.0776706 0.08766377 0.080439754 -0.0672012 -0.0111278575 -0.12378836

model.backbone.encoder.layers.0.self_attn.W_Q.bias f4 [16]
00000000: 47ab 343d c724 a1be 368c f0bc d4e8 5ebe
00000010: 0a61 44be 1f22 af3d 5e5b edbd 51a7 c4bd
00000020: 8935 233e aef0 a23d dbec 49bd 4841 40be
00000030: 37f9 d93c 901a 7abe 418a 31be 93a6 9e3d
0.044108655 -0.3147337 -0.029363733 -0.21768504 -0.19177642 0.0855143 -0.115896925 -0.096022256
0.15938391 0.07956062 -0.04929815 -0.18774903 0.026608093 -0.24424195 -0.17337896 0.07746615

model.backbone.encoder.layers.0.self_attn.W_K.weight f4 [16, 16]
00000000: 9276 1a3e ebf7 8f3d f223 00be 1c4c 14be
00000010: 5f19 0ebe ac63 893e a69e 193e 8a18 43be
00000020: a861 17be 8f2d 843e f733 373e aaa0 4abd
00000030: 535d 783e 2183 253e 263b 72be aa00 31be
00000040: 233e 78bb 2bf5 213e 7d90 923d 7350 f53a
00000050: 379b 553e 0a24 4ebe 7b5d 65be 3ffb 203d
00000060: 6445 88bd 11a6 68be 7d97 0fbe e28b 08bd
00000070: b549 bc3c 921c 9d3c e13b 55be b38c 823e
00000080: 8d8f 173e 8614 803e 006a 4fbe 635c 8f3e
00000090: d332 c53b 902d 60be 1707 d13d e9d1 403e
000000a0: 8f2a 0bbe 71d7 f23d faac 24be 0507 66be
000000b0: 6ded 203e f6bb b4bd 89ed 06be 8ff7 cc3d
000000c0: 7d9c bc3d 0177 9fbd d8ac 813e 752b 54be
000000d0: 9301 fa3d 6c84 563d 085c 423e fbec 33be
000000e0: f11c d6bc 4638 8abe ca9d 52be f9cc 90bc
000000f0: 97b4 0f3e 7f66 be3d 1cab 01be 71b1 943c
00000100: eb42 66bd d0b9 d23c 064c 3fbe 653f 79bd
00000110: 9405 f63d 8671 323e c15b 27bd 8af7 b73d
00000120: 5241 1e3e 444b 3dbe b6b7 07be b3e8 6e3d
00000130: 7ce9 fbbd 186c 48be 5987 773d aeea cd3c
00000140: 1739 dd3d 4a49 61be 0eee 12bd 9275 b43d
00000150: babf cb3d 2549 76be 0c7f 0c3e afce bf3d
00000160: a050 543d ef12 f03c 0a7b 3e3e 6f3e e5bd
00000170: a78d bc3d 110e 793d 6a23 e33c 6ce1 d1bd
00000180: 2e07 5a3e d415 2f3e 5322 91be d297 4d3b
00000190: 05cb 3cbe 7ea5 a9bc a4de bf3c 293b bc3d
000001a0: 78b1 3b3e 5013 3c3e 0318 9ebd 98cf 6d3e
000001b0: cd37 b1bd 495d 97bc 9de8 a8bd 3424 933d
000001c0: 4dc9 41be 35c1 0fbe 52a2 6bbe 3239 e93d
000001d0: 1a5c 113d 1305 5cbe 15c8 093e bb94 9e3e
000001e0: 52dc 2f3e 6cbb 563d 8cae afbd 177d 32be
000001f0: 3824 883d a793 883e ba90 d1bd d5a2 66be
00000200: cb9f 14be 04c4 ac3d 8241 f8bd 5e43 1d3e
00000210: 8825 243e a72b 363e b265 3bbe c733 d9bc
00000220: 730a 0bbe 7b95 793d 2016 463e 72e3 453e
00000230: 0d3e 303e 882e 42be b31d 073e f5f8 163e
00000240: 35bb 443e 1bc3 3ebe 9f73 423e 6536 7dbb
00000250: 5e58 ba3c a9a3 66be 3a16 ee3d 240c 6a3d
00000260: 7f6b 73bd 24f4 1abe 1707 93bd 4494 2c3d
00000270: dd23 18bd ec96 123c a03a 8cbd 7a90 5e3e
00000280: 2439 893d 1e92 d7bd 5c03 02be f74e 04be
00000290: 5e8a 763e 28c0 12be 225d 083e 0a33 673e
000002a0: 645a bb3d 41e2 463d 219c 8bbe d8cb eb3d
000002b0: 49f2 41be cc17 4e3e d69c 63be 0c6f 353e
000002c0: 002a 6a3e 79fb f53d bb84 4dbe 297c 9a3e
000002d0: 128c 24be 18fc 383d 9409 533e 7345 7ebc
000002e0: c0f9 213d 911f 513b f48a 3f3e 31d0 29be
000002f0: 8aad 2d3d 8799 0a3e aa25 8abd 8310 be3d
00000300: c7ed 293d 1827 803e a2b5 1fbe 0e01 303e
00000310: 9bad 363e 8dbe 123e e2cb 513e 61c7 533e
00000320: 26f6 dfbc bb92 6a3e a83d 483e e1a3 98bd
00000330: a469 0f3e 5d3d cbbd 9884 25be aa9d 86be
00000340: 44de 9dbe 3494 003b 2fb5 9a3e b53a 683d
00000350: f89a 6e3e 436d d4bd 0f0b 10be f49b 483e
00000360: ab59 98bd ce8f 993d dca7 d2bd 0a1e 2f3e
00000370: 96b2 10be 747e 083e c7ca 90bd d78f 063e
00000380: 680f a33e 62a1 cbbb 8c36 bcbe 6a59 3bbd
00000390: 47d3 89be b0f6 583c ef19 523e d169 9fbc
000003a0: 2219 acbd 1a81 adba 45da 143e 0667 ef3b
000003b0: 8170 4f3e f2e7 2dbe 15c8 89be 3886 08be
000003c0: 2192 633e 99c3 6dbd afe4 0fbe 1d48 5a3d
000003d0: 2031 373e efb2 45be 6c83 15bd 5626 773d
000003e0: a974 e13d d4cd 363d 2dd9 41be c755 41be
000003f0: 9113 3abc f8b6 813d 894f 173d 74bf 6fbe
0.15084293 0.070297085 -0.12513712 -0.14482158 -0.13876866 0.26833856 0.15001926 -0.1905233
-0.14783347 0.25816008 0.17890917 -0.049469627 0.2425435 0.16163303 -0.23655376 -0.1728541
-0.0037878833 0.1581618 0.07156465 0.0018715992 0.20859991 -0.20130935 -0.22398941 0.039302107
-0.0665386 -0.227196 -0.14022632 -0.033336528 0.022984365 0.019178662 -0.20823623 0.2549797
0.14800854 0.25015658 -0.2025528 0.28000173 0.0060180216 -0.2189238 0.102064304 0.18830074
-0.13590454 0.118574984 -0.1608161 -0.22463615 0.15715571 -0.08824913 -0.1317655 0.100081556
0.09209535 -0.0778637 0.25327182 -0.20719703 0.122073315 0.05237238 0.1898042 -0.1757087
-0.026136847 -0.26996058 -0.20568004 -0.017675864 0.14033733 0.09296893 -0.1266293 0.018151017
-0.05621616 0.025723368 -0.18681344 -0.060851473 0.12012783 0.17426118 -0.040858988 0.08982761
0.15454605 -0.18485743 -0.13253674 0.058327388 -0.12300393 -0.19572484 0.060431812 0.025136318
0.10801905 -0.22000614 -0.035871558 0.08811487 0.09948678 -0.2405134 0.1372034 0.09365594
0.051834702 0.029305903 0.18601623 -0.11193549 0.092067055 0.06080443 0.027726848 -0.10248074
0.21291801 0.1709817 -0.283465 0.003137101 -0.18436821 -0.020708796 0.023421593 0.091909714
0.18329418 0.18366742 -0.077194236 0.23223722 -0.08653221 -0.018477099 -0.082474925 0.071846396
-0.18924446 -0.14038546 -0.23011139 0.11387862 0.035488226 -0.2148631 0.13455231 0.30972847
0.1717389 0.052424833 -0.08578214 -0.1743053 0.06647533 0.2667515 -0.102326825 -0.22523053
-0.14514081 0.084358245 -0.121218696 0.1535773 0.16029942 0.1779009 -0.18300512 -0.026513947
-0.13578205 0.06093357 0.19344378 0.19325045 0.1721117 -0.18963063 0.13194923 0.14743407
0.19212039 -0.18629114 0.18989418 -0.0038637158 0.022747215 -0.22523369 0.11625333 0.057140484
-0.05942869 -0.15132195 -0.07179087 0.042133585 -0.037143577 0.008947115 -0.06847119 0.21734801
0.06700352 -0.105259165 -0.12696594 -0.12920748 0.2407622 -0.14331114 0.13316777 0.22578064
0.091481 0.048555616 -0.27267554 0.115134895 -0.1894008 0.20126265 -0.22227797 0.17718142
0.22867584 0.12010855 -0.20070164 0.30172852 -0.16069058 0.04516229 0.20609123 -0.015519488
0.03954482 0.0031909684 0.1870535 -0.16583325 0.042401828 0.13535129 -0.06745465 0.09280493
0.041486528 0.25029826 -0.15596631 0.17187902 0.17839663 0.14330502 0.20487931 0.20681526
-0.027339052 0.22907536 0.1955477 -0.074531324 0.14005142 -0.099238135 -0.16163862 -0.26292163
-0.30833638 0.0019619586 0.30216357 0.056696612 0.23301303 -0.103724025 -0.14066719 0.19590741
-0.07438978 0.07498132 -0.10285923 0.17101303 -0.14130625 0.13329488 -0.07069927 0.13140808
0.31847692 -0.0062143067 -0.36760366 -0.04573957 -0.26919004 0.013242409 0.20517705 -0.019459637
-0.08403231 -0.0013237328 0.14536388 0.0073059825 0.2025776 -0.16983011 -0.26910463 -0.1333245
0.22223713 -0.058047865 -0.1405208 0.05329143 0.17889833 -0.19306539 -0.036502287 0.060339294
0.11008579 0.044629887 -0.18930502 -0.18880378 -0.011357204 0.06333727 0.036941085 -0.23412877

model.backbone.encoder.layers.0.self_attn.W_K.bias f4 [16]
00000000: 8d0b b83d fd51 9dbc 194c ac3d eeed 2cbe
00000010: 52cf dbbd 2894 0abd 30d5 753b 0b72 a33d
00000020: 1a5b f9bd a612 853d 3cf2 103e 5ca4 883c
00000030: fdd7 d7bc b5d0 4c3e 71f5 473e cac9 503e
0.08986578 -0.019204134 0.08412952 -0.16887638 -0.107329026 -0.0338327 0.0037511103 0.07980736
-0.12175579 0.064976975 0.14154905 0.016679935 -0.026348108 0.2000149 0.19527222 0.20389476

model.backbone.encoder.layers.0.self_attn.W_V.weight f4 [16, 16]
00000000: ed9a d3bd 99a1 1c3e eabe 963d 850b db3d
00000010: e999 5d3d 9755 a7bd 9c64 0f3d e982 273e
00000020: da4f 27be c6d6 72be b19e 31be 4806 013c
00000030: 686f 99bd 3368 af3d 5e04 9b3d 8b8d 053e
00000040: d341 933d 5cee 723d 33c6 18be 1d90 983d
00000050: b7aa ae3d 7da9 003e 0064 bfbd ad8c 1f3d
00000060: 5d87 78be 8aab 1f3e df95 dc3d 6407 0abd
00000070: 6078 30be 9bfb f73d 7965 2fbe efc9 193e
00000080: 918e f3bd 7f45 d73c 24d5 f4bd 4ace fcbb
00000090: 4e62 aa3d f133 8b3e e1c8 1fbe 2cec 70be
000000a0: 9b69 8fbd 878d 75bd f09b febd e832 aebd
000000b0: a7ae e6bd c104 223e 1a78 42bd 2757 d03d
000000c0: a736 1e3e 6bf6 cc3d 902e 11be 83e7 95bd
000000d0: 0846 b2bc 3cd3 8ebd 503e 8a3e dbb5 633e
000000e0: fc32 7dbe 7fc6 a3ba 27fe 04be b288 2d3e
000000f0: 0224 46be 4e89 74bd 949a 183e d3ef 3bbe
00000100: 10b6 373e c440 02be a808 493e 93e2 1e3d
00000110: 3157 3bbc 508f 353c 1a53 ec3d 3359 f7bd
00000120: f40f 443e 21aa 2c3e 5e7d 61be 77e4 ac3d
00000130: 7f45 723e d73a 96bd 0293 613e 68d7 e9bd
00000140: 99f2 2fbe ff28 00be edd4 403d 6dc4 473e
00000150: 258e 253e 738a 51bd 2209 513e 3642 153e
00000160: e38a 36be ecdd a53d 879c 8cbd 2737 1f3e
00000170: 1ca7 493e a074 2dbd a176 cd3d c0ae 7abe
00000180: 533f 9fbd c5ae 1bbe b747 8b3d 5ee4 c0bd
00000190: 00cd 55bb 3ee8 7b3e c63f 8dbe 9851 5e3e
000001a0: c437 b23d 4bbe 3cbe d6eb 623d 55ee 79be
000001b0: 58bc 423e ca36 84be 9799 a13e 78e0 1ebe
000001c0: 4feb a83d dab0 38be cfcd 9c3d 75ad 1d3e
000001d0: 6710 6ebd 9802 0f3e 1756 12be 1ea7 ddbd
000001e0: 11cb 4fbe c242 88be 2fba 46bd 9d7e 24bd
000001f0: 9ad4 98bd ead3 0bbe 909c 12be 02f6 71bd
00000200: f8b4 063e 4390 0bbe 664c 01be ede0 fb3d
00000210: 053c 16be 79b3 523b ac9d e33c 5471 89bd
00000220: c9a6 233e 5763 f23d 1438 3fbe dab7 e13a
00000230: cd69 5eba 33aa ad3d 38d3 4b3e b171 213e
00000240: 8c37 04be c157 093e 52e2 af3d b147 053d
00000250: cae5 cf3d 7c19 3b3e c259 31be 9261 1bbe
00000260: cc9f be3d db17 403e 3c28 d8bd e593 41be
00000270: 922f 69be 46f6 bbbd 41b1 2e3d 6d3b 19be
00000280: 84b9 3abd d901 dcbd 7e96 103d 970f c63d
00000290: 963d 4f3e d961 943d 8c1a 29be fe85 d13d
000002a0: ac86 873d e25e 753e e846 a4bc 23ca c13d
000002b0: 5adb 19be cdde 29bd 7361 6abe 45fb 7cbd
000002c0: d67c 413d 84df b8bd e127 533e 73b1 3e3c
000002d0: 88d5 36be dbe2 0cbd 3b48 12be ecba 49be
000002e0: 0679 343a c19e 9e3b 317f 9bbc 5f19 0bbe
000002f0: 3673 05be fa84 c53d 77d8 47be c0d7 b2bd
00000300: d31d f8bd daf5 5dbe 6b30 5fbd ee7e fc3d
00000310: 4bde 04be eb57 d8bd 6484 aabd 7d6f 1d3d
00000320: 7502 51be 2558 80be 7a60 40be f204 b83c
00000330: 2dd5 11be 761d 4d3d 59d1 a5bd 2994 4c3e
00000340: 83c1 9e3d 3849 4c3d bfc0 65bd c496 22be
00000350: c539 76be d233 3bbe 2f7c 283e f8da 15be
00000360: f8e1 223c 8e25 283e 6e5b 6e3e 6e80 263c
00000370: 7309 0a3e 8cce 86be d965 f63b b89f 82be
00000380: 2231 4a3e 91a2 3f3c 9efa 3f3e 604a f93d
00000390: a5b3 bc3d 7a09 7abe 47b6 003e 2421 d23d
000003a0: d033 8dbe 0fbf 52be 9fca 89bd e738 cbbc
000003b0: 5093 353e 86f7 49be bc1b 6bbe d73e 00be
000003c0: 62fa c3bd 4684 4dbe 9baa 87bd 6dd6 0e3d
000003d0: 454f 503e 913f 1dbe b362 48bd 8ee5 a9bd
000003e0: 65eb 09be 016b 793e 72f6 a0bd 1bd3 64be
000003f0: 1477 103e de50 91bd 24fd e2bd 1e15 86bd
-0.10332284 0.1529602 0.07360633 0.106955566 0.05410186 -0.08170622 0.035008058 0.16358532
-0.16339055 -0.23714742 -0.17345692 0.007875033 -0.07491952 0.08564796 0.07569192 0.13042276
0.07190289 0.05930935 -0.14919357 0.074493624 0.08528655 0.12564655 -0.09345245 0.03895252
-0.24270387 0.1559278 0.10770773 -0.033698454 -0.1723342 0.12108537 -0.17128552 0.15018438
-0.11892427 0.026278256 -0.11954716 -0.0077150213 0.083195314 0.27188066 -0.15603973 -0.23527592
-0.070025645 -0.059949424 -0.124320865 -0.08505803 -0.11263781 0.15822126 -0.04747782 0.10172873
0.15450536 0.10007938 -0.14177918 -0.07319548 -0.02176191 -0.069738835 0.27000666 0.22237341
-0.2472648 -0.001249507 -0.12987576 0.16946676 -0.19349673 -0.059701256 0.14902717 -0.18353204
0.17940545 -0.12720019 0.19632208 0.038790297 -0.011434362 0.011081532 0.11539288 -0.1207756
0.1914671 0.16861774 -0.2202048 0.08442014 0.23659323 -0.073354416 0.22028735 -0.114180386
-0.17182387 -0.12515639 0.04707806 0.19508524 0.16167505 -0.051157426 0.2041364 0.14576039
-0.17826419 0.08098969 -0.06865793 0.15548383 0.19692653 -0.04234755 0.10032392 -0.24480724
-0.0777575 -0.15203388 0.06800788 -0.094185576 -0.003262341 0.24600312 -0.27587718 0.21710813
0.08702043 -0.18431966 0.055400692 -0.24407323 0.1901716 -0.2582305 0.31562492 -0.15515316
0.082480066 -0.18036214 0.076564424 0.153982 -0.05812111 0.13965833 -0.14290653 -0.10822891
-0.20292307 -0.26613432 -0.048517402 -0.04015981 -0.074624255 -0.13655058 -0.14317536 -0.059072502
0.13154972 -0.1362925 -0.126268 0.122987606 -0.14671333 0.003215043 0.027785145 -0.06711069
0.15981592 0.11835354 -0.18673736 0.001722093 -0.00084843935 0.084797285 0.19904792 0.15766026
-0.12911814 0.13412382 0.08588089 0.032539073 0.10151251 0.1827144 -0.17319396 -0.15173939
0.093078226 0.187591 -0.10554549 -0.18904074 -0.22772053 -0.09177832 0.04264951 -0.14964075
-0.045587078 -0.1074254 0.03529977 0.09670942 0.20238337 0.072452255 -0.16514033 0.10230635
0.066174835 0.23961976 -0.020053342 0.09462383 -0.15025082 -0.041472245 -0.22888736 -0.061763067
0.047238193 -0.09027007 0.20620681 0.011638987 -0.17854893 -0.034396034 -0.14285366 -0.19700211
0.0006884489 0.0048407023 -0.018981548 -0.13583897 -0.1303223 0.09644504 -0.19516169 -0.08732557
-0.121150635 -0.21675816 -0.054489534 0.123288974 -0.12975423 -0.10563644 -0.08326033 0.0384364
-0.20411094 -0.2506725 -0.18786803 0.022463296 -0.14241476 0.050076924 -0.080965705 0.19978394
0.07751753 0.049874514 -0.05609202 -0.15877825 -0.24045475 -0.18281487 0.16453622 -0.14634311
0.00994157 0.16420576 0.23277065 0.010162456 0.13480167 -0.26329458 0.0075194654 -0.2551248
0.19745305 0.011696474 0.18747947 0.12172389 0.09213952 -0.24417678 0.12569533 0.10260227
-0.27578592 -0.20580696 -0.067281 -0.024807407 0.17731977 -0.19723329 -0.22959799 -0.12523971
-0.09569241 -0.2006999 -0.06624337 0.03487246 0.20342739 -0.1535628 -0.048922252 -0.08295737
-0.13468702 0.24357225 -0.07859506 -0.22346155 0.14107925 -0.07095502 -0.11083439 -0.065469965

model.backbone.encoder.layers.0.self_attn.W_V.bias f4 [16]
00000000: fa9b 6fbe 4211 27be 26b7 4abe 3c33 f13d
00000010: 2fe9 1e3e f9dc 43be 9614 de3c 44ab 343e
00000020: 2613 9fbd ca50 75be b645 5abe 7869 1ebd
00000030: ad18 183e ac16 86bd 2e69 753e f61d 233e
-0.23399344 -0.16315177 -0.19796428 0.1177735 0.1551864 -0.19127263 0.027109426 0.17643458
-0.07767324 -0.239566 -0.21315655 -0.0386748 0.14853163 -0.06547293 0.23965904 0.15929398

model.backbone.encoder.layers.0.self_attn.to_out.0.weight f4 [16, 16]
00000000: b6f8 b63d 3d58 36ba 0b4d 8e3c 2f28 963c
00000010: af65 52be 32c2 2abe e806 8a3d 299e dfbd
00000020: 791a 1dbe 04b8 6cbd 461e 1b3e bc10 313e
00000030: c569 ca3d 2cc9 e2bc 8f61 38be 7b1d 4c3e
00000040: be9b 3f3e cfb1 7ebd c796 6b3d 2051 25ba
00000050: ee33 f7bd 402a 7b3e 2bf3 1c3e 1eae 8f3e
00000060: 02f0 34bd d6fa fe3c 2ceb bf3d d922 07be
00000070: e74d 663e 11c7 04be e038 8cbd 2f43 ebbd
00000080: 3263 a9bc 2a74 e9ba 0270 6ebd 9f7f 1b3e
00000090: d959 203d e2e3 183e f2a7 ed3d 61cd 72be
000000a0: 15c9 2dbd 2506 183e fe8e b8bd 1bdf 22be
000000b0: 7272 1f3e d185 9b3e 08c1 12be 2125 143e
000000c0: 50b9 30be 244b 893c df03 ae3d f847 2a3e
000000d0: 5850 30ba ca3f 123e f8c2 43be efaf 60be
000000e0: 0fb1 6e3e a4fc f93d 0016 333e 185c d23d
000000f0: ae17 d43d 7a94 d63d 47ab a3bc 8667 37be
00000100: abad 4abd e5d8 62be 904d c0bd 8796 2e3d
00000110: 3033 8fbd 90eb 01be a078 83bd cea5 76bd
00000120: 504f 1a3e b5ab 2dbe 2493 acbc e6cd 313d
00000130: b3fd 2bbd ea7f 8b3c fd59 723e 7ce5 21be
00000140: a818 17be 3072 36be 11f0 113c f95c 35be
00000150: b581 253e a9a3 923d 54e9 29be 82a5 d33d
00000160: 5917 3ebe 87d2 f23d 9e0f 633e 0636 57be
00000170: 0e79 0f3e e30d 9ebd 2101 013d 7b04 5e3e
00000180: 1555 14be 157b 0f3e 4357 143c bf17 54be
00000190: 8363 b73d df81 653e e66d 323e b362 813e
000001a0: f6ce a1bd 7720 263e 00ca 68be c341 febd
000001b0: df24 c43c 6097 93bb d446 be3d 67ee b43d
000001c0: fe07 e4bd 01bb 043c 72f2 5e3d 6c32 3ebe
000001d0: a112 3ebe f811 223d 88aa ea3d 6238 663d
000001e0: 9666 093e 8780 d83d eb37 28be 7b5f 9ebd
000001f0: e2ca 5a3e caae 20bd d4ae 373e 067c 71be
00000200: 7fa5 633e 960b 00be 4cff 65bc 1a06 5f3e
00000210: 8b49 0a3d 2026 42bd dc4a 2b3d 05b2 04be
00000220: f744 ffbd 7d1d 0cbe 767e 083e 24b4 dbbd
00000230: da49 39bd 2a3b 663e e799 ad3d d2b2 54be
00000240: 50bd 1ebe 29b8 64be abdd 333e 934f 92be
00000250: a6ff 5b3d e6a8 35be 3b51 313c 1e34 ec3d
00000260: bf1c a33d bfed 1a3e 038e 023e 9e9b 70be
00000270: 77f7 0abe d270 183a d4a8 28be a322 fdbb
00000280: 7211 44be e2c1 fd3d e199 033e 58e4 24be
00000290: e824 d93d 7d30 983c 264a 38be e253 0abe
000002a0: 1bd8 1bbe 2687 2cbd b2bf fabd a860 84be
000002b0: 5808 7bbd cbe8 ab3d 9bf0 363e 37b5 5b3e
000002c0: cbaa 163e 2e6f bc3d cee7 55be ab20 51be
000002d0: 5941 a3bd 85ed 093e aa02 5cbe ddb4 133e
000002e0: b5cb 56bd ff21 e1bd f16d 413e 4635 173e
000002f0: df87 d6bd e447 10be 9fc8 5bbe 5726 94bd
00000300: 364f 933d a3e6 883a cb28 7abc 4488 b2bb
00000310: 5d7d ecbd a924 ec3d feb8 5abe eae3 5dbd
00000320: c13d 82be 7c58 b8bd 4746 87bd 19a8 223d
00000330: 2b90 2a3e 2440 96be d91e 7a3d ec55 333e
00000340: 2ca4 78be 5ee8 413d 361b 683d df04 80be
00000350: 0c86 743e b981 5b3e d5cb c3bd 8aaa 5abe
00000360: ed3c b23d 0704 1dbe 5e4c 52be 549f d33d
00000370: 0de0 8d3d 0c55 85bc 7ba5 2a3e c4d3 423e
00000380: 79bd a23d b0ff 913d 416f 6ebe b883 0cba
00000390: 9741 2fbe 109d 1a3d 51cd 6dbe b0c0 80bb
000003a0: 7fcd ecbd 4529 34be 1f41 7ebe 3f0f e33d
000003b0: 6c19 023e b33f 0bbe 2c08 fd3d 1867 42be
000003c0: 883c 84be 5413 1dbe 6a8c 323e 650b 83be
000003d0: ebd4 ea3a 5eab 483e ad3a 54bd 7761 36be
000003e0: 50c7 1cbc 191a 003e bc2d c9bd 9b97 19be
000003f0: 77c0 353e aa3f 2dbe 4605 b4bd aaef 243d
0.089341566 -0.00069558976 0.017370721 0.018329708 -0.20546602 -0.16675642 0.067395985 -0.109188385
-0.1534213 -0.05779268 0.15148267 0.1729154 0.09883455 -0.027683817 -0.18005966 0.19933121
0.18711755 -0.06218129 0.05751684 -0.0006306339 -0.12070452 0.24527836 0.15327136 0.28062528
-0.0441742 0.031125467 0.09371027 -0.13196887 0.22490655 -0.12966563 -0.068467855 -0.11487424
-0.020677183 -0.0017811109 -0.058212288 0.15185402 0.039148185 0.1493068 0.11604299 -0.23711158
-0.042428095 0.14846094 -0.090116486 -0.1590542 0.15571001 0.3037553 -0.14331448 0.14467289
-0.17258191 0.016759463 0.08496832 0.16629016 -0.00067258393 0.14282146 -0.19117343 -0.21942113
0.2330973 0.122063905 0.17488861 0.10271472 0.10356079 0.104775384 -0.019979132 -0.17910585
-0.04948203 -0.22153051 -0.09389794 0.042624023 -0.06992185 -0.12687516 -0.06419492 -0.060216717
0.15069318 -0.16960032 -0.021066256 0.04340925 -0.041989993 0.017028768 0.2366714 -0.15810198
-0.147555 -0.17816997 0.008907334 -0.17711248 0.1616276 0.07160122 -0.16592914 0.103343025
-0.18563594 0.11856561 0.22173926 -0.21016702 0.14011022 -0.077174924 0.031495217 0.21681397
-0.14485581 0.14011796 0.009054008 -0.20712183 0.08954527 0.22412823 0.17424735 0.25270614
-0.07900803 0.16223322 -0.22733307 -0.12414887 0.023943363 -0.0045041293 0.09290853 0.08834534
-0.11134337 0.008101226 0.054430433 -0.18573922 -0.18561794 0.039567918 0.114583075 0.056206115
0.1341804 0.1057139 -0.16427581 -0.07733055 0.21366456 -0.03922919 0.17937785 -0.23582467
0.222311 -0.1250442 -0.014037918 0.21779671 0.033761542 -0.04739964 0.04181944 -0.12958534
-0.12464326 -0.13683124 0.13329491 -0.107277185 -0.045236446 0.22483507 0.0847662 -0.2077134
-0.15501904 -0.22335877 0.17565028 -0.28576335 0.053710602 -0.17740211 0.0108225895 0.11533378
0.07964467 0.15129755 0.12749486 -0.23496863 -0.13570963 0.00058151514 -0.16470653 -0.0077250763
-0.1914728 0.12390496 0.12851669 -0.16102731 0.106027424 0.018577809 -0.17997035 -0.13508561
-0.15219156 -0.042121075 -0.12243594 -0.25854993 -0.061287254 0.08394011 0.17865221 0.21455847
0.1471359 0.09200893 -0.20889208 -0.20422618 -0.079714485 0.13469513 -0.21485391 0.14424463
-0.052440364 -0.10992812 0.18889596 0.14766416 -0.10475134 -0.14089924 -0.2146325 -0.07233875
0.07192843 0.0010444712 -0.015268515 -0.005448373 -0.11547349 0.1153043 -0.21359631 -0.054172434
-0.2543774 -0.09001252 -0.06605201 0.03971109 0.16656558 -0.2934581 0.061064575 0.17513245
-0.24281377 0.047340743 0.056666575 -0.25003716 0.2387926 0.21436204 -0.09560362 -0.21354118
0.08703027 -0.15333568 -0.20536944 0.10333124 0.069275 -0.016275905 0.16664688 0.19026095
0.07946295 0.07128847 -0.23284627 -0.0005360204 -0.17114864 0.037747443 -0.23222853 -0.00392922
-0.11562633 -0.17593868 -0.24829529 0.11086892 0.1270501 -0.13598518 0.12355074 -0.1898464
-0.25827432 -0.15339404 0.17436376 -0.2559463 0.0017916238 0.19596621 -0.05181377 -0.17810617
-0.009569004 0.12509955 -0.09823176 -0.14999239 0.17749201 -0.16918817 -0.08790068 0.040267624

model.backbone.encoder.layers.0.self_attn.to_out.0.bias f4 [16]
00000000: b359 2fbd 85b0 ad3d 59fe 223d de84 98bd
00000010: 17c9 503e 198a 89bd 4ca9 44be 610b e4bd
00000020: 90c4 38be cf17 45bd cef3 073e 402a 023e
00000030: 6256 363e 22cd a43c f3a9 3f3d 0c66 823d
-0.042810153 0.08480934 0.039793346 -0.074472174 0.2038921 -0.06715793 -0.19205207 -0.11134983
-0.18043733 -0.04811841 0.13276598 0.1271143 0.1780639 0.020117346 0.046792936 0.0636712

model.backbone.encoder.layers.0.norm_attn.1.weight f4 [16]
00000000: e6cf 833f dbd8 773f a66e 853f 2181 833f
00000010: 7a59 763f 45db 863f f811 833f 9fe4 743f
00000020: ee57 683f 756f 803f d58e 803f 57e9 853f
00000030: 1d73 6a3f 412f 7b3f b04f 753f 18ea 713f
1.029782 0.9681527 1.0424392 1.0273782 0.9623028 1.0535666 1.0239859 0.9566135
0.9075917 1.0034014 1.0043589 1.0461835 0.915819 0.9811898 0.9582472 0.94497824

model.backbone.encoder.layers.0.norm_attn.1.bias f4 [16]
00000000: 6b34 9b3c 9f8f ddbc 5014 3d3d ac41 d13d
00000010: 7722 b5bc e02b c93c 1f20 33bc 1860 b4bd
00000020: 9341 3abb 731a 80bc edea 10bc c8fe 58bd
00000030: 16bd eabc 6fcf 7ebc 78f6 023d 9662 5cbd
0.018945893 -0.027046023 0.04616195 0.10217604 -0.02211116 0.024557054 -0.010932951 -0.08807391
-0.0028420433 -0.015637612 -0.008845073 -0.052977353 -0.028654616 -0.015552386 0.031973332 -0.053804956

model.backbone.encoder.layers.0.norm_attn.1.running_mean f4 [16]
00000000: 8c2c 99bc dd5e 393d 74f7 bbbd e4fb 40be
00000010: 3e06 f53e c079 21bc 5898 45be 5ee5 a0be
00000020: 5206 88be baaf 2b3e 38cb 3d3e b680 513e
00000030: 7d8b a03e 09af d23e f6c6 85bb f5a5 e53d
-0.018698 0.045256484 -0.09178057 -0.18846089 0.47856325 -0.009855688 -0.19296396 -0.31424993
-0.26567322 0.16766253 0.18534553 0.20459256 0.3135642 0.41149166 -0.004082556 0.112132944

model.backbone.encoder.layers.0.norm_attn.1.running_var f4 [16]
00000000: 2b7d 1a3f 0397 f73e c426 303f 4957 ed3f
00000010: 1966 4a3f 0a52 d83e a86b 063f fe7d ac3e
00000020: 4474 193f 1d3b d93f 347b 903f d566 793f
00000030: 7037 6c3f 03dc 953f ec16 6a3f e0cc a93f
0.6034724 0.483574 0.6880915 1.8542262 0.7906204 0.4225009 0.5250802 0.33689874
0.5994303 1.6971165 1.1287599 0.97422534 0.9227209 1.1707767 0.91441226 1.3265648

model.backbone.encoder.layers.0.ff.0.weight f4 [128, 16]
00000000: 7a5e 96bd 37d8 a6bb 7f0a b23d 195f 1dbe
00000010: 3761 10be 9559 80bd b27f 0f3e a709 893c
00000020: dc11 443d 1ad7 4e3d 7e78 143e 34b4 9bbb
00000030: 23d4 cfbd 9da5 e5bd 4703 8d3d 1eac 1cbd
00000040: 4174 91bd 68fe 5abe 52c4 483c 8466 9b3d
00000050: 8904 7a3e 92d7 433e b50e f6bd 1b3d 7d3d
00000060: 917d 7e3e b830 5bbe bdb2 d33d f9c5 90be
00000070: 8a79 04be 6710 eebd 2e44 0ebe 0b0f 5ebe
00000080: 2677 2dbe d274 693d ad49 3cbe 77aa 5cbd
00000090: e2d7 30be 8b0f 173e c2e5 b93d 25c5 b13d
000000a0: f890 813d 5372 eabc bb18 603e 5519 cb3c
000000b0: 8ae1 67be 807e 8ebe e0be e43d d0ad 5b3e
000000c0: 3b20 c03d 42e4 b1bd b6ce a03e e3db 5c3e
000000d0: 2062 e53d 59dc 7a3e e643 023b 8242 1bbe
000000e0: 2c40 553e b825 eebd 66dc 07be 7ffd 873d
000000f0: 5fc3 e9bc 131f 4a3e df58 4ebd 5fc7 65bd
00000100: 7b18 68be 35c9 34bc f823 1b3e 94ea 46be
00000110: d316 aebb e887 343e 7b6c 983d e2d3 efbb
00000120: 295e d0bd bdb3 f5bb 23a5 4c3e 42ee a8ba
00000130: 79bf 08be 0563 7fbd 72ff f6bd 9d35 133e
00000140: a6ec 893d df1f 66bd 3b4e 663e f64f 7c3e
00000150: 6f1d 813d db2d 2abe 8542 2f3e 1bfe 743d
00000160: 67da d0bd f474 153d 9c20 4c3e e917 443e
00000170: 63b4 64bd 05a7 4b3e ba80 c33d 5702 2bbd
00000180: 54fd ee3d df43 a6bd 3cb0 babd 8bca 7d3d
00000190: f9d9 b13d a40f 1c3e 29c7 b2bd e85f 88bd
000001a0: 9de2 99bd edf8 063d a16f 9fbd 0460 4c3d
000001b0: 5318 22be fd19 50be a54d ac3d feeb 6cbe
000001c0: 49a0 21be 90c4 293d 8531 52be fe4f b23c
000001d0: e8ab 793e cec9 af3c bbe6 7dbe b926 15be
000001e0: 3307 aabd 206f 37bd 2031 6fbd 9a33 5fbe
000001f0: 8a6a 0dbd 889e a6bd 6ed2 0f3e 893e 9cbd
00000200: c0a0 b33d 8598 d2bd 2df8 82be 7eb4 04be
00000210: c975 32be 7170 543e 7914 b5bd d859 d9bc
00000220: 40e8 f9bc 27ef ee3b 4b2a df3d 4336 38be
00000230: b2ff afba 808f 4d3d 6d61 b9bd 5d6f 923d
00000240: 4354 47be 5bf0 7d3e f2dc 13be 8666 2bbe
00000250: 89f7 303e 3a11 c0bd e0e8 bcbc 033b 213e
00000260: a47e 183e 40c4 133e f353 10be ad85 c5bb
00000270: ce7f 04bd a2a5 1ebe 52b7 0e3e 8e3d 02be
00000280: 23c5 b93d 8bec 25bd 01c7 803d 220a 0abe
00000290: e4bd 8a3e ad93 ffbd 8b89 e83c ffb4 7dbe
000002a0: f69e 36be 98a9 aabd b265 4bbe 3f6f ec3d
000002b0: f5db 3dbd 543d 3ebe 7c79 0a3e 227e 12be
000002c0: 958e 703e d018 0cbe 2b97 e83d 269f 313e
000002d0: 7733 9cbb 69db 033e 8463 14bc 5609 d33d
000002e0: 7f65 bdbd e9a2 b73d f7d8 0e3e b3eb 91bd
000002f0: 4817 a3bd 094b 85be 5d28 e9bd 1968 0abd
00000300: 37cf 0ebe febd 4ebe 4a11 11be 0ead 5c3e
00000310: 965f 35be 0ee0 17be 4c25 e9bd d4ca 373e
00000320: 356c 08be aed3 f5bd bb5c cdbd e288 abbd
00000330: 6095 f73d c281 a0bc 6cf1 a6bd 8bf7 e3bc
00000340: 23c9 533e 59ed 193e bc1d 77bd 54bf 5a3e
00000350: 6620 49be 266e 6bbe f1f8 053e 4a9d ab3d
00000360: fdc8 0abe 84e9 acbd ca01 97bb 8bc0 6ebe
00000370: 37dc 2dbe fabb 65be 6d24 e93d 4f75 38bc
00000380: f2b5 9e3d dd39 6e3e 2d50 4cbe 5df1 b1bd
00000390: ea45 0cbe 2a32 133e f31c c9bd 6f4e 953d
000003a0: ad27 373e 00b9 90bc 1b34 2dbe da04 f43d
000003b0: 46e8 ec3d 316e 62bd 19d2 2dbe 8d53 3f3e
000003c0: d3ae f2bc d57b 7dbe 70c4 43bd f912 153e
000003d0: 826d 9ebb 5de3 29be 1db5 b23d 65c3 edbd
000003e0: 7888 7d39 fa41 ee3c 4db9 18be cac5 febd
000003f0: 045d 16be 5578 323e a2c1 a1bc 47de f1bc
-0.07342239 -0.005091693 0.08693408 -0.15368308 -0.14099585 -0.062670864 0.14013556 0.016728235
0.047868595 0.050498106 0.14499089 -0.0047517065 -0.10147884 -0.11213229 0.06885391 -0.03825008
-0.07102252 -0.21386111 0.012253838 0.07587913 0.24415793 0.19125202 -0.12014524 0.061825853
0.24852587 -0.21405303 0.10336826 -0.2827604 -0.12936988 -0.11624222 -0.13893196 -0.21685426
-0.16939983 0.056996174 -0.1838748 -0.053873505 -0.17269853 0.14752023 0.09077026 0.086801805
0.06326479 -0.028618967 0.21884434 0.024792353 -0.2264463 -0.27830887 0.11169219 0.21453023
0.093811475 -0.08686115 0.31407708 0.21568255 0.112003565 0.24498118 0.0019876896 -0.1516209
0.20825261 -0.11628288 -0.13267669 0.066401474 -0.028535543 0.19738416 -0.050377723 -0.05609834
-0.22665589 -0.0110343 0.1515044 -0.19425422 -0.0053127795 0.17629969 0.07442566 -0.0073189596
-0.101742096 -0.007498233 0.1998487 -0.0012888389 -0.13354291 -0.06235029 -0.12060441 0.1437592
0.0673459 -0.05618274 0.2249078 0.24639878 0.06304442 -0.16619055 0.17115219 0.059812646
-0.10197907 0.03648849 0.19934314 0.19149746 -0.055836093 0.19887932 0.09546037 -0.04175028
0.11669412 -0.08118414 -0.09115645 0.06196074 0.08684153 0.15240341 -0.08729393 -0.06658918
-0.07513926 0.032952238 -0.077849634 0.049896255 -0.15829591 -0.20322414 0.08413247 -0.23136899
-0.157838 0.041447222 -0.20526703 0.021766659 0.24381983 0.021458533 -0.24795048 -0.14565553
-0.083021544 -0.04478371 -0.05839646 -0.21797028 -0.03452543 -0.08135706 0.14045116 -0.07629115
0.08770895 -0.10282997 -0.25579968 -0.12959477 -0.17427744 0.20746018 -0.088417955 -0.026532099
-0.030506253 0.007291693 0.108967386 -0.17989449 -0.0013427644 0.05018568 -0.090517856 0.07150147
-0.19465737 0.2479872 -0.14439753 -0.16738328 0.17281927 -0.09378286 -0.023060262 0.15745167
0.1489206 0.14430332 -0.14094524 -0.0060278983 -0.032348447 -0.15492871 0.13937119 -0.12718794
0.09070804 -0.040508788 0.06287957 -0.13480428 0.27098 -0.12479339 0.028385898 -0.24776076
-0.17834076 -0.08333129 -0.19863012 0.11544656 -0.046352345 -0.18578082 0.13522905 -0.14305928
0.2349189 -0.1368134 0.11356958 0.17345867 -0.0047668773 0.12876667 -0.0090569295 0.10304515
-0.092478745 0.089666195 0.13949953 -0.07125034 -0.07963425 -0.2603381 -0.11384652 -0.03379068
-0.13946234 -0.20189664 -0.14166752 0.2155039 -0.17712244 -0.14831564 -0.11384067 0.17948467
-0.13322528 -0.12003265 -0.100274526 -0.08375718 0.12089038 -0.019593123 -0.08151516 -0.027827999
0.20682196 0.15031947 -0.06033109 0.21362048 -0.19641265 -0.22991237 0.13083245 0.0837961
-0.13553233 -0.08442977 -0.0046083676 -0.23315637 -0.16978537 -0.22434989 0.11383901 -0.011258437
0.07749547 0.2326426 -0.1995246 -0.086886145 -0.13698545 0.14374605 -0.09819975 0.07290351
0.17886229 -0.01766634 -0.16914408 0.11914988 0.1156774 -0.055280868 -0.16974677 0.18684216
-0.029624378 -0.2475427 -0.04779476 0.14558019 -0.0048348317 -0.16590638 0.08725951 -0.11609534
0.00024178799 0.029084194 -0.14914437 -0.12440069 -0.1468392 0.17428716 -0.019745652 -0.029524935

model.backbone.encoder.layers.0.ff.0.bias f4 [128]
00000000: 04f4 e1bd cdfa 8e3e 27fa a73d da2e 6d3d
00000010: 8e18 253d 5042 1b3e 4361 7dbe 5cde c2bd
00000020: f475 0bbe 94ee 62be 9bf0 50bd d0b7 463e
00000030: 89de a13d 0e54 993d 6282 dcbc ccd7 07be
00000040: 15de 3dbe 3399 fe3d 728f 5bbe 3c11 173e
00000050: 9b21 8ebd 7e1c aebb ae54 cd3d 3395 c9bd
00000060: 06b5 9b3d 43e1 06be cf06 e53d 9a7f 2abe
00000070: 6a72 ee3d 7ab8 273e d97b f7bd 5baa 51be
00000080: 5731 183e 7b4e 83bd 05b0 b43d 6183 153e
00000090: 8240 e33a 22df ffbd 2ecc 1dbe 2484 b4bc
000000a0: 42be 71be 3e17 8b3d 2bbf 683e c709 bc3d
000000b0: ce05 5e3e 5d9a 06bd 0422 1d3e 1dd2 25be
000000c0: 54d7 f2bb 4687 ddbb 67df 3cbe 4fab 11be
000000d0: 2c4f 913d bed1 6bbe c16e 61be cfe1 ba3d
000000e0: d291 353d d3f9 38be d0b8 54be e186 293e
000000f0: 47e9 ab3d 5dd2 553e 5832 173e 4d90 3a3e
00000100: 372a 4e3e d71b 1d3e b5c2 133e 1199 81bc
00000110: 7e12 89be 7423 253e 5961 613c 5c93 1dbd
00000120: 62b7 debd cf46 1b3e 5986 65be f362 b13d
00000130: f4e6 163e b21d c5bd febf a13d f5e6 c43c
00000140: fca1 0bbe 8388 93be 8be9 7f3e 2a9b c53c
00000150: ca35 86be 6abd e1bd c46f 9abd 0ca6 eb3d
00000160: e73a 47bd b0f7 b3bd 00f1 b2bd 8079 87be
00000170: 20c4 93bd d836 19bc c3d6 40bd 322f e43d
00000180: a41a fc3d ca8f a83d 0ab3 a4bd 8601 b83d
00000190: cc16 80bc 29d8 81be 3ed5 b1bd 7d43 88be
000001a0: bdf7 48be 2cc5 05be 2a92 043e 84d2 70bd
000001b0: 1bbc 1dbd 5a3d 0bbe c36b 89bd 9a19 003e
000001c0: 384d 7bbe d31e 133d 9056 0abe 2b72 903d
000001d0: fc7b 303e 0e2b 0e3e 05d9 65be a597 84bd
000001e0: 0779 98be b4d9 f93c 2412 4dbe 1952 333e
000001f0: c1aa ff3c 3c80 25be b267 f33d 4c0d 693e
-0.110328704 0.2792572 0.0820201 0.05790601 0.04030662 0.15162015 -0.24744134 -0.09515068
-0.13619214 -0.22161323 -0.05101071 0.19406056 0.07903773 0.07486735 -0.02691764 -0.13265914
-0.18541749 0.12431564 -0.21441439 0.14752668 -0.069400035 -0.005313455 0.10025917 -0.098429106
0.07602887 -0.13171868 0.11182939 -0.16650239 0.116429165 0.16378966 -0.12084169 -0.20475142
0.14862572 -0.06411453 0.088226356 0.14600898 0.001733795 -0.12493731 -0.1540992 -0.022035666
-0.23607734 0.067915425 0.22729175 0.091815524 0.21681902 -0.032862056 0.15345007 -0.16193433
-0.007410923 -0.0067605106 -0.18444596 -0.14225505 0.07095179 -0.23029229 -0.22014906 0.09125101
0.04432852 -0.1806405 -0.20773625 0.16555358 0.083941035 0.20881028 0.14765298 0.18219109
0.20133291 0.15342651 0.14429744 -0.015820058 -0.2677192 0.16126806 0.01375612 -0.03847061
-0.10874821 0.1516373 -0.22414531 0.08661451 0.14736539 -0.096248046 0.07897948 0.02403591
-0.13636011 -0.28815088 0.24991433 0.02412184 -0.26212913 -0.11022456 -0.07540849 0.1150628
-0.048640158 -0.08787477 -0.08737373 -0.26459885 -0.07215142 -0.009351455 -0.047079813 0.11141814
0.12309769 0.082305506 -0.080419615 0.089846656 -0.01563587 -0.2536023 -0.08683251 -0.2661399
-0.19625755 -0.13063496 0.12946382 -0.058794513 -0.03850947 -0.13597623 -0.06710007 0.12509766
-0.24541175 0.03591807 -0.13509583 0.07053026 0.17234796 0.13883612 -0.22446068 -0.064742364
-0.29779837 0.030499317 -0.20026451 0.17511787 0.031209351 -0.16162199 0.11885013 0.22758979
