TSF_Finance/checkpoints/ixic_ig_0613__PatchTST_custom_ftM_sl96_ll48_pl36_dm16_nh4_el3_dl1_df128_fc1_ebtimeF_dtTrue_Exp_0/checkpoint.pth (torch_old, 175258 bytes, 65 tensors)

model.backbone.W_pos f4 [38, 16]
-0.017472107 -0.006443178 -0.0068741837 0.019758847 0.003675637 0.0047448026 -0.017566146 0.017975014
-0.0016693166 0.011055355 -0.009595954 -0.0025832162 0.015835294 0.00075115456 -0.014634463 0.011722279
0.0017326588 0.008890443 0.0040088072 0.0035296944 0.000629265 0.015127748 -0.022010133 0.011028752
-0.0146328015 0.003115907 0.019025793 0.009798092 -0.009395646 0.011903282 -0.0011153055 -0.013402803
-0.012855067 -0.015096183 0.0029540665 -0.015008786 -0.018041573 0.013153842 -0.013098331 0.009563712
0.023123853 0.015272389 0.003960402 -0.007167566 0.006859392 0.01973145 0.015984127 0.0120837055
-0.013894321 0.008865884 0.0138263 0.012881612 -0.010852056 0.018375544 0.0037255443 -0.012169599
0.013506216 0.011372601 -0.008448721 -0.014748771 0.01769269 0.013911066 -0.01581064 -0.0097199725
-0.005510849 -0.005858747 0.006580213 0.009482858 -0.0142232105 0.02203786 -0.00581133 -0.016094476
0.021583183 -0.013712496 0.020096976 -0.0072461287 0.008470025 0.012609425 -0.010999924 -0.011899721
0.0033309825 0.0034403943 0.0091232695 0.0023287947 0.007732297 0.009622347 0.013066729 0.010331622
0.008036616 0.0012529228 0.023040544 0.015123546 -0.016490426 -0.0124688605 -0.025838617 -0.008053861
0.015758486 0.016386166 0.012139192 0.02923681 -0.027554343 -8.2394356e-05 0.0014785781 -0.010790498
-0.00050777005 -0.00022008935 0.0072973804 -0.014546729 0.009440026 -0.007733548 0.00520697 0.004053516
-0.0037890815 -0.00018269832 0.010948041 0.0052054115 0.006990323 -0.0050135097 -0.019564265 0.0070825806
0.015969165 0.012783883 0.01602888 0.006396028 0.009230957 0.01672696 0.0046450924 -0.0060223443
-0.023438595 0.012617853 0.013090418 0.009254659 0.0019328808 0.006196327 0.017304782 -0.014576896
-0.011807932 -0.018230552 0.0013452482 0.0033899175 0.0012488744 -0.012091318 -0.016374175 -0.0039568087
-0.021608103 0.013850657 0.0020677906 0.0035010092 0.00883746 0.014250859 0.00958729 0.008723473
0.009553367 -0.022380756 -0.016500277 -0.0031715939 0.0014241822 -0.019494895 -0.005710612 0.014721025
0.012498692 -0.00058384344 -0.002751901 0.005731122 -0.013951966 0.0046081995 -0.025447736 0.011465024
-0.011750511 0.003125119 0.007411483 -0.015409483 -0.0004642274 -0.028225137 0.012733105 -0.008722089
0.012199527 0.018084304 0.019227559 -0.011569369 -0.009834987 0.0123368725 -0.008942327 -0.01798385
0.017286312 -0.019909574 -0.00045540527 -0.02396926 -0.0010602828 -0.0021187374 0.008398987 0.026498618
-0.00044120228 -0.004917809 -0.01624668 0.0024901254 -0.007888176 0.015976455 -0.018429365 0.017300418
-0.01420727 -0.0044148937 -0.006088792 0.008171834 -0.013211461 -0.021111786 -0.01394425 0.016615896
0.022969626 -0.011560068 0.012820148 -0.008585982 0.015066897 -0.006979942 -0.0007366833 0.0060550366
-0.015352245 -0.0017052809 -0.0051562074 -0.01586131 -0.02013073 -0.0060637426 -0.0058868164 0.016512059
-0.009715626 0.0076456903 0.00030403293 9.1197515e-05 0.010665101 -0.004015128 -0.014987673 -0.02015536
0.021273889 0.0043786243 -0.0011097111 -0.008920016 -0.01452353 -0.014129391 0.0030982494 -0.008047538
0.013137818 -0.008243023 0.015308264 0.013540822 0.0028302134 -0.0069740526 -0.010048358 -0.009505654
-0.004212314 -0.006193746 -0.008836349 0.0057308236 0.0011271687 0.0074821943 0.02149598 -3.408194e-06
00000000: aa21 8fbc 4b21 d3bb d540 e1bb 4edd a13c
00000010: f5e2 703b 4a7a 9b3b e1e6 8fbc 5640 933c
00000020: f8cc daba 8521 353c 5938 1dbc 2d4b 29bb
00000030: 05b9 813c 21e9 443a 63c5 6fbc cd0e 403c
00000040: 621a e33a 38a9 113c 505c 833b 7252 673b
00000050: 42f5 243a 60da 773c 984e b4bc f0b1 343c
00000060: 6bbe 6fbc 3f34 4c3b fbdb 9b3c 2d88 203c
00000070: 32f0 19bc fc05 433c 712f 92ba 6e97 5bbc
00000080: 0f9e 52bc fb55 77bc 0399 413b 69e7 75bc
00000090: eccb 93bc 3683 573c 629a 56bc 1eb1 1c3c
000000a0: 3c6e bd3c 0b39 7a3c 43c6 813b e7dd eabb
000000b0: c0c4 e03b daa3 a13c 25f1 823c bcfa 453c
000000c0: 02a5 63bc 3642 113c b587 623c 660d 533c
000000d0: d2cc 31bc 4f88 963c 4328 743b ff62 47bc
000000e0: 2d49 5d3c 2554 3a3c 816c 0abc d4a4 71bc
000000f0: 43f0 903c 3deb 633c 5185 81bc 8540 1fbc
00000100: 5a94 b4bb bbfa bfbb d49e d73b fd5d 1b3c
00000110: 7808 69bc be88 b43c f86c bebb 90d8 83bc
00000120: 37cf b03c 60aa 60bc 6aa2 a43c ef70 edbb
00000130: dcc5 0a3c c397 4e3c 0639 34bc 0cf7 42bc
00000140: 9d4c 5a3b 3d78 613b c479 153c b19e 183b
00000150: 355f fd3b 0ca7 1d3c d515 563c f745 293c
00000160: 03ac 033c 1d39 a43a 86bf bc3c c0c8 773c
00000170: ee16 87bc 314a 4cbc 82ab d3bc 57f4 03bc
00000180: f117 813c 483c 863c 76e3 463c 0982 ef3c
00000190: a5b9 e1bc 22cb acb8 d9cc c13a a1ca 30bc
000001a0: df1b 05ba c9c7 66b9 dd1e ef3b 6755 6ebc
000001b0: 57aa 1a3c b469 fdbb 3b9f aa3b 5bd3 843b
000001c0: 3d52 78bb b592 3fb9 6a5f 333c 2892 aa3b
000001d0: 140f e53b 5e48 a4bb 3d45 a0bc fe14 e83b
000001e0: c4d1 823c 7e73 513c ff4e 833c c695 d13b
000001f0: 713d 173c fa06 893c dc35 983b 1657 c5bb
00000200: 4c02 c0bc 1cbb 4e3c 3179 563c daa0 173c
00000210: b858 fd3a 8f0a cb3b c2c2 8d3c efd3 6ebc
00000220: 0e76 41bc 3d58 95bc 0a53 b03a 6129 5e3b
00000230: 45b1 a33a aa1a 46bc 2223 86bc 1ea8 81bb
00000240: 7a03 b1bc deed 623c c583 073b 3071 653b
00000250: feca 103c 6f7c 693c 0214 1d3c e6ec 0e3c
00000260: ba85 1c3c d957 b7bc 972b 87bc 84da 4fbb
00000270: a0ab ba3a c2b3 9fbc 1620 bbbb 7430 713c
00000280: 50c7 4c3c 120d 19ba 3d59 34bb 23cc bb3b
00000290: c996 64bc 6100 973b c577 d0bc ccd7 3b3c
000002a0: 3785 40bc ccce 4c3b 07dc f23b 0e78 7cbc
000002b0: 8c63 f3b9 6738 e7bc 839e 503c 18e7 0ebc
000002c0: 86e0 473c 8925 943c 1d83 9d3c 738d 3dbc
000002d0: ed22 21bc 9820 4a3c d782 12bc de52 93bc
000002e0: 069c 8d3c 6719 a3bc 76c3 eeb9 2e5b c4bc
000002f0: 30f9 8aba 84da 0abb e89b 093c a113 d93c
00000300: 2b51 e7b9 9225 a1bb c217 85bc 5f31 233b
00000310: 683d 01bc 0ee1 823c 2ef9 96bc 9bb9 8d3c
00000320: 9cc5 68bc d0aa 90bb 7d84 c7bb 28e3 053c
00000330: e274 58bc a0f2 acbc 6c76 64bc 0f1e 883c
00000340: cc2a bc3c 7066 3dbc 990b 523c 38ac 0cbc
00000350: 25db 763c ffb7 e4bb fb1d 41ba 5469 c63b
00000360: fc87 7bbc bb83 dfba 67f5 a8bb 94ef 81bc
00000370: 33e9 a4bc 5cb2 c6bb 32e6 c0bb 4c44 873c
00000380: 4a2e 1fbc b388 fa3b 9c66 9f39 4b41 bf38
00000390: adbc 2e3c 5691 83bb db8e 75bc db1c a5bc
000003a0: 9446 ae3c 907a 8f3b ba73 91ba 4225 12bc
000003b0: 1af4 6dbc f67e 67bc 000c 4b3b d2d9 03bc
000003c0: 0140 573c bf0d 07bc 83cf 7a3c 53da 5d3c
000003d0: 1a7b 393b 9886 e4bb dea1 24bc 9abd 1bbc
000003e0: 7307 8abb e8f4 cabb 55c6 10bc a2c9 bb3b
000003f0: 81bd 933a 322d f53b 5618 b03c 54b8 64b6

model.backbone.W_P.weight f4 [16, 24]
-0.14895952 0.004104181 0.09380632 0.08278927 0.023193311 -0.13884412 -0.18679357 0.18196622
-0.08814209 -0.1663218 0.11990368 -0.20337954 0.11896343 -0.1638234 0.09059187 -0.061644282
0.002835124 -0.08332951 0.11721444 0.10211667 0.1327664 -0.062234893 0.22137485 0.028286701
-0.055873442 -0.19158934 0.12864576 -0.18951221 -0.1426716 -0.078015424 0.06730716 0.07036393
0.12596755 0.003420548 0.092559144 0.12655905 -0.2024662 -0.18055274 -0.2066725 -0.15247057
0.09409735 0.17412376 0.06499454 -0.16105449 0.095791 0.11469354 0.1797715 -0.18070613
-0.028918922 -0.10327941 0.17714176 0.11515184 0.030005855 0.019688884 0.09037115 -0.14991143
-0.008256915 -0.13956986 0.083915435 0.07524347 -0.16207533 0.00093530904 0.096393734 0.09970738
0.18720017 -0.18362637 -0.06475774 -0.07988677 -0.17554295 -0.21769693 -0.18243395 0.057152662
-0.16906449 -0.087014474 -0.13029505 -0.15132934 0.19098091 -0.017149776 -0.06741712 0.18486877
-0.1165199 -0.08374993 -0.067084864 -0.13855149 -0.10021913 -0.057933662 0.0019160162 -0.13689144
-0.02679231 0.18211009 -0.014476775 -0.04113796 -0.21781547 -0.17001338 0.0806006 0.096582875
-0.18907954 0.050108086 0.050341126 -0.06923324 0.16746819 0.04271182 -0.13832186 0.18804543
0.11123335 -0.08285704 0.03148734 0.16230357 0.17014351 0.11362563 0.07524129 0.00918249
0.05464816 -0.12660213 0.023421593 -0.17994726 0.13608065 -0.1217138 -0.11513766 0.18518893
-0.056839824 -0.12313048 -0.15347572 0.10098437 -0.1677372 0.16199556 0.06645051 0.19221327
-0.07384096 -0.1681041 -0.011188995 0.1698514 -0.08757595 -0.18332493 0.15035993 0.132693
0.15247166 0.117131114 -0.004410565 -0.17624155 -0.15465264 -0.12079243 -0.16256246 -0.19423358
0.15690486 0.15511996 -0.12819724 -0.010962952 0.19210345 0.096319005 -0.04228629 -0.05775014
0.10177456 -0.079542056 -0.15021273 -0.054878928 0.12788397 -0.08107191 -0.13647896 -0.06883691
-0.06941083 -0.13978983 0.0054762224 0.110375375 0.19575492 0.06908634 0.17737971 0.103154205
-0.050588377 -0.15110946 -0.048774887 0.1033572 0.05081176 -0.04209493 0.0056646834 0.08366667
-0.013357864 0.16445805 -0.11117723 0.041775607 0.12551339 0.17930023 0.04673422 0.02706994
0.18482116 -0.13633962 -0.092659704 -0.11587159 0.19104086 0.0070116995 -0.17049623 0.010892566
-0.19184342 0.107025586 0.15428485 0.08011177 -0.04599507 -0.11767134 0.17040469 -0.03925109
0.07869405 -0.01610319 0.16397642 -0.035593033 0.12869091 -0.15137926 -0.17446809 0.02573919
0.15940562 -0.14325696 0.12239265 0.010624888 -0.196857 -0.14676677 -0.055079974 0.0015196895
0.08748761 0.18171081 0.17945808 -0.1708061 0.10773117 -0.060616646 -0.01802556 0.18427503
-0.043809846 -0.09141316 0.107388385 -0.0043098032 0.044859648 0.0032638344 0.17999099 0.16050355
0.07163758 0.03147212 0.07158379 -0.06844962 0.12844557 0.18395077 0.17953204 -0.091319084
-0.10775275 0.15899187 0.14625421 0.10853569 0.15376541 0.17338105 -0.12169712 -0.17425211
-0.014354502 0.11420491 -0.10124307 -0.13259205 -0.2060474 0.020698639 0.012189407 -0.12740828
00000000: d888 18be 5e7c 863b 871d c03d 6c8d a93d
00000010: e6ff bd3c 272d 0ebe d046 3fbe 5a55 3a3e
00000020: d783 b4bd 4350 2abe 1090 f53d ba42 50be
00000030: 19a3 f33d 52c1 27be 3b88 b93d b77e 7cbd
00000040: 7dcd 393b aaa8 aabd 200e f03d 8b22 d13d
00000050: eaf3 073e 04ea 7ebd 17b0 623e 83b9 e73c
00000060: 8ddb 64bd ff2f 44be b7bb 033e 7d0f 42be
00000070: 8118 12be 8dc6 9fbd 56d8 893d f71a 903d
00000080: a3fd 003e 462b 603b a68f bd3d b298 013e
00000090: 4d53 4fbe d1e2 38be f5a1 53be 3f21 1cbe
000000a0: 1db6 c03d 804d 323e db1b 853d 78eb 24be
000000b0: 122e c43d 72e4 ea3d 0516 383e 070b 39be
000000c0: 60e7 ecbc 2884 d3bd a664 353e bad4 eb3d
000000d0: d7ce f53c 954a a13c 8214 b93d 6282 19be
000000e0: 0348 07bc 67eb 0ebe dbdb ab3d 4019 9a3d
000000f0: 13f7 25be 872f 753a 146a c53d 6233 cc3d
00000100: 67b1 3f3e 8d08 3cbe b59f 84bd ad9b a3bd
00000110: 88c1 33be f2eb 5ebe f7cf 3abe e918 6a3d
00000120: 3e1f 2dbe a534 b2bd 116c 05be 14f6 1abe
00000130: 8090 433e b07d 8cbc fd11 8abd 3d4e 3d3e
00000140: fca1 eebd 1585 abbd ca63 89bd 71e0 0dbe
00000150: b03f cdbd d94b 6dbd d622 fb3a 452d 0cbe
00000160: 8c7b dbbc 117b 3a3e ff2f 6dbc 4780 28bd
00000170: 050b 5fbe fd17 2ebe ed11 a53d 3ecd c53d
00000180: 119e 41be 233e 4d3d 7f32 4e3d 28ca 8dbd
00000190: c87c 2b3e 97f2 2e3d 3fa4 0dbe fb8e 403e
000001a0: 50ce e33d f4b0 a9bd def8 003d e832 263e
000001b0: 1a3a 2e3e 8eb4 e83d 1b18 9a3d 2872 163c
000001c0: c0d6 5f3d fda3 01be a4de bf3c 1844 38be
000001d0: ba58 0b3e 1645 f9bd 4bcd ebbd 2ba2 3d3e
000001e0: e0d0 68bd d52b fcbd bd28 1dbe e5d0 ce3d
000001f0: 4dc3 2bbe 2ae2 253e 3417 883d 8ed3 443e
00000200: ee39 97bd 7b23 2cbe 0c52 37bc 87ed 2d3e
00000210: 055b b3bd 88b9 3bbe f4f7 193e ace0 073e
00000220: 8821 1c3e 70e2 ef3d 8086 90bb aa78 34be
00000230: 435d 1ebe 0662 f7bd c676 26be 2be5 46be
00000240: abab 203e c4d7 1e3e 2346 03be f49d 33bc
00000250: c4b6 443e e642 c53d 6434 2dbd 698b 6cbd
00000260: 2e6f d03d f2e6 a2bd 5ed1 19be bac8 60bd
00000270: 04f4 023e 0809 a6bd 24c1 0bbe 5efa 8cbd
00000280: 4427 8ebd 1125 0fbe e271 b33b 7c0c e23d
00000290: fa73 483e 247d 8d3d 07a3 353e 8342 d33d
000002a0: c235 4fbd 70bc 1abe 2dc8 47bd f1ac d33d
000002b0: fe1f 503d bc6b 2cbd cf9e b93b 6e59 ab3d
000002c0: f1da 5abc b167 283e e3b0 e3bd e61c 2b3d
000002d0: 9586 003e 7b9a 373e 626c 3f3d c7c1 dd3c
000002e0: c241 3d3e 9d9c 0bbe 5fc4 bdbd 164e edbd
000002f0: 37a0 433e 66c2 e53b 9096 2ebe bc76 323c
00000300: 9a72 44be 3b30 db3d d9fc 1d3e a411 a43d
00000310: 5465 3cbd acfd f0bd 917e 2e3e c0c5 20bd
00000320: 592a a13d d6ea 83bc 6fe9 273e 00ca 11bd
00000330: 8dc7 033e 2a03 1bbe c3a7 32be feda d23c
00000340: 3a3b 233e f4b1 12be ffa8 fa3d 0314 2e3c
00000350: e294 49be 074a 16be 8a9b 61bd 5130 c73a
00000360: b42c b33d 6612 3a3e dcc3 373e cbe7 2ebe
00000370: 29a2 dc3d 2949 78bd 57aa 93bc 98b2 3c3e
00000380: f471 33bd d336 bbbd 71ee db3d 4039 8dbb
00000390: c0be 373d 0ee6 553b 8f4f 383e 0b5b 243e
000003a0: b9b6 923d e9e8 003d 869a 923d 502f 8cbd
000003b0: 3c87 033e 975d 3c3e 3fd7 373e 8005 bbbd
000003c0: 79ad dcbd c4ce 223e aac3 153e f647 de3d
000003d0: ae74 1d3e cd8a 313e 573c f9bd 256f 32be
000003e0: 252f 6bbc 44e4 e93d 8758 cfbd 36c6 07be
000003f0: 17fe 52be 3190 a93c 14b6 473c 5177 02be

model.backbone.W_P.bias f4 [16]
-0.080213584 0.01848529 0.04169355 -0.06499252 0.14452955 -0.065277845 0.029992007 -0.14645216
-0.05397216 0.16512682 -0.0060310974 0.102882996 0.026495084 0.1536545 -0.11843235 0.050488096
00000000: 0547 a4bd 776e 973c dbc6 2a3d cc1a 85bd
00000010: 8eff 133e 64b0 85bd ccb1 f53c 8ef7 15be
00000020: e911 5dbd 0117 293e 83a0 c5bb 52b4 d23d
00000030: 380c d93c 9b57 1d3e a98c f2bd 9bcc 4e3d

model.backbone.encoder.layers.0.self_attn.W_Q.weight f4 [16, 16]
-0.18132983 -0.0700786 0.20137534 0.033389356 0.13524827 -0.059331547 0.13993177 0.04664887
-0.1910346 0.2294197 -0.2320297 0.1775389 -0.16663998 0.23990384 0.08768953 0.23920844
0.21632418 0.047817998 0.22704306 -0.14471926 -0.18523511 -0.20571445 -0.15394068 0.13201682
0.13358453 -0.24946152 -0.19482048 0.14761405 0.22461024 0.13612758 0.072641 -0.09742451
0.04034224 0.16148569 -0.2237301 -0.11976493 0.030918054 -0.26310667 0.015001026 0.04029362
0.062007595 -0.10164416 0.14255498 -0.21244754 -0.23446335 0.049552165 0.11989958 3.6160644e-05
0.18004057 0.11623865 0.14971718 -0.05692638 0.17873228 -0.19628182 -0.13784336 -0.10718367
0.1467464 0.23112072 -0.14409465 0.14945927 -0.1254358 0.0702114 0.1692399 0.06852691
-0.007990874 0.007520864 -0.02691621 -0.23800358 0.040921308 -0.016114198 0.26166967 -0.19954817
0.21874997 0.22604664 -0.22495325 -0.04010747 0.09676695 0.11456571 -0.11598071 -0.16945787
-0.11463896 -0.092460126 0.09226665 -0.023075756 0.10634254 -0.037094925 0.046223078 0.10197664
-0.19847736 -0.10759279 -0.24730612 -0.09741574 -0.18682908 -0.24654968 0.23145673 -0.10576737
0.005431152 -0.15067792 -0.005400956 -0.23502451 -0.043919478 -0.06524564 0.057982307 0.004828119
0.14184627 0.008675565 -0.12088653 0.25511116 -0.054229695 0.22518052 -0.21241991 -0.15014625
-0.20542584 -0.15065596 0.0019962518 0.18484582 -0.18979952 0.060166318 0.18434997 0.22771357
0.0685846 -0.102891915 -0.22110668 0.043568835 0.12653114 0.026111938 0.10237409 0.21343191
-0.024495315 -0.16289008 -0.04073634 -0.07915914 0.1486486 0.11524153 -0.01517662 0.13462031
-0.2518052 -0.166163 -0.007380552 0.05312899 0.1899451 0.026257344 -0.15120901 -0.069451846
-0.18422614 -0.13415967 -0.07786714 0.14029542 0.25882044 0.06383105 -0.19603664 -0.21133824
-0.09593268 -0.19975126 -0.17035712 -0.22346199 0.0512311 0.029921884 -0.030295432 0.024112148
0.030353628 0.061636694 0.020771306 -0.058494978 -0.009149548 -0.2210089 -0.18596342 -0.13666755
0.18634507 0.19396724 -0.18165831 0.104307435 -0.010350261 0.059647605 -0.20755164 -0.22604412
-0.13017723 0.08405575 0.05934833 -0.033922497 -0.069896296 0.0010501377 -0.12620674 0.09507991
0.05739315 -0.1005622 0.07435271 -0.059220895 0.06947488 0.097486325 0.22308613 0.13784178
-0.21891442 0.048051648 -0.040787127 -0.15782462 -0.2273696 0.19583412 -0.19781283 0.15608771
0.11639989 -0.10426258 -0.109731875 0.1412005 0.109474204 -0.026312806 -0.086777754 -0.089999884
-0.00273551 -0.226017 -0.07122057 -0.14547873 -0.19111261 0.09343606 -0.17346285 -0.0712929
0.090316854 0.112268284 -0.0071732625 -0.2524181 0.0049711308 -0.17653868 -0.17847408 0.11377542
0.22180429 0.17291108 -0.22589053 -0.11742334 -0.16805919 0.17457229 0.2279991 -0.17592523
-0.14943418 0.23898305 0.13288084 -0.015403746 0.1983034 0.15774114 -0.19476801 -0.18273452
0.056543883 0.2035087 0.013983805 -0.02038344 0.16949838 -0.1815614 -0.21373834 0.096504904
-0.10226631 -0.21900697 -0.17965385 -0.07346795 -0.0071141566 0.006541543 -0.20831035 0.22765923
00000000: 87ae 39be 5e85 8fbd 5635 4e3e 47c3 083d
00000010: 867e 0a3e a305 73bd 464a 0f3e e312 3f3d
00000020: 939e 43be ffec 6a3e 3299 6dbe c2cc 353e
00000030: aca3 2abe 5aa9 753e 9196 b33d 0ff3 743e
00000040: 1684 5d3e cedc 433d fa7d 683e 4931 14be
00000050: 46ae 3dbe cfa6 52be a0a2 1dbe 6b2f 073e
00000060: 62ca 083e d772 7fbe 057f 47be 2328 173e
00000070: 3a00 663e 0765 0b3e cec4 943d 8086 c7bd
00000080: e83d 253d 815c 253e 8119 65be 5147 f5bd
00000090: dc47 fd3c ebb5 86be ddc6 753c ec0a 253d
000000a0: adfb 7d3d d02a d0bd eff9 113e d98b 59be
000000b0: 2917 70be 36f7 4a3d e98d f53d 32ab 1738
000000c0: 8e5c 383e 880e ee3d 764f 193e a32b 69bd
000000d0: 9805 373e 1afe 48be cf26 0dbe 1d83 dbbd
000000e0: b044 163e e9aa 6c3e 8c8d 13be da0b 193e
000000f0: 3e72 00be ffca 8f3d 394d 2d3e d657 8c3d
00000100: 28ec 02bc 9471 f63b 627f dcbc 36b7 73be
00000110: 1a9d 273d ec01 84bc 91f9 853e 5b56 4cbe
00000120: feff 5f3e c578 673e 255a 66be bb47 24bd
00000130: c02d c63d 6da1 ea3d 4b87 edbd 5d86 2dbe
00000140: d5c7 eabd bc5b bdbd 4cf6 bc3d 5e09 bdbc
00000150: 1eca d93d d9f0 17bd 6954 3d3d 21d9 d03d
00000160: a63d 4bbe 9c59 dcbd d13d 7dbe e781 c7bd
00000170: 1f50 3fbe 8577 7cbe fe02 6d3e 909c d8bd
00000180: cef7 b13b 504b 1abe 81fa b0bb 44aa 70be
00000190: e9e4 33bd 829f 85bd db7e 6d3d 3335 9e3b
000001a0: 2640 113e f523 0e3c 5b93 f7bd ee9d 823e
000001b0: f51f 5ebd b995 663e 9b84 59be f0bf 19be
000001c0: 275b 52be 8e45 1abe 8cd3 023b 3948 3d3e
000001d0: ce5a 42be f570 763d 3dc6 3c3e bf2d 693e
000001e0: 1576 8c3d ffb8 d2bd ca69 62be 3c75 323d
000001f0: 6191 013e b4e8 d53c 82a9 d13d e58d 5a3e
00000200: 66aa c8bc a8cc 26be 26db 26bd 301e a2bd
00000210: 5737 183e c003 ec3d 5ca7 78bc e8d9 093e
00000220: 9cec 80be a226 2abe 8fd8 f1bb c99d 593d
00000230: f880 423e a419 d73c 89d6 1abe c53c 8ebd
00000240: c7a5 3cbe 2761 09be cf78 9fbd 9aa9 0f3e
00000250: 1d84 843e dbb9 823d d4bd 48be 0d69 58be
00000260: 5a78 c4bd 988b 4cbe 1972 2ebe 38d3 64be
00000270: b4d7 513d bd1e f53c 202e f8bc d786 c53c
00000280: 2ca8 f83c c276 7c3d 9628 aa3c 6e98 6fbd
00000290: fce7 15bc 2850 62be 326d 3ebe 94f2 0bbe
000002a0: 3ed1 3e3e 599f 463e a304 3abe 239f d53d
000002b0: 2494 29bc 0c51 743d 6b88 54be 1c78 67be
000002c0: 2e4d 05be 6c25 ac3d 3c17 733d 51f2 0abd
000002d0: ca25 8fbd c6a4 893a 573c 01be 41b9 c23d
000002e0: 1415 6b3d 8ef3 cdbd 3c46 983d 9c91 72bd
000002f0: d948 8e3d e9a6 c73d b170 643e 6526 0d3e
00000300: 1a2b 60be ced1 443d 6710 27bd c79c 21be
00000310: 94d3 68be bd88 483e 728f 4abe 75d5 1f3e
00000320: 1163 ee3d 9f87 d5bd 1bbb e0bd dd96 103e
00000330: 0334 e03d f48d d7bc 89b8 b1bd dc51 b8bd
00000340: 3e46 33bb 0071 67be 17dc 91bd 60f8 14be
00000350: 06b3 43be 685b bf3d 3fa0 31be 0302 92bd
00000360: 0bf8 b83d eaec e53d b00d ebbb f23c 81be
00000370: dee4 a23b 8ec6 34be e9c1 36be 1603 e93d
00000380: aa20 633e 9a0f 313e d94f 67be a67b f0bd
00000390: b517 2cbe 14c3 323e 9978 693e be25 34be
000003a0: 4605 19be f9b7 743e ea11 083e fe5f 7cbc
000003b0: 0c10 4b3e e586 213e 4471 47be c21e 3bbe
000003c0: 8f9a 673d 9664 503e 541c 653c 2cfb a6bc
000003d0: fc90 2d3e 3beb 39be 39de 5abe 5da4 c53d
000003e0: 0071 d1bd 5d43 60be 2ef7 37be 5d76 96bd
000003f0: df1d e9bb 715a d63b 4f4f 55be 801f 693e

model.backbone.encoder.layers.0.self_attn.W_Q.bias f4 [16]
0.13190064 0.19233194 -0.15917554 0.21642576 0.06308648 -0.16010748 0.05680727 0.19579527
-0.0995616 0.1455534 -0.17053938 -0.23532495 0.23446497 -0.07267991 -0.20491527 0.14618951
00000000: f610 073e aaf2 443e eafe 22be b79e 5d3e
00000010: 7c33 813d 37f3 23be bdae 683d 8e7e 483e
00000020: f4e6 cbbd f30b 153e e0a1 2ebe 06f9 70be
00000030: 9617 703e 34d9 94bd 4fd5 51be b4b2 153e

model.backbone.encoder.layers.0.self_attn.W_K.weight f4 [16, 16]
0.13893647 -0.09760169 0.24263507 -0.22028108 0.16459079 0.005708917 0.24039206 -0.15171373
-0.031627834 -0.23571767 -0.23123462 0.03740819 0.17447843 0.13500804 -0.17377006 0.032801155
-0.10645337 0.010953247 -0.13717072 -0.060975634 0.11148301 0.15243487 -0.0035487765 0.09463529
0.16907865 -0.21128115 -0.09573184 0.039880585 -0.1232476 -0.17750472 0.01407859 0.047599044
0.17156646 -0.20978172 -0.094471864 0.059071276 0.15769067 -0.23242377 0.088606656 0.24245624
0.068273395 0.055002496 0.07746168 -0.08896266 0.09066581 0.11043877 0.012298401 -0.1040135
0.17376354 0.115667075 -0.23631296 -0.0146928225 -0.17296776 -0.053950816 0.0698481 -0.044413917
0.24223511 0.18964392 -0.023504173 0.24106516 -0.06720026 -0.011232721 -0.11577903 0.121117145
-0.24460603 -0.20198207 -0.15723081 0.11717118 0.020735458 -0.23124894 0.16763937 0.20514318
0.19662875 0.037933618 -0.008834673 -0.19568539 0.0733104 0.25203958 -0.105271034 -0.22117484
-0.12131308 0.10540061 -0.14951596 0.18981287 0.09460253 0.12641864 -0.092574105 -0.11109292
-0.19085741 0.036026314 0.18918109 0.16147548 0.1457086 -0.24291083 0.16694646 0.114888415
0.19383596 -0.19529043 0.2048532 -0.024150282 0.06358774 -0.18629782 0.062162094 0.1196124
-0.019995436 -0.14771938 -0.07341019 0.06178328 -0.0053651226 0.044491425 -0.09991588 0.24938318
0.043811712 -0.16211149 -0.12566313 -0.13767223 0.19235516 -0.20147851 0.19803782 0.12063821
0.05363223 0.050102532 -0.22352861 0.11472111 -0.18650605 0.18983735 -0.2135888 0.18795937
0.24718328 0.11719231 -0.24507381 0.22451037 -0.12051013 0.014196993 0.22744603 -0.049158286
0.08351565 0.06616507 0.17159992 -0.12964718 0.099634 0.16282022 -0.08773779 0.15957227
-0.009926447 0.19614531 -0.092683494 0.15644105 0.23209772 0.19420438 0.15236348 0.22753549
0.010500775 0.22771877 0.23285247 -0.06696074 0.17042464 -0.075996645 -0.19031264 -0.22128978
-0.20914361 0.06913723 0.20270287 0.04521483 0.16145438 -0.2040011 0.010444942 0.14376302
-0.11350925 0.116128065 -0.13214976 0.20353088 -0.16259268 0.13033131 -0.0653308 0.104619876
0.2122918 -0.089625895 -0.24464126 -0.031898987 -0.22994155 0.14910497 0.057272904 0.009250667
-0.06589289 -0.026969137 0.19928406 -0.045153134 0.1816318 -0.20079985 -0.24618877 -0.16768123
0.16518897 -0.069324575 -0.0715275 0.05866275 0.22304702 -0.11274752 -0.13069452 0.072219044
0.15047868 0.04339725 -0.20969197 -0.22799915 -0.022376586 0.08345242 0.042048384 -0.22533374
0.09109759 -0.011530947 0.080780745 -0.16215082 -0.1193507 -0.04204009 0.015489335 0.068173975
-0.12104869 0.05805233 0.15454555 0.018341506 -0.024133496 0.19994286 0.19979037 0.21672365
-0.10681123 0.14755155 0.066864215 0.10998007 0.07843776 -0.06469397 0.030882135 0.16341881
-0.20185678 -0.23209341 -0.18738459 -0.008619572 -0.09823045 0.08991869 0.12716888 0.12761724
0.044238523 0.010162263 -0.12497193 0.04008287 0.1268293 0.14882909 -0.12643412 0.08534948
-0.22763343 0.1969414 0.11035314 -0.032580946 -0.16573583 0.18071371 -0.21169095 0.17701818
00000000: 5d45 0e3e 65e3 c7bd 5475 783e 5d91 61be
00000010: 7d8a 283e de11 bb3b 5629 763e d85a 1bbe
00000020: 308c 01bd f95f 71be c5c8 6cbe 5539 193d
00000030: 79aa 323e 8c3f 0a3e c7f0 31be 815a 063d
00000040: 3904 dabd 3f75 333c 7b76 0cbe 96c1 79bd
00000050: 3451 e43d e317 1c3e 9792 68bb 26d0 c13d
00000060: f422 2d3e 165a 58be 0e0f c4bd d359 233d
00000070: 3d69 fcbd ccc3 35be e3a9 663c 37f7 423d
00000080: 1eaf 2f3e 05d1 56be 777a c1bd b9f4 713d
00000090: aa79 213e 7f00 6ebe 6877 b53d 7346 783e
000000a0: ecd2 8b3d 4c4a 613d 3ba4 9e3d 0e32 b6bd
000000b0: ffae b93d b92d e23d 3c7f 493c 0805 d5bd
000000c0: 12ef 313e dce2 ec3d 06fc 71be 2aba 70bc
000000d0: 761e 31be 88fb 5cbd 850c 8f3d 5eeb 35bd
000000e0: 7b0c 783e 0432 423e d38b c0bc c9d9 763e
000000f0: 4aa0 89bd 7209 38bc 8e1d edbd 440c f83d
00000100: 017a 7abe 63d4 4ebe 1d01 21be 72f7 ef3d
00000110: 68dd a93c 86cc 6cbe a8a9 2b3e 0e11 523e
00000120: 0c59 493e 4860 1b3d 4ebf 10bc c061 48be
00000130: c323 963d 550b 813e 5798 d7bd a87b 62be
00000140: fe72 f8bd 46dc d73d b61a 19be 4e5e 423e
00000150: f9be c13d e373 013e 7e97 bdbd af84 e3bd
00000160: 2070 43be 5490 133d b0b8 413e d459 253e
00000170: a334 153e 9ebd 78be 03f4 2a3e 9e4a eb3d
00000180: ef7c 463e 37fa 47be 0ac5 513e d0d6 c5bc
00000190: 4a3a 823d dbc4 3ebe ae9d 7e3d 59f7 f43d
000001a0: 78cd a3bc c043 17be 1558 96bd 7710 7d3d
000001b0: e9cd afbb a43c 363d b2a0 ccbd 4e5e 7f3e
000001c0: e973 333d 8e00 26be d6ad 00be f3f9 0cbe
000001d0: c0f8 443e 6250 4ebe 6dca 4a3e 2a11 f73d
000001e0: 78ad 5b3d 5038 4d3d afe4 64be e7f2 ea3d
000001f0: 71fb 3ebe b964 423e 06b7 5abe 6c78 403e
00000200: 9d1d 7d3e 8602 f03d a1f4 7abe 0ce6 653e
00000210: 04ce f6bd 819a 683c 9de7 683e 335a 49bd
00000220: 410a ab3d 8d81 873d e4b7 2f3e 3bc2 04be
00000230: e90c cc3d 58ba 263e dfaf b3bd ea66 233e
00000240: 89a2 22bc 51da 483e d8d0 bdbd 1532 203e
00000250: 06ab 6d3e 83dd 463e 2c05 1c3e 10ff 683e
00000260: 710b 2c3c 1c2f 693e e170 6e3e b622 89bd
00000270: cc83 2e3e 21a4 9bbd 51e1 42be ca99 62be
00000280: be29 56be d297 8d3d 5791 4f3e 3033 393d
00000290: 4c54 253e aae5 50be 4321 2b3c 9d36 133e
000002a0: 8a77 e8bd 8dd4 ed3d 4452 07be 666a 503e
000002b0: b27e 26be 9275 053e 28cc 85bd f242 d63d
000002c0: 0663 593e c88d b7bd 3d83 7abe 83a8 02bd
000002d0: cc75 6bbe f9ae 183e fe96 6a3d 1c90 173c
000002e0: daf2 86bd 61ee dcbc 1f11 4c3e 7ef2 38bd
000002f0: b0fd 393e 7a9e 4dbe e918 7cbe a1b4 2bbe
00000300: 4c27 293e 0bfa 8dbd 037d 92bd 5a48 703d
00000310: 7066 643e 2ce8 e6bd c9d4 05be 94e7 933d
00000320: 1517 1a3e 51c1 313d 7eb9 56be 9c78 69be
00000330: 1a4f b7bc 1ae9 aa3d ed3a 2c3d e3bd 66be
00000340: 6091 ba3d 4cec 3cbc 6070 a53d dd0a 26be
00000350: 246e f4bd 3b32 2cbd fbc6 7d3c cc9e 8b3d
00000360: 60e8 f7bd 48c8 6d3d 3041 1e3e ed40 963c
00000370: 9cb3 c5bc d2bd 4c3e d995 4c3e ceec 5d3e
00000380: d9bf dabd c117 173e 1bf0 883d 3b3d e13d
00000390: faa3 a03d 467e 84bd 88fc fc3c 4357 273e
000003a0: 8bb3 4ebe e5a9 6dbe bfe1 3fbe 1b39 0dbc
000003b0: 0c2d c9bd 4a27 b83d 8f38 023e 18ae 023e
000003c0: 7433 353d 9f7f 263c 49f1 ffbd ef2d 243d
000003d0: 8adf 013e a766 183e f277 01be b5cb ae3d
000003e0: bd18 69be 02ab 493e d400 e23d 9973 05bd
000003f0: a7b6 29be 040d 393e 83c5 58be 4144 353e

model.backbone.encoder.layers.0.self_attn.W_K.bias f4 [16]
-0.066748686 0.09881447 -0.15846846 -0.006351742 0.039574146 0.22006361 -0.110357806 -0.20372218
-0.05710666 -0.095266245 -0.13823704 -0.064830534 -0.11481599 0.11961271 -0.064807095 0.10018101
00000000: 89b3 88bd 3e5f ca3d 8e45 22be 4622 d0bb
00000010: 8018 223d 5b58 613e 4603 e2bd 8c9c 50be
00000020: ace8 69bd f31a c3bd 038e 0dbe dfc5 84bd
00000030: a524 ebbd 82f7 f43d 95b9 84bd b42b cd3d

model.backbone.encoder.layers.0.self_attn.W_V.weight f4 [16, 16]
0.13046518 0.069355585 -0.12823269 -0.09045862 -0.005073319 -0.023540625 0.24406393 0.23261124
-0.22725473 0.009022545 -0.12373878 0.15045638 -0.18713659 -0.056667235 0.18239261 -0.16369662
0.17131422 -0.15674838 0.23926997 0.06989439 -0.03547736 0.0098439725 0.105031416 -0.14378387
0.21385273 0.15293595 -0.20161124 0.08292851 0.23565625 -0.085543044 0.23464167 -0.13371994
-0.21583533 -0.19918479 0.103461556 0.21220751 0.16585326 -0.017847832 0.17340712 0.083293736
-0.17223175 0.0706028 -0.028873174 0.1412267 0.23372962 -0.03776077 0.10369406 -0.2219147
-0.03743289 -0.10928975 -0.0075259465 -0.16585575 0.058536496 0.16662037 -0.2029482 0.22378825
0.09010914 -0.11965355 0.0065261004 -0.15792906 0.23565154 -0.19302538 0.23957653 -0.12132647
0.07559462 -0.15987526 0.031298403 0.089613326 0.0073174317 0.09880679 -0.11041894 -0.11348342
-0.19721715 -0.20077269 -0.07415416 0.022706421 -0.015547103 -0.066213384 -0.19928561 -0.018808598
0.16894563 -0.10904369 -0.16757095 0.04792999 -0.14569806 -0.053619146 0.04632469 0.02571724
0.23049974 0.13018483 -0.20524034 0.047203407 0.023334881 0.07427991 0.13692416 0.17661713
-0.1259187 0.16818275 0.0790485 0.008977586 0.11678474 0.16665737 -0.1688982 -0.13853483
0.12017211 0.20706956 -0.11170878 -0.1532506 -0.2194585 -0.08879067 -0.008826517 -0.15151574
-0.05313495 -0.07078548 0.039394937 0.14060152 0.18304245 0.107372 -0.21177147 0.11297121
0.025315778 0.19529256 -0.012616258 0.04428632 -0.19547528 -0.10038633 -0.15123822 -0.14694878
0.05258336 -0.05765148 0.18065403 0.052734073 -0.21561415 -0.011332889 -0.1645166 -0.18997014
-0.07256713 -0.0309909 -0.01933014 -0.17613465 -0.18103017 0.055238992 -0.13891964 -0.14070995
-0.18477255 -0.23891206 -0.020615438 0.14475161 -0.09529752 -0.054429863 -0.09027012 -0.043815188
-0.24084118 -0.229988 -0.16895151 -0.0011699923 -0.15728703 0.07959313 -0.06927469 0.20610192
0.081865445 0.046145063 -0.07309913 -0.23124257 -0.18354265 -0.20988578 0.1477636 -0.11574132
0.06936493 0.20253076 0.21833971 0.07909438 0.17072284 -0.19984065 -0.08210983 -0.18588577
0.15670939 -0.022416065 0.19622533 0.094283216 0.10888482 -0.25587147 0.13145018 0.10272591
-0.25874606 -0.18785608 -0.07463024 -0.007247664 0.1837856 -0.168733 -0.24764185 -0.098939665
-0.09603962 -0.1790903 -0.0483988 0.09619942 0.19194835 -0.12996295 -0.057935275 -0.1511019
-0.17607664 0.22394381 -0.076458074 -0.23602849 0.10601632 -0.048034646 -0.120267466 -0.12141965
-0.19982396 -0.15162559 -0.25191498 0.12891306 0.13581882 -0.18515815 0.0938125 0.22480202
-0.14052504 -0.22721383 -0.23846741 -0.06022224 0.22393009 -0.063633606 0.24835809 0.19430828
0.106645495 0.059994046 -0.026753563 0.08731033 -0.22160065 -0.22423793 0.05418465 -0.089701444
-0.179539 -0.06395733 0.13846025 0.17269242 0.102504216 0.00698429 -0.121535495 0.22837555
0.14148083 -0.05913318 -0.000101184065 -0.011128317 -0.04563659 0.22552313 0.13561246 0.25409195
-0.0506981 0.020766407 0.08416169 -0.16090964 0.22954547 -0.12589921 -0.07165997 -0.047894448
00000000: aa98 053e 4d0a 8e3d 6e4f 03be 5e42 b9bd
00000010: 163e a6bb 45d8 c0bc e5eb 793e a431 6e3e
00000020: 77b5 68be 4cd3 133c c26a fdbd 3d11 1a3e
00000030: bca0 3fbe e71b 68bd 21c5 3a3e 16a0 27be
00000040: ff6c 2f3e a682 20be 3003 753e ca24 8f3d
00000050: b550 11bd 9d48 213c b61a d73d 143c 13be
00000060: 36fc 5a3e 3e9b 1c3e 2d73 4ebe 6cd6 a93d
00000070: df4f 713e 3131 afbd e845 703e e1ed 08be
00000080: f003 5dbe 19f7 4bbe a7e3 d33d ed4c 593e
00000090: 70d5 293e 9e35 92bc a391 313e e895 aa3d
000000a0: 855d 30be 3398 903d 6f87 ecbc bb9d 103e
000000b0: d156 6f3e 0aab 1abd 8d5d d43d 9b3d 63be
000000c0: 3b53 19bd 4ed3 dfbd 379c f6bb 17d6 29be
000000d0: f7c3 6f3d 889e 2a3e a7d1 4fbe bf28 653e
000000e0: 248b b83d ec0c f5bd e6d8 d53b 28b8 21be
000000f0: a34e 713e 72a8 45be 8d53 753e 037a f8bd
00000100: 5ad1 9a3d 57b6 23be c132 003d 3187 b73d
00000110: 11c7 ef3b 375b ca3d 5323 e2bd ff69 e8bd
00000120: 4bf3 49be 5b97 4dbe 23de 97bd d102 ba3c
00000130: 47b9 7ebc e29a 87bd 8711 4cbe 7d14 9abc
00000140: 1500 2d3e 4c52 dfbd b897 2bbe 3d52 443d
00000150: df31 15be c09f 5bbd f5be 3d3d f6ac d23c
00000160: 2008 6c3e 2c4f 053e 862a 52be 5c58 413d
00000170: cb28 bf3c 1120 983d d935 0c3e 1fdb 343e
00000180: d5f0 00be 1938 2c3e 2ee4 a13d ba16 133c
00000190: d62c ef3d 3ba8 2a3e a6f3 2cbe 13dc 0dbe
000001a0: cc1c f63d 0b0a 543e 93c7 e4bd baed 1cbe
000001b0: bbb9 60be e2d7 b5bd 189d 10bc f126 1bbe
000001c0: 09a4 59bd faf7 90bd 965c 213d d8f9 0f3e
000001d0: 7b6f 3b3e dae5 db3d 9fda 58be 735d e73d
000001e0: 0963 cf3c c6fa 473e 6cb4 4ebc 9365 353d
000001f0: ac2a 48be 5997 cdbd 31de 1abe be79 16be
00000200: a661 573d f523 6cbd 5ffd 383e afff 573d
00000210: f5c9 5cbe 95ad 39bc 0a77 28be 8887 42be
00000220: 139e 94bd a1e0 fdbc 3e5a 9ebc a45c 34be
00000230: f95f 39be 4842 623d f340 0ebe 4516 10be
00000240: 0435 3dbe 5da5 74be b5e1 a8bc c439 143e
00000250: 592b c3bd d9f1 5ebd 8adf b8bd 8e77 33bd
00000260: 129f 76be f981 6bbe a001 2dbe 6d5a 99ba
00000270: da0f 21be b901 a33d e3df 8dbd 620c 533e
00000280: 12a9 a73d 9b02 3d3d ffb4 95bd daca 6cbe
00000290: 9bf2 3bbe 4cec 56be 574f 173e c909 edbd
000002a0: 330f 8e3d 3964 4f3e 7294 5f3e 3cfc a13d
000002b0: f8d1 2e3e 07a3 4cbe 3329 a8bd d758 3ebe
000002c0: 6d78 203e e5a1 b7bc 4bef 483e 8f17 c13d
000002d0: 01ff de3d 9601 83be e09a 063e f661 d23d
000002e0: 5d7a 84be 585d 40be bdd7 98bd d07d edbb
000002f0: 4b32 3c3e 58c8 2cbe d395 7dbe e1a0 cabd
00000300: 6cb0 c4bd 7363 37be d23d 46bd 3404 c53d
00000310: 1c8e 443e 0215 05be 8a4d 6dbd 75ba 1abe
00000320: 6f4d 34be 8751 653e 0d96 9cbd 74b1 71be
00000330: 161f d93d fabf 44bd ca4e f6bd deaa f8bd
00000340: a79e 4cbe bd43 1bbe 00fb 80be c901 043e
00000350: 1714 0b3e 199a 3dbe c520 c03d 8032 663e
00000360: cce5 0fbe beaa 68be cd30 74be 98ab 76bd
00000370: ee4d 653e 5652 82bd 9551 7e3e c0f8 463e
00000380: f468 da3d 51bc 753d 4a2a dbbc c2cf b23d
00000390: 48eb 62be a19e 65be b9f0 5d3d 64b5 b7bd
000003a0: 12d9 37be 10fc 82bd 86c8 0d3e 48d6 303e
000003b0: bbed d13d 79dc e43b 9ae7 f8bd 48db 693e
000003c0: 5ae0 103e a235 72bd c832 d4b8 8b53 36bc
000003d0: 6fed 3abd 89ef 663e fedd 0a3e 5718 823e
000003e0: d0a8 4fbd 501e aa3c f75c ac3d 7fc5 24be
000003f0: f80d 6b3e b9eb 00be 76c2 92bd f82c 44bd

model.backbone.encoder.layers.0.self_attn.W_V.bias f4 [16]
-0.05373311 -0.043951496 -0.07702945 0.1461525 0.059993085 0.16011913 0.08252906 -0.19699943
-0.054939594 0.0760838 -0.15067622 -0.14724353 0.25419137 0.18827555 -0.1220852 0.16770995
00000000: 4017 5cbd 7c06 34bd 9ec1 9dbd 00a9 153e
00000010: 4fbb 753d 45f6 233e ff04 a93d 38ba 49be
00000020: 5708 61bd d3d1 9b3d de4a 1abe 02c7 16be
00000030: 5f25 823e 4ecb 403e ce07 fabd 28bc 2b3e

model.backbone.encoder.layers.0.self_attn.to_out.0.weight f4 [16, 16]
-0.17096129 0.04154012 0.13195403 0.13265954 -0.016912945 0.20704524 -0.11382493 -0.2616687
0.22712179 0.19142796 0.20410597 0.10379856 0.10145293 0.116522565 -0.08761575 -0.17531899
-0.03175506 -0.20827296 -0.08041242 0.06365045 -0.06383744 -0.1267966 -0.082934916 -0.08871704
0.19621663 -0.15497689 0.018654343 0.019146424 -0.06199022 0.053857163 0.26191774 -0.16995387
-0.17721345 -0.23744622 0.0055490467 -0.1998198 0.17619728 0.1033609 -0.1363065 0.12860923
-0.21000543 0.11677705 0.20004213 -0.1994456 0.17619763 -0.18581998 -0.005506623 0.23789509
-0.19634019 0.18758142 -0.036571044 -0.19492751 0.12170721 0.19537084 0.11090763 0.22395375
-0.08999375 0.14459655 -0.20077953 -0.17704776 0.014936595 0.099683195 0.15505902 0.13361977
-0.15409799 0.044761214 0.0045965794 -0.14017108 -0.17820747 0.044374414 0.115252726 0.062466227
0.15968838 0.087923706 -0.1891148 -0.17220105 0.21325067 0.015736412 0.19971746 -0.20152545
0.20412916 -0.11414286 -0.0120207025 0.23091793 0.04617474 -0.08955401 0.028243156 -0.109399736
-0.09865321 -0.18552634 0.1383129 -0.14293577 -0.07148624 0.20310566 0.09048342 -0.20839657
-0.1403613 -0.23796123 0.18440121 -0.23447433 0.039268035 -0.20181125 -0.0069977087 0.107553415
0.10845368 0.181746 0.13853689 -0.2498596 -0.16812028 0.05822104 -0.1326105 -0.022626568
-0.15778811 0.112749875 0.19494392 -0.24146639 0.0816719 0.058434762 -0.1673095 -0.13247679
-0.15100145 -0.07275005 -0.11577729 -0.21205258 -0.033365205 -0.033068616 0.12626037 0.15204364
0.14705104 0.0729951 -0.2340782 -0.17377448 -0.113749206 0.13519642 -0.23204531 0.20107563
-0.07903171 -0.13597621 0.17098874 0.14080939 -0.07712317 -0.10312801 -0.14164533 -0.06679902
0.06724433 0.028175151 -0.038973432 0.019358657 -0.12009646 0.06051813 -0.22576818 -0.053507634
-0.23577558 -0.09716736 -0.06770267 -0.0006867491 0.17520475 -0.24297428 0.0965098 0.18803418
-0.21762565 0.06089572 0.071468055 -0.24140275 0.23192586 0.22855699 -0.12111465 -0.17920515
0.13385311 -0.17170496 -0.18077144 0.10304021 0.05196086 -0.005065792 0.19827308 0.16992743
0.080446966 0.08129872 -0.24071334 -0.038728096 -0.15719321 0.073022746 -0.20678975 -0.02463575
-0.12771718 -0.16343196 -0.2496074 0.13604744 0.14568087 -0.1842797 0.0517663 -0.18523677
-0.24046142 -0.18807054 0.17413144 -0.23728284 -0.031172402 0.20303036 -0.03935482 -0.14159128
-0.015550244 0.095748246 -0.12347214 -0.15484789 0.18682888 -0.16186419 -0.04710823 0.0062181186
-0.023598827 0.13673627 0.08051634 -0.10833247 0.18475425 -0.04754779 -0.14771952 -0.09479537
-0.17640893 -0.0741582 0.07729724 0.1236597 0.20010108 0.016008712 0.013753191 0.063879706
-0.057484094 -0.027572071 0.07608065 -0.19271083 -0.12568972 -0.09321598 0.12946981 0.044591308
0.06693467 0.11054568 0.14554444 0.060636062 -0.054294392 -0.07192112 0.015460628 -0.015943768
-0.027487088 -0.17150892 -0.030433025 0.095825605 0.21484789 0.11162078 -0.07208943 0.077376865
0.23984297 -0.22342779 0.11979711 -0.23980133 -0.17781799 -0.15112938 -0.17039372 -0.24876402
00000000: 7a10 2fbe f925 2a3d f51e 073e e7d7 073e
00000010: 048d 8abc ab03 543e 0b1d e9bd 71f9 85be
00000020: 9d92 683e b105 443e 2801 513e 5794 d43d
00000030: 8ec6 cf3d 62a3 ee3d e36f b3bd d286 33be
00000040: 9811 02bd 8245 55be 44af a4bd 2b5b 823d
00000050: 34bd 82bd f8d6 01be c8d9 a9bd 48b1 b5bd
00000060: 03ed 483e 43b2 1ebe fed0 983c f6d8 9c3c
00000070: 75e9 7dbd 5499 5c3d 151a 863e 6308 2ebe
00000080: 7177 35be 1a25 73be c7d4 b53b 909d 4cbe
00000090: 0f6d 343e e1ae d33d ee93 0bbe 23b2 033e
000000a0: aa0b 57be ce28 ef3d d8d7 4c3e 783b 4cbe
000000b0: 276d 343e 9847 3ebe e770 b4bb c59a 733e
000000c0: 670d 49be 5815 403e 85cb 15bd 149b 47be
000000d0: a141 f93d 4b0f 483e 8a23 e33d 2254 653e
000000e0: a54e b8bd 1e11 143e 2699 4dbe 024c 35be
000000f0: 9fb8 743c b426 cc3d cbc7 1e3e 9fd3 083e
00000100: ddcb 1dbe 8957 373d e79e 963b 0289 0fbe
00000110: 057c 36be f2c1 353d 9f09 ec3d 96dc 7f3d
00000120: 5a85 233e 5811 b43d 4fa7 41be 7955 30be
00000130: 625e 5a3e a6e9 803c bc82 4c3e b05c 4ebe
00000140: 3c07 513e bbc3 e9bd 7bf2 44bc c075 6c3e
00000150: b921 3d3d 1868 b7bd 315e e73c f80c e0bd
00000160: b20a cabd 9efa 3dbe e6a1 0d3e c15d 12be
00000170: 6167 92bd eefa 4f3e 5f4f b93d e965 55be
00000180: dfba 0fbe 1cac 73be acd3 3c3e 0a1a 70be
00000190: 85d7 203d 9ca7 4ebe 094d e5bb f744 dc3d
000001a0: f71c de3d a01b 3a3e 9ddc 0d3e 32db 7fbe
000001b0: b927 2cbe 2f79 6e3d 0ccb 07be 5a5b b9bc
000001c0: 3593 21be 68e9 e63d 619f 473e f742 77be
000001d0: 9943 a73d 4a59 6f3d 2e53 2bbe ffa7 07be
000001e0: 20a0 1abe fafd 94bd a51c edbd 5024 59be
000001f0: f4a9 08bd f572 07bd 664a 013e 54b1 1b3e
00000200: 8c94 163e 747e 953d 32b2 6fbe f0f1 31be
00000210: 58f5 e8bd ee70 0a3e 499d 6dbe c5e6 4d3e
00000220: 61db a1bd 593d 0bbe ac17 2f3e 5630 103e
00000230: c1f2 9dbd c734 d3bd 790b 11be edcd 88bd
00000240: 65b7 893d 93cf e63c 9ba2 1fbd 0c96 9e3c
00000250: 22f5 f5bd dce1 773d c62f 67be d22a 5bbd
00000260: 276f 71be aeff c6bd b3a7 8abd f406 34ba
00000270: e068 333e 40ce 78be eea6 c53d 088c 403e
00000280: 42d9 5ebe ca6d 793d d85d 923d 4832 77be
00000290: f97d 6d3e d80a 6a3e f50a f8bd 8e81 37be
000002a0: ca10 093e 6dd3 2fbe 261c 39be bf06 d33d
000002b0: e9d4 543d f1fe a5bb 1908 4b3e 7501 2e3e
000002c0: 61c1 a43d f17f a63d 8f7d 76be 5aa1 1ebd
000002d0: 42f7 20be f38c 953d b1c0 53be ead0 c9bc
000002e0: 4bc8 02be b55a 27be 1599 7fbe 0550 0b3e
000002f0: 5e2d 153e d1b3 3cbe e608 543d b5ae 3dbe
00000300: 853b 76be 9095 40be 834f 323e 46fa 72be
00000310: 445d ffbc 31e7 4f3e 8532 21bd 4efd 10be
00000320: 73c6 7ebc a817 c43d f6de fcbd 7290 1ebe
00000330: 1250 3f3e babf 25be 8ff4 40bd 5cc1 cb3b
00000340: 5452 c1bc 9804 0c3e c0e5 a43d 6add ddbd
00000350: 3830 3d3e 79c1 42bd c943 17be 1324 c2bd
00000360: 8ba4 34be 41e0 97bd 044e 9e3d 4c41 fd3d
00000370: 4ce7 4c3e b424 833c 1055 613c 5dd3 823d
00000380: 7174 6bbd d3de e1bc 2cd0 9b3d fd55 45be
00000390: ceb4 00be 05e8 bebd bc93 043e 60a5 363d
000003a0: 0b15 893d c665 e23d 9a09 153e 855d 783d
000003b0: cc63 5ebd 614b 93bd 934e 7d3c 819c 82bc
000003c0: 9a2c e1bc 09a0 2fbe ae4e f9bc 3740 c43d
000003d0: 1601 5c3e 6f99 e43d a0a3 93bd c377 9e3d
000003e0: 6599 753e 41ca 64be 3058 f53d 7b8e 75be
000003f0: eb15 36be a9c1 1abe b17b 2ebe ffbb 7ebe

model.backbone.encoder.layers.0.self_attn.to_out.0.bias f4 [16]
-0.19358763 0.058986846 -0.11175993 -0.08290319 -0.15437488 0.1833402 0.0046234494 0.080064155
0.10246869 -0.045552306 0.22393519 -0.0038912375 -0.20586097 -0.23310186 0.11390784 0.21794355
00000000: d63b 46be 319c 713d 64e2 e4bd 26c9 a9bd
00000010: 7314 1ebe 89bd 3b3e 4e80 973b adf8 a33d
00000020: 1bdb d13d 0e95 3abd 444f 653e 2204 7fbb
00000030: 38cd 52be 41b2 6ebe 8348 e93d 982c 5f3e

model.backbone.encoder.layers.0.norm_attn.1.weight f4 [16]
0.9990564 1.0152684 1.0171133 0.98665214 1.0012034 1.0225246 1.0141048 0.98397815
1.0115901 0.9976574 0.99355966 0.9991964 0.9940806 0.9832946 0.99937135 0.98587006
00000000: 29c2 7f3f 51f4 813f c530 823f 3c95 7c3f
00000010: 6f27 803f 16e2 823f 30ce 813f fee5 7b3f
00000020: c97b 813f 7a66 7f3f ed59 7e3f 56cb 7f3f
00000030: 117c 7e3f 32b9 7b3f cdd6 7f3f fb61 7c3f

model.backbone.encoder.layers.0.norm_attn.1.bias f4 [16]
-0.0024569994 0.0014835293 -0.006344281 -0.00020592133 -0.012063476 0.0023318727 -0.0131523255 -0.007306515
-0.0068521667 -0.011847325 0.010911728 -0.008550501 -0.0025094503 0.004917292 0.014081369 -0.009626937
00000000: 9c05 21bb fc72 c23a b0e3 cfbb 96ec 57b9
00000010: e3a5 45bc 55d2 183b da7c 57bc 7d6b efbb
00000020: 2488 e0bb 481b 42bc 1bc7 323c 6717 0cbc
00000030: 9775 24bb 3c21 a13b 8bb5 663c 4dba 1dbc

model.backbone.encoder.layers.0.norm_attn.1.running_mean f4 [16]
-0.17096326 0.00509856 -0.01651535 -0.04999801 0.09878866 0.06306481 -0.015578986 -0.00040115774
-0.084794275 0.20086533 0.22545086 0.13650715 -0.024026927 -0.019749044 -0.08569435 0.15259172
00000000: fe10 2fbe d211 a73b 334b 87bc b7ca 4cbd
00000010: b551 ca3d 2028 813d 013f 7fbc 7b52 d2b9
00000020: 9fa8 adbd a4af 4d3e 97dc 663e 88c8 0b3e
00000030: 1ed4 c4bc bfc8 a1bc 8580 afbd 0141 1c3e

model.backbone.encoder.layers.0.norm_attn.1.running_var f4 [16]
0.28932256 0.34869006 0.51723254 0.8627545 0.44555992 0.5002885 0.33260077 0.27854118
0.2289142 1.3391707 0.931156 0.4016403 0.32278717 0.38453144 0.3298466 0.3089374
00000000: 1622 943e 8187 b23e 5a69 043f 7bdd 5c3f
00000010: 6e20 e43e e812 003f a64a aa3e f39c 8e3e
00000020: 7c68 6a3e f269 ab3f 3d60 6e3f cca3 cd3e
00000030: 5c44 a53e 4ee1 c43e a7e1 a83e 0b2d 9e3e

model.backbone.encoder.layers.0.ff.0.weight f4 [128, 16]
0.15074593 -0.06637931 0.2450809 0.1903519 0.13189602 0.15061282 0.047602184 -0.14340733
0.24260382 -0.104147784 -0.15584193 0.13240026 -0.018535538 0.21429005 -0.12929837 -0.027191015
-0.20721197 0.012604978 0.12777236 -0.18990643 -0.028253004 0.14906508 0.15542287 -0.040650688
-0.124960914 -0.0016751094 0.18577784 0.008239738 -0.13123782 -0.08214026 -0.1123852 0.14739364
0.09719392 -0.07683198 0.19666617 0.21819243 0.046719324 -0.20975022 0.24332887 0.013619842
-0.100552775 0.07461865 0.20344658 0.20861997 -0.040552367 0.1961032 0.039649278 -0.014235541
0.10188349 -0.082137935 -0.0123075675 0.052655116 0.109545976 0.23576877 -0.12876074 -0.06749037
-0.04524788 0.016553087 -0.069411285 0.04641335 -0.13176869 -0.19204496 0.10775148 -0.22247814
-0.16248034 0.06394445 -0.24463154 0.013890551 0.19329716 -0.047492385 -0.23493332 -0.1125464
-0.14261639 -0.067344375 -0.09147078 -0.22641689 -0.06396077 -0.10688361 0.15542608 -0.11119368
0.1006661 -0.034985434 -0.23550212 -0.082933664 -0.21798877 0.14837424 -0.12551174 -0.042073347
-0.06456416 -0.05731578 0.09977447 -0.22236778 -0.023584576 0.011728533 -0.054885592 0.030522477
-0.15627521 0.23405954 -0.17384748 -0.19664402 0.21397784 -0.121384606 0.04036427 0.18950503
0.1503627 0.2099557 -0.16158682 0.042410634 -0.005173586 -0.14782381 0.077208 -0.109837495
0.12169438 -0.0021614712 0.009941571 -0.09148569 0.2279922 -0.16653815 0.04153166 -0.22484615
-0.21081282 -0.11856664 -0.2111863 0.06944621 -0.09128097 -0.22348128 0.13177231 -0.18932751
0.18511641 -0.16431603 0.13870868 0.15315257 -0.009325997 0.16974118 -0.032907765 0.09348587
-0.08365633 0.10246077 0.15578483 -0.11691246 -0.077648185 -0.24217369 -0.12800714 -0.017081872
-0.08311512 -0.16459902 -0.20788786 0.19184527 -0.22174095 -0.20347358 -0.07345777 0.18645129
-0.16976792 -0.08022005 -0.15073825 -0.057123244 0.10958111 -0.024177492 -0.12025376 -0.025024034
0.18282066 0.14799602 -0.0420154 0.18967682 -0.18444878 -0.18229453 0.15309435 0.069632046
-0.09593498 -0.037152305 0.009364202 -0.20492251 -0.12973984 -0.20110661 0.10179246 0.049164835
0.090943806 0.23996224 -0.22352387 -0.0972365 -0.1178699 0.1308574 -0.11597367 0.05034433
0.23588243 -0.02566797 -0.17705159 0.08027587 0.1511668 -0.07229548 -0.21430989 0.2038809
-0.0028745667 -0.18672921 -0.04778419 0.17973116 -0.04896014 -0.17614946 0.08659628 -0.13999659
0.014041092 0.027673263 -0.17919222 -0.12472834 -0.17642525 0.18377854 -0.002022004 -0.019034851
0.08506111 -0.18686378 -0.14436048 -0.20360853 -0.1355699 -0.030987976 -0.25217396 -0.22162126
0.13126887 -0.15543132 -0.23771824 -0.0013246229 -0.23593467 -0.22099935 -0.09414192 -0.08113895
-0.17852916 -0.11566535 0.22795963 0.22183953 0.14431705 -0.06925253 0.069409996 0.12462055
-0.18711449 0.13891537 -0.23802634 -0.1001199 0.16407204 -0.13368678 -0.15625617 0.18618113
0.16780199 0.0066134827 0.21864618 -0.22382267 0.12708703 -0.020181555 0.16531421 0.15525116
-0.20262173 0.15717283 0.09746282 -0.22128697 -0.0079121385 0.08815331 0.19084921 -0.11444971
00000000: 245d 1a3e e0f1 87bd 7df6 7a3e 9ceb 423e
00000010: c00f 073e 3f3a 1a3e 82fa 423d 5fd9 12be
00000020: 236d 783e 6f4b d5bd 0795 1fbe ef93 073e
00000030: d7d7 97bc da6e 5b3e cb66 04be b1bf debc
00000040: 602f 54be 1c85 4e3c c2d6 023e d576 42be
00000050: d872 e7bc 84a4 183e 2c27 1f3e 5681 26bd
00000060: 82eb ffbd 588f dbba 8c3c 3e3e f7ff 063c
00000070: 3563 06be 2739 a8bd 362a e6bd 5cee 163e
00000080: 9b0d c73d 165a 9dbd db62 493e d66d 5f3e
00000090: c35c 3f3d c3c8 56be 342b 793e c225 5f3c
000000a0: 9dee cdbd aad1 983d 4d54 503e 79a0 553e
000000b0: 3d1a 26bd 47cf 483e 4867 223d 303c 69bc
000000c0: 4ba8 d03d ef37 a8bd aea5 49bc e4ac 573d
000000d0: a459 e03d 5e6d 713e dbd9 03be 6438 8abd
000000e0: d755 39bd 579a 873c 8127 8ebd ed1b 3e3d
000000f0: 5fee 06be 6fa7 44be cfac dc3d 4fd1 63be
00000100: 3f61 26be 4ff5 823d b180 7abe 3295 633c
00000110: b1ef 453e 6087 42bd 5c92 70be ba7e e6bd
00000120: 080a 12be d9eb 89bd 0855 bbbd d4d9 67be
00000130: ddfd 82bd cbe5 dabd 0428 1f3e 83b9 e3bd
00000140: 072a ce3d e34c 0fbd 7827 71be 20d9 a9bd
00000150: 7338 5fbe 6bef 173e 2686 00be 1a55 2cbd
00000160: 373a 84bd f4c3 6abd 8f56 cc3d 61b4 63be
00000170: 7134 c1bc 0829 403c b7cf 60bd 460a fa3c
00000180: 9c06 20be 4ead 6f3e 1305 32be 0d5d 49be
00000190: 021d 5b3e 7e98 f8bd 0155 253d 9b0d 423e
000001a0: aef8 193e a1fe 563e 0477 25be c6b6 2d3d
000001b0: 2f87 a9bb 205f 17be 3a1f 9e3d 7bf2 e0bd
000001c0: e73a f93d 78a7 0dbb f9e1 223c d95c bbbd
000001d0: ca76 693e fa88 2abe 1a1d 2a3d 123e 66be
000001e0: 51df 57be 11d3 f2bd 3941 58be d139 8e3d
000001f0: 84f1 babd 47d8 64be 52ef 063e 12df 41be
00000200: 288f 3d3e 7642 28be a609 0e3e 07d4 1c3e
00000210: 11cc 18bc a2d0 2d3e 4bca 06bd 8575 bf3d
00000220: 0354 abbd f4d6 d13d 0f86 1f3e cd6f efbd
00000230: 0306 9fbd 61fc 77be 4e14 03be 48ef 8bbc
00000240: 4338 aabd a58c 28be 8ee0 54be 1673 443e
00000250: 0f10 63be 615b 50be 0771 96bd 16ed 3e3e
00000260: a4d7 2dbe 694a a4bd 215b 1abe 10fa 69bd
00000270: 106c e03d e00f c6bc 9a47 f6bd 34ff ccbc
00000280: 5735 3b3e 458c 173e 5718 2cbd a43a 423e
00000290: 24e0 3cbe 6bab 3abe c4c4 1c3e 3f9b 8e3d
000002a0: 8f79 c4bd 042d 18bd 4f6c 193c 35d7 51be
000002b0: 85da 04be e4ee 4dbe 9178 d03d 1161 493d
000002c0: bf40 ba3d a9b8 753e 71e3 64be ee23 c7bd
000002d0: c665 f1bd 7bff 053e 9a83 edbd db35 4e3d
000002e0: 2a8b 713e a245 d2bc 034d 35be ad67 a43d
000002f0: 78cb 1a3e a70f 94bd 0d74 5bbe 28c6 503e
00000300: 3a63 3cbb f135 3fbe 5bb9 43bd 720b 383e
00000310: 6e8a 48bd 8660 34be 6459 b13d 445b 0fbe
00000320: 9c0c 663c 0ab3 e23c 2a7e 37be 9271 ffbd
00000330: d2a8 34be 7130 3c3e 9983 04bb faee 9bbc
00000340: 8534 ae3d 3859 3fbe 3cd3 13be c17e 50be
00000350: d6d2 0abe 7fda fdbc f21c 81be aff0 62be
00000360: 596b 063e 6329 1fbe 696c 73be f89e adba
00000370: dc98 71be a74d 62be 7bcd c0bd 2e2c a6bd
00000380: 59d0 36be f4e1 ecbd 406e 693e e729 633e
00000390: d9c7 133e 45d4 8dbd d426 8e3d 0f39 ff3d
000003a0: f19a 3fbe d53f 0e3e 2dbd 73be aa0b cdbd
000003b0: 8002 283e 30e5 08be 9e01 20be 44a6 3e3e
000003c0: 49d4 2b3e eab5 d83b c9e4 5f3e c531 65be
000003d0: 1a23 023e ca53 a5bc 2148 293e 29fa 1e3e
000003e0: 127c 4fbe eaf1 203e 969a c73d 0d99 62be
000003f0: eaa1 01bc b989 b43d fa6d 433e 9c64 eabd
