TSF_Finance/checkpoints/ixic_all_0705__PatchTST_custom_ftM_sl96_ll48_pl30_dm16_nh4_el3_dl1_df128_fc1_ebtimeF_dtTrue_Exp_0/checkpoint.pth (torch_old, 160642 bytes, 65 tensors)

model.backbone.W_pos f4 [38, 16]
0	0xbc89183c	-0.016735189
1	0xbc44fec1	-0.012023629
2	0xbbfde017	-0.007747661
3	0x3c97e0dd	0.01853984
4	0x3c2cd8cf	0.010549738
5	0x3ac8d0d5	0.0015321026
6	0xbc409085	-0.011753206
7	0x3c7e0be3	0.015505764
8	0x3ac918ce	0.0015342475
9	0x3c2c151b	0.010503079
10	0xbbd2207d	-0.0064125643
11	0xbc040e7a	-0.008060092
12	0x3c7906c9	0.015199372
13	0x3b94184c	0.004519498
14	0xbca8175e	-0.020518955
15	0x3c8d8a69	0.017277913
16	0xbbea2b5a	-0.007146281
17	0x3c3a21a9	0.011360564
18	0x3ca2c971	0.019871445
19	0x3aa1b708	0.0012337873
20	0x3b9d6612	0.0048034275
21	0x3c6f5a85	0.014608984
22	0xbc8c4a89	-0.017125385
23	0x3c962c1c	0.01833158
24	0xbc07e558	-0.008294426
25	0xbae1fd44	-0.0017241617
26	0x3c68a01a	0.014198327
27	0x3c0f53ee	0.008748038
28	0xbc1d7ad8	-0.009611808
29	0x3c570b4d	0.013125253
30	0xbbb1b1c4	-0.0054228026
31	0xbbd7ef9f	-0.0065898444
32	0xbc491ea6	-0.012275374
33	0xbc9bb57b	-0.019007435
34	0x3a0d67d1	0.0005394193
35	0xbc2880b6	-0.010284593
36	0xbc8944e4	-0.016756482
37	0x3c31a448	0.01084239
38	0xbc1624eb	-0.009164075
39	0x3af00737	0.0018312697
40	0x3ce12481	0.027483227
41	0x3c8ee478	0.017442927
42	0xb9350f5b	-0.00017267225
43	0x3b9acf38	0.0047244094
44	0x3bfe8d33	0.007768297
45	0x3c9cbce8	0.019133046
46	0x3c2c6722	0.010522636
47	0x3cd09e9a	0.025466252
48	0xbbe89fad	-0.007099113
49	0x3b62db97	0.003461575
50	0x3c546e0d	0.012965691
51	0x3c7b7be6	0.015349364
52	0xbc32a953	-0.010904628
53	0x3c3744db	0.01118585
54	0x3aff75c3	0.0019490052
55	0xbcdee39d	-0.027208144
56	0x3c44f2a6	0.0120207425
57	0x3c97aa70	0.018513888
58	0xbc93158e	-0.017954614
59	0xbc164833	-0.009172487
60	0x3c51d2b9	0.012806588
61	0x3bb9a001	0.005664826
62	0xbcb15db6	-0.02165113
63	0xbc1610a9	-0.0091592455
64	0xbc6b0e43	-0.014346662
65	0xbc7e4ec1	-0.015521706
66	0x3b83d11b	0.00402273
67	0x3c8a5045	0.016883979
68	0xbca1bae8	-0.019742444
69	0x3cdc645c	0.026903324
70	0xbc1f2166	-0.009712553
71	0xbaa0df07	-0.0012273499
72	0x3cad9ccb	0.021192929
73	0xbc0a9b68	-0.008459903
74	0x3bbd1bfb	0.005771158
75	0x3baa8649	0.0052039963
76	0x3c5aab4e	0.013346506
77	0x3c791c57	0.015204511
78	0xbbd9055c	-0.0066229533
79	0xbc3d2801	-0.011545182
80	0x3bca2616	0.006169091
81	0x3b8170a3	0.003950195
82	0x3c88030c	0.016603015
83	0x3addd3b7	0.0016924058
84	0x3bccdb0a	0.0062516974
85	0x3c04ec7d	0.008113024
86	0x3cb1eaab	0.021718344
87	0x3b873552	0.0041262293
88	0x3c2c2a7a	0.010508174
89	0xbba8e083	-0.005153717
90	0x3c52387a	0.012830848
91	0x3c7756fd	0.015096423
92	0xbc0f2d7f	-0.008738874
93	0xbc827bac	-0.015928112
94	0xbc9f88b3	-0.019474363
95	0xbc0e0096	-0.008667132
96	0x3c898e72	0.016791556
97	0x3cb9c7d6	0.022678297
98	0x3b960d27	0.0045792046
99	0x3cd124e1	0.02553028
100	0xbcf49697	-0.029856963
101	0xbba5f210	-0.0050642565
102	0x3bb45fe6	0.005504596
103	0xbc913e48	-0.017729893
104	0xbc51dab2	-0.012808489
105	0xbc2428fb	-0.010019536
106	0x3c473ca8	0.012160458
107	0xbc92d121	-0.017921986
108	0x3c54c4b6	0.012986353
109	0x396e118b	0.00022703984
110	0x3b72f490	0.003707204
111	0xbb99bf4a	-0.004691993
112	0xbc67fee8	-0.0141598955
113	0xbb9d54a7	-0.004801351
114	0x3c163b24	0.009169374
115	0x3bd952ab	0.0066321692
116	0x3c2c83a0	0.010529429
117	0xbc85a1dc	-0.016312532
118	0xbc2fe525	-0.010735785
119	0x3bfe137a	0.0077537866
120	0x3c48df59	0.0122602815
121	0x3c3acca9	0.011401334
122	0x3c2b67e7	0.010461784
123	0x3be09fe1	0.0068549966
124	0xbb5c18b2	-0.0033584055
125	0x3c847bf5	0.016172389
126	0x3bb1f42d	0.0054307193
127	0xbc1bc16c	-0.009506565
128	0xbcb77aca	-0.022397418
129	0x3cbebf8a	0.023284692
130	0x3b9c7277	0.0047743875
131	0x3c51155a	0.012761438
132	0x3b74709c	0.0037298566
133	0x3c63c407	0.013901717
134	0x3b2d1a5f	0.0026413423
135	0xbb0d82bd	-0.0021592819
136	0xbbf47e4c	-0.007461345
137	0xbd05d365	-0.032672305
138	0x3b97a026	0.0046272455
139	0x3b7884a0	0.0037920848
140	0xbc1d1990	-0.009588614
141	0xbc2b9b56	-0.010474047
142	0xbc2b36fb	-0.01045012
143	0xbca1cb7d	-0.019750351
144	0xbc440848	-0.011964865
145	0x3c085a35	0.008322288
146	0xbb5cc206	-0.0033684983
147	0x3c494d87	0.01228655
148	0x3b8d0105	0.0043031
149	0x3c212ad5	0.009836872
150	0x3c29aa42	0.010355534
151	0x3bc825f0	0.006108038
152	0x3b71db0b	0.0036904241
153	0xbcd13f7b	-0.025542965
154	0xbc7c1a52	-0.015387135
155	0xbc073165	-0.008251523
156	0x3c19e7b2	0.009393619
157	0xbcd7dd2c	-0.02635058
158	0xbc03714d	-0.0080226185
159	0x3c5f6a73	0.013636219
160	0x3c8a5f4a	0.01689114
161	0xbbb8493a	-0.0056239637
162	0xbc3a6607	-0.011376864
163	0x3bff0fbd	0.0077838586
164	0xbcaee64e	-0.021350052
165	0x3bcc1271	0.0062277843
166	0xbcf1b9b5	-0.029507497
167	0x3c38ff40	0.011291325
168	0xbc7f5c6e	-0.015586002
169	0x3b7cdfac	0.0038585467
170	0x3c369219	0.011143231
171	0xbbdb3a62	-0.0066903094
172	0x3acc4940	0.0015585795
173	0xbcf1ffd2	-0.02954093
174	0x3c2bbf31	0.010482595
175	0xbc47230d	-0.012154353
176	0x3c831576	0.016001444
177	0x3ca66aa4	0.020314522
178	0x3cc769f5	0.024342516
179	0xbc9c8616	-0.019106906
180	0xbb96a3c1	-0.0045971577
181	0x3bcea053	0.006305733
182	0xbc01dce4	-0.0079262
183	0xbbd5fe4b	-0.006530558
184	0x3c3fc7bf	0.011705338
185	0xbc13e8a2	-0.009027632
186	0xbcb461aa	-0.022019226
187	0xbc9a7f31	-0.018859478
188	0x3c02a4e6	0.007973885
189	0xbb127dd4	-0.0022352831
190	0x3c9a40fe	0.018829819
191	0x3c95e077	0.01829551
192	0x3abb4e1e	0.0014290249
193	0xbba39054	-0.0049915705
194	0xbcaeef3d	-0.021354312
195	0xbabcc9d1	-0.0014403408
196	0xbc288556	-0.010285696
197	0x3c393f01	0.011306525
198	0xbc4948d9	-0.012285435
199	0x3caa57ee	0.020793881
200	0xbcbbc489	-0.022920864
201	0xba3c7de4	-0.000719039
202	0xbca953cd	-0.020669842
203	0xb9e6d7d3	-0.0004402982
204	0xbc2fae00	-0.010722637
205	0xbcb0ecd3	-0.021597302
206	0xbc82ab5d	-0.015950853
207	0x3c8c777c	0.017146818
208	0x3c850a07	0.016240133
209	0xbcba3137	-0.022728546
210	0x3b2d85f1	0.002647754
211	0x3a97bda2	0.0011576901
212	0x3c9cd96f	0.01914665
213	0xbc6be0d4	-0.014396865
214	0x3b36005a	0.0027771206
215	0x3c31b21a	0.010845685
216	0xbc68f7d6	-0.014219245
217	0x3af3f618	0.001861277
218	0xbc4890e4	-0.012241576
219	0xbc36669b	-0.0111328615
220	0xbc3dc233	-0.011581945
221	0x3a757578	0.00093635125
222	0xbc0a11fc	-0.008427139
223	0x3c72d228	0.014820613
224	0xbc2c3a7b	-0.01051199
225	0xb9f87c6b	-0.00047394945
226	0x3b17586e	0.002309348
227	0x3a475a21	0.0007604678
228	0x3c494be8	0.012286164
229	0xbac76666	-0.0015213012
230	0xbc41baaa	-0.011824289
231	0xbc9f1e79	-0.01942371
232	0x3c66c631	0.014085338
233	0x3b5f6265	0.0034085747
234	0xbc1f78c9	-0.009733387
235	0xbc989c59	-0.01862924
236	0xbcc4347a	-0.023950804
237	0xbc25b509	-0.010113963
238	0xba3831e5	-0.0007026478
239	0xbc148cd4	-0.009066779
240	0x3c857fbe	0.016296264
241	0xbb8a8018	-0.0042266957
242	0x3c4b8207	0.012421138
243	0x3ca629c0	0.02028358
244	0x3a0841c3	0.00051977875
245	0xbc013cff	-0.007888078
246	0xbc02c946	-0.007982558
247	0xbc123e49	-0.008925983
248	0xbb63c648	-0.0034755636
249	0x3b99c5bb	0.0046927608
250	0xbcc41ecf	-0.023940472
251	0x3c43f79b	0.011960889
252	0x3c0244f0	0.007951006
253	0x3c7fe2ef	0.01561807
254	0x3c6b430a	0.014359245
255	0xbc1a911e	-0.009434013

model.backbone.W_P.weight f4 [16, 24]
0	0xbe1498c6	-0.14511403
1	0x3c18e00c	0.009330761
2	0x3dc4a895	0.09602467
3	0x3db37624	0.08762768
4	0x3cea47e9	0.028598743
5	0xbe03f427	-0.12886105
6	0xbe3563df	-0.17713879
7	0x3e43ab17	0.19108234
8	0xbd9fc736	-0.07801668
9	0xbe225f4a	-0.15856662
10	0x3e015d30	0.12633204
11	0xbe47c3cf	-0.19508289
12	0x3dff8193	0.12475886
13	0xbe1f89a0	-0.15579844
14	0x3dc9d403	0.09854891
15	0xbd691121	-0.0569011
16	0x3bfb5986	0.007670584
17	0xbda3ab3d	-0.079916455
18	0x3df25783	0.11833098
19	0x3dd42f66	0.10360603
20	0x3e0c0d22	0.13676885
21	0xbd57559b	-0.052571874
22	0x3e6cf83c	0.23141569
23	0x3d18961d	0.037252534
24	0xbd8e0df3	-0.06936254
25	0xbe519ce0	-0.2047
26	0x3df78467	0.120858006
27	0xbe47b2e2	-0.19501832
28	0xbe18158c	-0.1485197
29	0xbdaade8e	-0.0834323
30	0x3d8074c3	0.062722705
31	0x3d89c2bc	0.06726596
32	0x3dfae3e8	0.12250501
33	0xb85a6623	-5.2070372e-05
34	0x3db7a210	0.08966458
35	0x3dfe1d60	0.124079466
36	0xbe50121f	-0.20319413
37	0xbe373518	-0.17891347
38	0xbe529458	-0.20564401
39	0xbe1b034a	-0.15137973
40	0x3dbccc92	0.09218706
41	0x3e2f5a75	0.1712435
42	0x3d7a59a4	0.061120644
43	0xbe2b752a	-0.16743913
44	0x3db19b03	0.08672144
45	0x3dced1b4	0.100985914
46	0x3e2abe98	0.16674268
47	0xbe4ba3db	-0.19886725
48	0xbcdeafe6	-0.027183484
49	0xbdcfb3ea	-0.10141738
50	0x3e388c90	0.1802237
51	0x3deab01b	0.11459371
52	0x3cf3374d	0.029689455
53	0x3c8f4ec1	0.017493607
54	0x3dbafbab	0.09130033
55	0xbe18891f	-0.14896058
56	0xbc156eb2	-0.00912063
57	0xbe0ded39	-0.13860025
58	0x3daea2c0	0.08527136
59	0x3d9a9f40	0.07549906
60	0xbe24ab01	-0.16080858
61	0x3b45e3a7	0.0030195506
62	0x3dce4f4e	0.1007372
63	0x3dd43b56	0.1036288
64	0x3e429ce8	0.19005167
65	0xbe350d01	-0.17680742
66	0xbd6c056b	-0.057622354
67	0xbd98302b	-0.07431062
68	0xbe30ffa1	-0.17285015
69	0xbe646581	-0.22304346
70	0xbe3d8cf5	-0.18510802
71	0x3d6424f1	0.055699293
72	0xbe3c74b0	-0.18403888
73	0xbdd0b07b	-0.10189911
74	0xbe0d6a5b	-0.13810103
75	0xbe21cd11	-0.15800883
76	0x3e397b4d	0.18113442
77	0xbccbc7c7	-0.024875535
78	0xbd8a93fa	-0.067665055
79	0x3e3b1c34	0.18272477
80	0xbdeeda43	-0.11662724
81	0xbda262f3	-0.07929029
82	0xbd813caf	-0.063104026
83	0xbe0cafa2	-0.13738874
84	0xbdb5e69d	-0.088818766
85	0xbd3f7c9d	-0.0467497
86	0x3c36c641	0.011155666
87	0xbdfdeb98	-0.123984516
88	0xbc63764b	-0.013883184
89	0x3e42d95c	0.19028229
90	0xbbb0de9c	-0.005397631
91	0xbd0599f7	-0.032617535
92	0xbe5a50c3	-0.2131987
93	0xbe2c3e4c	-0.1682064
94	0x3daac42c	0.08338198
95	0x3dc7854a	0.0974222
96	0xbe3757af	-0.17904542
97	0x3d6bbccd	0.0575531
98	0x3d69328f	0.056932982
99	0xbd851c82	-0.06499578
100	0x3e31b34f	0.17353557
101	0x3d3e4498	0.046452135
102	0xbe0e3160	-0.13886023
103	0x3e3ebe89	0.18627371
104	0x3ddec24c	0.10876903
105	0xbdaa7b06	-0.08324246
106	0x3ce8d5d2	0.02842227
107	0x3e24beca	0.16088405
108	0x3e2d7c03	0.16941838
109	0x3de21390	0.110388875
110	0x3d8fcb21	0.07021166
111	0x3b6157fd	0.003438472
112	0x3d43f59e	0.04784166
113	0xbe092c46	-0.13395795
114	0x3c8e352f	0.017359344
115	0xbe3c9e9c	-0.1841988
116	0x3e0859b0	0.13315463
117	0xbdffb204	-0.12485126
118	0xbdf41c5e	-0.11919473
119	0x3e3904f3	0.18068294
120	0xbd54f991	-0.051995818
121	0xbdf2ade5	-0.11849574
122	0xbe182b9c	-0.14860386
123	0x3dd1277d	0.1021261
124	0xbe2c4683	-0.16823773
125	0x3e252c2c	0.16130131
126	0x3d852521	0.065012224
127	0x3e457584	0.1928311
128	0xbd946d38	-0.07247394
129	0xbe2ba040	-0.1676035
130	0xbc223b07	-0.0099017685
131	0x3e2e02e2	0.16993287
132	0xbdb06662	-0.08613278
133	0xbe392134	-0.18079072
134	0x3e203473	0.15645008
135	0x3e0d3c7a	0.13792601
136	0x3e1ffe79	0.15624417
137	0x3dfe37f6	0.124130175
138	0x3b5a8808	0.003334524
139	0xbe2c9087	-0.16852008
140	0xbe17a822	-0.14810231
141	0xbdef11e9	-0.11673338
142	0xbe24089d	-0.1601891
143	0xbe458f54	-0.19292957
144	0x3e18422b	0.14868991
145	0x3e14a6bd	0.1451673
146	0xbe0b0118	-0.13574636
147	0xbc943316	-0.018090766
148	0x3e3e9841	0.18612768
149	0x3dbcc4cc	0.092172235
150	0xbd378591	-0.044805113
151	0xbd7543e8	-0.059879214
152	0x3dd033ca	0.10166128
153	0xbda12e78	-0.07870191
154	0xbe1b720e	-0.15180227
155	0xbd5fb20d	-0.05461316
156	0x3e03aa36	0.12857899
157	0xbda2a071	-0.07940758
158	0xbe0c8d9f	-0.13725899
159	0xbd8c9d7e	-0.06865977
160	0xbd8dd92e	-0.06926189
161	0xbe12e558	-0.143453
162	0x38dfa759	0.000106646396
163	0x3dd611a1	0.10452581
164	0x3e461856	0.19345221
165	0x3d972865	0.073807515
166	0x3e3df1c0	0.18549252
167	0x3de759bd	0.11296413
168	0xbd5d131f	-0.053973313
169	0xbe1bfe0d	-0.15233631
170	0xbd4579fd	-0.04821204
171	0x3dc65b74	0.09685412
172	0x3d410aac	0.047129318
173	0xbd520d1d	-0.051282037
174	0xbc091429	-0.008366623
175	0x3d91ac37	0.071129255
176	0xbcc70273	-0.02429316
177	0x3e1de5fd	0.15419765
178	0xbdff0761	-0.12452579
179	0x3cd6f573	0.026240086
180	0x3ddbfdf4	0.10741797
181	0x3e216c24	0.15763909
182	0x3cc4090f	0.0239301
183	0x3c093033	0.008373308
184	0x3e2c0a3a	0.16800776
185	0xbe1bb44b	-0.15205495
186	0xbdd9f251	-0.10641921
187	0xbe097bf0	-0.13426185
188	0x3e301cfb	0.17198555
189	0xbc9f4f2f	-0.019446937
190	0xbe497b7b	-0.1967601
191	0xbc4f166f	-0.012639626
192	0xbe436405	-0.19081123
193	0x3ddc3d1e	0.10753845
194	0x3e1e7e2b	0.15477817
195	0x3da552bd	0.08072422
196	0xbd336fc1	-0.04380775
197	0xbdef5294	-0.116856724
198	0x3e2e5a12	0.17026547
199	0xbd2208ae	-0.03955906
200	0x3d9f2509	0.07770736
201	0xbc8e75a3	-0.017390078
202	0x3e276511	0.16347148
203	0xbd19b613	-0.037527155
204	0x3e04a3e2	0.12953141
205	0xbe1a8be8	-0.15092432
206	0xbe30aa6e	-0.17252514
207	0x3ce7fc37	0.028318508
208	0x3e25a480	0.16176033
209	0xbe1034c1	-0.14082624
210	0x3dfe7c2a	0.12426026
211	0x3c6577a8	0.014005579
212	0xbe47ea67	-0.19523011
213	0xbe1700e3	-0.14746432
214	0xbd682092	-0.056671686
215	0xb893dad1	-7.050264e-05
216	0x3db94b88	0.090476096
217	0x3e3a24b9	0.18178071
218	0x3e350183	0.17676358
219	0xbe314cb9	-0.17314424
220	0x3dd59c44	0.10430196
221	0xbd803652	-0.06260361
222	0xbc9520c6	-0.018204104
223	0x3e37c480	0.17946053
224	0xbd3a441f	-0.04547512
225	0xbdbb71a3	-0.09152534
226	0x3dd03171	0.1016568
227	0xbbec75c4	-0.007216187
228	0x3d2b844b	0.04187421
229	0x3b4f6078	0.0031643193
230	0x3e34b8f5	0.1764868
231	0x3e1f5446	0.15559492
232	0x3d8982cf	0.06714403
233	0x3cc0389e	0.023464497
234	0x3d8aefcc	0.06784019
235	0xbd8fdd1d	-0.07024596
236	0x3e053b2d	0.13010855
237	0x3e407f11	0.18798472
238	0x3e3d548d	0.18489285
239	0xbdac1f46	-0.084044024
240	0xbdc368c6	-0.09541468
241	0x3e2e85fe	0.17043301
242	0x3e22149f	0.15828179
243	0x3df5c00c	0.11999521
244	0x3e2a8e5c	0.16655868
245	0x3e3e6515	0.18593247
246	0xbde2281b	-0.11042806
247	0xbe241d67	-0.16026841
248	0xba718b9d	-0.00092142244
249	0x3e013823	0.1261907
250	0xbdb5882d	-0.08863864
251	0xbdfa0da2	-0.122096315
252	0xbe490eb6	-0.19634518
253	0x3ce35e59	0.02775495
254	0x3ca597dd	0.020214016
255	0xbdf46df4	-0.119350344

model.backbone.W_P.bias f4 [16]
0	0xbda0152a	-0.07816537
1	0x3c851731	0.01624641
2	0x3d3092d7	0.043108787
3	0xbd819442	-0.06327106
4	0x3e1489ee	0.14505741
5	0xbd83bc7f	-0.06432437
6	0x3cc4e46c	0.024034701
7	0xbe122134	-0.14270478
8	0xbd57a703	-0.05264951
9	0x3e29808d	0.16552944
10	0xbc190fe8	-0.009342171
11	0x3db7deb2	0.08978023
12	0x3cb57a3f	0.022153018
13	0x3e181ab2	0.14853933
14	0xbdf50e92	-0.1196567
15	0x3d3bbd59	0.045834873

model.backbone.encoder.layers.0.self_attn.W_Q.weight f4 [16, 16]
0	0xbe42d321	-0.19025852
1	0xbd819693	-0.06327548
2	0x3e5b4288	0.21412098
3	0x3d21d4bf	0.03950953
4	0x3e063758	0.1310705
5	0xbd3541ca	-0.044252194
6	0x3e006be5	0.12541158
7	0x3d52ce48	0.051466256
8	0xbe3671f0	-0.17816901
9	0x3e612ef4	0.21990567
10	0xbe69743e	-0.22798249
11	0x3e2a218b	0.16614358
12	0xbe33b06a	-0.17547765
13	0x3e711d18	0.23546255
14	0x3dc85afc	0.09782979
15	0x3e74b2fe	0.23896405
16	0x3e5da638	0.21645439
17	0x3d01a9b2	0.031655975
18	0x3e6159b0	0.2200687
19	0xbe264fc0	-0.1624136
20	0xbe2c2be9	-0.16813625
21	0xbe604fc9	-0.21905436
22	0xbe126648	-0.1429683
23	0x3e00b424	0.12568718
24	0x3df528f4	0.11970702
25	0xbe6a3e4e	-0.2287533
26	0xbe50d426	-0.20393428
27	0x3e298719	0.16555442
28	0x3e775f39	0.24157418
29	0x3e1a2319	0.15052451
30	0x3d592c34	0.05302067
31	0xbdc2bc5d	-0.09508584
32	0x3d28125d	0.041033138
33	0x3e3aab9e	0.1822953
34	0xbe5b7e52	-0.21434906
35	0xbdc73625	-0.09727124
36	0x3c3cd024	0.011524234
37	0xbe7d6f0a	-0.2474939
38	0x394ef797	0.00019737925
39	0x3d1d6bc6	0.03843286
40	0x3d8c7502	0.06858255
41	0xbdffa304	-0.12482265
42	0x3e18d8b8	0.14926422
43	0xbe6b9994	-0.23007804
44	0xbe8397cc	-0.2570175
45	0x3d04a397	0.032382574
46	0x3e10c202	0.14136508
47	0xbc088549	-0.008332559
48	0x3e365186	0.17804536
49	0x3e02b2dc	0.12763542
50	0x3e1ff0d2	0.1561921
51	0xbd26339a	-0.040576555
52	0x3e2670ae	0.16253921
53	0xbe3e0896	-0.18557963
54	0xbe14bbec	-0.14524812
55	0xbddcb2ec	-0.10776314
56	0x3e189f8a	0.1490461
57	0x3e588444	0.21144205
58	0xbe07af95	-0.13250573
59	0x3e091659	0.13387431
60	0xbe0d396f	-0.1379144
61	0x3d64b5d0	0.055837452
62	0x3e3e9864	0.1861282
63	0x3d8cbb02	0.068716064
64	0xbbaa8b50	-0.0052045956
65	0x3ba63d2b	0.0050732098
66	0xbd09ae76	-0.033613645
67	0xbe743a65	-0.23850401
68	0x3d27b3bc	0.040942892
69	0xbc448054	-0.011993486
70	0x3e85ece1	0.26157287
71	0xbe47862d	-0.19484778
72	0x3e5ab4a5	0.21357973
73	0x3e6c8ea5	0.2310129
74	0xbe6c4b71	-0.23075654
75	0xbd238d8d	-0.039929915
76	0x3dc05ec2	0.093930736
77	0x3ddf51a9	0.10904247
78	0xbde67544	-0.112528354
79	0xbe34914a	-0.17633548
80	0xbdf7838e	-0.12085639
81	0xbdcaf164	-0.09909323
82	0x3dd06918	0.10176295
83	0xbcaf8eab	-0.021430334
84	0x3de284e3	0.110605024
85	0xbd12af04	-0.03581144
86	0x3d396708	0.045264274
87	0x3dd175e0	0.10227561
88	0xbe482eb0	-0.1954906
89	0xbde6dc28	-0.1127246
90	0xbe76d35d	-0.24104066
91	0xbdcb7522	-0.09934451
92	0xbe38d779	-0.18050946
93	0xbe7c6887	-0.24649249
94	0x3e6e04ae	0.23243973
95	0xbdce2071	-0.100647815
96	0x3be7d27c	0.0070746522
97	0xbe1d1336	-0.1533936
98	0xbbf46636	-0.0074584736
99	0xbe729eab	-0.2369334
100	0xbd370fdd	-0.044692863
101	0xbd7ce7fb	-0.06174467
102	0x3d6c4cee	0.057690553
103	0x3bf94bbf	0.0076079066
104	0x3e11c98a	0.14237037
105	0x3c2c3478	0.010510556
106	0xbe011e50	-0.1260922
107	0x3e7fcc5f	0.24980305
108	0xbd598b7e	-0.053111546
109	0x3e5f0445	0.21778972
110	0xbe531bc8	-0.20616066
111	0xbe1906c5	-0.14943989
112	0xbe4fc70a	-0.20290771
113	0xbe197bb1	-0.14988591
114	0xbb80a976	-0.0039264513
115	0x3e3c6693	0.18398504
116	0xbe476453	-0.19471864
117	0x3d80cfa6	0.06289606
118	0x3e413c22	0.18870595
119	0x3e69caba	0.2283124
120	0x3d81cf61	0.063383825
121	0xbdcab8cb	-0.09898528
122	0xbe6765d8	-0.22597444
123	0x3d3034e8	0.043019205
124	0x3dff9af7	0.12480729
125	0x3ca3506c	0.01993581
126	0x3dd8e6e7	0.10590916
127	0x3e59785f	0.21237324
128	0xbcc3ebf2	-0.023916218
129	0xbe32d515	-0.17464097
130	0xbd1eb35a	-0.03874526
131	0xbda509d7	-0.080585174
132	0x3e14fbf7	0.14549242
133	0x3deb9e3b	0.115047894
134	0xbc1e9489	-0.009678968
135	0x3e125cf9	0.14293279
136	0xbe7e4fd4	-0.2483514
137	0xbe2dbec9	-0.1696731
138	0x3ad7eb3b	0.0016473302
139	0x3d6b0f7b	0.05738781
140	0x3e51e4b3	0.20497398
141	0x3c9c1400	0.019052505
142	0xbe1de95c	-0.15421051
143	0xbd8799f9	-0.06621165
144	0xbe47492c	-0.19461507
145	0xbe0b7d78	-0.13622081
146	0xbd916cc8	-0.071008265
147	0x3e0f98e7	0.14023171
148	0x3e85286c	0.26007402
149	0x3d84b051	0.06478942
150	0xbe4e4f02	-0.20147327
151	0xbe5dc5bc	-0.21657461
152	0xbdba498c	-0.09096059
153	0xbe4dbf35	-0.20092471
154	0xbe28329a	-0.16425553
155	0xbe6eec46	-0.23332319
156	0x3d53a572	0.051671453
157	0x3d08f999	0.03344116
158	0xbced86d2	-0.028994951
159	0x3d07ed6c	0.033185408
160	0x3cb61d82	0.022230867
161	0x3d7c0106	0.061524414
162	0x3cd45500	0.025919437
163	0xbd71bc35	-0.05901738
164	0xbc05009a	-0.008117819
165	0xbe600202	-0.21875766
166	0xbe434850	-0.19070554
167	0xbe13727f	-0.14399146
168	0x3e3f194d	0.18661995
169	0x3e45ebcf	0.19328235
170	0xbe3868a0	-0.18008661
171	0x3dc81a9c	0.097707
172	0xbc71b3be	-0.0147523265
173	0x3d80f82a	0.062973335
174	0xbe519038	-0.20465171
175	0xbe6591ea	-0.22418943
176	0xbe07e9a4	-0.1327272
177	0x3d97c18f	0.07409965
178	0x3d7bd5c9	0.06148318
179	0xbd15227f	-0.03640985
180	0xbd8d6651	-0.06904281
181	0x3872e396	5.7909252e-05
182	0xbdfc0248	-0.123051226
183	0x3dc867c3	0.09785416
184	0x3d765c93	0.06014688
185	0xbdce60c9	-0.10077054
186	0x3da83b9c	0.082144946
187	0xbd79720c	-0.06089978
188	0x3da76a30	0.081745505
189	0x3dc57d51	0.09643043
190	0x3e629edb	0.22130911
191	0x3e13be11	0.14427973
192	0xbe5b659c	-0.2142548
193	0x3d390191	0.04516751
194	0xbd366743	-0.04453207
195	0xbe2302c3	-0.15919022
196	0xbe6ccb5d	-0.23124452
197	0x3e441a94	0.19150764
198	0xbe4211d1	-0.18952109
199	0x3e226ede	0.15862605
200	0x3de31547	0.11088043
201	0xbdd60d4a	-0.104517534
202	0xbde0cdaa	-0.10976727
203	0x3e192e1e	0.14958999
204	0x3dedda9d	0.11613963
205	0xbcfef6dd	-0.031123573
206	0xbdb3acb1	-0.08773173
207	0xbdb3182d	-0.087448455
208	0xbc8a9b9b	-0.016919902
209	0xbe6279a7	-0.22116719
210	0xbd6e7a30	-0.058221996
211	0xbe13bf6b	-0.14428489
212	0xbe3a5775	-0.18197425
213	0x3dc8739b	0.09787675
214	0xbe3bcb81	-0.1833935
215	0xbdb4ba55	-0.088246025
216	0x3dc67dde	0.09691976
217	0x3de6c236	0.112675115
218	0xbb65171a	-0.0034956397
219	0xbe81a599	-0.25321653
220	0xb9230169	-0.00015545417
221	0xbe277d1c	-0.16356319
222	0xbe3a9700	-0.18221664
223	0x3df0dae9	0.11760504
224	0x3e5d5df5	0.21617873
225	0x3e26d9ba	0.16293994
226	0xbe640cc2	-0.22270492
227	0xbdfe6f05	-0.12423519
228	0xbe272c38	-0.16325462
229	0x3e2fe65e	0.17177722
230	0x3e6ee104	0.23328024
231	0xbe305175	-0.17218573
232	0xbe1566a7	-0.1458994
233	0x3e77d210	0.24201226
234	0x3e124a32	0.14286116
235	0xbc05050b	-0.008118878
236	0x3e5a27cd	0.21304245
237	0x3e23ec4b	0.16008107
238	0xbe4e00d4	-0.20117503
239	0xbe2feb2d	-0.17179556
240	0x3d6b2428	0.05740753
241	0x3e55d190	0.20880723
242	0x3c5ec641	0.013597072
243	0xbc9d456e	-0.019198146
244	0x3e2c8a39	0.16849603
245	0xbe3decb0	-0.1854732
246	0xbe54b9d4	-0.20774013
247	0x3dadb38d	0.08481512
248	0xbdd773fd	-0.1052017
249	0xbe60cc8d	-0.2195303
250	0xbe389f4b	-0.18029515
251	0xbd8d56c0	-0.06901312
252	0xbbc0c6fd	-0.0058830963
253	0x3bee8dac	0.007280072
254	0xbe577a3d	-0.21042724
255	0x3e6d774d	0.23190041

model.backbone.encoder.layers.0.self_attn.W_Q.bias f4 [16]
0	0x3e07b607	0.13253032
1	0x3e5932ec	0.21210831
2	0xbe2f08c9	-0.17093195
3	0x3e56ce90	0.20977235
4	0x3d204a82	0.039133556
5	0xbe1ccc3b	-0.15312283
6	0x3ced75c8	0.028986827
7	0x3e32b08a	0.17450157
8	0xbe036b5e	-0.12833926
9	0x3e2607be	0.16213891
10	0xbe1e4065	-0.15454252
11	0xbe7f1343	-0.24909692
12	0x3e5db7ce	0.21652147
13	0xbcd69134	-0.026192285
14	0xbe5620ce	-0.20910951
15	0x3e1d7f69	0.15380634

model.backbone.encoder.layers.0.self_attn.W_K.weight f4 [16, 16]
0	0x3df0798a	0.11741932
1	0xbdb27b91	-0.08714975
2	0x3e842eba	0.258169
3	0xbe6255ed	-0.2210309
4	0x3e2ddd0b	0.16978852
5	0x3d00ed75	0.031476457
6	0x3e5a2a3c	0.21305174
7	0xbe0b451c	-0.13600582
8	0xbc6592ad	-0.014012021
9	0xbe7c9aa4	-0.24668366
10	0xbe642dd6	-0.2228311
11	0x3ca98dc7	0.020697488
12	0x3e3356b5	0.17513545
13	0x3e0d92da	0.1382555
14	0xbe295f5b	-0.16540281
15	0x3d1b616b	0.037934702
16	0xbe015d90	-0.12633348
17	0x3c262c26	0.010142362
18	0xbe048b30	-0.12943721
19	0xbd985a51	-0.074391015
20	0x3e006c34	0.12541276
21	0x3e24f221	0.1610799
22	0xbc891cdc	-0.016737394
23	0x3de2fb9d	0.11083148
24	0x3e3b1045	0.18267925
25	0xbe53c4dc	-0.20680565
26	0xbdb44c9b	-0.08803674
27	0x3d1ba40e	0.03799825
28	0xbdeb34de	-0.11484693
29	0xbe2e95ba	-0.17049304
30	0x3be884b5	0.007095898
31	0x3d6cdbc0	0.057826757
32	0x3e49c9a9	0.19705833
33	0xbe5542c5	-0.20826252
34	0xbde38ba9	-0.111106224
35	0x3d94a522	0.07258059
36	0x3e17d194	0.14826041
37	0xbe857998	-0.2606933
38	0x3de27950	0.11058295
39	0x3e69ee69	0.22844853
40	0x3d2b63f7	0.04184338
41	0x3d6262fc	0.05527018
42	0x3d8b1456	0.06790988
43	0xbd9d7b42	-0.07689525
44	0x3da9054a	0.08252962
45	0x3de1c89e	0.11024593
46	0x3c6337bb	0.013868268
47	0xbdea191a	-0.11430569
48	0x3e1a9691	0.15096499
49	0x3df8a767	0.121413045
50	0xbe66349d	-0.22481008
51	0xbca4a0ca	-0.020096201
52	0xbe24c696	-0.1609138
53	0xbd0ba9a3	-0.034097325
54	0x3d3c89d2	0.046029873
55	0xbcae14fe	-0.021250244
56	0x3e832554	0.25614417
57	0x3e3f37e4	0.18673664
58	0xbc818b47	-0.015813483
59	0x3e6c4d1c	0.2307629
60	0xbd80dfb6	-0.062926695
61	0xbbe0dddd	-0.0068623857
62	0xbde86db7	-0.113490514
63	0x3e01caeb	0.12675063
64	0xbe7ab3d0	-0.24482656
65	0xbe4ca0c6	-0.19983205
66	0xbe1f40ce	-0.15552065
67	0x3de4acf0	0.11165798
68	0x3cb0d675	0.021586636
69	0xbe6a0081	-0.22851755
70	0x3e2a8750	0.1665318
71	0x3e4ee750	0.20205426
72	0x3e55cb17	0.20878254
73	0x3d33fa8a	0.043940105
74	0xbbe313dd	-0.006929858
75	0xbe48c490	-0.19606233
76	0x3d94e7e6	0.072707936
77	0x3e7c44d5	0.24635632
78	0xbde8e067	-0.11370926
79	0xbe60b8e4	-0.2194553
80	0xbdfbdb8a	-0.12297733
81	0x3db128ce	0.08650361
82	0xbe195aaf	-0.14976
83	0x3e3b7ff8	0.18310535
84	0x3dd262a3	0.1027272
85	0x3df07762	0.117415205
86	0xbdb4224a	-0.087956026
87	0xbdd087f0	-0.10182178
88	0xbe4efc7e	-0.20213506
89	0x3d25c019	0.0404664
90	0x3e440b1c	0.19144863
91	0x3e32cc69	0.17460789
92	0x3e1e5878	0.15463436
93	0xbe71f5f5	-0.23628981
94	0x3e2865c8	0.16445076
95	0x3de96b0b	0.1139737
96	0x3e42a947	0.19009887
97	0xbe45d9d4	-0.19321376
98	0x3e57419c	0.21021122
99	0xbcea6b78	-0.028615698
100	0x3d8522f5	0.06500808
101	0xbe37c4a3	-0.17946105
102	0x3d6fcde5	0.058545966
103	0x3df1740d	0.11789713
104	0xbbae49f3	-0.005318874
105	0xbe1159ab	-0.14194362
106	0xbd8c30dc	-0.06845257
107	0x3d6bd24c	0.0575736
108	0xbbe0c622	-0.006859557
109	0x3d21d226	0.039507054
110	0xbddb315c	-0.10702774
111	0x3e810deb	0.2520593
112	0x3d366407	0.044528987
113	0xbe14903e	-0.14508149
114	0xbe017ca7	-0.12645207
115	0xbe037a47	-0.12839614
116	0x3e3ff6fe	0.18746564
117	0xbe4697c3	-0.1939383
118	0x3e4568f0	0.19278312
119	0x3def1cc9	0.11675412
120	0x3d52d75c	0.051474914
121	0x3d323ec2	0.04351688
122	0xbe6a419f	-0.22876595
123	0x3dda64d2	0.10663761
124	0xbe476b0f	-0.19474433
125	0x3e3cb832	0.1842964
126	0xbe51ec45	-0.20500286
127	0x3e3e8547	0.18605529
128	0x3e8746d8	0.26421237
129	0x3dfbd421	0.1229632
130	0xbe8193fe	-0.25308222
131	0x3e699201	0.22809602
132	0xbe0556a4	-0.13021332
133	0x3b9f2dd7	0.0048577595
134	0x3e7354de	0.23762843
135	0xbd91ab4f	-0.07112753
136	0x3dab1aa5	0.083546914
137	0x3d817627	0.06321364
138	0x3e2da989	0.16959204
139	0xbe01dd0e	-0.12681982
140	0x3dd0a7ad	0.101882316
141	0x3e20a94c	0.15689582
142	0xbdb3a1f2	-0.08771123
143	0x3e1d756b	0.15376823
144	0xbca11857	-0.019664926
145	0x3e3596e1	0.17733337
146	0xbdaac259	-0.0833785
147	0x3e1806b2	0.14846304
148	0x3e80bcab	0.25143942
149	0x3e49105a	0.19635144
150	0x3e179216	0.14801821
151	0x3e6ed4d6	0.23323378
152	0x3cae5b99	0.021283912
153	0x3e7423d8	0.23841798
154	0x3e6fde06	0.23424539
155	0xbd854a54	-0.065083176
156	0x3e368d32	0.17827299
157	0xbd8f2574	-0.069895655
158	0xbe4bc456	-0.19899115
159	0xbe5a88b4	-0.2134121
160	0xbe5c32c0	-0.21503735
161	0x3d9a0918	0.07521266
162	0x3e4d0fb0	0.20025516
163	0x3d4c335d	0.04985367
164	0x3e1cee19	0.15325202
165	0xbe4a6e31	-0.19768597
166	0x3bc63f01	0.006049991
167	0x3e185890	0.14877534
168	0xbdf9979a	-0.12187119
169	0x3ddffc76	0.10936825
170	0xbe05a5ab	-0.13051479
171	0x3e4cc811	0.19998194
172	0xbe2badd4	-0.16765529
173	0x3e0949bd	0.13407035
174	0xbd6bdf8c	-0.057586238
175	0x3dda79de	0.106677756
176	0x3e6a9c70	0.22911239
177	0xbda08e9e	-0.07839702
178	0xbe81289d	-0.25226298
179	0xbcf64248	-0.030060902
180	0xbe73010d	-0.2373087
181	0x3e135cbc	0.14390844
182	0x3d7e5b12	0.06209857
183	0xbc1d217d	-0.009590504
184	0xbd798aea	-0.060923494
185	0xbce215b9	-0.027598249
186	0x3e48d1fe	0.19611356
187	0xbd39b74d	-0.045340825
188	0x3e34364e	0.1759884
189	0xbe58f768	-0.21188128
190	0xbe7a22c6	-0.24427328
191	0xbe32f3e3	-0.17475848
192	0x3e1a31e5	0.15058096
193	0xbdb3a485	-0.08771614
194	0xbd9cd44e	-0.076576814
195	0x3d2d63e8	0.042331606
196	0x3e63fb1d	0.22263761
197	0xbe01f7fd	-0.12692256
198	0xbdef97b5	-0.11698858
199	0x3d9f31b0	0.07773149
200	0x3e0cc568	0.1374718
201	0x3d4175fb	0.047231656
202	0xbe4dcde6	-0.20098075
203	0xbe62efa3	-0.22161727
204	0x3b998240	0.0046847165
205	0x3dccb2a2	0.09995009
206	0x3d2392de	0.039934985
207	0xbe5420e4	-0.20715672
208	0x3dc4e900	0.09614754
209	0xbbeee44f	-0.0072904
210	0x3daf9663	0.08573606
211	0xbe1d237a	-0.15345564
212	0xbdf86cb8	-0.121301115
213	0xbd1aa9c1	-0.037759546
214	0x3c357324	0.011074815
215	0x3d8f7633	0.070049666
216	0xbdfac060	-0.12243724
217	0x3d650a6f	0.055918153
218	0x3e1cfea4	0.15331513
219	0x3ca61b20	0.020276606
220	0xbcd88ce1	-0.026434364
221	0x3e451a3b	0.19248287
222	0x3e4cf0d8	0.2001375
223	0x3e5513b1	0.20808293
224	0xbdb2bc66	-0.087273404
225	0x3e2f11b2	0.17096594
226	0x3d78f020	0.060775876
227	0x3df6167b	0.120160066
228	0x3da2c425	0.07947568
229	0xbd7f7332	-0.06236572
230	0x3ce019e2	0.027356092
231	0x3e22aef4	0.15887052
232	0xbe46a32e	-0.19398186
233	0xbe6f1b44	-0.23350245
234	0xbe49ef2b	-0.19720142
235	0xbbb550da	-0.00553332
236	0xbdef911e	-0.11697601
237	0x3da44b97	0.0802223
238	0x3dfdae00	0.123867035
239	0x3deea86f	0.1165322
240	0x3cfbd83c	0.030742757
241	0x38d5d720	0.000101967016
242	0xbe0b8c89	-0.13627829
243	0x3cd49a26	0.02595241
244	0x3e046b98	0.12931669
245	0x3e0b58e2	0.13608125
246	0xbde1c1d5	-0.11023299
247	0x3db25b06	0.087087676
248	0xbe75ec7c	-0.24015993
249	0x3e51415a	0.20435086
250	0x3df56b1f	0.11983322
251	0xbce6a652	-0.02815548
252	0xbe160a8e	-0.14652464
253	0x3e416396	0.18885645
254	0xbe5a02e4	-0.21290165
255	0x3e45412f	0.19263147

model.backbone.encoder.layers.0.self_attn.W_K.bias f4 [16]
0	0xbd88af72	-0.066740885
1	0x3dca534d	0.098791696
2	0xbe2241b2	-0.15845373
3	0xbbd092c8	-0.006365154
4	0x3d220c4f	0.03956252
5	0x3e6158eb	0.22006576
6	0xbde204e2	-0.110360876
7	0xbe509b3b	-0.20371716
8	0xbd69e94a	-0.057107247
9	0xbdc32079	-0.09527678
10	0xbe0d8d9f	-0.13823555
11	0xbd84bdbe	-0.06481503
12	0xbdeb25c2	-0.11481811
13	0x3df4f88d	0.1196147
14	0xbd84bbc2	-0.064811245
15	0x3dcd2d49	0.10018403

model.backbone.encoder.layers.0.self_attn.W_V.weight f4 [16, 16]
0	0x3e0a3f96	0.13500819
1	0x3d9fbfb6	0.07800238
2	0xbe074f2e	-0.13213798
3	0xbdad19fb	-0.08452221
4	0xbc4c0c37	-0.012454084
5	0xbce264cb	-0.027635952
6	0x3e7d5c93	0.24742346
7	0x3e671add	0.22568841
8	0xbe70bcd4	-0.23509532
9	0x3b4a6a96	0.0030886284
10	0xbdfbe19a	-0.122988895
11	0x3e192d89	0.14958777
12	0xbe4491af	-0.19196199
13	0xbd8258ce	-0.063645944
14	0x3e3eb2fe	0.18622968
15	0xbe2b4aa9	-0.167277
16	0x3e308c66	0.17241058
17	0xbe2236ff	-0.15841292
18	0x3e725e8b	0.23668878
19	0x3d8e6a81	0.06953908
20	0xbd159087	-0.036514785
21	0x3c03c31a	0.008042121
22	0x3dde5acd	0.108571626
23	0xbe132a8d	-0.143717
24	0x3e5ed60e	0.21761343
25	0x3e1c72d6	0.15278181
26	0xbe4e7182	-0.20160487
27	0x3db12552	0.086496964
28	0x3e704aa5	0.23465975
29	0xbdb09c77	-0.08623593
30	0x3e6ed223	0.23322348
31	0xbe07bd54	-0.13255817
32	0xbe5db9de	-0.21652934
33	0xbe540aad	-0.20707197
34	0x3dd31e19	0.10308475
35	0x3e539b27	0.20664655
36	0x3e2fcf11	0.17168833
37	0xbc8389df	-0.016056953
38	0x3e2fa5ae	0.17153046
39	0x3db83014	0.08993545
40	0xbe28dfd1	-0.16491629
41	0x3d9c8292	0.07642092
42	0xbd00f757	-0.03148588
43	0x3e128377	0.14307962
44	0x3e7236b3	0.23653679
45	0xbd0343a3	-0.032046925
46	0x3dcd1c04	0.10015109
47	0xbe622ba2	-0.22086957
48	0xbd0d468e	-0.034491114
49	0xbddbc92a	-0.107317284
50	0xbc5b2a4c	-0.013376784
51	0xbe29fb71	-0.16599824
52	0x3d6484f8	0.05579087
53	0x3e21c745	0.15798672
54	0xbe47a560	-0.1949668
55	0x3e5c4c54	0.21513492
56	0x3db5da7d	0.08879564
57	0xbdf63c97	-0.12023275
58	0x3b80311a	0.0039121034
59	0xbe1c5209	-0.15265669
60	0x3e6f0d8d	0.23345013
61	0xbe45f06c	-0.19329995
62	0x3e72826c	0.23682564
63	0xbdf9ef62	-0.12203862
64	0x3d9662a4	0.07343033
65	0xbe1d4957	-0.15360008
66	0x3d188fb9	0.03724644
67	0x3dbe3954	0.09288278
68	0x3bc2b0b9	0.005941477
69	0x3de61c6b	0.11235889
70	0xbdf95497	-0.12174337
71	0xbde96960	-0.11397052
72	0xbe4d5cd2	-0.2005494
73	0xbe4f5e47	-0.20250808
74	0xbd902236	-0.07037775
75	0x3c3d8f07	0.011569745
76	0xbc90bca4	-0.017668076
77	0xbd941b89	-0.072318144
78	0xbe4645e2	-0.19362596
79	0xbc91713e	-0.017754193
80	0x3e29ccb3	0.16581993
81	0xbdd82d2d	-0.105554916
82	0xbe254f07	-0.16143428
83	0x3d440cfb	0.04786394
84	0xbe1244c9	-0.14284052
85	0xbd29089f	-0.041267987
86	0x3d1155be	0.03548216
87	0x3cf349ff	0.02969837
88	0x3e6bca0c	0.23026294
89	0x3e08a58a	0.13344398
90	0xbe4f89f1	-0.20267464
91	0x3d2b33e3	0.04179753
92	0x3cba730a	0.022759933
93	0x3d9aba8a	0.07555111
94	0x3e0d6577	0.13808237
95	0x3e363f41	0.17797567
96	0xbdf756df	-0.12077116
97	0x3e2babd1	0.16764762
98	0x3d94dbea	0.07268508
99	0x3c44e720	0.012017995
100	0x3de8bfb0	0.113646865
101	0x3e1c27e9	0.152496
102	0xbe1f6f77	-0.15569864
103	0xbe14db0b	-0.14536683
104	0x3dee5bb5	0.116385855
105	0x3e50857f	0.20363425
106	0xbdeb6147	-0.114931636
107	0xbe15dc5f	-0.14634846
108	0xbe62da26	-0.2215353
109	0xbdb49dfe	-0.08819197
110	0xbc1f9f91	-0.009742633
111	0xbe1f18d5	-0.15536816
112	0xbd5848bb	-0.052803736
113	0xbd7f543e	-0.0623362
114	0x3d267a0a	0.04064373
115	0x3e16fd02	0.14744952
116	0x3e3aa1c7	0.18225776
117	0x3ddeb4a2	0.10874297
118	0xbe5af076	-0.21380791
119	0x3dd2b2d5	0.10288016
120	0x3c6ca736	0.014444163
121	0x3e4672bd	0.19379707
122	0xbc3d1980	-0.011541724
123	0x3d2bafb0	0.041915596
124	0xbe4cf8ae	-0.20016739
125	0xbddbec9f	-0.10738491
126	0xbe158ccd	-0.14604492
127	0xbe180593	-0.14845876
128	0x3d6bbe2c	0.05755441
129	0xbd59cd1f	-0.053174134
130	0x3e31e9a3	0.17374282
131	0x3d633952	0.055474587
132	0xbe5bc37a	-0.21461287
133	0xbca3e478	-0.020006403
134	0xbe208322	-0.15675023
135	0xbe4819ec	-0.19541138
136	0xbd9f36e1	-0.07774139
137	0xbce5bc6e	-0.028043952
138	0xbcc40d02	-0.023931984
139	0xbe2d52c3	-0.16926102
140	0xbe3d77ab	-0.18502681
141	0x3d5df334	0.054187015
142	0xbe105241	-0.14093877
143	0xbe153f83	-0.14575009
144	0xbe30617d	-0.17224689
145	0xbe705237	-0.23468862
146	0xbd03b786	-0.032157443
147	0x3e170b8e	0.14750502
148	0xbdc14799	-0.09437484
149	0xbd8a0186	-0.06738572
150	0xbda88013	-0.08227553
151	0xbd501c99	-0.050808523
152	0xbe7d34ea	-0.24727216
153	0xbe67538e	-0.22590467
154	0xbe36c7d5	-0.17849667
155	0x3c09077b	0.0083636
156	0xbe2820ba	-0.16418734
157	0x3da5481e	0.08070396
158	0xbd8f2961	-0.06990314
159	0x3e49c9fd	0.19705959
160	0x3da338f2	0.07969846
161	0x3d5225fa	0.05130575
162	0xbd90a698	-0.07063025
163	0xbe6929ed	-0.227699
164	0xbe3985b8	-0.18117416
165	0xbe581a1c	-0.2110371
166	0x3e172425	0.14759882
167	0xbdf93823	-0.1216891
168	0x3d8259ce	0.06364785
169	0x3e50854c	0.20363349
170	0x3e60ee94	0.2196601
171	0x3da3f240	0.0800519
172	0x3e2d37a2	0.16915753
173	0xbe4a895b	-0.1977896
174	0xbda983c8	-0.082770884
175	0xbe3df9bd	-0.18552299
176	0x3e21aa8f	0.15787719
177	0xbca83a5f	-0.020535646
178	0x3e46accb	0.19401853
179	0x3dc5e5c1	0.09662963
180	0x3de39239	0.11111874
181	0xbe85aa8e	-0.26106685
182	0x3e084508	0.13307583
183	0x3dc9fd47	0.09862762
184	0xbe8580c3	-0.260748
185	0xbe415aa1	-0.18882228
186	0xbd9a4eea	-0.07534583
187	0xba210dbe	-0.00061437103
188	0x3e39415a	0.18091336
189	0xbe2d03c7	-0.16895972
190	0xbe7f4595	-0.24928887
191	0xbdce3fe3	-0.10070779
192	0xbdceecdf	-0.10103773
193	0xbe396fb0	-0.18109012
194	0xbd3cb018	-0.046066374
195	0x3dba4513	0.09095206
196	0x3e4a0550	0.19728589
197	0xbe003b87	-0.12522708
198	0xbd7b79bc	-0.06139539
199	0xbe17ec1d	-0.14836164
200	0xbe33da7c	-0.17563814
201	0x3e687cff	0.22703932
202	0xbda03463	-0.07822492
203	0xbe73e107	-0.2381631
204	0x3dddabab	0.10823759
205	0xbd28bb2c	-0.041194126
206	0xbdf93b98	-0.1216957
207	0xbdefa6d7	-0.11701744
208	0xbe483396	-0.19550928
209	0xbe1801b7	-0.14844404
210	0xbe83b7d0	-0.25726175
211	0x3e08ebb6	0.13371167
212	0x3e090322	0.13380101
213	0xbe43d3ba	-0.19123736
214	0x3dc4047c	0.09571168
215	0x3e6032d8	0.21894395
216	0xbe123f63	-0.14281993
217	0xbe6c726b	-0.23090522
218	0xbe7814ed	-0.24226733
219	0xbd63778a	-0.055533923
220	0x3e60171d	0.21883817
221	0xbd8a939f	-0.06766438
222	0x3e800ecc	0.2501129
223	0x3e427465	0.18989713
224	0x3ddfc820	0.10926843
225	0x3d7e4266	0.06207504
226	0xbcebc99c	-0.028782658
227	0x3dbed6c9	0.09318311
228	0xbe698909	-0.22806181
229	0xbe648db1	-0.22319676
230	0x3d540e15	0.051771242
231	0xbda80086	-0.08203225
232	0xbe35c838	-0.17752159
233	0xbd974caf	-0.07387673
234	0x3e0d39b4	0.13791543
235	0x3e2a418c	0.16626567
236	0x3dcad00f	0.09902965
237	0xba38a75f	-0.0007043983
238	0xbded21bd	-0.11578701
239	0x3e678bf8	0.22611988
240	0x3e0e19e2	0.13877061
241	0xbd7cdf67	-0.06173649
242	0x3bb43fdc	0.0055007767
243	0xbc41e792	-0.011834996
244	0xbd418b91	-0.04725224
245	0x3e6f93a9	0.23396172
246	0x3e06e7ce	0.13174364
247	0x3e837534	0.25675356
248	0xbd3c634c	-0.045993134
249	0x3c9c9a07	0.019116415
250	0x3dba4cc7	0.09096675
251	0xbe2a0871	-0.16604783
252	0x3e6f0d87	0.23345004
253	0xbe023498	-0.12715375
254	0xbd8e900e	-0.0696107
255	0xbd2d6da6	-0.042340897

model.backbone.encoder.layers.0.self_attn.W_V.bias f4 [16]
0	0xbd5a5360	-0.05330217
1	0xbd3f9bfc	-0.046779618
2	0xbda3df58	-0.08001584
3	0x3e17cfbd	0.1482534
4	0x3d69a1b5	0.05703898
5	0x3e240402	0.16017154
6	0x3dae3acf	0.085073106
7	0xbe450257	-0.19239174
8	0xbd4e8d6b	-0.050427835
9	0x3da79250	0.08182204
10	0xbe1481db	-0.14502661
11	0xbe1405f3	-0.14455394
12	0x3e83cb86	0.25741214
13	0x3e4187ed	0.18899508
14	0xbe05ff0a	-0.13085571
15	0x3e27e012	0.1639407

model.backbone.encoder.layers.0.self_attn.to_out.0.weight f4 [16, 16]
0	0xbe2f5e70	-0.17125869
1	0x3d160b6f	0.036631998
2	0x3e021916	0.12704882
3	0x3e0013b7	0.1250752
4	0xbca49f6e	-0.020095553
5	0x3e5e93a5	0.2173601
6	0xbde6aa7a	-0.112629846
7	0xbe86be49	-0.2631705
8	0x3e60d7d8	0.21957338
9	0x3e413dfa	0.18871298
10	0x3e50f22a	0.20404878
11	0x3dcdffcf	0.10058557
12	0x3ddba8ae	0.107255325
13	0x3df70384	0.120612174
14	0xbdd12af4	-0.10213271
15	0xbe33fbca	-0.17576519
16	0xbce22216	-0.027604144
17	0xbe556d09	-0.20842375
18	0xbdb24825	-0.08705167
19	0x3d65684d	0.056007672
20	0xbd6efe40	-0.05834794
21	0xbdfda84c	-0.12385616
22	0xbdb5f5fd	-0.08884809
23	0xbdc0177a	-0.09379478
24	0x3e4e2f4e	0.20135233
25	0xbe195bcd	-0.14976425
26	0x3c80f9a3	0.015744036
27	0x3ccbf4e8	0.024897054
28	0xbd7710da	-0.060318805
29	0x3d644057	0.05572542
30	0x3e87b079	0.26501825
31	0xbe3234d6	-0.17402968
32	0xbe340e5f	-0.17583607
33	0xbe76500a	-0.2405397
34	0x3bcb648b	0.006207054
35	0xbe472ffa	-0.19451895
36	0x3e35df27	0.17760907
37	0x3dcbdeb5	0.09954587
38	0xbe00d701	-0.12582017
39	0x3e03bf21	0.12865879
40	0xbe57652e	-0.2103469
41	0x3df19301	0.11795617
42	0x3e49a3cb	0.19691388
43	0xbe500d70	-0.20317626
44	0x3e34253c	0.17592329
45	0xbe3fcd5a	-0.18730679
46	0xbb8d9b87	-0.004321519
47	0x3e784e0d	0.24248524
48	0xbe40cbbf	-0.18827723
49	0x3e3f7785	0.18697937
50	0xbd45567e	-0.04817819
51	0xbe509a8a	-0.20371452
52	0x3e068086	0.13134965
53	0x3e4b2ae2	0.19840577
54	0x3de213c3	0.110389255
55	0x3e5fb808	0.21847546
56	0xbda47fec	-0.08032212
57	0x3e1b455e	0.1516318
58	0xbe4cfb3c	-0.20017713
59	0xbe2e9770	-0.17049956
60	0x3c6e77c8	0.014554925
61	0x3dce65cd	0.10078011
62	0x3e2557a4	0.16146713
63	0x3e05d619	0.13069953
64	0xbe1bfe30	-0.15233684
65	0x3d505acf	0.05086785
66	0x3bf9f4c7	0.0076280567
67	0xbe1356e0	-0.14388609
68	0xbe3df3d3	-0.18550043
69	0x3d4dd646	0.050253175
70	0x3dea09a7	0.11427622
71	0x3d84f23a	0.064915136
72	0x3e1e6d42	0.15471366
73	0x3dadc866	0.084854886
74	0xbe3ec9a9	-0.18631615
75	0xbe321750	-0.17391706
76	0x3e5a3483	0.21309094
77	0x3c97d8e6	0.018536042
78	0x3e47e708	0.19521725
79	0xbe518f85	-0.20464905
80	0x3e5a60d7	0.21326004
81	0xbde6dbf6	-0.11272423
82	0xbc29e7f5	-0.010370244
83	0x3e6c594a	0.23080936
84	0x3d469f13	0.04849155
85	0xbdbf6024	-0.09344509
86	0x3cf90f84	0.030402906
87	0xbdd7fcd1	-0.10546268
88	0xbdb42e9f	-0.08797955
89	0xbe3b50ae	-0.18292496
90	0x3e0c361d	0.13692518
91	0xbe0ca056	-0.13733038
92	0xbd9e7f65	-0.07739142
93	0x3e4ed8ca	0.20199886
94	0x3dd532eb	0.104101025
95	0xbe5aac43	-0.21354775
96	0xbe1589b8	-0.14603317
97	0xbe723512	-0.23653057
98	0x3e41e24e	0.18933985
99	0xbe6b49ff	-0.22977446
100	0x3d0ad78f	0.03389698
101	0xbe4b3c8c	-0.19847316
102	0xbb80978b	-0.0039243153
103	0x3dd6807d	0.10473726
104	0x3dc7738f	0.09738838
105	0x3e30c0d6	0.17261061
106	0x3e14b87e	0.14523503
107	0xbe81d69b	-0.25359043
108	0xbe242bdf	-0.1603236
109	0x3d7092b5	0.05873366
110	0xbe0ec091	-0.13940646
111	0xbc9ebde7	-0.019377662
112	0xbe2170c5	-0.15765674
113	0x3df5d126	0.120027825
114	0x3e4f5354	0.20246631
115	0xbe6f9488	-0.23396504
116	0x3d9cc179	0.076540895
117	0x3d4c2736	0.049842082
118	0xbe2a4db1	-0.166312
119	0xbdfbfb2e	-0.12303768
120	0xbe195682	-0.14974406
121	0xbda17de3	-0.07885339
122	0xbde15caf	-0.11004006
123	0xbe562072	-0.20910814
124	0xbd1cd4f7	-0.038289037
125	0xbd271332	-0.04078979
126	0x3e049786	0.12948427
127	0x3e17d260	0.14826345
128	0x3e15cee1	0.146297
129	0x3d887dcd	0.066646196
130	0xbe6c20a0	-0.2305932
131	0xbe2a09b7	-0.16605268
132	0xbde897e6	-0.11357097
133	0x3e04d4b9	0.12971772
134	0xbe65b156	-0.2243093
135	0x3e5087a0	0.20364237
136	0xbdaa6fac	-0.08322081
137	0xbe0e81d7	-0.13916717
138	0x3e2d9f72	0.16955355
139	0x3e0cca7e	0.1374912
140	0xbd9c0423	-0.076179765
141	0xbdda7a53	-0.10667863
142	0xbe107b27	-0.14109479
143	0xbd7fb543	-0.062428724
144	0x3d7627a5	0.0600964
145	0x3d013e38	0.031553477
146	0xbced521d	-0.028969819
147	0x3cd0ce2e	0.02548894
148	0xbe05c91d	-0.13065
149	0x3d7badbf	0.061444994
150	0xbe6895d4	-0.22713405
151	0xbd4cb4d9	-0.049977157
152	0xbe79410a	-0.24341217
153	0xbdda4f12	-0.10659613
154	0xbd78abfb	-0.06071089
155	0xbb8a85fa	-0.004227397
156	0x3e364417	0.17799412
157	0xbe7d1ba7	-0.2471758
158	0x3db9626e	0.09051977
159	0x3e42f3ad	0.19038267
160	0xbe668173	-0.22510318
161	0x3d694f92	0.05696065
162	0x3d90b572	0.07065858
163	0xbe685b6d	-0.22691126
164	0x3e700ebf	0.23443125
165	0x3e625348	0.22102082
166	0xbdf6afac	-0.120452255
167	0xbe35a611	-0.1773913
168	0x3e0aef59	0.13567866
169	0xbe2a650d	-0.1664011
170	0xbe41f89e	-0.18942496
171	0x3dcef4bb	0.101052724
172	0x3d388ffe	0.045059197
173	0xbb9aea2c	-0.0047276225
174	0x3e4abbb2	0.19798163
175	0x3e31b2a9	0.1735331
176	0x3d9812fc	0.07425496
177	0x3db1294a	0.086504534
178	0xbe692b35	-0.22770388
179	0xbd0a9f74	-0.033843473
180	0xbe277c3e	-0.16355988
181	0x3d959945	0.073046245
182	0xbe52772a	-0.2055327
183	0xbcb4a7ef	-0.022052733
184	0xbe0c2d75	-0.13689215
185	0xbe2fdc10	-0.17173791
186	0xbe7948b3	-0.24344139
187	0x3e09a6cd	0.13442536
188	0x3e166b89	0.14689459
189	0xbe3be363	-0.1834846
190	0x3d3efb6b	0.04662649
191	0xbe3d7e48	-0.18505204
192	0xbe7b7381	-0.2455578
193	0xbe3db826	-0.18527278
194	0x3e374dd9	0.1790079
195	0xbe68ebc5	-0.22746189
196	0xbd0bd51c	-0.034138784
197	0x3e4e7cd2	0.20164803
198	0xbd060222	-0.032716878
199	0xbe109d6a	-0.14122549
200	0xbc902162	-0.017594043
201	0x3dbcd642	0.09220554
202	0xbdf60a96	-0.12013738
203	0xbe22f43c	-0.1591348
204	0x3e42ac3d	0.19011016
205	0xbe27cc7c	-0.16386598
206	0xbd590536	-0.052983485
207	0x3c253b31	0.010084913
208	0xbcf187d8	-0.02948372
209	0x3e0936b3	0.13399772
210	0x3da3ddbb	0.08001276
211	0xbdc99095	-0.0984203
212	0x3e391f10	0.18078256
213	0xbd492916	-0.04911145
214	0xbe0f9521	-0.14021732
215	0xbdc2cfd4	-0.09512296
216	0xbe375c77	-0.17906366
217	0xbd9c8d3e	-0.07644127
218	0x3d991d5d	0.07476304
219	0x3df55e81	0.11980916
220	0x3e4efa4b	0.20212667
221	0x3c5fb122	0.013653072
222	0x3c0d959b	0.008641626
223	0x3d89fe48	0.067379534
224	0xbd444364	-0.04791583
225	0xbd04dd91	-0.032437865
226	0x3d9509f5	0.0727729
227	0xbe4e971d	-0.20174833
228	0xbdf4fb35	-0.119619764
229	0xbdb702b2	-0.08936061
230	0x3e00383b	0.1252145
231	0x3d3ef9f1	0.04662508
232	0x3d965ac1	0.07341529
233	0x3defacd9	0.1170289
234	0x3e1553ea	0.14582792
235	0x3d8bb44b	0.068214975
236	0xbd6b9342	-0.057513483
237	0xbd8c66e4	-0.06855562
238	0x3cd9ebd6	0.026601713
239	0xbca8c8b9	-0.020603525
240	0xbd005f45	-0.031340856
241	0xbe2dc0f6	-0.1696814
242	0xbcc4c7d6	-0.02402107
243	0x3dd7a59b	0.105296336
244	0x3e5b95a5	0.21443804
245	0x3dd4c319	0.103887744
246	0xbd80660e	-0.062694654
247	0x3da92956	0.08259837
248	0x3e740daf	0.23833345
249	0xbe667e25	-0.22509058
250	0x3df746a5	0.12074021
251	0xbe7c1c38	-0.2462014
252	0xbe391b3d	-0.18076797
253	0xbe1d0e36	-0.15337452
254	0xbe2e8afd	-0.17045207
255	0xbe786752	-0.24258164

model.backbone.encoder.layers.0.self_attn.to_out.0.bias f4 [16]
0	0xbe431351	-0.19050337
1	0x3d77d845	0.060508985
2	0xbde08759	-0.109633155
3	0xbda5d8a4	-0.080979615
4	0xbe1e464f	-0.15456508
5	0x3e39bbef	0.18138097
6	0x3c069bb0	0.00821583
7	0x3d94877b	0.07252403
8	0x3dd42448	0.103584826
9	0xbd41b48b	-0.04729132
10	0x3e62a4e1	0.22133209
11	0xbb9c6d5b	-0.0047737784
12	0xbe510d2a	-0.20415178
13	0xbe6c5846	-0.23080549
14	0x3de4b56d	0.11167417
15	0x3e5c3d68	0.215078

model.backbone.encoder.layers.0.norm_attn.1.weight f4 [16]
0	0x3f81c174	1.0137162
1	0x3f80e804	1.0070806
2	0x3f81d71b	1.014377
3	0x3f7cc5a5	0.9873908
4	0x3f7a9ab9	0.9789234
5	0x3f8330cc	1.0249267
6	0x3f839ca7	1.0282182
7	0x3f7c3118	0.9851241
8	0x3f810dcf	1.0082339
9	0x3f7aeedd	0.98020726
10	0x3f7c1182	0.98464215
11	0x3f8013f2	1.0006087
12	0x3f7e5418	0.99347067
13	0x3f7acbaa	0.97967017
14	0x3f7b58e2	0.981825
15	0x3f7b83fd	0.98248273

model.backbone.encoder.layers.0.norm_attn.1.bias f4 [16]
0	0xbc540e5a	-0.012942875
1	0xbb888f07	-0.004167441
2	0xbc2c9ec0	-0.010535896
3	0xbc61168d	-0.013738287
4	0xbc4e6f4b	-0.0125997765
5	0xbc178ec0	-0.009250343
6	0xbc43ff5a	-0.011962736
7	0xbc38415c	-0.011246052
8	0xbc795bb0	-0.015219614
9	0xbca07b4c	-0.019590043
10	0x3c25c47b	0.010117645
11	0xbbb82a88	-0.0056203045
12	0x3c6d4b59	0.014483296
13	0x3c3b7cde	0.011443345
14	0x3c3e8b8c	0.01162995
15	0xbc183640	-0.009290278

model.backbone.encoder.layers.0.norm_attn.1.running_mean f4 [16]
0	0xbe249e61	-0.16076042
1	0xbb086c5f	-0.0020816547
2	0x3bec8d0e	0.0072189635
3	0xbd1b8bcb	-0.037975114
4	0x3db76cc6	0.08956294
5	0x3d7b6bba	0.061382033
6	0xbc3db498	-0.011578701
7	0xbd212f29	-0.039351616
8	0xbdb873b5	-0.09006444
9	0x3e2a30c8	0.16620171
10	0x3e725b70	0.23667693
11	0x3dcd7bdf	0.10033392
12	0xbc807bc7	-0.015684022
13	0xbd11dba2	-0.03560985
14	0xbda0dd37	-0.078546934
15	0x3e268937	0.16263281

model.backbone.encoder.layers.0.norm_attn.1.running_var f4 [16]
0	0x3e949c97	0.2902572
1	0x3ed77469	0.42081
2	0x3f00410c	0.50099254
3	0x3f4d0d74	0.8009865
4	0x3ed6a83c	0.41925228
5	0x3eef2c4f	0.46713492
6	0x3eb4b484	0.35293972
7	0x3e2aff8c	0.16699046
8	0x3e644b10	0.22294259
9	0x3f984eb4	1.1899018
10	0x3f452c71	0.7702094
11	0x3e9563c5	0.2917768
12	0x3e919a78	0.28438163
13	0x3ebb1d75	0.3654591
14	0x3e968efc	0.29405963
15	0x3e95c890	0.2925458
