TSF_Finance/checkpoints/__PatchTST_custom_ftM_sl104_ll48_pl24_dm16_nh4_el3_dl1_df128_fc1_ebtimeF_dtTrue_Exp_0/checkpoint.pth (torch_old, 152426 bytes, 65 tensors)

model.backbone.W_pos f4 [42, 16]
-0.05494312 -0.040544387 0.061694413 -0.0005967424 0.024061792 0.05687298 -0.04162034 0.013242228
0.014217919 0.01632311 0.05784674 -0.013616332 0.043046627 0.01966549 -0.046118803 0.012113348
-0.059283305 -0.05560191 0.07065259 -0.0376554 0.025347069 0.087020695 -0.046530213 0.061351717
0.028778397 -0.029997291 0.06412254 0.005472584 0.015613255 0.04314394 0.007295925 -0.0725455
-0.13985991 -0.009720121 0.089407325 -0.012170613 -0.0029707479 0.044100452 -0.04797596 0.054315813
0.024896467 -0.052888352 0.032980222 -0.029089406 0.033977736 0.046888437 -0.04427587 -0.015593937
-0.06744489 -0.029203901 0.08212788 0.02593226 0.04777745 0.013266055 0.03572434 -0.0036873475
0.032798734 0.042895295 0.028259791 -0.036944333 0.02794601 -0.00919872 -0.036014676 0.0425142
-0.062355686 -0.06833044 0.03778383 -0.0470756 0.054701034 0.046791643 0.049989928 -0.011417155
0.007551577 -0.021559231 0.040636566 0.06249608 0.05225149 -0.015913095 -0.08988202 -0.0091904495
0.015820522 -0.0445467 0.027301528 0.011576683 0.073992394 0.0180119 0.023631655 0.0027874697
0.06676282 -0.0674657 0.004619023 0.03661523 -0.017186673 -0.033965252 -0.05669707 0.03954859
-0.012532974 0.016224314 0.040137418 -0.005975137 0.015214149 0.02972601 -0.00418734 -0.019629285
0.020075342 -0.08330199 0.0471403 0.07947769 0.058017768 0.018327696 -0.009302927 0.0563536
-0.055649873 -0.016654033 0.06658795 -0.04148753 -0.015827032 0.019603236 -0.026486907 -0.030561296
-0.014493987 -0.013946103 0.11059481 -0.05741247 0.048797797 0.044020083 -0.027659649 0.02749346
-0.032223307 0.02863201 0.05318657 -0.020127233 0.024608543 0.016032668 0.02438655 -0.007516543
-0.007803274 -0.032165065 0.045334797 -0.008675109 -0.044387642 0.005453695 -0.002990511 -0.025858931
-0.0032186657 0.02839878 0.03180034 0.017102484 -0.07366283 0.0732291 -0.013647166 -0.007814616
-0.012508247 -0.014564817 0.038226184 0.011399647 -0.007020795 -0.024603065 0.023865739 -0.00574863
-0.00089918217 -0.011601916 -0.017594537 0.02655744 -0.088486984 -0.008318703 -0.023454849 -0.010879774
-0.048950132 0.010109046 0.09586434 -0.07929024 -0.0024473714 -0.002585822 0.06052031 -0.052839477
0.0507513 0.02672029 0.017452063 0.00626975 -0.07564116 0.06348356 -0.040029373 0.0027516445
0.034910638 -0.037368152 -0.03977311 -0.071183264 0.024342028 0.058159824 0.028460655 -0.041968983
0.024050487 -0.010069794 -0.025967693 0.084892824 -0.052396562 0.039459463 -0.016147511 -0.0062356605
-0.02514267 -0.0886274 -0.04429902 0.008416548 -0.060863964 -0.0076456172 0.01590388 -0.05866507
0.01881587 0.011239258 -0.015141916 0.07758997 0.011382701 -0.020129204 0.03402808 0.036261506
-0.06256961 -0.086097926 0.0018717892 -0.010708624 -0.01679229 -0.042534802 0.02472795 -0.067744814
-0.0091887135 -0.0034211497 -0.071403325 0.068631135 -0.0093414 0.031796 0.034050804 -0.006015741
-0.028425315 -0.13929288 -0.043724645 0.02219784 -0.05061908 -0.045994963 0.033312593 -0.08095235
0.03696895 0.009246491 -0.046843037 0.046511162 -0.013765689 -0.025674887 0.0008464907 -0.020899745
-0.031161344 -0.101874955 -0.07288609 -0.06440351 -0.0441775 -0.01630433 0.04212522 -0.114991255
00000000: 090c 61bd df11 26bd 48b3 7c3d b46e 1cba
00000010: 3c1d c53c a4f3 683d 177a 2abd eef5 583c
00000020: 46f2 683c 0bb8 853c b4f0 6c3d 0917 5fbc
00000030: a951 303d 8619 a13c 12e7 3cbd 1077 463c
00000040: 0dd3 72bd d4be 63bd 4eb2 903d 8c3c 1abd
00000050: a8a4 cf3c e837 b23d 7796 3ebd f04b 7b3d
00000060: acc0 eb3c e1bc f5bc ae52 833d 5d53 b33b
00000070: bdce 7f3c b3b7 303d a812 ef3b bc92 94bd
00000080: 7037 0fbe 2441 1fbc 301b b73d 4067 47bc
00000090: e1b0 42bb ada2 343d 7182 44bd 427a 5e3d
000000a0: adf3 cb3c 75a1 58bd 4516 073d e84c eebc
000000b0: 3d2c 0b3d 170e 403d 9d5a 35bd b67d 7fbc
000000c0: 8c20 8abd 053d efbc a932 a83d e46f d43c
000000d0: 4ab2 433d de59 593c af53 123d 6da7 71bb
000000e0: f757 063d fab2 2f3d 1481 e73c f152 17bd
000000f0: 08ef e43c 3ab6 16bc 2084 13bd 5f23 2e3d
00000100: ad68 7fbd d4f0 8bbd 38c3 1a3d 58d2 40bd
00000110: 310e 603d 98a8 3f3d 3dc2 4c3d 050f 3bbc
00000120: 3873 f73b fc9c b0bc 8772 263d e4fb 7f3d
00000130: a905 563d 2e5c 82bc 1114 b8bd 8a93 16bc
00000140: 0a9a 813c 9a76 36bd 74a7 df3c 21ac 3d3c
00000150: 5389 973d b18d 933c 2c97 c13c fbad 363b
00000160: f2ba 883d 752b 8abd 2c5b 973b daf9 153d
00000170: 11cb 8cbc 261f 0bbd 303b 68bd b4fd 213d
00000180: 1a57 4dbc dae8 843c 2267 243d 15cb c3bb
00000190: c444 793c f683 f33c f435 89bb 98cd a0bc
000001a0: 0b75 a43c 3c9a aabd 3016 413d 33c5 a23d
000001b0: 0aa4 6d3d f723 963c 4e6b 18bc 08d3 663d
000001c0: 1ff1 63bd 0a6e 88bc 435f 883d d4ee 29bd
000001d0: b1a7 81bc f796 a03c 12fb d8bc af5b fabc
000001e0: 3078 6dbc 327e 64bc 887f e23d 5729 6bbd
000001f0: 33e0 473d 674e 343d 7d96 e2bc f739 e13c
00000200: 96fc 03bd ad8d ea3c 29da 593d dee1 a4bc
00000210: db97 c93c f156 833c 4dc6 c73c 554d f6bb
00000220: 9bb2 ffbb 84bf 03bd fbb0 393d 0b22 0ebc
00000230: d1cf 35bd e9b4 b23b 73fc 43bb 1cd6 d3bc
00000240: 40f0 52bb 8fa4 e83c 1341 023d 821a 8c3c
00000250: 8adc 96bd 23f9 953d 5d98 5fbc e008 00bc
00000260: 64ef 4cbc 45a1 6ebc 0f93 1c3d 96c5 3a3c
00000270: b20e e6bb 5e8c c9bc 1582 c33c 015f bcbb
00000280: 18b7 6bba f615 3ebc 6b22 90bc fd8e d93c
00000290: aa38 b5bd 2b4b 08bc 6224 c0bc 1441 32bc
000002a0: ef7f 48bd 69a0 253c 8654 c43d ec62 a2bd
000002b0: 1464 20bb e576 29bb 25e4 773d 356e 58bd
000002c0: 98e0 4f3d 82e4 da3c a1f7 8e3c 7a72 cd3b
000002d0: c1e9 9abd ab03 823d d7f5 23bd ef54 343b
000002e0: 75fe 0e3d 590f 19bd 21e9 22bd 88c8 91bd
000002f0: ef68 c73c ff38 6e3d 5226 e93c abe7 2bbd
00000300: 8705 c53c c7fb 24bc 33ba d4bc 4adc ad3d
00000310: c79d 56bd 3fa0 213d c947 84bc 8354 ccbb
00000320: 00f8 cdbc 4882 b5bd e472 35bd 90e5 093c
00000330: 7e4c 79bd 1688 fabb db48 823c c94a 70bd
00000340: bd23 9a3c dd24 383c cd15 78bc 7de7 9e3d
00000350: 827e 3a3c 00e6 a4bc 0761 0b3d f286 143d
00000360: 7f24 80bd 1c54 b0bd d356 f53a 3973 2fbc
00000370: fc8f 89bc f938 2ebd 4592 ca3c cbbd 8abd
00000380: 428c 16bc 5e35 60bb e83b 92bd 7b8e 8c3d
00000390: ac0c 19bc 863c 023d db78 0b3d b11f c5bb
000003a0: 35dc e8bc cba2 0ebe 9d18 33bd 3fd8 b53c
000003b0: f455 4fbd 3765 3cbd c972 083d 58ca a5bd
000003c0: c16c 173d 987e 173c 7cde 3fbd 7d82 3e3d
000003d0: 7c89 61bc 2454 d2bc 07e7 5d3a f135 abbc
000003e0: 1346 ffbc d1a3 d0bd 4d45 95bd fde5 83bd
000003f0: 77f3 34bd a990 85bc 7f8b 2c3d 8980 ebbd

model.backbone.W_P.weight f4 [16, 24]
-0.1421455 0.04679025 0.116477996 0.10245428 0.061245732 -0.12978102 -0.179834 0.21430884
-0.059519768 -0.14898795 0.13403964 -0.20645611 0.13834956 -0.14296709 0.0864143 -0.05538258
0.0035792852 -0.13834465 0.12493484 0.08257474 0.12254175 -0.08565316 0.17570323 0.008014334
-0.031130882 -0.19924776 0.17055783 -0.19004552 -0.141128 -0.058131732 0.07361205 0.08641765
0.15305477 0.03406849 0.11103352 0.15088424 -0.19724526 -0.15757197 -0.1673769 -0.12773575
0.111981526 0.20029734 0.07679636 -0.14812347 0.08778053 0.112357095 0.18210934 -0.19187608
-0.030998554 -0.10088058 0.19306041 0.12763695 0.029960226 0.016088672 0.10372566 -0.16252999
-0.0057349736 -0.14319406 0.10001348 0.07632953 -0.14052832 0.011715362 0.11078455 0.1243185
0.2057769 -0.17132524 -0.052430727 -0.05742056 -0.15969215 -0.1862679 -0.12561691 0.127108
-0.20315307 -0.14363807 -0.12936652 -0.15153868 0.21642327 0.028648028 -0.08459423 0.24096516
-0.07535015 -0.0050475076 -0.014803115 -0.104470976 -0.046190575 -0.043175243 0.049202885 -0.08943345
0.019359183 0.2479644 0.036797218 0.021226477 -0.19034238 -0.08629754 0.13309269 0.12225063
-0.23105867 0.048939373 0.036997665 -0.06944656 0.20315541 0.05470015 -0.1639727 0.1704606
0.070829466 -0.13663073 -0.015042303 0.10239407 0.11069424 0.05685898 0.040415432 -0.0256779
0.0491475 -0.15063918 0.022560956 -0.19696185 0.14598463 -0.15253589 -0.13704023 0.16449535
-0.0974644 -0.15168767 -0.13392393 0.1607038 -0.16016811 0.20648463 0.07664099 0.20689765
-0.06990972 -0.1463942 -0.0007598449 0.18764083 -0.059628595 -0.20431344 0.16572724 0.12751094
0.15453762 0.14859289 -0.013280827 -0.17308362 -0.13382894 -0.08664879 -0.10555411 -0.11178935
0.18028077 0.16918203 -0.1821943 -0.047035173 0.17965749 0.07660517 -0.054332174 -0.052541267
0.10792341 -0.10045699 -0.17944515 -0.05898202 0.12940022 -0.05588266 -0.12879604 -0.060794517
-0.08264385 -0.19555971 -0.017914569 0.08617892 0.1997968 0.042168453 0.1508976 0.046075024
-0.06223815 -0.14932245 -0.067219846 0.11296161 0.06429216 -0.058014028 -0.0071107047 0.07584956
-0.044093404 0.14919576 -0.13878003 0.006393052 0.090765506 0.14022943 0.0174906 -0.017060084
0.18200566 -0.1658828 -0.1047685 -0.13139865 0.1891259 -0.012847248 -0.18997197 0.03044091
-0.22175002 0.083739385 0.1523518 0.08333445 -0.054214153 -0.1308701 0.15208411 -0.05460402
0.06260276 -0.029182548 0.16883586 -0.05179775 0.116140924 -0.17491178 -0.17072919 0.0337435
0.17402175 -0.13472936 0.13154231 -0.0013614498 -0.20923597 -0.1565976 -0.023782454 0.04812533
0.081292816 0.20372304 0.15535071 -0.22507004 0.07488874 -0.090514086 -0.06266055 0.19436157
-0.07920615 -0.15492249 0.12910114 -0.06573416 -0.027367055 0.06703444 0.21578479 0.17296292
0.0677918 0.0025704447 0.046765167 -0.088076234 0.09722323 0.11955443 0.14141725 -0.14369263
-0.12748799 0.17142507 0.1548234 0.119826384 0.15803784 0.16600262 -0.12297271 -0.16952448
-0.018031884 0.13954537 -0.08246405 -0.1305457 -0.2023875 0.02149366 0.040839702 -0.09449689
00000000: 978e 11be 22a7 3f3d 048c ee3d 8dd3 d13d
00000010: cedc 7a3d 51e5 04be 6726 38be c773 5b3e
00000020: 00cb 73bd 4c90 18be b041 093e 3b69 53be
00000030: 82ab 0d3e f765 12be fbf9 b03d d8d8 62bd
00000040: 7192 6a3b 38aa 0dbe d6dd ff3d f21c a93d
00000050: 2bf7 fa3d ed6a afbd 8ceb 333e 8e4e 033c
00000060: 3106 ffbc 9b07 4cbe b6a6 2e3e 4b9b 42be
00000070: dc83 10be 8a1b 6ebd eac1 963d bdfb b03d
00000080: 64ba 1c3e 678b 0b3d 8b65 e33d 6681 1a3e
00000090: a9fa 49be 8c5a 21be da64 2bbe 29cd 02be
000000a0: 9256 e53d bf1a 4d3e 6947 9d3d aead 17be
000000b0: 47c6 b33d 7a1b e63d df7a 3a3e 2a7b 44be
000000c0: aef0 fdbc 7a9a cebd a1b1 453e 43b3 023e
000000d0: 266f f53c 64cc 833c 1e6e d43d 436e 26be
000000e0: 72ec bbbb 77a1 12be ded3 cc3d a852 9c3d
000000f0: a8e6 0fbe caf1 3f3c 03e3 e23d b39a fe3d
00000100: 2eb7 523e e26f 2fbe 9ac1 56bd d231 6bbd
00000110: 5786 23be 03bd 3ebe b8a1 00be 9928 023e
00000120: 5c07 50be dc15 13be a878 04be f52c 1bbe
00000130: 109e 5d3e 45af ea3c bd3f adbd 92bf 763e
00000140: 2e51 9abd 9065 a5bb c488 72bc e1f4 d5bd
00000150: 5432 3dbd 86d8 30bd f788 493d e228 b7bd
00000160: 2697 9e3c 61ea 7d3e aeb8 163d 26e3 ad3c
00000170: 1de9 42be c4bc b0bd 7349 083e 8a5e fa3d
00000180: a59a 6cbe a774 483d dd8a 173d 003a 8ebd
00000190: f907 503e 440d 603d 76e8 27be 398d 2e3e
000001a0: 0a0f 913d ede8 0bbe fe73 76bc fbb3 d13d
000001b0: a9b3 e23d f6e4 683d a78a 253d 765a d2bc
000001c0: e44e 493d 2841 1abe c1d1 b83c 5eb0 49be
000001d0: ff7c 153e 5e32 1cbe 4654 0cbe 7871 283e
000001e0: 6a9b c7bd 0354 1bbe 5b23 09be 898f 243e
000001f0: 1c03 24be b570 533e f4f5 9c3d fadc 533e
00000200: d42c 8fbd 5ce8 15be 5430 47ba eb24 403e
00000210: 1d3d 74bd 8b37 51be 67b4 293e 3a92 023e
00000220: 1c3f 1e3e bc28 183e d397 59bc d53c 31be
00000230: 740a 09be ec74 b1bd c12c d8bd d1f1 e4bd
00000240: 869b 383e 0e3e 2d3e 2591 3abe f4a7 40bd
00000250: 22f8 373e 2ce3 9c3d 6a8b 5ebd 8335 57bd
00000260: f306 dd3d 65bc cdbd 78c0 37be 2197 71bd
00000270: 7e81 043e 37e5 64bd 1ce3 03be ac03 79bd
00000280: 2e41 a9bd ce40 48be 93c1 92bc 937e b03d
00000290: 8897 4c3e d4b8 2c3d e784 1a3e 2ab9 3c3d
000002a0: 6eed 7ebd fce7 18be 8faa 89bd 6b58 e73d
000002b0: 9cab 833d 1ea0 6dbd ea00 e9bb 0457 9b3d
000002c0: 499b 34bd c6c6 183e 5a1c 0ebe cf7c d13b
000002d0: 44e3 b93d 4e98 0f3e 7248 8f3c 97c1 8bbc
000002e0: b15f 3a3e 2edd 29be de90 d6bd 5e8d 06be
000002f0: 38aa 413e 447d 52bc 0388 42be 375f f93c
00000300: 7012 63be 8e7f ab3d 1c02 1c3e 41ab aa3d
00000310: a90f 5ebd d002 06be f0bb 1b3e 77a8 5fbd
00000320: e035 803d 3d10 efbc 4fe3 2c3e e129 54bd
00000330: 4bdb ed3d 131c 33be a2d3 2ebe a036 0a3d
00000340: c232 323e 7ef6 09be 07b3 063e ad72 b2ba
00000350: f441 56be 1f5b 20be 6cd3 c2bc 111f 453d
00000360: d97c a63d c69c 503e 4214 1f3e c378 66be
00000370: 455f 993d 735f b9bd 2d54 80bd b806 473e
00000380: d536 a2bd 00a4 1ebe 1733 043e a29f 86bd
00000390: e030 e0bc 5a49 893d b0f6 5c3e 311d 313e
000003a0: 6dd6 8a3d e874 283b d58c 3f3d 5061 b4bd
000003b0: f91c c73d f4d8 f43d afcf 103e 2924 13be
000003c0: 368c 02be 0e8a 2f3e 068a 1e3e 8967 f53d
000003d0: acd4 213e 97fc 293e 1ed9 fbbd d397 2dbe
000003e0: 9ab7 93bc fbe4 0e3e e9e2 a8bd c6ad 05be
000003f0: ab3e 4fbe 7913 b03c 8847 273d 9687 c1bd

model.backbone.W_P.bias f4 [16]
0.055589356 0.06902915 -0.04923382 0.018549874 0.025976904 -0.08065562 0.020764934 -0.011436125
-0.07743305 0.16846967 -0.08986728 0.022118561 -0.031020472 -0.019411651 0.0073634796 -0.056619853
00000000: aab1 633d 285f 8d3d 67a9 49bd e8f5 973c
00000010: 84cd d43c c62e a5bd 391b aa3c 965e 3bbc
00000020: 3895 9ebd 5083 2c3e 560c b8bd fc31 b53c
00000030: a51e febc 2f05 9fbc 5849 f13b 38ea 67bd

model.backbone.encoder.layers.0.self_attn.W_Q.weight f4 [16, 16]
0.06916832 -0.0533084 -0.05571384 -0.2673537 0.18422264 -0.06524407 0.31664518 -0.10877147
0.31743598 0.26855135 -0.24449132 0.031519137 0.19396053 0.15364932 -0.13044716 -0.12167072
-0.12240699 -0.023602702 0.117005065 -0.0039677084 0.0327808 -0.048617058 0.06298931 0.018457495
-0.2697623 -0.12958181 -0.19785894 -0.09626602 -0.18644549 -0.31999877 0.23734103 -0.11794493
-0.0052751033 -0.18026249 0.026524276 -0.21799117 0.034793526 -0.03462887 0.07771037 0.11365199
0.2812379 -0.01749339 -0.07867887 0.28849533 0.045497842 0.26404086 -0.23650257 -0.15995471
-0.20048326 -0.17186148 -0.017994367 0.16013272 -0.14672986 0.05209032 0.21835443 0.27028644
0.16529126 -0.081745155 -0.2301387 0.048733756 0.18041258 0.061673127 0.11383224 0.26194656
-0.07207988 -0.13169546 -0.048089817 -0.05746949 0.11721917 0.15086779 -0.05341479 0.17581123
-0.23640685 -0.19617987 -0.018544821 0.02134297 0.14058836 0.039374128 -0.124487214 -0.07939942
-0.20040116 -0.16558185 -0.086731866 0.10747271 0.22811498 0.0904743 -0.21639137 -0.26364586
-0.16975442 -0.14571297 -0.15734285 -0.21439442 0.07112783 0.007634214 -0.05143587 0.0072932444
0.050291974 0.032026283 0.032726526 -0.08269446 0.055000022 -0.24017896 -0.1788937 -0.07167822
0.21932518 0.21989794 -0.18678814 0.14575082 -0.008937121 0.062398333 -0.23237954 -0.22016086
-0.18353595 0.12119459 -0.049493637 -0.035557736 -0.2091037 0.050815664 -0.15281083 0.0011344401
-0.015862044 -0.10652962 0.02400276 -0.15911776 0.035792083 0.09137877 0.23511761 0.10978994
-0.24114755 0.04334769 -0.044251747 -0.16519049 -0.2053091 0.15488558 -0.24009027 0.22121169
0.17412478 -0.12293707 -0.091241814 0.17738783 0.13763414 0.08836242 -0.10015064 -0.10048833
-0.007799268 -0.26660943 -0.01133937 -0.09630286 -0.16700244 0.2541109 -0.23885062 -0.08233685
0.08160794 0.12431591 0.0119233765 -0.3111272 0.018219616 -0.2803184 -0.13710892 0.079737894
0.25488105 0.13793434 -0.2512696 -0.15084748 -0.13328116 0.10711476 0.3026569 -0.13807938
-0.14816362 0.22741057 0.11815188 0.06433983 0.2144539 0.17675412 -0.21831992 -0.17190982
0.048779108 0.21425346 0.07198268 -0.021245046 0.20684803 -0.15835229 -0.2650662 0.09604529
-0.09277804 -0.20099147 -0.16613515 -0.06932002 0.014342703 0.022195091 -0.20165206 0.23923492
0.14625186 0.2052336 -0.16213484 0.2217539 0.16781086 -0.16592728 0.056180704 0.23502651
-0.027707664 0.1534976 -0.12200846 -0.14065424 0.2561701 0.030146705 -0.23040645 0.1908569
0.1379392 -0.07168062 0.245256 -0.19093657 0.1796649 0.040460274 0.21116039 -0.08690038
-0.030999789 -0.2520238 -0.21201445 0.019609893 0.14576247 0.111653745 -0.13124378 -0.020453569
-0.08511325 -0.0036202872 -0.13284868 -0.045787215 0.026675472 0.29468024 -0.08807412 0.07641117
0.06326054 -0.17676932 -0.14480384 -0.08277782 -0.20011887 -0.29737535 0.07340938 -0.018116336
0.12552889 -0.2560029 -0.079047024 0.122725435 0.04161827 -0.21234773 0.11343478 0.13492316
-0.009222089 0.034579407 0.07070977 -0.17106858 0.055323955 -0.020241318 0.07149697 -0.18357837
00000000: 1fa8 8d3d e959 5abd 3234 64bd 96e2 88be
00000010: dca4 3c3e af9e 85bd 511f a23e 94c3 debd
00000020: f886 a23e 907f 893e ef5b 7abe 361a 013d
00000030: 979d 463e 3f56 1d3e f193 05be 802e f9bd
00000040: 84b0 fabd 745a c1bc 5aa0 ef3d 8d03 82bb
00000050: 2945 063d ae22 47bd 8a00 813d 2c34 973c
00000060: 491e 8abe 18b1 04be 899b 4abe 1e27 c5bd
00000070: 91eb 3ebe e1d6 a3be 8709 733e 1d8d f1bd
00000080: c6da acbb bb96 38be 7049 d93c 1439 5fbe
00000090: a883 0e3d 01d7 0dbd 9d26 9f3d 60c2 e83d
000000a0: 6afe 8f3e 4c4e 8fbc 6322 a1bd a9b5 933e
000000b0: f25b 3a3d 5d30 873e bb2d 72be 2bcb 23be
000000c0: 7c4b 4dbe 75fc 2fbe ec68 93bc d5f9 233e
000000d0: 5a40 16be a95c 553d 4e98 5f3e fc62 8a3e
000000e0: 1d42 293e 016a a7bd 7ba9 6bbe 0c9d 473d
000000f0: 13be 383e f69c 7c3d e120 e93d dc1d 863e
00000100: 9e9e 93bd 2ddb 06be d4f9 44bd 2165 6bbd
00000110: 9b10 f03d 167d 1a3e 78c9 5abd dc07 343e
00000120: a314 72be 60e3 48be 4feb 97bc 74d7 ae3c
00000130: 65f6 0f3e c446 213d 27f3 febd 2a9c a2bd
00000140: f635 4dbe 4a8e 29be 7aa0 b1bd a71a dc3d
00000150: f996 693e 974a b93d b395 5dbe 97fc 86be
00000160: 1ad4 2dbe c835 15be 7c1e 21be 368a 5bbe
00000170: 78ab 913d 6e28 fa3b 6bae 52bd 2bfc ee3b
00000180: f5fe 4d3d fe2d 033d 400c 063d b75b a9bd
00000190: b447 613d 79f1 75be e92f 37be 08cc 92bd
000001a0: c896 603e ed2c 613e 6445 3fbe b43f 153e
000001b0: 016d 12bc 6595 7f3d e7f4 6dbe d971 61be
000001c0: d9f0 3bbe df34 f83d d7b9 4abd fda4 11bd
000001d0: 481f 56be 1624 503d 717a 1cbe 7eb1 943a
000001e0: 1ef1 81bc 342c dabd 70a1 c43c c4ef 22be
000001f0: b89a 123d cb24 bb3d acc2 703e 8cd9 e03d
00000200: 62ef 76be 598d 313d 5241 35bd b227 29be
00000210: 8c3c 52be 539a 1e3e 39da 75be 5185 623e
00000220: c44d 323e 6ec6 fbbd fddc babd 28a5 353e
00000230: f7ef 0c3e 5bf7 b43d c71b cdbd d3cc cdbd
00000240: 0091 ffbb 0881 88be c4c8 39bc 6f3a c5bd
00000250: b002 2bbe d31a 823e 4295 74be 39a0 a8bd
00000260: 1022 a73d 5799 fe3d 445a 433c 104c 9fbe
00000270: 4e41 953c e585 8fbe 4866 0cbe 9f4d a33d
00000280: c57f 823e a93e 0d3e 69a6 80be c377 1abe
00000290: db7a 08be fc5e db3d d8f5 9a3e ae64 0dbe
000002a0: 34b8 17be 51de 683e 9df9 f13d 9ac4 833d
000002b0: ce99 5b3e 08ff 343e 428f 5fbe 2109 30be
000002c0: 9acc 473d 4265 5b3e a86b 933d 170a aebc
000002d0: f8cf 533e 1a27 22be c2b6 87be 65b3 c43d
000002e0: 6a02 bebd b5d0 4dbe 551f 2abe a8f7 8dbd
000002f0: a8fd 6a3c 7bd2 b53c e17d 4ebe 00fa 743e
00000300: 0cc3 153e c228 523e ad06 26be 7413 633e
00000310: 9cd6 2b3e d7e8 29be bd1d 663d caaa 703e
00000320: 2ffb e2bc 7a2e 1d3e 92df f9bd aa07 10be
00000330: ba28 833e 39f6 f63c abef 6bbe fe6f 433e
00000340: ef3f 0d3e 4acd 92bd 6424 7b3e e084 43be
00000350: 13fa 373e acb9 253d 6e3a 583e d4f8 b1bd
00000360: 45f3 fdbc 4309 81be 511a 59be eda4 a03c
00000370: c242 153e b8aa e43d c564 06be 3e8e a7bc
00000380: db4f aebd 5742 6dbb 7c09 08be 608b 3bbd
00000390: 8586 da3c 54e0 963e 3460 b4bd 767d 9c3d
000003a0: be8e 813d 0403 35be 7547 14be 6b87 a9bd
000003b0: f6eb 4cbe 9541 98be a857 963d b668 94bc
000003c0: a58a 003e d012 83be 68e3 a1bd 7957 fb3d
000003d0: eb77 2a3d af71 59be 7e50 e83d 4c29 0a3e
000003e0: 3f18 17bc 23a3 0d3d 49d0 903d 9a2c 2fbe
000003f0: 5f9b 623d 1fd1 a5bc 016d 923d f8fb 3bbe

model.backbone.encoder.layers.0.self_attn.W_Q.bias f4 [16]
0.21875097 0.10270627 -0.21034913 -0.0013364994 -0.23922041 -0.0057106917 0.10420856 -0.06088901
0.19567661 0.21300136 -0.15108337 0.3272913 -0.0646815 -0.040035702 -0.15465698 0.09445318
00000000: 4100 603e aa57 d23d c365 57be 7a2d afba
00000010: 32f6 74be c120 bbbb 4c6b d53d c166 79bd
00000020: 735f 483e 071d 5a3e 99b5 1abe ba92 a73e
00000030: bc77 84bd 7afc 23bd 665e 1ebe ab70 c13d

model.backbone.encoder.layers.0.self_attn.W_K.weight f4 [16, 16]
-0.25664666 -0.2840702 -0.15065634 0.10269614 0.12760767 -0.20197505 0.16447271 0.31079024
0.31485465 0.05424797 -0.00054835604 -0.18274654 0.030549355 0.29568025 -0.12497999 -0.23204593
-0.081402056 0.23019494 -0.15990077 0.22994293 0.00024184387 0.15847085 -0.13262682 -0.19822097
-0.12575619 0.022916391 0.1591171 0.07711841 0.10753513 -0.20494059 0.18466629 0.13922118
0.14208493 -0.302621 0.2497602 -0.06404914 0.18356735 -0.14249218 0.034877148 0.27060196
0.00031777116 -0.11902671 -0.058683228 0.05883416 0.05496049 0.062761456 -0.08757618 0.24726464
0.08016815 -0.26032126 -0.06738565 -0.15228695 0.30616173 -0.16123731 0.1638929 0.17022592
0.10550787 0.08236266 -0.18232727 0.07450643 -0.20636062 0.18705031 -0.12209274 0.18201822
0.28091297 0.1347931 -0.24792671 0.24501842 -0.10756264 0.029410576 0.2974764 -0.035836373
0.011648599 0.04006957 0.14429197 -0.12716892 0.081065185 0.10652705 -0.04401656 0.1676613
-0.06259559 0.21904112 -0.073408656 0.19035164 0.1926681 0.1931901 0.14685355 0.2145459
-0.007309358 0.19323185 0.28738505 -0.07953638 0.13365422 -0.10917348 -0.16677992 -0.26132756
-0.22376432 0.050418813 0.19990571 0.0040070256 0.18710259 -0.24230108 0.026456995 0.13236335
-0.07228057 0.14688104 -0.118476965 0.22075467 -0.126333 0.15937643 -0.112760484 0.13886687
0.21111856 -0.042265985 -0.2303129 0.014650623 -0.30382037 0.15983672 0.027477935 -0.026135528
-0.07700802 -0.07488293 0.22668524 -0.068966664 0.15343615 -0.2163873 -0.20197862 -0.19343041
0.21344402 -0.040075485 -0.08776908 0.040989626 0.23141931 -0.14667307 -0.1528567 -0.019663922
0.1261529 0.07954114 -0.21744701 -0.22226283 0.0029055525 -0.0008305277 0.11249454 -0.18820292
0.057033364 -0.09027552 0.11041191 -0.18509194 -0.11458171 -0.009441811 -0.0029570055 0.09807387
-0.1355077 0.09357608 0.18100147 0.059085205 0.030514054 0.18488707 0.15812878 0.23980644
-0.11717087 0.13551612 0.05176069 0.12685175 0.06529071 -0.070021264 0.03153964 0.1511593
-0.21207313 -0.24592574 -0.1750661 -0.014731956 -0.10736924 0.042632144 0.11757122 0.1273915
0.04319833 0.15874636 -0.003543271 0.091669194 0.19007303 0.17522252 -0.26467723 0.12991741
-0.09118696 0.17225339 0.2692107 -0.027397862 -0.20566262 0.08473965 -0.20083073 0.079913534
-0.09642305 0.079187915 -0.15810078 -0.052964672 0.07284643 0.22105747 -0.16868146 -0.18786262
-0.060976733 -0.07804298 -0.13312049 -0.04682147 -0.090905204 0.16814609 -0.12673758 0.12062932
0.011935583 0.11541998 -0.04491591 -0.062056188 -0.022725394 0.07862121 0.16740194 0.22487032
-0.12750576 -0.047541738 -0.062454954 0.11121766 -0.23294519 0.047016658 0.16737154 -0.18879288
0.21667728 -0.18480538 0.20676576 0.08162357 -0.03193855 0.020667827 0.10803657 -0.16236098
0.18343763 0.17537808 -0.2263676 0.047084004 0.25391093 -0.21702501 0.3187827 -0.11425928
-0.22748616 -0.18573946 0.08202527 0.21167232 0.17816369 -0.029840522 0.22899467 0.12311296
-0.16299056 0.014994805 -0.037999827 0.1304069 0.18728971 0.082074426 0.119665146 -0.20459844
00000000: 3167 83be a671 91be a845 1abe 5b52 d23d
00000010: 96ab 023e 8cd2 4ebe 896b 283e e61f 9f3e
00000020: a134 a13e 1f33 5e3d 8dbf 0fba e921 3bbe
00000030: a442 fa3c 6763 973e 82f5 ffbd 739d 6dbe
00000040: 1fb6 a6bd 39b8 6b3e 07bd 23be 2976 6b3e
00000050: 7897 7d39 2f46 223e 53cf 07be 70fa 4abe
00000060: 3bc6 00be 28bb bb3c 98ef 223e 42f0 9d3d
00000070: 613b dc3d f2db 51be 2919 3d3e ff8f 0e3e
00000080: b67e 113e 24f1 9abe 23c1 7f3e 322c 83bd
00000090: 14f9 3b3e 78e9 11be 57db 0e3d 578c 8a3e
000000a0: 869a a639 47c4 f3bd d35d 70bd 17fc 703d
000000b0: 401e 613d 1489 803d 245b b3bd f132 7d3e
000000c0: 332f a43d d448 85be 7d01 8abd 1cf1 1bbe
000000d0: 3bc1 9c3e 651b 25be 8ad3 273e b44f 2e3e
000000e0: 8314 d83d c1ad a83d 00b4 3abe d496 983d
000000f0: 3350 53be 1e8a 3f3e c20b fabd fc62 3a3e
00000100: d3d3 8f3e 3407 0a3e 80e0 7dbe 1ce6 7a3e
00000110: cd49 dcbd 73ee f03c d44e 983e 29c9 12bd
00000120: c4d9 3e3c fd1f 243d 46c1 133e 9238 02be
00000130: 8105 a63d db2a da3d b54a 34bd 67af 2b3e
00000140: 1e32 80bd 514c 603e 4757 96bd 8aeb 423e
00000150: c94a 453e a0d3 453e c760 163e ecb1 5b3e
00000160: 5783 efbb 92de 453e 2224 933e f8e3 a2bd
00000170: a7dc 083e 5896 dfbd 5bc8 2abe bacc 85be
00000180: 7922 65be f583 4e3d 15b4 4c3e 5e4d 833b
00000190: d297 3f3e c61d 78be 57bc d83c 428a 073e
000001a0: d607 94bd fc67 163e 0da4 f2bd 830d 623e
000001b0: 705d 01be 9333 233e f8ee e6bd 1e33 0e3e
000001c0: 772f 583e 191f 2dbd 25d7 6bbe 2b09 703c
000001d0: 588e 9bbe 3dac 233e 6819 e13c 2d1a d6bc
000001e0: 61b6 9dbd 395c 99bd 2d20 683e 653e 8dbd
000001f0: 5e1e 1d3e a294 5dbe 7cd3 4ebe 9f12 46be
00000200: 1291 5a3e 3126 24bd 47c0 b3bd bde4 273d
00000210: 2ff9 6c3e 7731 16be 7786 1cbe 3c16 a1bc
00000220: 3a2e 013e 77e6 a23d 6eaa 5ebe de98 63be
00000230: 156b 3e3b c5b7 59ba 8a63 e63d 44b8 40be
00000240: d19b 693d 5fe2 b8bd a41f e23d be88 3dbe
00000250: d1a9 eabd d3b1 1abc 52ca 41bb f4da c83d
00000260: 88c2 0abe d1a4 bf3d 7358 393e 5403 723d
00000270: 9cf8 f93c 0953 3d3e 83ec 213e d28f 753e
00000280: 48f7 efbd bdc4 0a3e 0403 543d 6de5 013e
00000290: 23b7 853d 4f67 8fbd b62f 013d 81c9 1a3e
000002a0: b329 59be f5d3 7bbe 8744 33be 4d5e 71bc
000002b0: 67e4 dbbd 0b9f 2e3d 2ec9 f03d eb72 023e
000002c0: bbf0 303d 688e 223e 3936 68bb 0fbd bb3d
000002d0: 81a2 423e 886d 333e c683 87be 1209 053e
000002e0: 3bc0 babd 3163 303e fcd5 893e 7b71 e0bc
000002f0: 3999 52be fb8b ad3d 92a6 4dbe b5a9 a33d
00000300: 7379 c5bd 462d a23d 2ce5 21be 7cf1 58bd
00000310: 8230 953d e45c 623e d5ba 2cbe 0f5f 40be
00000320: bdc2 79bd ffd4 9fbd bd50 08be dfc7 3fbd
00000330: 822c babd 7d2e 2c3e 7fc7 01be 810c f73d
00000340: 778d 433c 4f61 ec3d bff9 37bd a12e 7ebd
00000350: 9b2a babc 2804 a13d 6a6b 2b3e 6844 663e
00000360: df90 02be 20bb 42bd c4d0 7fbd 16c6 e33d
00000370: 2f89 6ebe 8a94 403d 7263 2b3e ec52 41be
00000380: a6e0 5d3e 9f3d 3dbe 67ba 533e 422a a73d
00000390: ffd1 02bd 934f a93c 4742 dd3d f541 26be
000003a0: 13d7 3b3e 5096 333e e8cc 67be 28db 403d
000003b0: 9d00 823e ce3b 5ebe 7c37 a33e c500 eabd
000003c0: 22f2 68be 7c32 3ebe ddfc a73d a1c0 583e
000003d0: 8b70 363e 1c74 f4bc 947d 6a3e a622 fc3d
000003e0: ffe6 26be c5ac 753c b5a5 1bbd 6389 053e
000003f0: e0c8 3f3e a316 a83d 0013 f53d 4182 51be

model.backbone.encoder.layers.0.self_attn.W_K.bias f4 [16]
-0.048501432 -0.11632878 -0.0021838704 -0.17811398 0.06384164 0.17149217 -0.2081638 0.22315829
0.102566555 -0.11689573 0.012474434 -0.16011754 0.24050163 -0.18609682 0.2329829 -0.110040516
00000000: 70a9 46bd c93d eebd 441f 0fbb 8363 36be
00000010: 68bf 823d a59b 2f3e e428 55be 9b83 643e
00000020: 6a0e d23d 0767 efbd 9261 4c3c daf5 23be
00000030: 0f46 763e 2a90 3ebe 1293 6e3e ec5c e1bd

model.backbone.encoder.layers.0.self_attn.W_V.weight f4 [16, 16]
0.0539351 -0.10789392 0.049325846 0.061129365 0.024783263 0.035693947 -0.0017188427 -0.23192714
-0.20364226 -0.13255885 -0.029721472 0.07739259 0.03918918 -0.038462654 -0.24426985 0.029350169
0.18872479 0.01628022 -0.20625699 0.11631012 -0.22938539 -0.086991616 0.04387552 0.009284722
0.22579478 0.12749359 -0.21316636 0.052448086 -0.09848186 -0.024574768 0.2016038 0.06831471
-0.13011654 0.1578177 0.10348216 0.007966973 0.14321002 0.18573835 -0.1903705 -0.10488368
0.12148784 0.17136107 -0.12660646 -0.15543517 -0.15829673 -0.07157459 -0.03410767 -0.13877995
-0.058881644 -0.02388997 0.039025683 0.10253886 0.21408933 0.047797345 -0.10342601 0.053971324
-0.006470545 0.23195495 -0.0053798445 0.10333671 -0.12062456 -0.08153551 -0.19559996 -0.09756746
0.04735615 -0.08951721 0.14988188 -0.0038228605 -0.18811819 -0.027995953 -0.20360184 -0.15966049
-0.120442726 -0.011386468 -0.042846445 -0.13087553 -0.09615512 0.09150039 -0.18265234 -0.10430949
-0.17953798 -0.21906342 0.011798923 0.17362967 -0.12956844 -0.019615866 -0.19572636 0.010216395
-0.21896356 -0.24393277 -0.1744399 -0.0166468 -0.18101448 0.035875287 -0.035303295 0.12611149
0.09017837 0.098034 -0.070850186 -0.25576156 -0.16349803 -0.25627428 0.110031754 -0.081705675
0.047713377 0.19668679 0.14456256 0.09150068 0.17615664 -0.17502265 -0.0905238 -0.15716241
0.13616149 -0.07823308 0.18253306 0.10555016 0.107200794 -0.24154913 0.16637397 0.11472161
-0.17141074 -0.19657096 -0.051033936 -0.062124092 0.08557907 -0.17354935 -0.21618454 -0.11792728
-0.11429539 -0.1484252 -0.09413735 0.056903068 0.25590855 -0.0996038 -0.09407083 -0.1000418
-0.18694176 0.24022396 -0.13596563 -0.20120125 0.15489715 0.018996315 -0.15094157 -0.04885103
-0.1721016 -0.15386659 -0.28527543 0.16210027 0.12393497 -0.1689285 0.10958747 0.283429
-0.09555929 -0.26267165 -0.2621192 -0.11365231 0.15528129 -0.05958342 0.29070514 0.17444792
0.085747875 0.038882993 0.015690895 0.13167034 -0.18892786 -0.1387683 -0.031878006 -0.081495576
-0.11529692 -0.09057289 0.105923295 0.09580877 0.040694248 0.035151426 -0.08293421 0.20473975
0.06660335 -0.027956787 0.05699889 -0.05053899 -0.008711948 0.15456355 0.15698546 0.17001271
-0.062209677 0.06785213 0.13884768 -0.056597233 0.25133604 -0.06276373 -0.18304221 -0.025353406
-0.015534118 -0.047004174 -0.0835078 0.16349523 0.036226425 0.120829776 0.12691933 -0.22488762
-0.110586256 0.04381244 -0.13370237 -0.15885755 0.2465683 0.13553655 -0.08401488 0.14308068
-0.14454043 0.08713598 0.12483898 0.103979416 -0.009271358 0.14314939 -0.09088319 -0.2912171
0.2018052 0.18578278 0.19427162 0.14763351 0.09471203 0.14220661 -0.13193922 -0.14756876
-0.022252213 -0.22295979 -0.11551319 0.12478315 -0.08481092 -0.11286372 -0.13540325 -0.08886667
0.09185789 -0.20032874 0.0009458419 -3.8079e-05 -0.089442834 0.016369995 0.27149165 -0.18691394
-0.1222006 -0.14947532 -0.032819446 -0.15429243 0.1459047 0.06896504 -0.09385876 0.15323536
-0.19456872 0.11130929 0.15469463 -0.20563768 0.09880877 -0.20513102 0.039768793 0.16304661
00000000: 0deb 5c3d 7df7 dcbd e609 4a3d c962 7a3d
00000010: 4506 cb3c d133 123d ca4a e1ba 4f7e 6dbe
00000020: 9987 50be 82bd 07be 727a f3bc 0280 9e3d
00000030: d584 203d 048b 1dbd e021 7abe c46f f03c
00000040: 1241 413e 195e 853c 0835 53be 0034 ee3d
00000050: 01e4 6abe a928 b2bd d1b6 333d f21e 183c
00000060: bf36 673e ae8d 023e 4848 5abe ced3 563d
00000070: dbb0 c9bd 0651 c9bc 3a71 4e3e 95e8 8b3d
00000080: 453d 05be f79a 213e 74ee d33d e887 023c
00000090: a6a5 123e 3232 3e3e 7cf0 42be 41cd d6bd
000000a0: 9ece f83d 4779 2f3e 20a5 01be 662a 1fbe
000000b0: 8a18 22be b395 92bd 7cb4 0bbd 551c 0ebe
000000c0: e12d 71bd e6b4 c3bc 65d9 1f3d e5ff d13d
000000d0: 3c3a 5b3e 26c7 433d 04d1 d3bd 0911 5d3d
000000e0: de06 d4bb 9985 6d3e 6849 b0bb 32a2 d33d
000000f0: 020a f7bd 17fc a6bd 5b4b 48be 73d1 c7bd
00000100: 86f8 413d cd54 b7bd a37a 193e f588 7abb
00000110: 0ea2 40be c557 e5bc 007d 50be 0a7e 23be
00000120: adaa f6bd 4f8e 3abc c17f 2fbd 3c04 06be
00000130: faec c4bd 8e64 bb3d 3709 3bbe 37a0 d5bd
00000140: ced8 37be 2952 60be 4550 413c facb 313e
00000150: 97ad 04be 74b1 a0bc 7e6c 48be ab62 273c
00000160: fc37 60be 83c9 79be 60a0 32be df5e 88bc
00000170: dc5b 39be f7f1 123d 309a 10bd 5f23 013e
00000180: 70af b83d 0dc6 c83d e719 91bd 2ef3 82be
00000190: 076c 27be 6236 83be 5458 e13d 4e55 a7bd
000001a0: 1a6f 433d 4368 493e 3508 143e b564 bb3d
000001b0: 6862 343e 2339 33be 8b64 b9bd 2fef 20be
000001c0: eb6d 0b3e aa38 a0bd f2e9 3a3e af2a d83d
000001d0: 178c db3d a858 77be f05d 2a3e 2af3 ea3d
000001e0: 4c86 2fbe e649 49be f608 51bd d575 7ebd
000001f0: 1444 af3d ecb6 31be 7b5f 5dbe dc83 f1bd
00000200: b413 eabd c7fc 17be 15cb c0bd 3113 693d
00000210: 7206 833e 14fd cbbd 35a8 c0bd b7e2 ccbd
00000220: a96d 3fbe 45fd 753e 933a 0bbe b307 4ebe
00000230: 5c9d 1e3e 299e 9b3c 6d90 1abe 0518 48bd
00000240: 673b 30be 348f 1dbe 9f0f 92be 9dfd 253e
00000250: 9ed1 fd3d 98fb 2cbe 656f e03d 9b1d 913e
00000260: 97b4 c3bd e67c 86be 7d34 86be 8bc2 e8bd
00000270: 0f02 1f3e bf0d 74bd 4ed7 943e 7aa2 323e
00000280: 959c af3d c643 1f3d 318a 803c 97d4 063e
00000290: 4e76 41be 4719 0ebe 8392 02bd 27e7 a6bd
000002a0: cb20 ecbd 487e b9bd 50ee d83d 6337 c43d
000002b0: 03af 263d f1fa 0f3d 69d9 a9bd 4ca7 513e
000002c0: 5667 883d a205 e5bc ab77 693d f901 4fbd
000002d0: 8fbc 0ebc e845 1e3e ccc0 203e d017 2e3e
000002e0: 93cf 7ebd 0ff6 8a3d 162e 0e3e 80d2 67bd
000002f0: 1eaf 803e 458a 80bd 6b6f 3bbe f2b1 cfbc
00000300: d082 7ebc 7387 40bd 2306 abbd 4b6b 273e
00000310: 2962 143d 9a75 f73d 24f7 013e f148 66be
00000320: 0c7b e2bd ac74 333d 46e9 08be 8eab 22be
00000330: 677c 7c3e 18ca 0a3e fe0f acbd be83 123e
00000340: 6802 14be 5974 b23d 94ab ff3d 29f3 d43d
00000350: e5e6 17bc c195 123e f720 babd 681a 95be
00000360: 06a6 4e3e d73d 3e3e 24ef 463e 3d2d 173e
00000370: 61f8 c13d 9c9e 113e 131b 07be 441c 17be
00000380: 464a b6bc 924f 64be 2e92 ecbd 4f8e ff3d
00000390: 59b1 adbd 1825 e7bd 26a7 0abe bbff b5bd
000003a0: fd1f bc3d fa22 4dbe 60f2 773a 04b7 1fb8
000003b0: ce2d b7bd 5e1a 863c f400 8b3e 5e66 3fbe
000003c0: 4f44 fabd 0f10 19be af6d 06bd d6fe 1dbe
000003d0: 0b68 153e 8b3d 8d3d 0639 c0bd bbe9 1c3e
000003e0: 063d 47be 20f6 e33d 4568 1e3e af92 52be
000003f0: 415c ca3d de0d 52be 9ae4 223d b1f5 263e

model.backbone.encoder.layers.0.self_attn.W_V.bias f4 [16]
-0.12750793 0.11933947 -0.0398563 -0.11911142 0.18294188 0.17353874 0.15713242 0.20156194
-0.03502507 0.11196101 -0.20411414 -0.09819034 -0.024984064 0.17970721 0.11696136 0.109953545
00000000: 7091 02be 4168 f43d 5c40 23bd b0f0 f3bd
00000010: 1e55 3b3e 24b4 313e 52e7 203e 4166 4e3e
00000020: 7376 0fbd d04b e53d 4c03 51be 0418 c9bd
00000030: 61ab ccbc 2b05 383e 7089 ef3d 532f e13d

model.backbone.encoder.layers.0.self_attn.to_out.0.weight f4 [16, 16]
-0.09016988 -0.07090961 -0.10548124 -0.09430155 -0.23138376 0.014805622 -0.07467713 -0.0012053669
0.10056695 0.07027935 -0.07334213 -0.109712556 0.14538975 -0.061877 0.17942542 -0.24031846
0.16052982 -0.09720929 -0.054389276 0.16252878 0.103104174 -0.0097344015 0.09565692 -0.06336984
-0.10533128 -0.0921534 0.06755445 -0.19814208 0.008123849 0.25476077 0.13005008 -0.14913042
-0.12843752 -0.21629678 0.12709995 -0.22642899 0.006245575 -0.19856632 -0.0030044164 0.10028392
0.11293298 0.17914768 0.12726788 -0.24548379 -0.17801812 0.054569557 -0.11552876 -0.03183459
-0.10872527 0.014329505 0.26124728 -0.19832495 0.019048473 0.027115466 -0.19809099 -0.20687705
-0.14905296 -0.0903671 -0.08494808 -0.17311883 -0.05671541 -0.051613733 0.0939335 0.13915063
0.1388148 0.0957752 -0.2105739 -0.15836556 -0.096055925 0.1250426 -0.24230266 0.1732743
-0.056723572 -0.21710344 0.16385506 0.14727798 -0.1013687 -0.058717582 -0.14138928 -0.062976874
0.10354333 0.021178316 -0.0050007035 0.06692858 -0.17676713 -0.020857293 -0.22385618 -0.094920576
-0.24587955 -0.16305912 -0.011278496 0.050155576 0.11913836 -0.2817042 0.08396016 0.122474924
-0.1917801 0.0058357604 0.04175784 -0.22753355 0.24429065 0.26892632 -0.12851682 -0.20530076
0.13563849 -0.13636947 -0.18014635 0.09119771 0.058269538 0.0014568542 0.1829946 0.16366805
0.018020175 0.14496088 -0.2476867 -0.09225418 -0.08693576 0.11542503 -0.15304193 0.02232506
-0.11669446 -0.24390966 -0.29134637 0.089762054 0.19500357 -0.09089177 0.049967445 -0.09643966
-0.22902733 -0.17434815 0.24507749 -0.24588974 0.0062860283 0.21065761 -0.020512313 -0.11511216
0.033559304 0.034413118 -0.14620116 -0.13998494 0.20330173 -0.13167594 -0.051108915 0.0060170465
-0.023113187 0.17021482 0.16603668 -0.066674635 0.19191496 -0.08700414 -0.11797681 -0.0765395
-0.08610757 -0.1349754 0.07380474 0.16090682 0.15381892 0.021154804 0.022196928 0.060040604
-0.085349955 -0.032197222 0.16025524 -0.2292655 -0.086432286 -0.040841274 0.14396606 0.051477473
0.083541565 0.11739888 0.08087665 0.0071570138 0.010727485 -0.028060516 0.06282932 0.019793544
-0.027892826 -0.16618098 -0.09625127 0.07733204 0.23028243 0.14968023 -0.09051083 0.040749293
0.26742372 -0.15798283 0.08295911 -0.20361365 -0.1403397 -0.13972503 -0.18909612 -0.18916292
-0.28458682 0.1073289 -0.13034044 -0.09425879 -0.09276327 0.23517393 0.045022078 0.13620192
0.11627243 -0.12465669 0.120862484 -0.05257874 -0.15084368 -0.17264707 0.09853422 0.29149818
0.09450877 0.007057455 0.048892323 0.11238638 0.15376578 0.18933006 0.1450692 -0.06895567
0.23784561 -0.12645476 -0.22440217 0.06291419 0.0012998311 0.25133732 -0.1109511 -0.0034913332
-0.16978578 -0.042673666 0.17521475 -0.15755874 -0.065318085 0.09663075 0.11233146 -0.08566258
-0.15861738 -0.0454452 0.23670673 0.043421935 -0.17630138 -0.12594894 -0.12835826 0.08714649
0.041992284 0.020799242 0.0001819241 0.1470571 0.16635232 -0.111678615 0.32805014 0.10503854
-0.080157384 0.12052614 0.08866298 0.13612482 0.03047278 0.29399046 0.09322487 0.048274662
00000000: fcaa b8bd 0f39 91bd 8c06 d8bd 2c21 c1bd
00000010: ddef 6cbe 4893 723c 53f0 98bd 67fd 9dba
00000020: 0cf6 cd3d 9fee 8f3d 6634 96bd fab0 e0bd
00000030: 0de1 143e bd72 7dbd 4cbb 373e 0b16 76be
00000040: ee61 243e aa15 c7bd 4ac7 5ebd f26d 263e
00000050: 4828 d33d 0a7d 1fbc c6e7 c33d 0cc8 81bd
00000060: edb7 d7bd ecba bcbd fd59 8a3d c2e5 4abe
00000070: e419 053c 0170 823e d92b 053e a5b5 18be
00000080: 2085 03be e77c 5dbe 7d26 023e 00dd 67be
00000090: aea7 cc3b f854 4bbe bee5 44bb a861 cd3d
000000a0: 6849 e73d 7d72 373e 8352 023e 1a60 7bbe
000000b0: 624a 36be 5484 5f3d 589a ecbd fd64 02bd
000000c0: 5bab debd 4dc6 6a3c 34c2 853e b215 4bbe
000000d0: 8b0b 9c3c 4121 de3c 5dd8 4abe 94d7 53be
000000e0: 57a1 18be 6312 b9bd 42f9 adbd 1046 31be
000000f0: 6b4e 68bd ec68 53bd 3560 c03d 817d 0e3e
00000100: 7825 0e3e ca25 c43d afa0 57be 952a 22be
00000110: f8b8 c4bd 2b0b 003e 301e 78be d16e 313e
00000120: fa56 68bd 5d50 5ebe 9fc9 273e 0ad0 163e
00000130: 659a cfbd d981 70bd 5ac8 10be 05fa 80bd
00000140: 870e d43d 267e ad3c f1dc a3bb da11 893d
00000150: 7102 35be eadc aabc 8e3a 65be b865 c2bd
00000160: d9c7 7bbe f8f8 26be 71c9 38bc ef6f 4d3d
00000170: d0fe f33d 883b 90be 4ef3 ab3d 22d4 fa3d
00000180: 0162 44be e839 bf3b 450a 2b3d 8efe 68be
00000190: 5427 7a3e b6b0 893e ea99 03be 5d3a 52be
000001a0: d1e4 0a3e 70a4 0bbe 4978 38be ddc5 ba3d
000001b0: 0aac 6e3d eaf3 be3a f062 3b3e 9998 273e
000001c0: 0c9f 933c a070 143e 95a1 7dbe c2ef bcbd
000001d0: 600b b2bd f563 ec3d 06b7 1cbe 0be3 b63c
000001e0: 81fd eebd 74c3 79be 5a2b 95be 2bd5 b73d
000001f0: 04af 473e 7725 babd aaaa 4c3d 2882 c5bd
00000200: 2486 6abe 5288 32be 98f5 7a3e 85ca 7bbe
00000210: 07fb cd3b a1b6 573e 7009 a8bc edbf ebbd
00000220: 7b75 093d c5f4 0c3d c2b5 15be 3658 0fbe
00000230: 542e 503e 0fd6 06be 9557 51bd a52a c53b
00000240: de57 bdbc cb4c 2e3e 8505 2a3e b68c 88bd
00000250: 5b85 443e 3a2f b2bd d39d f1bd bec0 9cbd
00000260: 2a59 b0bd fe36 0abe f126 973d c2c4 243e
00000270: b582 1d3e d74c ad3c 55d6 b53c 23ed 753d
00000280: f5cb aebd 3ce1 03bd f319 243e 93c4 6abe
00000290: 6903 b1bd 2e49 27bd d76b 133e 0bda 523d
000002a0: d717 ab3d d36e f03d a8a2 a53d 6285 ea3b
000002b0: 55c2 2f3c 2bdf e5bc a9ac 803d 1226 a23c
000002c0: 7f7f e4bc 592b 2abe 631f c5bd 4360 9e3d
000002d0: 28cf 6b3e c645 193e be5d b9bd bbe8 263d
000002e0: c3eb 883e 40c6 21be 77e6 a93d 1980 50be
000002f0: 36b5 0fbe 1414 0fbe 6aa2 41be edb3 41be
00000300: 5db5 91be 41cf db3d f777 05be c10a c1bd
00000310: abfa bdbd 6fd1 703e 1269 383d 8478 0b3e
00000320: 3d20 ee3d 024c ffbd c086 f73d ce5c 57bd
00000330: c476 1abe 65ca 30be 4fcc c93d 403f 953e
00000340: d08d c13d 3942 e73b 5143 483d d52a e63d
00000350: c774 1d3e bddf 413e 058d 143e a138 8dbd
00000360: cd8d 733e 5b7d 01be afc9 65be 28d9 803d
00000370: 185f aa3a 49af 803e 553a e3bd dace 64bb
00000380: 53dc 2dbe 95ca 2ebd 7f6b 333e 1457 21be
00000390: 7dc5 85bd 58e6 c53d 090e e63d dd6f afbd
000003a0: 986c 22be bf24 3abd 4063 723e 33db 313d
000003b0: 5988 34be c2f8 00be 5970 03be dc79 b23d
000003c0: 1a00 2c3d 2c63 aa3c e1c2 3e39 2396 163e
000003d0: 4358 2a3e c2b7 e4bd 30f6 a73e 721e d73d
000003e0: 8e29 a4bd 69d6 f63d f094 b53d 4e64 0b3e
000003f0: 0da2 f93c eb85 963e aeec be3d a7bb 453d

model.backbone.encoder.layers.0.self_attn.to_out.0.bias f4 [16]
0.040411584 -0.01710633 -0.022284636 0.008440654 0.097522296 0.16215117 -0.11878423 -0.019382663
-0.033876266 0.023161737 -0.040733818 0.053598978 -0.07040966 -0.13462982 0.058279566 -0.13767783
00000000: 9e86 253d 9322 8cbc 458e b6bc ab4a 0a3c
00000010: c5b9 c73d f50a 263e 2545 f3bd 64c8 9ebc
00000020: d7c1 0abd afbd bd3c 81d8 26bd 9a8a 5b3d
00000030: f132 90bd 66dc 09be 8eb6 6e3d 6bfb 0cbe

model.backbone.encoder.layers.0.norm_attn.1.weight f4 [16]
0.9821532 1.0076632 1.0335993 0.9880045 0.97740865 1.0066707 1.0170016 1.0025289
1.0571554 0.9417485 1.0030848 1.0100647 0.99368054 1.0059109 1.0166377 0.9996506
00000000: 646e 7b3f 1cfb 803f fb4c 843f dded 7c3f
00000010: 7437 7a3f 96da 803f 1c2d 823f de52 803f
00000020: de50 873f 6e16 713f 1565 803f cd49 813f
00000030: d961 7e3f b0c1 803f 2f21 823f 1ae9 7f3f

model.backbone.encoder.layers.0.norm_attn.1.bias f4 [16]
0.06664574 0.0351934 -0.056212757 0.11028456 -0.02923416 0.05938959 0.07795437 0.032348543
0.082891434 -0.0017363438 -0.06196377 0.07092456 -0.021619104 0.040154252 0.008041085 -0.022647228
00000000: 907d 883d f426 103d 593f 66bd dfdc e13d
00000010: 7a7c efbc 8042 733d 8aa6 9f3d e87f 043d
00000020: fcc2 a93d 0896 e3ba b9cd 7dbd e540 913d
00000030: 8c1a b1bc c978 243d c1be 033c ae86 b9bc

model.backbone.encoder.layers.0.norm_attn.1.running_mean f4 [16]
0.013338642 0.015605655 0.010959794 -0.056362588 0.04488201 -0.04616718 -0.0012808269 0.00364667
-0.036694217 0.15498285 -0.031846683 0.043937244 0.03788242 0.0013898006 -0.00952269 -0.041098036
00000000: 528a 5a3c dcae 7f3c b590 333c 75dc 66bd
00000010: 33d6 373d cc19 3dbd 6be1 a7ba f8fc 6e3b
00000020: ad4c 16bd d3b3 1e3e ab71 02bd 8af7 333d
00000030: 992a 1b3d f829 b63a 0f05 1cbc 6a56 28bd

model.backbone.encoder.layers.0.norm_attn.1.running_var f4 [16]
0.121350765 0.21989389 0.20314735 0.31312954 0.116848834 0.21913584 0.16456334 0.09178225
0.137087 0.64135146 0.27611884 0.1705384 0.21060325 0.113350384 0.09723134 0.16578998
00000000: c086 f83d dd2b 613e dc05 503e 8452 a03e
00000010: 714e ef3d 2565 603e 4b83 283e 55f8 bb3d
00000020: 8960 0c3e 9c2f 243f 735f 8d3e 9ea1 2e3e
00000030: 61a8 573e 3f24 e83d 3a21 c73d d9c4 293e

model.backbone.encoder.layers.0.ff.0.weight f4 [128, 16]
-0.10329361 0.06202909 -0.2730567 0.021505652 0.12700634 -0.1558029 -0.16880536 -0.18066521
-0.20801617 -0.030957991 -0.08976799 -0.2297064 -0.08960666 -0.18625325 0.15914854 -0.103863314
0.058305014 -0.054892566 -0.2831273 -0.082395546 -0.21863507 0.14336519 -0.12182758 0.012941839
-0.10857205 -0.060723566 0.047133572 -0.26103988 -0.04353354 -0.049471203 -0.048537016 -0.0043733628
-0.22247997 0.22289655 -0.0949995 -0.13130215 0.2000687 -0.05382873 -0.008377439 0.14264089
0.21960774 0.16775472 -0.13716756 0.018378248 -0.009752162 -0.22509095 0.15056926 -0.14585097
-0.01799147 -0.026359776 0.08837069 -0.086163685 0.1701416 -0.094393805 -0.02400779 -0.23065205
-0.21477361 -0.15230091 -0.16486719 -0.02859796 -0.095911585 -0.2647662 0.15604696 -0.17149885
0.23973784 -0.17517273 0.06401756 0.09526949 0.026485369 0.103921235 0.011171047 0.108246654
-0.1335295 0.16130498 0.08599315 -0.07486065 -0.037934154 -0.20555435 -0.12555115 -0.003360132
-0.10805017 -0.12178959 -0.17941916 0.18892668 -0.23475018 -0.19254513 -0.07429227 0.16465531
-0.14321786 -0.08397097 -0.117157474 -0.09065669 0.11269008 -0.017747844 -0.09899545 -0.010700904
0.1546189 0.07801331 0.008186044 0.18151316 -0.097466595 -0.13176675 0.1403619 0.09427192
-0.028940903 -0.045596357 0.05744845 -0.11416662 -0.09878626 -0.14829817 0.029209651 0.03568716
0.075604916 0.19146892 -0.20140518 -0.11871407 -0.10848883 0.10421913 -0.037744693 0.09566098
0.25258043 0.009073477 -0.16536216 0.11939446 0.157333 -0.07025152 -0.25561634 0.17629288
-0.058251154 -0.2599262 -0.02131914 0.16471191 -0.046896562 -0.1558445 0.10886058 -0.17490804
-0.032407723 0.0076747863 -0.16564943 -0.08004462 -0.16903979 0.17218271 -0.03393895 0.007774339
0.03530149 -0.11922675 -0.148104 -0.18928294 -0.14041014 -0.027419511 -0.25105324 -0.18538342
0.10263127 -0.15288667 -0.18187769 -0.05172496 -0.26218852 -0.30657786 -0.095899686 -0.100211
-0.18363194 -0.12159111 0.20946102 0.26335952 0.113455795 0.022488361 0.02475411 0.0783496
-0.19456574 0.15075065 -0.20730743 -0.13972212 0.12732452 -0.092014246 -0.15379265 0.17487773
0.15384959 -0.006262785 0.23162042 -0.17178985 0.12040938 0.025791716 0.1358772 0.14509302
-0.2564047 0.102510214 0.09484237 -0.2530276 -0.064154714 0.03581859 0.24198604 -0.13703264
-0.16305366 -0.13117412 -0.06922271 -0.024714887 -0.113327205 -0.05839433 0.18216765 -0.24939708
0.061141595 0.20889853 0.0030338478 -0.05850273 0.19504116 0.039972592 -0.011767853 -0.08636655
-0.11414421 0.03616341 -0.17432255 -0.026733268 0.07085986 -0.22186773 0.025842631 -0.06408743
0.11969036 0.12856989 0.19133484 -0.047650713 0.02373777 -0.195581 0.23722394 -0.015050533
-0.15536152 0.26230034 -0.051267542 0.16952984 -0.070958324 0.20182163 -0.18804963 -0.124526836
0.08861075 -0.1258472 0.1903316 -0.13889024 0.021594342 0.09424885 0.0934952 0.000806898
-0.123048216 0.14734763 0.09007789 -0.034294616 0.009136265 0.063781284 -0.07231109 -0.056462422
0.04247277 -0.19417036 0.24516796 -0.19383878 -0.07343762 -0.03268939 -0.25377348 0.059663326
00000000: 9a8b d3bd 3712 7e3d 16ce 8bbe 9f2c b03c
00000010: f30d 023e cc8a 1fbe 50db 2cbe 4d00 39be
00000020: 3102 55be 9d9b fdbc 48d8 b7bd 2838 6bbe
00000030: b283 b7bd 2cb9 3ebe d6f7 223e 4ab6 d4bd
00000040: 3dd1 6e3d 07d7 60bd 10f6 90be ffbe a8bd
00000050: dfe1 5fbe 53ce 123e bd80 f9bd 020a 543c
00000060: 065b debd 46b9 78bd 220f 413d 05a7 85be
00000070: 3a50 32bd 51a2 4abd c0ce 46bd 6d4e 8fbb
00000080: cad1 63be fe3e 643e 198f c2bd 1274 06be
00000090: cfde 4c3e 847b 5cbd 8741 09bc 7410 123e
000000a0: dae0 603e e5c7 2b3e a775 0cbe fb8d 963c
000000b0: 88c7 1fbc 3e7e 66be d42e 1a3e f559 15be
000000c0: d962 93bc 75f0 d7bc b1fb b43d 9676 b0bd
000000d0: 9939 2e3e 8a51 c1bd fcab c4bc 0d30 6cbe
000000e0: 9ded 5bbe c5f4 1bbe f2d2 28be 4546 eabc
000000f0: 4b6d c4bd 6f8f 87be c6ca 1f3e 659d 2fbe
00000100: d67d 753e 7b60 33be a31b 833d a61c c33d
00000110: d8f7 d83c a8d4 d43d c406 373c 6cb0 dd3d
00000120: f5bb 08be 222d 253e 2d1d b03d 8a50 99bd
00000130: d860 1bbd d77c 52be 7b90 00be a935 5cbb
00000140: 6849 ddbd d26c f9bd a8b9 37be ff75 413e
00000150: 5a62 70be 8d2a 45be 8c26 98bd 679b 283e
00000160: b4a7 12be f9f8 abbd 42f0 efbd 37aa b9bd
00000170: 0fca e63d ed63 91bc 20be cabd d852 2fbc
00000180: 6b54 1e3e 71c5 9f3d c21e 063c 96de 393e
00000190: 919c c7bd dded 06be 08bb 0f3e a311 c13d
000001a0: 7915 edbc 3fc3 3abd 114f 6b3d 30d0 e9bd
000001b0: 7350 cabd 7adb 17be 1449 ef3c b32c 123d
000001c0: c0d6 9a3d 6e10 443e 293d 4ebe 5d20 f3bd
000001d0: 642f debd d770 d53d 2e9a 1abd e7e9 c33d
000001e0: 3952 813e eca8 143c b354 29be 1585 f43d
000001f0: e71b 213e 07e0 8fbd 25e0 82be 1f86 343e
00000200: c398 6ebd 0c15 85be 7aa5 aebc 3daa 283e
00000210: 9c16 40bd b395 1fbe 4cf2 de3d 181b 33be
00000220: f6bd 04bd c67c fb3b 01a0 29be 6fee a3bd
00000230: c418 2dbe aa50 303e 9203 0bbd e2bf fe3b
00000240: 4c98 103d 282d f4bd 93a8 17be 63d3 41be
00000250: adc7 0fbe e29e e0bc 0d8a 80be 27d5 3dbe
00000260: 5830 d23d 538e 1cbe 253e 3abe 8ddd 53bd
00000270: 933d 86be c6f7 9cbe 0e67 c4bd 6d3b cdbd
00000280: 030a 3cbe c304 f9bd f37c 563e 0fd7 863e
00000290: 835b e83d 8339 b83c 22c9 ca3c c175 a03d
000002a0: 3e3c 47be 615e 1a3e 6648 54be 5113 0fbe
000002b0: 5c61 023e f771 bcbd d27b 1dbe 2613 333e
000002c0: bf8a 1d3e 0c38 cdbb e72d 6d3e aee9 2fbe
000002d0: 3199 f63d 2649 d33c 6523 0b3e 4493 143e
000002e0: 7a47 83be e0f0 d13d b73c c23d d58c 81be
000002f0: 8c63 83bd 84b6 123d 30cb 773e 4952 0cbe
00000300: 8af7 26be 8252 06be a3c4 8dbd e076 cabc
00000310: 1818 e8bd e52e 6fbd 288a 3a3e f361 7fbe
00000320: 9c6f 7a3d 7fe9 553e 85d3 463b 8fa0 6fbd
00000330: dfb8 473e 4dba 233d f4cd 40bc f2e0 b0bd
00000340: 71c4 e9bd 1520 143d 9c81 32be baff dabc
00000350: f91e 913d 4b31 63be edb3 d33c 4540 83bd
00000360: 3820 f53d d3a7 033e 48ed 433e 652d 43bd
00000370: b675 c23c 6346 48be d5ea 723e 8396 76bc
00000380: 1717 1fbe 3b4c 863e eafd 51bd 3b99 2d3e
00000390: 9952 91bd 54aa 4e3e 1590 40be ed07 ffbd
000003a0: 8e79 b53d 17de 00be 49e6 423e 3e39 0ebe
000003b0: 9ee6 b03c 8b05 c13d 697a bf3d 0286 533a
000003c0: b400 fcbd 4ce2 163e c27a b83d 8378 0cbd
000003d0: 46b0 153c c39f 823d d617 94bd 2445 67bd
000003e0: edf7 2d3d 98d4 46be 4f0d 7b3e ac7d 46be
000003f0: 7766 96bd 4fe5 05bd 99ee 81be 8861 743d
