TSF_Finance/checkpoints/ixic_short_20__PatchTST_custom_ftM_sl104_ll48_pl36_dm16_nh4_el3_dl1_df128_fc1_ebtimeF_dtTrue_Exp_0/checkpoint.pth (torch_old, 184730 bytes, 65 tensors)

model.backbone.W_pos f4 [42, 16]
-0.03989232 0.03173261 0.00535513 0.048464283 0.016571397 0.022657922 -0.036070168 -0.010471683
0.0062951506 0.007487831 -0.028304044 0.021856315 0.03578652 0.030486753 -0.024335332 0.032745305
-0.014908459 -0.006285514 0.0018919974 -0.018147357 0.017411582 0.03790555 -0.044049494 -0.016184293
-0.0406954 -0.01924288 0.04369689 0.034747783 -0.039074197 -0.0038064534 0.01814759 0.0092127295
0.010082885 -0.024970757 0.018394131 0.020714454 -0.047040112 0.0112041775 0.004224959 0.02081132
-0.0058577056 0.0011660429 -0.014778186 -0.024298443 -0.0073994594 0.007933159 0.039084315 0.037684787
0.01871248 -0.0073367157 0.031226914 0.041727785 -0.040044904 -0.0004721578 0.019561455 0.0027405163
0.022280298 0.0105107175 0.017569555 0.0009140493 -0.018730523 -0.0075321426 -0.018358018 0.0034399168
0.023793094 -0.036554106 0.019587029 0.011728211 -0.012678083 0.0120034935 0.011514066 -0.038148973
0.017408159 -0.033594377 -0.0062741884 -0.020620931 0.031751633 0.0005979319 -0.016137524 -0.035376754
-0.02103814 0.025279082 -0.010439437 -0.013723803 0.0025453563 0.030978251 -0.012218334 -0.0078167645
0.02881939 0.016003538 0.0011964038 0.03971798 -0.037803736 0.022370378 -0.009438588 0.004440552
0.031253923 0.0385904 -0.000253674 0.014334937 0.006807257 0.0036529254 -0.023673395 0.008336087
0.012246668 0.015985563 -0.0059226966 -0.033848736 0.034672733 0.025614128 -0.019960135 0.022880057
-0.006684703 0.003515494 -0.010924344 -0.017485866 0.040187556 -0.034289703 0.00276403 0.02791237
-0.0056327833 -0.010224783 0.023719542 -0.016148144 0.0061047804 -0.0033625206 -0.024981983 0.013655686
0.006233844 0.045815337 0.031360723 -0.01860592 0.03372041 0.0023333991 0.017591339 0.0073093725
-0.005447276 -0.034918435 -0.017856611 0.013682298 -0.032755855 0.020483008 0.009458358 0.0013105901
0.009115705 0.039140332 0.023700362 -0.02103884 -0.022802439 0.014910701 -0.023870436 0.030242354
0.027790632 -0.007243302 0.022935014 0.016555715 -0.022278864 -0.020196563 -0.012401383 -0.021039542
0.031976335 -0.022368912 -0.012515035 0.029814579 -0.040198248 -0.0098740375 -0.0036971783 -0.02642465
-0.034596596 0.026635205 -0.006639179 0.00462285 0.024072185 -0.013674346 0.0042152177 -0.04064911
0.029986652 0.014969114 0.047019843 -0.023501951 0.016400483 0.0162588 -0.0017543917 -0.041328784
0.0002953834 -0.002153507 -0.03540583 -0.049193572 -0.014179374 0.007723677 0.04822628 0.014079234
-0.028940106 -0.023822974 0.001895485 0.030105956 -0.033578124 0.05240105 -0.014023584 0.04281775
0.006173838 -0.035475075 0.025991758 0.010001179 -0.041750688 0.014348008 0.0128575 -0.015577773
0.042775795 -0.0001173077 -0.018108713 -0.018694099 0.03724531 -0.006486622 0.017523723 0.031036645
-0.036216233 -0.022184603 -0.022310536 -0.0011377616 0.011865219 -0.025244763 0.0051941094 0.03502074
-0.039429218 -0.009775176 -0.0076147215 -0.029575756 0.017392224 -0.018676419 -0.051839277 -0.007034078
-0.0065784175 0.010466757 -0.027711214 0.0027996544 0.008195804 -0.021032507 -0.009648982 -0.0016402043
0.0022214297 -0.02631305 -0.016405877 -0.0062645683 0.008460827 -0.038278673 0.011954956 0.008617012
-0.033379424 0.014672751 -0.005835829 -0.018101063 0.03471936 -0.005579562 -0.0025740738 -0.037124455
00000000: 2166 23bd 0efa 013d 167a af3b 7c82 463d
00000010: bdc0 873c 1b9d b93c 50be 13bd 6c91 2bbc
00000020: 8d47 ce3b 7b5c f53b e2dd e7bc 040c b33c
00000030: e394 123d 5bbf f93c e45a c7bc f11f 063d
00000040: 9c42 74bc b7f6 cdbb e6fc f73a c4a9 94bc
00000050: bca2 8e3c da42 1b3d 3e6d 34bd ec94 84bc
00000060: 38b0 26bd 3fa3 9dbc 83fb 323d b153 0e3d
00000070: 440c 20bd b175 79bb 41aa 943c fdf0 163c
00000080: af32 253c 798f ccbc 4aaf 963c 5cb1 a93c
00000090: 22ad 40bd ba91 373c 8671 8a3b 807c aa3c
000000a0: fff1 bfbb e8d5 983a 3420 72bc 870d c7bc
000000b0: 2a77 f2bb 15fa 013c e016 203d 5d5b 1a3d
000000c0: ea4a 993c d568 f0bb 96cf ff3c c1ea 2a3d
000000d0: 2006 24bd f28b f7b9 583f a03c 3c9a 333b
000000e0: 2c85 b63c 2535 2c3c 07ee 8f3c cf9c 6f3a
000000f0: c170 99bc 31d0 f6bb 8e63 96bc 3a70 613b
00000100: bce9 c23c c2b9 15bd fa74 a03c af27 403c
00000110: bcb7 4fbc 4daa 443c 7ea5 3c3c 1942 1cbd
00000120: 8e9b 8e3c 429a 09bd b597 cdbb 3aed a8bc
00000130: 000e 023d 88be 1c3a d732 84bc 37e7 10bd
00000140: 2d58 acbc 1416 cf3c 2c0a 2bbc cdd9 60bc
00000150: fecf 263b 1ac6 fd3c 682f 48bc e311 00bc
00000160: a416 ec3c da19 833c a6d0 9c3a 52af 223d
00000170: 17d8 1abd 1542 b73c 4fa4 1abc 0d82 913b
00000180: 1d04 003d f810 1e3d 8cff 84b9 15dd 6a3c
00000190: 690f df3b eb65 6f3b b5ee c1bc 1594 083c
000001a0: 40a6 483c 28f4 823c 2e13 c2bb f9a4 0abd
000001b0: ff04 0e3d b8d4 d13c 7083 a3bc f56e bb3c
000001c0: 5a0b dbbb 3464 663b 05fc 32bc 853e 8fbc
000001d0: b59b 243d 5c73 0cbd ba24 353b 7ca8 e43c
000001e0: 3693 b8bb d985 27bc 7c4f c23c 1d49 84bc
000001f0: 9c0a c83b bc5d 5cbb 04a7 ccbc 19bc 5f3c
00000200: 4645 cc3b dda8 3b3d 1a74 003d 716b 98bc
00000210: 6a1e 0a3d f1eb 183b b61b 903c 7683 ef3b
00000220: 107f b2bb a206 0fbd 0748 92bc b82b 603c
00000230: 012b 06bd fbcb a73c 3bf7 1a3c 1bc8 ab3a
00000240: 0a5a 153c 9d51 203d 4327 c23c a559 acbc
00000250: 2ecc babc 034c 743c ef8b c3bc d0be f73c
00000260: 2ea9 e33c 3959 edbb 36e2 bb3c da9f 873c
00000270: 2a82 b6bc 4373 a5bc 2c2f 4bbc 1e5b acbc
00000280: 9ef9 023d 023f b7bc dd0b 4dbc b43d f43c
00000290: eba6 24bd b7c6 21bc 5c4c 72bb 8278 d8bc
000002a0: 29b5 0dbd 1332 da3c 788d d9bb 477b 973b
000002b0: 0833 c53c 5d0a 60bc cf1f 8a3b ae7f 26bd
000002c0: 91a6 f53c 0441 753c e197 403d 2a87 c0bc
000002d0: 4e5a 863c 2d31 853c 9ef3 e5ba 5f48 29bd
000002e0: b0dd 9a39 da21 0dbb b405 11bd 337f 49bd
000002f0: 9b50 68bc e616 fd3b eb88 453d 96ac 663c
00000300: cd13 edbc 6628 c3bc ec71 f83a c4a0 f63c
00000310: 3789 09bd 7ca2 563d 2dc3 65bc aa61 2f3d
00000320: e84d ca3b 504e 11bd abec d43c fcdb 233c
00000330: c502 2bbd e813 6b3c 44a8 523c ea39 7fbc
00000340: ac35 2f3d 1803 f6b8 b958 94bc 5e24 99bc
00000350: 8a8e 183d bb8d d4bb e98d 8f3c 9040 fe3c
00000360: 7957 14bd 7cbc b5bc 96c4 b6bc f220 95ba
00000370: 5666 423c 1bce cebc 5933 aa3b e871 0f3d
00000380: 8880 21bd 0f28 20bc ea84 f9bb db48 f2bc
00000390: 237a 8e3c 4aff 98bc 6c55 54bd 1f7e e6bb
000003a0: c48f d7bb c37c 2b3c a102 e3bc 687a 373b
000003b0: b247 063c 5d4c acbc c416 1ebc 20fc d6ba
000003c0: 6895 113b 778e d7bc 9e65 86bc 0247 cdbb
000003d0: 489f 0a3c 19ca 1cbd b8de 433c 5e2e 0d3c
000003e0: ddb8 08bd fa65 703c 7b3a bfbb ae48 94bc
000003f0: e335 0e3d c2d4 b6bb cbb1 28bb d00f 18bd

model.backbone.W_P.weight f4 [16, 24]
-0.14584798 0.010406692 0.099848635 0.08758311 0.026355406 -0.1394104 -0.19943853 0.18043408
-0.09538714 -0.17222394 0.11447431 -0.20376828 0.12551226 -0.15428054 0.097931534 -0.056993004
0.006423912 -0.078851156 0.11971164 0.10741345 0.136282 -0.068277426 0.21294013 0.010797632
-0.049976103 -0.18590668 0.1375112 -0.1746929 -0.12849502 -0.06324895 0.079081364 0.083475746
0.1369355 0.012133001 0.10316819 0.14227547 -0.1881846 -0.1582575 -0.18377699 -0.12930977
0.11416405 0.19356342 0.086152464 -0.14165892 0.11602311 0.13144784 0.1993815 -0.16886269
-0.0030772188 -0.07932027 0.2019325 0.13409968 0.047323592 0.03531683 0.110341325 -0.13535216
0.005520573 -0.12654303 0.09779425 0.083783984 -0.15385251 0.005046295 0.10134933 0.10588095
0.19571532 -0.17687279 -0.060959253 -0.08648468 -0.18254441 -0.20793204 -0.16441523 0.07965891
-0.16437711 -0.0832655 -0.12932192 -0.14924666 0.18369202 -0.025866093 -0.07742125 0.17117563
-0.13827947 -0.10849837 -0.08894771 -0.15982862 -0.12977439 -0.0744216 -0.010268791 -0.1436949
-0.0344307 0.17802635 -0.023515394 -0.049952243 -0.22876245 -0.17445861 0.07728261 0.09634208
-0.1786515 0.057852134 0.0589415 -0.061115727 0.1799669 0.051698852 -0.13323212 0.196044
0.11728022 -0.07458045 0.03708759 0.170881 0.17807837 0.11742767 0.07466885 0.0063212854
0.049316533 -0.13350263 0.017715808 -0.18332991 0.13528787 -0.12560406 -0.119685985 0.181143
-0.06272794 -0.13119726 -0.16073817 0.09832805 -0.17319618 0.1663052 0.07643913 0.20396014
-0.06442948 -0.16174375 -0.0030285527 0.17960809 -0.07896369 -0.17142694 0.17506811 0.16164926
0.18337634 0.14912276 0.027203066 -0.14519171 -0.12011891 -0.072471514 -0.1114398 -0.13896793
0.13990538 0.13992836 -0.14125517 -0.022156874 0.18652913 0.08934757 -0.051551815 -0.06577973
0.09506532 -0.08731099 -0.16285206 -0.06582187 0.12224422 -0.08848166 -0.14832686 -0.08153882
-0.08356633 -0.15525098 -0.007946781 0.10133513 0.19075453 0.05760683 0.16590323 0.0844809
-0.04234523 -0.14303848 -0.04183269 0.112229094 0.05928323 -0.036351882 0.009551041 0.09088261
-0.008218053 0.1728407 -0.11009698 0.04547453 0.12620914 0.18260573 0.04539885 0.031187639
0.19246131 -0.13093585 -0.081809096 -0.10258877 0.21385185 0.027270185 -0.1491271 0.040272657
-0.18956727 0.10862957 0.15340985 0.08015252 -0.05129538 -0.12410572 0.1615439 -0.052808
0.062242094 -0.034089785 0.1419566 -0.060424186 0.10319171 -0.17752644 -0.19844727 0.0061475765
0.14137872 -0.16274105 0.10651248 -0.0040749493 -0.20758952 -0.15170427 -0.05736003 0.0026889758
0.09351204 0.19103089 0.19379336 -0.1666276 0.12092243 -0.047203165 -0.0015647552 0.21153909
-0.02234141 -0.068306 0.12144032 0.0062261624 0.0626648 0.024855906 0.19399391 0.16620542
0.06552196 0.018134953 0.057619844 -0.08629159 0.11226202 0.15932846 0.15188104 -0.1263473
-0.08176788 0.17832324 0.16501157 0.12168181 0.16896327 0.18343204 -0.108749844 -0.16082059
-0.0036841794 0.12285641 -0.09141801 -0.12559333 -0.20365801 0.023446497 0.025929056 -0.110729694
00000000: 2c59 15be d480 2a3c 717d cc3d c65e b33d
00000010: 4be7 d73c 9ac1 0ebe 9d39 4cbe b6c3 383e
00000020: 555a c3bd 795b 30be 8271 ea3d a2a8 50be
00000030: 4986 003e b8fb 1dbe 5490 c83d 7f71 69bd
00000040: ae7f d23b b77c a1bd 602b f53d 95fb db3d
00000050: 828d 0b3e 09d5 8bbd fa0c 5a3e 8de8 303c
00000060: beb3 4cbd 525e 3ebe bccf 0c3e b2e2 32be
00000070: 3394 03be aa88 81bd 69f5 a13d 55f5 aa3d
00000080: d238 0c3e 7fc9 463c d849 d33d a9b0 113e
00000090: 77b3 40be 410e 22be 0930 3cbe c869 04be
000000a0: d7ce e93d 7d35 463e b470 b03d 090f 11be
000000b0: 869d ed3d 439a 063e aa2a 4c3e 57ea 2cbe
000000c0: 2aab 49bb aa72 a2bd 65c7 4e3e 6d51 093e
000000d0: 62d6 413d 61a8 103d a2fa e13d c299 0abe
000000e0: ece5 b43b 7f94 01be 5a48 c83d f096 ab3d
000000f0: 838b 1dbe 645b a53b 3d90 cf3d 1dd8 d83d
00000100: 9969 483e 241e 35be 69b0 79bd e11e b1bd
00000110: ecec 3abe 23ec 54be 775c 28be 3624 a33d
00000120: 7952 28be 1a87 aabd f76c 04be 1ed4 18be
00000130: c319 3c3e 21e5 d3bc 088f 9ebd aa48 2f3e
00000140: 2299 0dbe 6534 debd 382a b6bd 1daa 23be
00000150: 94e3 04be 5a6a 98bd 6e3e 28bc c224 13be
00000160: 3507 0dbd 8a4c 363e 5ba3 c0bc b99a 4cbd
00000170: b440 6abe 47a5 32be 5846 9e3d ff4e c53d
00000180: 6bf0 36be 5cf6 6c3d a46c 713d 7c54 7abd
00000190: 3e49 383e 2dc2 533d 006e 08be c2bf 483e
000001a0: 9d30 f03d a3bd 98bd 28e9 173d 6efb 2e3e
000001b0: 2d5a 363e eb7d f03d fbeb 983d c922 cf3b
000001c0: 2200 4a3d eab4 08be be20 913c d6ba 3bbe
000001d0: e788 0a3e 5a9e 00be ed1d f5bd 8d7d 393e
000001e0: 8277 80bd 9358 06be 8c98 24be 3760 c93d
000001f0: 575a 31be e94b 2a3e 1e8c 9c3d edda 503e
00000200: 9af3 83bd 27a0 25be af7a 46bb 2feb 373e
00000210: b7b7 a1bd 8b8a 2fbe 0e45 333e 6287 253e
00000220: 02c7 3b3e a3b3 183e f7d8 de3c 23ad 14be
00000230: e700 f6bd f26b 94bd 8d3a e4bd 9c4d 0ebe
00000240: 5b43 0f3e 6149 0f3e 32a5 10be 5582 b5bc
00000250: 7e01 3f3e dcfb b63d ff27 53bd 86b7 86bd
00000260: 9bb1 c23d 1bd0 b2bd b1c2 26be 9ecd 86bd
00000270: 2d5b fa3d df35 b5bd ffe2 17be d3fd a6bd
00000280: d324 abbd 1dfa 1ebe 3733 02bc cb88 cf3d
00000290: 2855 433e 24f5 6b3d 89e2 293e 5204 ad3d
000002a0: 3172 2dbd ae78 12be c158 2bbd 5ed8 e53d
000002b0: f9d2 723d b6e5 14bd f87b 1c3c a920 ba3d
000002c0: 03a5 06bc 27fd 303e 877a e1bd 8043 3a3d
000002d0: f83c 013e fffc 3a3e 25f4 393d 387d ff3c
000002e0: 9414 453e 0c14 06be 878b a7bd 101a d2bd
000002f0: fbfb 5a3e b965 df3c c6b4 18be f1f4 243d
00000300: ec1d 42be 2e79 de3d 7917 1d3e 0127 a43d
00000310: 1b1b 52bd 242b febd c46b 253e 344d 58bd
00000320: 91f1 7e3d bba1 0bbd 125d 113e 5a7f 77bd
00000330: 2d56 d33d 7ec9 35be c335 4bbe 9c71 c93b
00000340: 95c5 103e 97a5 26be 3723 da3d 2787 85bb
00000350: 5992 54be 5d58 1bbe 5af2 6abd 8739 303b
00000360: 3e83 bf3d 9a9d 433e c471 463e 6da0 2abe
00000370: 2ea6 f73d 1b58 41bd 7918 cdba b49d 583e
00000380: 5505 b7bc 04e4 8bbd b4b5 f83d d604 cc3b
00000390: 6756 803d 9d9e cb3c 57a6 463e c131 2a3e
000003a0: 6130 863d c18f 943c c902 6c3d a5b9 b0bd
000003b0: a1e9 e53d 0027 233e b486 1b3e 3061 01be
000003c0: eb75 a7bd 5e9a 363e cbf8 283e 5034 f93d
000003d0: b504 2d3e 9cd5 3b3e 3db8 debd 27ae 24be
000003e0: 4672 71bb 249c fb3d 5e39 bbbd 8a9b 00be
000003f0: ba8b 50be de12 c03c 2c69 d43c 40c6 e2bd

model.backbone.W_P.bias f4 [16]
-0.067966886 0.021478489 0.021459749 -0.078253835 0.14776282 -0.07208331 0.044360414 -0.15002817
-0.06762451 0.18150273 -0.010933199 0.11785928 0.039530054 0.15995058 -0.14403607 0.06494504
00000000: 3932 8bbd a8f3 af3c 5bcc af3c 8c43 a0bd
00000010: 234f 173e 6aa0 93bd 44b3 353d fca0 19be
00000020: b87e 8abd dadb 393e 2921 33bc 3560 f13d
00000030: 44ea 213d 16ca 233e 317e 13be e801 853d

model.backbone.encoder.layers.0.self_attn.W_Q.weight f4 [16, 16]
-0.0020629033 0.03093969 0.010720149 -0.20487708 0.01362937 0.03351956 0.22154418 -0.21885437
0.21368113 0.1938657 -0.19529283 -0.07833997 0.068023816 0.10058028 -0.074331574 -0.19416794
-0.13878874 -0.121254615 0.10536665 -0.05394274 0.13167177 -0.06620032 0.08056227 0.111836456
-0.19006024 -0.07967864 -0.24936283 -0.069115266 -0.16071132 -0.22484025 0.18878499 -0.07889131
0.005650348 -0.13762185 0.017877443 -0.2192822 -0.06143118 -0.037340283 0.037025016 -0.010691512
0.15182129 -0.0069931084 -0.10099368 0.22813965 -0.061852228 0.24267091 -0.1834444 -0.15701297
-0.20355041 -0.13470654 0.038617693 0.2104439 -0.20925666 0.10441265 0.14272417 0.21663848
0.07721979 -0.12816955 -0.18815012 0.012101836 0.114687696 0.022129832 0.13967386 0.20317046
-0.029949876 -0.18088351 -0.061353035 -0.09869983 0.15469205 0.08776129 0.005066702 0.1415996
-0.2573527 -0.14954436 -0.00074375817 0.07961708 0.2219472 0.020189274 -0.14793782 -0.037395284
-0.1738328 -0.109148316 -0.05484565 0.17247953 0.22715318 0.0817462 -0.21121947 -0.25780046
-0.08166551 -0.227126 -0.15248469 -0.24577624 0.024594476 0.030060736 -0.0033941003 0.0015670182
0.029861674 0.06751757 0.033631045 -0.049131893 -0.019975305 -0.20061202 -0.20237157 -0.15166788
0.19587448 0.18621862 -0.18225124 0.09099532 -0.038064677 0.06849894 -0.2048649 -0.24912477
-0.1007866 0.09639832 0.064724125 -0.01941271 -0.09469965 0.0075474954 -0.13423958 0.082513645
0.056797486 -0.11268308 0.07953954 -0.07273 0.061235964 0.07758337 0.2451458 0.13331668
-0.2289315 0.031461507 -0.001397524 -0.13892892 -0.2405634 0.24162267 -0.23579489 0.16950534
0.14976212 -0.13784583 -0.08295397 0.10284653 0.109577194 -0.042726975 -0.0568151 -0.09020136
0.005306646 -0.20835468 -0.0925324 -0.15128954 -0.17843634 0.06608975 -0.14764462 -0.074887715
0.062297583 0.14107291 -0.03921076 -0.22389229 0.0074774423 -0.17217669 -0.1921257 0.11476885
0.21504898 0.15138592 -0.23414299 -0.13714485 -0.14974003 0.17628534 0.2306493 -0.17111473
-0.14246684 0.24548745 0.1370796 -0.0038688476 0.20827538 0.16454408 -0.20422852 -0.16929035
0.06569921 0.21316347 0.022687782 -0.0052713766 0.15614659 -0.17390329 -0.22284234 0.10189707
-0.10521775 -0.22536473 -0.18925066 -0.08667377 -0.01463108 0.004569696 -0.19507733 0.21843687
0.14044768 0.18647163 -0.17999753 0.20429227 0.06713814 -0.17318372 0.04233228 0.19387276
-0.11710038 0.18258783 -0.17051736 -0.21466656 0.21348634 -0.05004153 -0.2046918 0.13276862
0.16200522 -0.059343725 0.21879448 -0.20788726 0.16370375 0.018197263 0.21749704 -0.14152607
-0.050197773 -0.24707218 -0.2621941 0.03384428 0.13427632 0.13303299 -0.1717162 -0.005940943
-0.11858237 0.016839072 -0.12315195 -0.046355642 0.08967263 0.16560675 -0.0271472 0.08455099
0.18664593 -0.22055916 -0.08339669 0.020003261 -0.13341117 -0.18364611 0.028827824 0.035143375
0.15420388 -0.20250025 -0.057692688 0.09307269 0.12467638 -0.21572801 0.08495835 0.21328133
0.07769631 0.02533604 0.120149575 -0.11414354 0.0803091 0.0994409 0.039137885 -0.115520574
00000000: c631 07bb 3c75 fd3c 90a3 2f3c 4ccb 51be
00000010: b94d 5f3c ce4b 093d 7adc 623e 5c1b 60be
00000020: 3acf 5a3e bb84 463e d8fa 47be b570 a0bd
00000030: 1250 8b3d 09fd cd3d 273b 98bd f6d3 46be
00000040: a31e 0ebe 5754 f8bd 78ca d73d 10f3 5cbd
00000050: f7d4 063e 0994 87bd d5fd a43d 830a e53d
00000060: 279f 42be 8e2e a3bd f858 7fbe 4e8c 8dbd
00000070: 8291 24be 863c 66be da50 413e c491 a1bd
00000080: 8e26 b93b beec 0cbe b773 923c 838b 60be
00000090: 439f 7bbd 20f2 18bd 8ba7 173d 742b 2fbc
000000a0: 0a77 1b3e 7226 e5bb c6d5 cebd 719d 693e
000000b0: c358 7dbd b97e 783e d9d8 3bbe 02c8 20be
000000c0: 856f 50be 83f0 09be 962d 1e3d 9b7e 573e
000000d0: 6147 56be 4dd6 d53d 4926 123e 7ad6 5d3e
000000e0: 6925 9e3d e13e 03be 6daa 40be c746 463c
000000f0: 62e1 ea3d 9f49 b53c aa06 0f3e eb0b 503e
00000100: 7159 f5bc 8739 39be 524d 7bbd 2323 cabd
00000110: 9867 1e3e 31bc b33d 9406 a63b 7cff 103e
00000120: bcc3 83be 2822 19be c4f8 42ba 480e a33d
00000130: 2046 633e fa63 a53c 037d 17be cc2b 19bd
00000140: 3a01 32be 2789 dfbd d5a5 60bd 799e 303e
00000150: d89a 683e 8d6a a73d eb49 58be 6cfe 83be
00000160: 3f40 a7bd b893 68be f224 1cbe c4ac 7bbe
00000170: 5b7a c93c ef41 f63c 8e6f 5ebb 6864 cd3a
00000180: 78a0 f43c a746 8a3d b5c0 093d 863e 49bd
00000190: 40a3 a3bc 3d6d 4dbe 7e3a 4fbe d34e 1bbe
000001a0: 5293 483e 18b0 3e3e 12a0 3abe c15b ba3d
000001b0: b5e9 1bbd 2c49 8c3d 1bc8 51be 901a 7fbe
000001c0: 3469 cebd 7b6c c53d 158e 843d 6707 9fbc
000001d0: e4f1 c1bd fb50 f73b 1a76 09be eafc a83d
000001e0: 7ba4 683d 63c6 e6bd a0e5 a23d 77f3 94bd
000001f0: 90d2 7a3d 08e4 9e3d 8007 7b3e 2b84 083e
00000200: 056d 6abe c8dd 003d 202d b7ba 6243 0ebe
00000210: 4056 76be ef6b 773e 3774 71be cf92 2d3e
00000220: 3e5b 193e 7527 0dbe c5e3 a9bd 34a1 d23d
00000230: 026a e03d 7b02 2fbd f3b6 68bd 7ebb b8bd
00000240: 60e3 ad3b ee5a 55be a081 bdbd a5eb 1abe
00000250: 04b8 36be 105a 873d 2730 17be bb5e 99bd
00000260: c02b 7f3d 6b75 103e 769b 20bd 0544 65be
00000270: 5505 f53b 164f 30be 99bc 44be ee0b eb3d
00000280: cd35 5c3e e904 1b3e 2ec3 6fbe b36f 0cbe
00000290: 7355 19be 2584 343e 552f 6c3e b338 2fbe
000002a0: d4e2 11be 1061 7b3e 985e 0c3e 7e8c 7dbb
000002b0: 2446 553e 3e7e 283e 4821 51be 735a 2dbe
000002c0: 4f8d 863d 8647 5a3e badb b93c 83bb acbb
000002d0: e4e4 1f3e b413 32be c830 64be 69af d03d
000002e0: 677c d7bd 03c6 66be edca 41be 0482 b1bd
000002f0: 33b7 6fbc 63bd 953b 5ac2 47be eaad 5f3e
00000300: 84d1 0f3e 6bf2 3e3e 4651 38be fe31 513e
00000310: b97f 893d 1357 31be 9d64 2d3d 9586 463e
00000320: 53d2 efbd 4ef8 3a3e 1a9c 2ebe 8dd1 5bbe
00000330: 2a9c 5a3e 59f8 4cbd ba9a 51be 7ff4 073e
00000340: b2e4 253e 6812 73bd a90b 603e 66e0 54be
00000350: f5a1 273e 6d12 953c 8bb7 5e3e 36ec 10be
00000360: 2e9c 4dbd 7d00 7dbe 4e3e 86be 4da0 0a3d
00000370: bb7f 093e cd39 083e 5fd6 2fbe 3eac c2bb
00000380: 50db f2bd 18f2 893c 1737 fcbd 6adf 3dbd
00000390: 49a6 b73d d194 293e ce63 debc 1229 ad3d
000003a0: 1c20 3f3e 43da 61be e2cb aabd e1dd a33c
000003b0: f09c 08be ba0d 3cbe 5428 ec3c 80f2 0f3d
000003c0: 9fe7 1d3e 3a5c 4fbe 2b4f 6cbd e59c be3d
000003d0: 5456 ff3d cee7 5cbe a5fe ad3d 6c66 5a3e
000003e0: 3e1f 9f3d 878d cf3c fb10 f63d 17c4 e9bd
000003f0: 1979 a43d aca7 cb3d 0c4f 203d 0d96 ecbd

model.backbone.encoder.layers.0.self_attn.W_Q.bias f4 [16]
0.20218056 0.15851241 -0.21268393 -0.006915832 -0.1932085 -0.04798214 0.06188629 -0.07679994
0.2012335 0.20437637 -0.05492798 0.22008164 -0.085109234 -0.013182168 -0.11549728 0.10561773
00000000: 6c08 4f3e 1451 223e d1c9 59be 349e e2bb
00000010: 73d8 45be ec88 44bd 7a7c 7d3d 4949 9dbd
00000020: 2810 4e3e 0a48 513e 29fc 60bd 155d 613e
00000030: c04d aebd 05fa 57bc d789 ecbd 1c4e d83d

model.backbone.encoder.layers.0.self_attn.W_K.weight f4 [16, 16]
-0.26775402 -0.19053607 -0.12603457 0.14492609 0.00819804 -0.19550656 0.13147993 0.19895181
0.2034574 0.00965056 0.01340549 -0.21650109 0.050887283 0.24933903 -0.07441357 -0.25934067
-0.11119242 0.085713714 -0.16652188 0.17171817 0.12725806 0.10091122 -0.07578687 -0.07249328
-0.19267175 0.059530854 0.1683032 0.19593611 0.1614027 -0.24771611 0.14053716 0.1246387
0.18586916 -0.15540877 0.23988003 0.002770977 0.041201584 -0.14219213 0.01788774 0.099287435
-0.01754003 -0.17709789 -0.048971325 0.02477987 -0.04197893 0.0427496 -0.067524016 0.21732199
0.055557944 -0.16467804 -0.14061734 -0.16417478 0.21114142 -0.2089149 0.21152337 0.13933729
0.048514806 0.07991066 -0.24226454 0.120928034 -0.17727736 0.17727259 -0.24136668 0.21000443
0.26100364 0.13249452 -0.2377179 0.25540593 -0.14579615 0.021157945 0.21868889 -0.06542321
0.087782875 0.029796204 0.17790279 -0.14291406 0.07640068 0.16673848 -0.051024757 0.16079359
-0.025454704 0.16664355 -0.10509286 0.13360527 0.2430358 0.19004643 0.16183504 0.23816998
0.0059480523 0.25821954 0.22702463 -0.05686835 0.19020256 -0.07255453 -0.21499331 -0.21659671
-0.21519111 0.091014296 0.22829075 0.0692694 0.1651591 -0.1968122 -0.0077143516 0.14674707
-0.10859187 0.08640246 -0.12685475 0.19599317 -0.17903979 0.1314458 -0.039051868 0.104029246
0.20868672 -0.10134503 -0.2609755 -0.0475465 -0.23961212 0.14569403 0.0670629 0.00614452
-0.058899026 -0.012053556 0.21425322 -0.03908484 0.19960932 -0.20769285 -0.26138166 -0.15279171
0.16145203 -0.068779774 -0.06960492 0.056376524 0.22059847 -0.1221467 -0.13284831 0.055250905
0.16259448 0.027948214 -0.21153213 -0.20775394 -0.018957617 0.104037955 0.037006576 -0.21802928
0.09343827 -0.00724478 0.105569415 -0.15939246 -0.1284224 -0.02563366 -0.016579412 0.054986347
-0.1023261 0.04999865 0.1614246 0.023965811 -0.026019508 0.19249207 0.19136773 0.21102758
-0.100935385 0.16587217 0.080328 0.11948859 0.0595735 -0.05657089 0.02974557 0.14869614
-0.18824424 -0.24242577 -0.15292104 0.0076543875 -0.08605972 0.09242129 0.12137769 0.14661413
0.038661715 0.018152557 -0.120171905 0.033677895 0.1297431 0.120628454 -0.11574367 0.0765188
-0.20159218 0.19110145 0.13899398 0.0037550211 -0.15227829 0.2056241 -0.23403843 0.20630495
-0.06318688 0.11667781 -0.16969153 -0.016743476 0.049641922 0.21386199 -0.124168865 -0.19661506
-0.065268986 -0.09567267 -0.15123618 -0.07734697 -0.14671813 0.15375228 -0.07122167 0.08452066
0.10390094 0.061233677 -0.114990935 -0.09852264 0.0010620573 -0.015358862 0.22978082 0.2208525
-0.20975763 0.007294824 -0.11739984 0.14477704 -0.18510702 -0.04410933 0.17167085 -0.16008173
0.17950232 -0.15978439 0.23376514 0.083466485 -0.04939269 0.013286207 0.12095127 -0.1453501
0.21326926 0.15011235 -0.20227088 0.09058286 0.23267734 -0.12569924 0.25139797 -0.13695633
-0.22590995 -0.18597074 0.093981795 0.1933316 0.1801637 -0.028939934 0.14997782 0.10228714
-0.18248567 0.07292723 -0.041478463 0.13408507 0.22580412 -0.004703547 0.09780581 -0.21949463
00000000: 0e17 89be e31b 43be 350f 01be 8167 143e
00000010: 1251 063c df32 48be ada2 063e 06ba 4b3e
00000020: 2357 503e 621d 1e3c b3a2 5b3c 76b2 5dbe
00000030: 2f6f 503d bb52 7f3e 2466 98bd 4dc8 84be
00000040: dab8 e3bd ac8a af3d b684 2abe e3d6 2f3e
00000050: f04f 023e 8baa ce3d 2636 9bbd 5b77 94bd
00000060: be4b 45be a0d6 733d ad57 2c3e 7aa3 483e
00000070: c046 253e 4ba9 7dbe f9e8 0f3e 9342 ff3d
00000080: 7c54 3e3e 7a23 1fbe 1ca3 753e 4899 353b
00000090: fec2 283d d09a 11be 4f89 923c 3657 cb3d
000000a0: 1cb0 8fbc 2659 35be 2896 48bd 27ff ca3c
000000b0: 19f2 2bbd 341a 2f3d 084a 8abd a889 5e3e
000000c0: ba90 633d 5ca1 28be fefd 0fbe 6f1d 28be
000000d0: 7535 583e caed 55be 9599 583e 6fae 0e3e
000000e0: 76b7 463d 33a8 a33d 3214 78be 1ea9 f73d
000000f0: 3288 35be f286 353e d428 77be 670b 573e
00000100: 45a2 853e a5ac 073e 526c 73be 91c4 823e
00000110: 964b 15be 6d53 ad3c fbef 5f3e 9bfc 85bd
00000120: 82c7 b33d 2b17 f43c 262c 363e 1058 12be
00000130: f677 9c3d 7ebd 2a3e 56ff 50bd 13a7 243e
00000140: 6286 d0bc 9ba4 2a3e ed3a d7bd d2cf 083e
00000150: 60de 783e 889b 423e 16b8 253e d5e2 733e
00000160: e1e7 c23b 5a35 843e 2579 683e c9ee 68bd
00000170: 76c4 423e 7897 94bd 3527 5cbe 87cb 5dbe
00000180: 0f5b 5cbe b465 ba3d 0dc5 693e 1ddd 8d3d
00000190: 781f 293e 2389 49be acc8 fcbb dd44 163e
000001a0: 6a65 debd c6f3 b03d 36e6 01be 6fb2 483e
000001b0: 3556 37be ba99 063e daf4 1fbd 490d d53d
000001c0: f9b1 553e fc8d cfbd 959e 85be 1ec0 42bd
000001d0: e15c 75be d130 153e 4658 893d f857 c93b
000001e0: 1b40 71bd 477c 45bc 3265 5b3e 6d17 20bd
000001f0: 6366 4c3e 6fad 54be d1d3 85be 6e75 1cbe
00000200: ae53 253e 69dc 8cbd 068d 8ebd 12eb 663d
00000210: 91e4 613e 0d28 fabd 6309 08be c64e 623d
00000220: 2b7f 263e a7f3 e43c e19b 58be 73bd 54be
00000230: 014d 9bbc da11 d53d 3594 173d 1143 5fbe
00000240: 905c bf3d 9f65 edbb c734 d83d c737 23be
00000250: 2981 03be aefd d1bc 8cd1 87bc 5d39 613d
00000260: 5990 d1bd 62cb 4c3d 7e4c 253e f353 c43c
00000270: dd26 d5bc a41c 453e e7f5 433e 9d17 583e
00000280: 36b7 cebd 65da 293e 0283 a43d 6fb6 f43d
00000290: 5803 743d e1b6 67bd fbac f33c cd43 183e
000002a0: 19c3 40be 763e 78be 5597 1cbe a8d1 fa3b
000002b0: 1440 b0bd 6047 bd3d de94 f83d 0422 163e
000002c0: bf5b 1e3d acb4 943c b01c f6bd d5f1 093d
000002d0: 60db 043e 0d0c f73d 040b edbd e3b5 9c3d
000002e0: 2e6e 4ebe 19b0 433e 7054 0e3e cd16 763b
000002f0: d7ee 1bbe 208f 523e c5a7 6fbe 9b41 533e
00000300: 1f68 81bd c7f4 ee3d 9ec3 2dbe 9d29 89bc
00000310: 5455 4b3d a3fe 5a3e 3f4c febd 7555 49be
00000320: bfab 85bd 08f0 c3bd a8dd 1abe 1768 9ebd
00000330: 473d 16be 3d71 1d3e abdc 91bd 2b19 ad3d
00000340: 04ca d43d 2ad0 7a3d 5e80 ebbd 3dc6 c9bd
00000350: bb34 8b3a bca3 7bbc aa4b 6b3e 2827 623e
00000360: b4ca 56be 6b09 ef3b 546f f0bd 6f40 143e
00000370: b28c 3dbe fcab 34bd 7cca 2f3e 77ec 23be
00000380: 75cf 373e 859e 23be 2160 6f3e 7af0 aa3d
00000390: fd4f 4abd 64ae 593c 4db5 f73d a8d6 14be
000003a0: 4263 5a3e 0db7 193e 1920 4fbe 8283 b93d
000003b0: f842 6e3e 4db7 00be 3cb7 803e 483e 0cbe
000003c0: f054 67be 1d6f 3ebe 8779 c03d b8f8 453e
000003d0: d57c 383e 7113 edbc c993 193e ec7b d13d
000003e0: 86dd 3abe df5a 953d 52e5 29bd 994d 093e
000003f0: 3239 673e 3620 9abb 6a4e c83d 33c3 60be

model.backbone.encoder.layers.0.self_attn.W_K.bias f4 [16]
-0.04833381 -0.11638003 -0.00217351 -0.17801134 0.064530715 0.17173892 -0.2079379 0.2229648
0.1025106 -0.11689479 0.0127639435 -0.16002433 0.24071325 -0.1858962 0.23290148 -0.10973201
00000000: acf9 45bd a758 eebd 7271 0ebb 9b48 36be
00000010: ae28 843d 54dc 2f3e aced 54be e250 643e
00000020: 14f1 d13d 8966 efbd dc1f 513c 6bdd 23be
00000030: 897d 763e 935b 3ebe ba7d 6e3e 2dbb e0bd

model.backbone.encoder.layers.0.self_attn.W_V.weight f4 [16, 16]
0.08422867 -0.1379479 0.024608558 0.10889149 -0.013257573 0.08315791 -0.098068476 -0.13854948
-0.21676025 -0.2061608 -0.081657715 0.02860401 -0.026975326 -0.084545694 -0.19115621 -0.028994583
0.19027099 -0.07929141 -0.18366726 0.07268705 -0.16886055 -0.068078145 0.05501802 0.011957021
0.2076784 0.129944 -0.22175159 0.052051604 0.0033803014 0.05739925 0.15565625 0.15552115
-0.14820902 0.141097 0.100025274 -0.01099052 0.14226511 0.18755147 -0.18419404 -0.13865438
0.14211462 0.19976063 -0.09121632 -0.16466695 -0.1991367 -0.06405815 -0.025410734 -0.13024575
-0.045218475 -0.054232195 0.033998773 0.15249547 0.16496184 0.09850184 -0.20712794 0.102289185
0.019729568 0.1922967 -0.017342418 0.04174968 -0.20778506 -0.1191261 -0.14152487 -0.15818676
0.022013772 -0.0902806 0.20527911 0.020390436 -0.21360245 0.024348186 -0.18358628 -0.16548912
-0.03924419 -0.036563903 0.008307452 -0.2104497 -0.15507086 0.044831097 -0.15849422 -0.1127195
-0.17097202 -0.23441897 -0.035913017 0.14966436 -0.10982111 -0.07418501 -0.08512918 -0.023051322
-0.2399128 -0.22822346 -0.17912687 -0.0046866094 -0.17119917 0.061967872 -0.05175511 0.19409445
0.08218872 0.038048673 -0.06532076 -0.23998035 -0.18188925 -0.19658744 0.13967487 -0.12864397
0.07962597 0.19261912 0.22476102 0.057050925 0.17542757 -0.1937986 -0.08549805 -0.18493623
0.1695549 -0.0141470805 0.18067762 0.096139364 0.12013262 -0.2663039 0.10965497 0.13979699
-0.2617683 -0.1755324 -0.09532245 0.0046244464 0.16298243 -0.17049539 -0.23499072 -0.11602259
-0.097408734 -0.20399544 -0.048936475 0.07179717 0.19554293 -0.12555608 -0.039219104 -0.12256804
-0.16223726 0.24689901 -0.070701174 -0.2385349 0.128482 -0.053530183 -0.13539773 -0.10943508
-0.21876056 -0.1716348 -0.23528625 0.11172163 0.15710363 -0.15341403 0.06801857 0.23570073
-0.118644565 -0.21919192 -0.22495951 -0.072246425 0.23597582 -0.047708057 0.23600951 0.21013212
0.081408925 0.04475147 -0.003154423 0.07676991 -0.1877174 -0.1930372 0.02220802 -0.114201516
-0.16542633 -0.07596286 0.15563543 0.1681055 0.11838397 0.038512554 -0.13521981 0.24825224
0.16282111 -0.034272294 -0.017199203 0.014601592 -0.043476705 0.19509213 0.16078559 0.2494677
-0.076653905 0.024279892 0.06281022 -0.13275422 0.20718804 -0.12941289 -0.060319748 -0.06943608
-0.025863105 -0.030333 -0.09442633 0.16812283 0.0640648 0.13803078 0.104572445 -0.1902259
-0.081780106 0.051902268 -0.18275666 -0.15821078 0.21288258 0.17634664 -0.092925124 0.1497281
-0.1813489 0.028337954 0.15566558 0.10297975 -0.03402338 0.21710148 -0.13797928 -0.23790985
0.26160374 0.17545319 0.24611808 0.10586985 0.10549777 0.09646147 -0.095244445 -0.17174964
-0.03746319 -0.21017209 -0.09514112 0.07487698 -0.07511895 -0.14696532 -0.07564787 -0.08929268
0.19177383 -0.1488919 0.008329017 0.018184807 -0.07111979 0.043070905 0.24930269 -0.1712401
-0.16746402 -0.23264474 0.012245898 -0.20898949 0.19245084 0.115015835 -0.13802648 0.13405614
-0.20202276 0.12194344 0.20498171 -0.19116741 0.17352585 -0.17196107 0.009729264 0.23432128
00000000: 1580 ac3d 3742 0dbe e397 c93c 8002 df3d
00000010: 4b36 59bc b24e aa3d 20d8 c8bd eadf 0dbe
00000020: 66f6 5dbe d11b 53be 293c a7bd f552 ea3c
00000030: 5cfb dcbc 4b26 adbd 74be 43be 0c86 edbc
00000040: 66d6 423e 8963 a2bd 4513 3cbe f3dc 943d
00000050: c8e9 2cbe 8e6c 8bbd 935a 613d 62e7 433c
00000060: a6a9 543e 0a10 053e d912 63be 1034 553d
00000070: 0c88 5d3b 7a1b 6b3d 5a64 1f3e f040 1f3e
00000080: 1bc4 17be bb7b 103e 0dda cc3d 9511 34bc
00000090: f2ad 113e 7e0d 403e 5d9d 3cbe 6afb 0dbe
000000a0: 7f86 113e 0d8e 4c3e 9fcf babd 749e 28be
000000b0: 7eea 4bbe eb30 83bd 2c2a d0bc 245f 05be
000000c0: 0237 39bd 9422 5ebd 4c42 0b3d c627 1c3e
000000d0: c2eb 283e 55bb c93d 5919 54be fe7c d13d
000000e0: e79f a13c 6de9 443e b011 8ebc b601 2b3d
000000f0: 9bc5 54be 62f8 f3bd e5eb 10be b6fb 21be
00000100: 3a56 b43c 09e5 b8bd b034 523e d809 a73c
00000110: 9aba 5abe d975 c73c 0bfe 3bbe fb75 29be
00000120: 84be 20bd 08c4 15bd fb1b 083c 2080 57be
00000130: e5ca 1ebe d0a0 373d 4f4c 22be 7bd9 e6bd
00000140: 4a13 2fbe 870b 70be 8719 13bd 9d41 193e
00000150: e4e9 e0bd 4fee 97bd 3558 aebd 20d6 bcbc
00000160: b3ab 75be 69b3 69be 096d 37be 2192 99bb
00000170: d64e 2fbe 06d2 7d3d 2bfd 53bd b2c0 463e
00000180: 8f52 a83d edd8 1b3d e4c6 85bd 69bd 75be
00000190: 2d41 3abe 384e 49be ee06 0f3e 3fbb 03be
000001a0: f112 a33d f23d 453e c127 663e 3bae 693d
000001b0: 49a3 333e 2473 46be 9a19 afbd ec5f 3dbe
000001c0: cd9f 2d3e 28c9 67bc 8e03 393e b7e4 c43d
000001d0: 1708 f63d fc58 88be c992 e03d f126 0f3e
000001e0: 7f06 86be c4be 33be 6b38 c3bd ab88 973b
000001f0: dee4 263e 5896 2ebe 68a1 70be 409d edbd
00000200: 3b7e c7bd 2ee4 50be 9d71 48bd 650a 933d
00000210: 683c 483e c691 00be 36a4 20bd f404 fbbd
00000220: 8621 26be 18d3 7c3e c7cb 90bd 7e42 74be
00000230: c990 033e 7742 5bbd b4a5 0abe 801f e0bd
00000240: c502 60be 08c1 2fbe e1ee 70be 4fce e43d
00000250: c6df 203e 9118 1dbe 524d 8b3d 885b 713e
00000260: ecfb f2bd d973 60be c95b 66be eff5 93bd
00000270: a5a3 713e 8669 43bd 7aac 713e e02c 573e
00000280: b9b9 a63d 514d 373d 70ba 4ebb 8b39 9d3d
00000290: fd38 40be 8bab 45be 98ed b53c 7ce2 e9bd
000002a0: 8565 29be 6a92 9bbd e55e 1f3e d923 2c3e
000002b0: 4b73 f23d 57bf 1d3d 1077 0abe d635 7e3e
000002c0: 94ba 263e 1b61 0cbd 58e5 8cbc 843b 6f3c
000002d0: a114 32bd 3bc6 473e faa4 243e 7674 7f3e
000002e0: b9fc 9cbd a0e6 c63c a5a2 803d b9f0 07be
000002f0: 1a29 543e d084 04be d711 77bd 8134 8ebd
00000300: ddde d3bc e97c f8bc 9762 c1bd 6428 2c3e
00000310: 6834 833d f157 0d3e 142a d63d 94ca 42be
00000320: 547c a7bd 7997 543d 9024 3bbe 0202 22be
00000330: e4fd 593e 3794 343e 874f bebd 5352 193e
00000340: 87b3 39be ff24 e83c cc66 1f3e 0ce7 d23d
00000350: 1a5c 0bbd da4f 5e3e 714a 0dbe a49e 73be
00000360: edf0 853e 00aa 333e 6106 7c3e 4bd2 d83d
00000370: 370f d83d 978d c53d 850f c3bd 23df 2fbe
00000380: 0073 19bd 5a37 57be 59d9 c2bd 1a59 993d
00000390: f7d7 99bd 147e 16be 45ed 9abd 15df b6bd
000003a0: 5c60 443e 1e77 18be 6e76 083c 4ef8 943c
000003b0: 41a7 91bd 1e6b 303d 3449 7f3e 9159 2fbe
000003c0: b07b 2bbe 6c3a 6ebe 05a3 483c 5701 56be
000003d0: d511 453e 6c8d eb3d d056 0dbe 0346 093e
000003e0: 0edf 4ebe 7bbd f93d bae6 513e 64c1 43be
000003f0: c3b0 313e 9016 30be 7e67 1f3c ebf1 6f3e

model.backbone.encoder.layers.0.self_attn.W_V.bias f4 [16]
-0.1992064 0.20000917 -0.048702843 -0.1941693 0.10012294 0.20217301 0.12210827 0.22230425
-0.10643237 0.14383297 -0.19100162 -0.16952007 0.015431377 0.088056274 0.15348609 0.1416682
00000000: c3fc 4bbe 34cf 4c3e a27c 47bd 51d4 46be
00000010: 420d cd3d 7106 4f3e e713 fa3d baa3 633e
00000020: 37f9 d9bd f348 133e ee95 43be ab96 2dbe
00000030: e3d3 7c3c d956 b43d 752b 1d3e 7811 113e

model.backbone.encoder.layers.0.self_attn.to_out.0.weight f4 [16, 16]
-0.1637618 0.040829703 0.023209767 -0.15087721 -0.1656428 0.03503418 0.11584734 0.060379364
0.1562813 0.07939019 -0.1694181 -0.17590423 0.2112581 0.014683213 0.20675415 -0.19797294
0.19625297 -0.12811424 -0.019033069 0.21522345 0.07821487 -0.06532824 0.061170198 -0.13005565
-0.09624874 -0.16345686 0.124205634 -0.1599762 -0.06510451 0.22659034 0.082587816 -0.19286926
-0.12778132 -0.23468748 0.1857917 -0.23454928 0.009771593 -0.20826806 -0.033689506 0.105885975
0.09265937 0.16393016 0.1533607 -0.21907167 -0.15220354 0.057384394 -0.12899642 -0.025399646
-0.15860066 0.08732237 0.20109306 -0.2489368 0.092569984 0.06767923 -0.16044764 -0.16077925
-0.16196539 -0.07827092 -0.1138964 -0.21090211 -0.009491112 -0.008482719 0.11757672 0.17856161
0.16198899 0.09853751 -0.2198507 -0.18550594 -0.10889622 0.14639299 -0.22019026 0.22459748
-0.08132876 -0.1222173 0.18050286 0.13313629 -0.10784656 -0.115138374 -0.11636249 -0.093648374
0.06531642 0.05679 -0.026624203 0.012807804 -0.11142426 0.08206291 -0.24326894 -0.036686286
-0.25032088 -0.08482577 -0.075821586 -0.019442663 0.17965588 -0.25913352 0.12499908 0.16567586
-0.22883493 0.049502574 0.0668592 -0.22337367 0.21621288 0.22323488 -0.09907727 -0.20419234
0.13172385 -0.15673791 -0.19513382 0.100144684 0.06598241 -0.00071093463 0.16522355 0.19154711
0.06961595 0.09363656 -0.22755915 -0.04866349 -0.15237997 0.08256546 -0.195662 -0.015412967
-0.14143988 -0.15386367 -0.24410519 0.12593019 0.12958816 -0.19370101 0.05683826 -0.19562687
-0.2271535 -0.18199624 0.17326446 -0.23778892 -0.0356028 0.20433138 -0.050253313 -0.13909692
-0.008075571 0.09366584 -0.12277603 -0.1295182 0.1990504 -0.15624039 -0.033416998 0.00044712087
-0.016995406 0.13787387 0.09220984 -0.12111589 0.1692604 -0.06109747 -0.14798 -0.0884244
-0.15343975 -0.077160284 0.1064976 0.1556825 0.20207308 0.020141788 0.018348292 0.059975967
-0.054947674 -0.036642224 0.04979844 -0.20023516 -0.13599323 -0.08711817 0.13999906 0.03786622
0.06842357 0.10469138 0.1268328 0.06554887 -0.027620805 -0.057662465 0.00321667 -0.006121042
-0.03282284 -0.1796927 -0.02930497 0.079242624 0.22147512 0.11985569 -0.05235991 0.052566327
0.23054881 -0.20289047 0.12145191 -0.24168399 -0.1681959 -0.1308148 -0.16063003 -0.23442459
-0.2278548 0.07792409 -0.10759994 -0.07727914 -0.15987438 0.21311562 0.008814219 0.11327811
0.091031365 -0.026047498 0.21962321 -0.020967009 -0.20418137 -0.25074866 0.13175286 0.23306748
0.16125315 -0.07779107 0.2277221 0.19112428 0.11514411 0.15338117 0.041224215 -0.15313715
0.23445196 -0.12512614 -0.15741812 0.13795957 -0.0047263475 0.21813104 -0.13056353 -0.009875586
-0.21223275 0.004084087 0.11594747 -0.21364133 -0.01619947 0.15037698 0.17042722 -0.027439727
-0.1413897 0.013550036 0.17799602 0.0076328064 -0.116440795 -0.06729401 -0.1024104 0.16193068
0.1046217 -0.07666533 0.16720258 0.21168183 0.04616005 -0.2197012 0.25148934 0.014361033
-0.11941397 0.091861896 0.18717161 0.21484984 -0.033635512 0.21161424 0.028229343 -0.005699408
00000000: 2cb1 27be 0c3d 273d 6922 be3c 8e7f 1abe
00000010: 449e 29be 0080 0f3d 5f41 ed3d 5a50 773d
00000020: 3508 203e 5397 a23d f07b 2dbe 3d20 34be
00000030: 0b54 583e dc91 703c 5cb7 533e 6bb9 4abe
00000040: 8af6 483e 6130 03be 3deb 9bbc 8963 5c3e
00000050: 1e2f a03d d0ca 85bd 9a8d 7a3d 4f2d 05be
00000060: 0f1e c5bd 3c61 27be 865f fe3d cdd0 23be
00000070: 8355 85bd 4c07 683e cd23 a93d 857f 45be
00000080: 1bd9 02be ea51 70be 2e40 3e3e b02d 70be
00000090: 0819 203c 3944 55be 02fe 09bd bfda d83d
000000a0: 32c4 bd3d 4fdd 273e 960a 1d3e 5354 60be
000000b0: 3fdb 1bbe e60b 6b3d a317 04be eb12 d0bc
000000c0: 3668 22be 12d6 b23d 57eb 4d3e 4ae9 7ebe
000000d0: 5595 bd3d 689b 8a3d 634c 24be 51a3 24be
000000e0: 41da 25be 814c a0bd 8442 e9bd b9f6 57be
000000f0: 9c80 1bbc 1afb 0abc 10cc f03d dbd8 363e
00000100: 71e0 253e 09ce c93d 8b20 61be 45f5 3dbe
00000110: fb04 dfbd 0be8 153e 8e79 61be e2fc 653e
00000120: b18f a6bd 104d fabd bed5 383e e154 083e
00000130: a8de dcbd abcd ebbd 754f eebd b8ca bfbd
00000140: 9dc4 853d a29c 683d 001b dabc d3d7 513c
00000150: 6732 e4bd 9910 a83d 7e1b 79be 5c44 16bd
00000160: 0f2a 80be 22b9 adbd 5948 9bbd 3846 9fbc
00000170: b6f7 373e 26ad 84be 85ff ff3d efa6 293e
00000180: b453 6abe 36c3 4a3d 7aed 883d 11bc 64be
00000190: e966 5d3e af97 643e 06e9 cabd cc17 51be
000001a0: 9ee2 063e e77f 20be 29d1 47be a818 cd3d
000001b0: c921 873d 045e 3aba 5d30 293e ed24 443e
000001c0: cf92 8e3d 86c4 bf3d 4405 69be 5e53 47bd
000001d0: 7f09 1cbe 1418 a93d 9f5b 48be ab86 7cbc
000001e0: 9ed5 10be 708e 1dbe b6f6 79be d8f3 003e
000001f0: c2b2 043e 8f59 46be 3ccf 683d 6952 48be
00000200: ed9a 68be 395d 3abe 3d6c 313e f07e 73be
00000210: 3ed4 11bd 3f3c 513e 6bd6 4dbd 6c6f 0ebe
00000220: 664f 04bc e0d3 bf3d 0072 fbbd 6ba0 04be
00000230: ded3 4b3e 7bfd 1fbe 43e0 08bd 8c6b ea39
00000240: f339 8bbc cf2e 0d3e 83d8 bc3d 9c0b f8bd
00000250: 9952 2d3e 5741 7abd 1288 17be da17 b5bd
00000260: 4f1f 1dbe 3606 9ebd 6a1b da3d 3c6b 1f3e
00000270: 3fec 4e3e 6400 a53c 284f 963c 5ca9 753d
00000280: d010 61bd 2816 16bd 73f9 4b3d 720a 4dbe
00000290: cf41 0bbe 036b b2bd ea5b 0f3e 9c19 1b3d
000002a0: a821 8c3d 6f68 d63d 75e0 013e 7c3e 863d
000002b0: 0745 e2bc 7a2f 6cbd c4ce 523b 0693 c8bb
000002c0: 3e71 06bd 5d01 38be fa10 f0bc f549 a23d
000002d0: 60ca 623e e676 f53d 5877 56bd ca4f 573d
000002e0: fd14 6c3e 85c2 4fbe c7bb f83d 027c 77be
000002f0: 8c3b 2cbe 51f4 05be 337c 24be 000d 70be
00000300: c552 69be aa96 9f3d 5b5d dcbd 8744 9ebd
00000310: 1cb6 23be fb3a 5a3e 8469 103c 5bfe e73d
00000320: a76e ba3d 9061 d5bc e8e4 603e 01c3 abbc
00000330: ec14 51be 2162 80be 39ea 063e 3ea9 6e3e
00000340: 8c1f 253e ed50 9fbd fb2f 693e 15b6 433e
00000350: add0 eb3d f40f 1d3e b9da 283d fccf 1cbe
00000360: 2d14 703e 1121 00be 3732 21be 4645 0d3e
00000370: 7adf 9abb be5d 5f3e 72b2 05be 36cd 21bc
00000380: 8b53 59be ced3 853b de75 ed3d cbc4 5abe
00000390: c0b4 84bc 6cfc 193e 7984 2e3e 47c9 e0bc
000003a0: 76c8 10be f800 5e3c 9744 363e 9f1c fa3b
000003b0: 8378 eebd 71d1 89bd 8bbc d1bd 28d1 253e
000003c0: e743 d63d b602 9dbd 2737 2b3e 1fc3 583e
000003d0: 5212 3d3d 5af9 60be 36c3 803e 8a4a 6b3c
000003e0: 508f f4bd 1722 bc3d eaa9 3f3e 9901 5c3e
000003f0: 64c5 09bd 67b1 583e 3941 e73c 19c2 babb

model.backbone.encoder.layers.0.self_attn.to_out.0.bias f4 [16]
0.1317495 -0.073243946 -0.047047097 0.0526076 0.1091963 0.22609064 -0.118461676 -0.07515536
-0.05913607 0.016390605 -0.07288325 0.05802371 -0.12730469 -0.20801765 0.115340404 -0.22883455
00000000: 57e9 063e ec00 96bd 75b4 40bd 117b 573d
00000010: 4fa2 df3d 4e84 673e 099c f2bd 0eeb 99bd
00000020: aa38 72bd 9745 863c d043 95bd 45aa 6d3d
00000030: 295c 02be 9402 55be 9737 ec3d 9b53 6abe

model.backbone.encoder.layers.0.norm_attn.1.weight f4 [16]
1.0018878 0.9689016 1.0365937 1.0157404 1.0037936 0.99182826 0.9985352 0.9801395
1.0290749 0.9892957 1.0298609 0.997246 0.9895907 1.0029153 0.9910149 1.0038208
00000000: dc3d 803f ef09 783f 1aaf 843f c803 823f
00000010: 4f7c 803f 75e8 7d3f 01a0 7f3f 6cea 7a3f
00000020: bab8 833f 7c42 7d3f 7bd2 833f 844b 7f3f
00000030: d155 7d3f 875f 803f 27b3 7d3f 337d 803f

model.backbone.encoder.layers.0.norm_attn.1.bias f4 [16]
0.0030387756 0.02715009 -0.0033862544 -0.0036850232 -0.006153697 -0.0015718726 0.009280093 -0.005864066
0.010179456 -0.014109561 0.010198733 0.019418372 0.007747754 0.011492962 0.00437362 0.007806862
00000000: 3226 473b de69 de3c eceb 5dbb 6e80 71bb
00000010: f4a4 c9bb 4b07 ceba 880b 183c 5a27 c0bb
00000020: bcc7 263c ca2b 67bc 9618 273c 4713 9f3c
00000030: dfe0 fd3b fa4c 3c3c 9550 8f3b b4d0 ff3b

model.backbone.encoder.layers.0.norm_attn.1.running_mean f4 [16]
0.23054338 -0.15475012 0.012631387 0.108575724 0.17383662 0.113344714 0.051725224 -0.2770263
-0.024749514 0.1936428 -0.09916538 0.12566487 -0.014275544 -0.116299674 0.058331583 -0.2723321
00000000: 9013 6c3e d176 1ebe e1f3 4e3c f35c de3d
00000010: 3a02 323e 4621 e83d d4dd 533d 64d6 8dbe
00000020: 7ebf cabc 4c4a 463e 3817 cbbd 4bae 003e
00000030: f9e3 69bc 862e eebd 19ed 6e3d 1d6f 8bbe

model.backbone.encoder.layers.0.norm_attn.1.running_var f4 [16]
0.36725956 0.31168497 0.4630778 1.0939741 0.42639107 0.3371157 0.2822364 0.34766412
0.26979035 1.4112089 0.6048688 0.42515302 0.35592896 0.2318416 0.2153138 0.42642707
00000000: 7209 bc3e 2c95 9f3e 8918 ed3e 5807 8c3f
00000010: ee4f da3e 6e9a ac3e 4a81 903e 0801 b23e
00000020: f621 8a3e 7ea2 b43f afd8 1a3f a8ad d93e
00000030: 523c b63e e267 6d3e 397b 5c3e a654 da3e

model.backbone.encoder.layers.0.ff.0.weight f4 [128, 16]
-0.14614801 0.07001215 -0.24146438 0.020549664 0.20291395 -0.039438594 -0.23434663 -0.098360255
-0.17216974 -0.070794344 -0.09834018 -0.21058644 -0.063363306 -0.12823091 0.15264356 -0.123624556
0.087145336 -0.06650351 -0.23877898 -0.107218936 -0.18338838 0.15722269 -0.13246989 -0.024303881
-0.05085764 -0.03826784 0.09008691 -0.22782803 0.00040039766 0.01883391 -0.06338664 0.0631488
-0.17104156 0.23061223 -0.17352886 -0.19615683 0.21537314 -0.10397923 0.026520895 0.18783136
0.17431496 0.19963129 -0.16699606 0.04272296 0.0016514107 -0.15832856 0.07876249 -0.08533261
0.08141378 -0.021373214 0.043762617 -0.095096216 0.24830876 -0.13677895 0.011267995 -0.21802396
-0.18681163 -0.12560835 -0.19226792 0.051488798 -0.05880886 -0.21084379 0.1405594 -0.15236986
0.16771379 -0.175178 0.16176134 0.1680823 -0.02472685 0.17632702 -0.049165472 0.06960452
-0.062179953 0.0903471 0.18846816 -0.13895196 -0.075635426 -0.24638867 -0.11742491 -0.004740146
-0.071375675 -0.14152849 -0.21359944 0.19748606 -0.23547152 -0.1866317 -0.084090136 0.193477
-0.18889864 -0.08551227 -0.17018087 -0.057049483 0.08913299 -0.03649807 -0.11468577 -0.038501732
0.15789552 0.15136927 -0.02253056 0.17730714 -0.1725173 -0.16232842 0.13467684 0.07523086
-0.067226544 -0.03331013 0.019277198 -0.20926653 -0.12592271 -0.18332118 0.10071224 0.056252226
0.08352347 0.20089176 -0.23965834 -0.13865754 -0.09062561 0.10137223 -0.080848046 0.08031379
0.24642561 0.022151496 -0.1926921 0.099905126 0.17441583 -0.049102347 -0.25277984 0.22144996
-0.012369429 -0.18320157 -0.040513568 0.18905054 -0.05538853 -0.15961643 0.07383214 -0.16426142
0.028803684 0.013839223 -0.1598115 -0.14441729 -0.17340131 0.20322433 0.015557587 -0.028498022
0.078615315 -0.19000158 -0.14667387 -0.1973631 -0.13589406 -0.028723823 -0.24739903 -0.21895897
0.12969992 -0.17507729 -0.22227553 -0.006826274 -0.20938967 -0.2211222 -0.08633524 -0.07046906
-0.17920795 -0.08240072 0.26074862 0.25403506 0.112344004 -0.04540028 0.045832966 0.098590046
-0.16212693 0.109238006 -0.20151557 -0.13001744 0.14810728 -0.11927186 -0.12442347 0.16853115
0.13991861 0.0019124028 0.23351142 -0.2233475 0.1445805 0.00046890366 0.15027775 0.16806974
-0.21185455 0.15100387 0.094264284 -0.2246891 -0.010000904 0.075203836 0.18460464 -0.119970314
-0.217994 -0.15153056 -0.072945826 -0.026775891 -0.110901065 -0.041336026 0.17611387 -0.21413542
0.06062312 0.23788086 -0.020174291 -0.060985062 0.22830874 0.07656452 0.05946126 -0.0697047
-0.07157882 0.02611353 -0.17347588 -0.05389978 0.061515447 -0.1724583 0.042753372 -0.07426435
0.24093732 0.11618551 0.18270075 -0.054024186 0.02871102 -0.11038561 0.20108512 -0.0015115099
-0.1694408 0.24686709 -0.052106798 0.20472264 -0.16343103 0.22732998 -0.14959729 -0.20510991
0.00783471 -0.121454366 0.24512535 -0.13244657 -0.04469219 0.11827427 0.15620983 -0.06882207
-0.075527005 0.12134696 0.11656014 -0.04621719 0.0060152123 0.0635912 -0.14577463 -0.09535643
-0.0289466 -0.17628726 0.22433926 -0.22856022 -0.07537041 -0.04927045 -0.19024664 0.044364497
00000000: d3a7 15be 8862 8f3d 7042 77be c557 a83c
00000010: adc8 4f3e 5d8a 21bd 90f8 6fbe 1a71 c9bd
00000020: 444d 30be a0fc 90bd 9466 c9bd f9a3 57be
00000030: 9fc4 81bd f74e 03be 984e 1c3e df2e fdbd
00000040: 4179 b23d fe32 88bd 7a82 74be 9a95 dbbd
00000050: 2aca 3bbe fcfe 203e 30a6 07be ef18 c7bc
00000060: 1a50 50bd bdbe 1cbd 7c7f b83d c04b 69be
00000070: 77ec d139 9249 9a3c dbd0 81bd 2854 813d
00000080: 8525 2fbe 9d25 6c3e 8db1 31be 56dd 48be
00000090: c78a 5c3e 10f3 d4bd 5942 d93c dd56 403e
000000a0: 9f7f 323e 256c 4c3e 0401 2bbe 45fe 2e3d
000000b0: 2674 d83a e220 22be 3a4e a13d ddc2 aebd
000000c0: 45bc a63d e116 afbc 6e40 333d cec1 c2bd
000000d0: a744 7e3e c80f 0cbe 669d 383c ac41 5fbe
000000e0: 8c4b 3fbe 7a9f 00be e2e1 44be ebe5 523d
000000f0: 8fe1 70bd 6fe7 57be ceee 0f3e d806 1cbe
00000100: 2abd 2b3e dd61 33be c4a4 253e c41d 2c3e
00000110: f78f cabc 128f 343e bc61 49bd d18c 8e3d
00000120: 68b0 7ebd e607 b93d ccfd 403e 6c49 0ebe
00000130: bfe6 9abd 504d 7cbe 797c f0bd 3a53 9bbb
00000140: 692d 92bd d8ec 10be d0b9 5abe c939 4a3e
00000150: 721f 71be 611c 3fbe 7337 acbd d61e 463e
00000160: a56e 41be 0f21 afbd e543 2ebe b8ac 69bd
00000170: 5b8b b63d 007f 15bd 5fe0 eabd feb3 1dbd
00000180: 5daf 213e 8c00 1b3e 0292 b8bc 0190 353e
00000190: 60a8 30be 6c39 26be bae8 093e a312 9a3d
000001a0: 12ae 89bd 3470 08bd 37eb 9d3c f749 56be
000001b0: e2f1 00be 8cb8 3bbe 3842 ce3d bc68 663d
000001c0: 5a0e ab3d 92b6 4d3e ff68 75be 3efc 0dbe
000001d0: eb99 b9bd 3e9c cf3d a993 a5bd 8e7b a43d
000001e0: ff56 7c3e 0e77 b53c 1451 45be 0f9b cc3d
000001f0: 109a 323e 8b1f 49bd 5c6c 81be c7c3 623e
00000200: 25a9 4abc 3199 3bbe 8ef1 25bd 7796 413e
00000210: 15df 62bd 7d72 23be 4e35 973d 2534 28be
00000220: b4f5 eb3c e9bd 623c a0a5 23be 20e2 13be
00000230: 1d90 31be 0a1a 503e 40e5 7e3c af74 e9bc
00000240: 1101 a13d c68f 42be ad31 16be 8d19 4abe
00000250: d027 0bbe 394e ebbc 2c56 7dbe c836 60be
00000260: 0ed0 043e 7647 33be 329c 63be f0ae dfbb
00000270: 3f6a 56be dc6d 62be 88d0 b0bd 1552 90bd
00000280: 4a82 37be b5c1 a8bd d880 853e e210 823e
00000290: 9d14 e63d a5f5 39bd 59bb 3b3d 94e9 c93d
000002a0: 9a04 26be 2db8 df3d 195a 4ebe 4b23 05be
000002b0: 6fa9 173e ce44 f4bd bbd1 febd 6e93 2c3e
000002c0: d346 0f3e 97a9 fa3a 9e1d 6f3e 35b5 64be
000002d0: e90c 143e 2fd7 f539 69e2 193e 791a 2c3e
000002e0: 66f0 58be c2a0 1a3e a20d c13d e614 66be
000002f0: d5da 23bc 7804 9a3d 0009 3d3e ffb2 f5bd
00000300: d239 5fbe d42a 1bbe 9f64 95bd 1d59 dbbc
00000310: 1920 e3bd f74f 29bd 3257 343e 5146 5bbe
00000320: f34f 783d 0a97 733e 8e44 a5bc 79cb 79bd
00000330: c4c9 693e dccd 9c3d a68d 733d 56c1 8ebd
00000340: eb97 92bd 0bec d53c a9a3 31be 04c6 5cbd
00000350: 9ff7 7b3d e998 30be 291e 2f3d e817 98bd
00000360: 46b8 763e abf2 ed3d e815 3b3e 7748 5dbd
00000370: 5f33 eb3c da11 e2bd 42e9 4d3e db1d c6ba
00000380: e481 2dbe baca 7c3e f06d 55bd d0a2 513e
00000390: 775a 27be 31c9 683e 0830 19be 5508 52be
000003a0: 285d 003c 11bd f8bd 2402 7b3e 13a0 07be
000003b0: 280f 37bd c839 f23d 78f5 1f3e 96f2 8cbd
000003c0: e7ad 9abd c184 f83d 15b7 ee3d 3c4e 3dbd
000003d0: 421b c53b 1a3c 823d f245 15be 3b4a c3bd
000003e0: 6c21 edbc a684 34be 31b9 653e b10b 6abe
000003f0: cd5b 9abd d0cf 49bd 04d0 42be 8cb7 353d
