TSF_Finance/checkpoints/ixic_104__PatchTST_custom_ftM_sl104_ll48_pl24_dm16_nh4_el3_dl1_df128_fc1_ebtimeF_dtTrue_Exp_0/checkpoint.pth (torch_old, 152426 bytes, 65 tensors)

model.backbone.W_pos f4 [42, 16]
0	0xbd04598b	-0.032311957
1	0x3cff10c9	0.031135933
2	0x3b9d9d6a	0.004810025
3	0x3da8d524	0.08243778
4	0x3c91a7ca	0.017780203
5	0x3d30c2f2	0.043154664
6	0x3b51c33d	0.003200724
7	0xbcace3fc	-0.021104805
8	0xbd0d5482	-0.03450442
9	0xbc97f772	-0.018550608
10	0x3ce6d4fb	0.028177729
11	0xbda05922	-0.07829501
12	0x3c8a4625	0.01687915
13	0x3dbe8953	0.09303536
14	0xbcbf8146	-0.023377072
15	0x3d9858d9	0.07438821
16	0xbc581630	-0.013188884
17	0xbc4094d1	-0.011754231
18	0x3e230d5b	0.15923063
19	0x3d381176	0.044938527
20	0x3c3eadd4	0.011638124
21	0x3ddb3151	0.10702766
22	0xbd88aabf	-0.06673192
23	0xbe009744	-0.12557703
24	0x3c961913	0.018322503
25	0xbdc5acbb	-0.09652086
26	0x3d0e64cc	0.034764096
27	0xbdd5e4b1	-0.1044401
28	0xbd6792af	-0.056536373
29	0x3e144dd2	0.14482811
30	0x3df42ad1	0.11922229
31	0x3c549889	0.01297582
32	0xbd401fea	-0.046905436
33	0x3c9d8600	0.019228935
34	0xbcb2f090	-0.021843225
35	0x3c938cd8	0.018011495
36	0xbc602108	-0.01367975
37	0x3d7ec9f4	0.062204316
38	0xbb6044eb	-0.0034220766
39	0xbc04508c	-0.0080758445
40	0x3c7c0edb	0.015384401
41	0x3d9a6288	0.075383246
42	0x3a87d3a7	0.001036276
43	0xbce25293	-0.027627265
44	0x3d089196	0.033341967
45	0x3db078e9	0.08616812
46	0x3cfaac99	0.03059988
47	0x3bc7c200	0.0060961246
48	0xbc819ef2	-0.015822861
49	0x3d4d51c2	0.0501268
50	0x3d525529	0.051350746
51	0x3d368bed	0.044567037
52	0x3c74561f	0.014913111
53	0x3d9d97f5	0.07694999
54	0xbcf8cdb7	-0.03037153
55	0xbce5641f	-0.028001843
56	0x3dea9c09	0.114555426
57	0xbd2f7b1e	-0.042842023
58	0x3cdb67ed	0.026782954
59	0xbddfceb5	-0.10928098
60	0x3d36eb6a	0.044658102
61	0x3d26a245	0.040682096
62	0x3cbf8bd7	0.02338211
63	0xbcd276bc	-0.025691383
64	0xbd584c10	-0.052806914
65	0x3cd1b146	0.025597226
66	0x3c653fdd	0.013992277
67	0x3d852dc8	0.06502873
68	0xbcb34234	-0.021882154
69	0x3dcc9e64	0.09991148
70	0xbd8b0b7f	-0.06789302
71	0x3d48108d	0.04884391
72	0x3d2f513c	0.04280208
73	0x3d2c788a	0.042107143
74	0x3ca214ab	0.019785246
75	0xbc8e90e0	-0.017403066
76	0xbbc4bb12	-0.006003746
77	0x3c0d8d69	0.008639672
78	0x3c6d8313	0.014496583
79	0xbd8f8f9f	-0.070098154
80	0xbcd50433	-0.026002979
81	0x3b10238d	0.0021993846
82	0x3cf54011	0.029937776
83	0x3d6a21be	0.057161085
84	0x3c60b687	0.013715393
85	0x3d25cfc1	0.040481333
86	0xbcbc1098	-0.022957131
87	0xbd49b6dc	-0.049246654
88	0x3d23fb20	0.040034413
89	0xbd8f9faf	-0.07012879
90	0x3d34f7d7	0.04418167
91	0x3d20cc89	0.03925756
92	0xbdadd3c1	-0.084876545
93	0x3d210a1c	0.03931628
94	0x3dc93bf7	0.098258905
95	0xbd929312	-0.07156958
96	0xbd1d4298	-0.038393587
97	0x3cc813b3	0.024423456
98	0x3d9ea1aa	0.07745679
99	0x3c935bdc	0.017988138
100	0xbd16fadd	-0.036860336
101	0x3d10a087	0.03530934
102	0xbc1052df	-0.0088088205
103	0xbd2d6f3a	-0.042342402
104	0x3d366ef0	0.044539392
105	0xbd6806ce	-0.056647114
106	0x3d87ca19	0.06630344
107	0xbcfc30fe	-0.03078508
108	0x3d019946	0.031640314
109	0x3d8bbe98	0.06823462
110	0x3cdc9549	0.026926653
111	0x3bf53e87	0.0074842605
112	0xbd7e053a	-0.062016703
113	0x3848caf0	4.7872716e-05
114	0x3dbbc9ea	0.091693714
115	0x3da86be4	0.082237035
116	0x3cc876da	0.024470735
117	0x3d45f4b9	0.04832909
118	0xbd814ad1	-0.06313098
119	0xbd4f0319	-0.050540064
120	0x3d6be888	0.057594806
121	0xbe1c26a0	-0.1524911
122	0x3da0f90e	0.078600034
123	0x3b715251	0.0036822746
124	0xbdc9cc14	-0.09853378
125	0x3dcedde4	0.10100916
126	0x3dbfca85	0.093647994
127	0xbcca091b	-0.024662545
128	0xbb29a958	-0.002588829
129	0xba9c2493	-0.0011912755
130	0xbaa776c7	-0.0012776487
131	0x3ce792d7	0.02826826
132	0x3cabfafa	0.020993698
133	0xbd29ce0f	-0.04145628
134	0x3c5f2284	0.013619069
135	0xbd138d89	-0.03602365
136	0xbd4b188b	-0.049583953
137	0xbc51da20	-0.012808353
138	0x3c1999ae	0.009375019
139	0x3d08b6ed	0.033377577
140	0x3d6de7d8	0.05808243
141	0x3d57df1f	0.05270302
142	0x3ceee6e4	0.029162832
143	0xbc09de79	-0.008414858
144	0xbd423239	-0.047411177
145	0xbc137b49	-0.009001561
146	0x3d420946	0.047372125
147	0x3d617399	0.055041883
148	0x3bb12cf9	0.0054069725
149	0x3cceb101	0.025230886
150	0xbcb816ba	-0.022471774
151	0xbd2d261a	-0.042272665
152	0x3d08ac5b	0.033367496
153	0xbe10beee	-0.14135334
154	0x3d13a126	0.036042355
155	0xbd8a976f	-0.06767165
156	0xbd31b4d0	-0.043385327
157	0x3d8e290a	0.06941421
158	0x3d621d21	0.05520356
159	0x3ce85687	0.028361572
160	0xbcc7ead4	-0.024403967
161	0xbd2f22b5	-0.04275771
162	0x3d7d92f7	0.061907735
163	0x3dd21a22	0.10258891
164	0xbc90c3c4	-0.017671473
165	0x3d526180	0.051362514
166	0xbda176ab	-0.07883962
167	0xbdb410e8	-0.08792287
168	0x3cdb6901	0.026783468
169	0xbdbd9d37	-0.09258502
170	0x3dbe4c9d	0.092919566
171	0xbd346757	-0.044043865
172	0xbbda1942	-0.006655843
173	0x3de72e0f	0.11288082
174	0x3e104679	0.14089383
175	0x3c40a07b	0.0117570115
176	0x3b2cb7e2	0.002635472
177	0xbba9f734	-0.0051869396
178	0x3dc14d63	0.094385885
179	0x3d0164d4	0.031590298
180	0xbcbc1c5d	-0.022962743
181	0x3cccc0ee	0.02499434
182	0xbd78ef36	-0.060775004
183	0xbd98b029	-0.07455475
184	0x3d3add0f	0.045620974
185	0xbdcc63ab	-0.09979948
186	0x3d12d55f	0.035848018
187	0xbd432ccf	-0.047650155
188	0xbd523497	-0.051319685
189	0x3df300ea	0.11865409
190	0x3dbd6fce	0.09249841
191	0x3d6c936e	0.057757787
192	0xbdc143f2	-0.09436788
193	0xbcfe555f	-0.031046567
194	0x3d932819	0.071853824
195	0x3d786dab	0.060651463
196	0xbd76e890	-0.060280383
197	0x3e024e10	0.12725091
198	0xbddbff84	-0.10742095
199	0xbe16724a	-0.14692035
200	0x3c215ea0	0.0098492205
201	0xbe187818	-0.14889562
202	0x3daf00b7	0.08545058
203	0xbd9da647	-0.076977305
204	0xbe1366df	-0.14394711
205	0x3d825d01	0.06365395
206	0x3e121050	0.14264035
207	0x3deb7481	0.11496831
208	0x3c0aa1a2	0.008461388
209	0xbd4f6c2d	-0.050640274
210	0x3d59e35b	0.05319534
211	0x3dad3de0	0.08459067
212	0xbcfb1f9e	-0.030654725
213	0x3d95d016	0.0731508
214	0xbd96f545	-0.07371
215	0xbdea6a31	-0.11446036
216	0x3cde1da8	0.02711375
217	0xbe0f7761	-0.14010383
218	0x3d28db3a	0.041224696
219	0xbc71ccce	-0.014758302
220	0xbdad4e6e	-0.08462225
221	0x3d9d5d02	0.076837555
222	0x3d97b99f	0.07408451
223	0xb9f08475	-0.00045875055
224	0xbd3be380	-0.045871258
225	0xbca80b56	-0.020513218
226	0x3dee9a6d	0.11650548
227	0x3d720fa7	0.05909696
228	0xbc07aeaf	-0.008281394
229	0x3d403ead	0.046934772
230	0xbd9aeff9	-0.075653024
231	0xbdd20c0d	-0.10256205
232	0x3aaa8e32	0.0013012348
233	0xbdb9cfd8	-0.09072846
234	0x3d6e572f	0.058188614
235	0xbd8ad28b	-0.06778439
236	0xbd7b97b0	-0.061423957
237	0x3dda935a	0.10672636
238	0x3dbb6213	0.091495655
239	0x3d225d42	0.03963972
240	0xbca91e21	-0.02064425
241	0x3b3def31	0.002898168
242	0x3bd3c250	0.006462373
243	0x3d6005b1	0.054692928
244	0xbc05a060	-0.008155912
245	0x3d48227a	0.048861004
246	0xbd0c62fd	-0.03427409
247	0xbda6c1fe	-0.0814247
248	0x3c8e768d	0.017390514
249	0xbdda8ffe	-0.106719956
250	0x3d86a0f5	0.06573669
251	0xbd3c4694	-0.045965746
252	0xbcf5f34e	-0.030023243
253	0x3c8d40fd	0.017242903
254	0x3d2c8db4	0.042127326
255	0xbd11c112	-0.035584517

model.backbone.W_P.weight f4 [16, 24]
0	0xbe11912d	-0.14215536
1	0x3cf14092	0.029449735
2	0x3dfd7eb2	0.12377681
3	0x3dd188cf	0.10231172
4	0x3c955049	0.01822676
5	0xbe0123c2	-0.12611297
6	0xbe1f2f4b	-0.15545385
7	0x3e491d87	0.1964017
8	0xbd88e7dc	-0.06684849
9	0xbe3b1cb0	-0.18272662
10	0x3df80670	0.12110603
11	0xbe53cffb	-0.20684807
12	0x3df8b146	0.12143187
13	0xbe2a2c6e	-0.16618511
14	0x3d713aa4	0.058893815
15	0xbd9cbbab	-0.07652982
16	0xbcc0fd8d	-0.023558402
17	0xbdcc2b37	-0.0996918
18	0x3dd9884d	0.106217004
19	0x3db478c6	0.08812098
20	0x3e014292	0.12623051
21	0xbd109eb7	-0.035307612
22	0x3e8a38ec	0.26996553
23	0x3db6854f	0.08912145
24	0xbd5d0644	-0.053961053
25	0xbe3f8514	-0.18703109
26	0x3e18e3bb	0.14930622
27	0xbe30bea6	-0.17260227
28	0xbe2934c9	-0.16524042
29	0xbd97091d	-0.07374785
30	0x3dc7256d	0.09723935
31	0x3db155ce	0.08658944
32	0x3dd0447c	0.10169312
33	0xbd0257c8	-0.031821996
34	0x3d87ba23	0.066273
35	0x3e063a08	0.13108075
36	0xbe47a38a	-0.19495979
37	0xbe45528b	-0.19269769
38	0xbe4c9e9e	-0.19982383
39	0xbe104062	-0.1408706
40	0x3e07ca48	0.13260758
41	0x3e495804	0.19662482
42	0x3d992de5	0.07479457
43	0xbe3fe89f	-0.18741082
44	0x3dcbfd22	0.099603906
45	0x3e0d6492	0.13807896
46	0x3e49461c	0.19655651
47	0xbe3a0e62	-0.18169549
48	0xbc4658d6	-0.012106141
49	0xbdc0ddc5	-0.09417299
50	0x3e255f20	0.16149569
51	0x3db718c3	0.0894027
52	0x3ce11b7f	0.027478931
53	0x3c1235a4	0.008923922
54	0x3d9c85b9	0.07642693
55	0xbe0a2482	-0.13490489
56	0xbc944a0c	-0.018101715
57	0xbdf73b15	-0.12071816
58	0x3dcec3c2	0.100959316
59	0x3d886fed	0.06661973
60	0xbe1db2ce	-0.1540024
61	0x3c098e95	0.008395811
62	0x3db6818e	0.08911429
63	0x3dbe661c	0.092968196
64	0x3e203874	0.15646535
65	0xbe4d432d	-0.20045157
66	0xbdbf5042	-0.0934148
67	0xbddcf873	-0.107895754
68	0xbe44b64d	-0.19210167
69	0xbe9bb1ef	-0.3040919
70	0xbe9f7811	-0.3114629
71	0xbde445c7	-0.111461215
72	0xbe022f1b	-0.12713282
73	0xbc116130	-0.008873269
74	0xbd3fe8a6	-0.04685273
75	0xbdd2086f	-0.10255515
76	0x3e7dba7b	0.24778168
77	0x3d445a02	0.0479374
78	0xbd8763dd	-0.06610844
79	0x3e5fb569	0.21846546
80	0xbdda2846	-0.10652213
81	0xbdb86521	-0.09003664
82	0xbda3cf56	-0.079985306
83	0xbe0a6479	-0.1351489
84	0xbd8de7c9	-0.06928975
85	0xbcc8c36d	-0.024507249
86	0xbcaddaf6	-0.021222573
87	0xbe1fa2c7	-0.15589438
88	0xbdce2d89	-0.10067279
89	0x3ddbf493	0.10740008
90	0xbda1fb76	-0.079092905
91	0xbdd222a7	-0.10260516
92	0xbe717873	-0.23581104
93	0xbe51e643	-0.20497994
94	0x3d32e749	0.043677602
95	0x3d3f1d21	0.04665864
96	0xbe9522cb	-0.29128107
97	0xbd2a9cbe	-0.041653387
98	0xbd5ad1b5	-0.05342265
99	0xbe37f426	-0.17964229
100	0x3d975311	0.073888905
101	0xbd54c01f	-0.051941033
102	0xbe46fb99	-0.19431914
103	0x3dda1439	0.106483884
104	0x3d41a1f1	0.04727358
105	0xbe1230eb	-0.14276473
106	0x3c3bd86a	0.011465171
107	0x3e07c1d1	0.13257529
108	0x3e11d3c2	0.14240935
109	0x3d478d5e	0.048718803
110	0x3d23e9e6	0.040017985
111	0x3b129603	0.0022367246
112	0x3d55ae75	0.05216833
113	0xbdef4bfc	-0.11684415
114	0x3c0a8332	0.008454131
115	0xbe522a30	-0.20523906
116	0x3dc7efaa	0.09762509
117	0xbe2a4642	-0.16628364
118	0xbe445f69	-0.19177021
119	0x3ddaa291	0.10675538
120	0xbc6a53b3	-0.014302182
121	0xbdc8131c	-0.0976927
122	0xbe195ad5	-0.14976056
123	0x3da300a2	0.07959105
124	0xbe2e42e1	-0.170177
125	0x3e235b17	0.15952717
126	0x3d7aec3e	0.061260454
127	0x3e5edcc0	0.21763897
128	0xbdc7a053	-0.09747376
129	0xbe2e2972	-0.17007998
130	0xbc17b9e4	-0.009260628
131	0x3e45dccb	0.19322507
132	0xbda9e7bf	-0.08296155
133	0xbe3a426d	-0.18189402
134	0x3e509417	0.20368992
135	0x3e2fd33a	0.1717042
136	0x3e6d3bbe	0.23167321
137	0x3e256908	0.16153347
138	0x3c5721ac	0.013130587
139	0xbe20fffd	-0.15722652
140	0xbd9c8ba0	-0.07643819
141	0xbdd417c4	-0.103560954
142	0xbe6d6726	-0.2318388
143	0xbeb8286c	-0.3596834
144	0x3e09a7d8	0.13442934
145	0x3dfa2d1f	0.122156374
146	0xbe1bc9c3	-0.15213685
147	0xbd155280	-0.03645563
148	0x3e2036e8	0.15645945
149	0x3d8b95cc	0.06815681
150	0xbd3786ad	-0.04480617
151	0xbda5a57c	-0.08088204
152	0x3ddf849b	0.10913964
153	0xbd84bfc4	-0.06481889
154	0xbe139a43	-0.14414315
155	0xbd6a3083	-0.05717517
156	0x3e0eb988	0.13937962
157	0xbd79d135	-0.06099053
158	0xbdf937d8	-0.121688545
159	0xbd8f74b7	-0.070046835
160	0xbdc07dca	-0.09398992
161	0xbe0eed37	-0.13957678
162	0x3d17fd4c	0.037106797
163	0x3e0b20e9	0.13586773
164	0x3e3f10f9	0.18658818
165	0x3db01555	0.08597819
166	0x3e80c3f6	0.25149506
167	0x3e7c3864	0.24630886
168	0xbdc73523	-0.09726932
169	0xbe567d96	-0.20946345
170	0xbdddaf06	-0.10824399
171	0x3d68ad17	0.056805696
172	0x3b8a921a	0.0042288424
173	0xbd987355	-0.07443873
174	0xbb6544e1	-0.0034983682
175	0x3d6754a6	0.05647721
176	0xbc89c0b1	-0.016815515
177	0x3e11fee8	0.14257395
178	0xbe0fc303	-0.14039235
179	0x3cc50577	0.024050457
180	0x3ddced57	0.107874565
181	0x3e3a4e5d	0.18193956
182	0x3d83be70	0.064328074
183	0x3d2234d0	0.039601147
184	0x3e6199f4	0.22031385
185	0xbd967695	-0.073468365
186	0xbc98ced5	-0.018653313
187	0xbd3ff3ad	-0.046863247
188	0x3e66f57a	0.2255458
189	0x3d65228f	0.05594116
190	0xbdafdc92	-0.08586992
191	0x3e12f055	0.14349492
192	0xbe57dee4	-0.2108112
193	0x3de62949	0.11238343
194	0x3e1f5ddf	0.15563153
195	0x3d8414d9	0.06449289
196	0xbd586843	-0.052833807
197	0xbe0cf019	-0.13763465
198	0x3e199cb5	0.15001185
199	0xbca8074e	-0.020511296
200	0x3dba469d	0.090955
201	0xbc843b80	-0.016141653
202	0x3e29ef61	0.16595222
203	0xbd45e3d1	-0.048312966
204	0x3e0fef37	0.14056097
205	0xbe107a92	-0.14109257
206	0xbe366286	-0.17811021
207	0x3c88abc6	0.01668347
208	0x3e08341b	0.13301127
209	0xbe1d1293	-0.15339117
210	0x3dcc1bb9	0.09966225
211	0xbba0e89e	-0.0049105426
212	0xbe6ca24a	-0.23108783
213	0xbe394c16	-0.1809543
214	0xbdd9cc30	-0.10634649
215	0xbd8047d8	-0.06263703
216	0x3d49b29f	0.049242612
217	0x3e1680df	0.14697598
218	0x3e05bdff	0.13060759
219	0xbe42b5f0	-0.19014716
220	0x3d61d2a3	0.05513252
221	0xbdcf6114	-0.10125938
222	0xbc91ca01	-0.017796518
223	0x3e180cd3	0.14848642
224	0xbd358a12	-0.044321127
225	0xbe080745	-0.13284023
226	0x3dbba284	0.09161857
227	0x3bce8b5f	0.0063032354
228	0xbbb5f41b	-0.0055527813
229	0xbd50ed13	-0.05100734
230	0x3e2a76f2	0.16646937
231	0x3e51f23f	0.20502566
232	0x3e2755da	0.16341344
233	0x3dc94baf	0.098288886
234	0x3e0636fe	0.13106915
235	0xbd171565	-0.036885638
236	0x3df00b66	0.11720924
237	0x3e3e0b1d	0.18558927
238	0x3e416441	0.188859
239	0xbca45baf	-0.02006325
240	0xbdb80c36	-0.08986704
241	0x3e1fa2e8	0.15589488
242	0x3e1c22d2	0.15247658
243	0x3de189e8	0.11012632
244	0x3e277f68	0.16357195
245	0x3e33dc71	0.1756456
246	0xbdf59966	-0.11992149
247	0xbe11ea07	-0.1424943
248	0xbb64a65d	-0.00348892
249	0x3e0724b7	0.131976
250	0xbd9fb924	-0.07798985
251	0xbdcba2cc	-0.099431604
252	0xbe392ab4	-0.18082696
253	0x3d17044f	0.036869343
254	0x3d03264c	0.032018945
255	0xbdbc771e	-0.09202407

model.backbone.W_P.bias f4 [16]
0	0xbdf83fd8	-0.12121552
1	0x3d3dc880	0.04633379
2	0x3db8fe17	0.09032839
3	0xbd7ec8ee	-0.06220334
4	0x3e1c1135	0.15240939
5	0x3d8829b5	0.0664858
6	0xbc6359fe	-0.013876436
7	0xbe4bcb8e	-0.19901869
8	0x3d6484ee	0.055790834
9	0x3e5ac1e0	0.2136302
10	0x3a346f66	0.0006883055
11	0xbcafe26a	-0.021470267
12	0x3d5c1cd8	0.053738445
13	0x3e2bee37	0.1679009
14	0xbdbbc55f	-0.09168505
15	0x3db114e9	0.086465664

model.backbone.encoder.layers.0.self_attn.W_Q.weight f4 [16, 16]
0	0x3cb71098	0.02234678
1	0xbd5da469	-0.054111872
2	0x3d2b261a	0.041784383
3	0xbe2871c4	-0.16449648
4	0xbd389316	-0.045062147
5	0x3d5bf559	0.05370078
6	0x3de2e877	0.110794954
7	0xbe8357e6	-0.25653
8	0x3e8f8501	0.2803116
9	0x3e043057	0.12909065
10	0xbe2f9428	-0.17146361
11	0xbd95c484	-0.07312873
12	0x3d2f4191	0.04278714
13	0x3e4785ca	0.1948463
14	0xbd077e50	-0.033079445
15	0xbe7b7905	-0.24557884
16	0xbdfb2664	-0.12263182
17	0xbddc3370	-0.107519984
18	0x3db230e4	0.087007314
19	0xbdd63352	-0.10459007
20	0x3e0a5bd2	0.13511589
21	0xbdbc0146	-0.091799304
22	0x3e0f3887	0.13986407
23	0x3de44368	0.11145669
24	0xbe2d9fd0	-0.16955495
25	0xbcdd920e	-0.027047183
26	0xbe36cc97	-0.17851482
27	0xbe03f1e0	-0.12885237
28	0xbe128741	-0.14309408
29	0xbe8993c6	-0.26870555
30	0x3e5310f1	0.20611931
31	0xbd88a57a	-0.06672187
32	0xbd3c7e31	-0.046018783
33	0xbdb79f1d	-0.08965895
34	0x3dec375d	0.11533997
35	0xbe1bd77b	-0.15218918
36	0xbdc3fb13	-0.09569373
37	0x3c17d9e7	0.009268261
38	0xbd1222c5	-0.03567769
39	0xbd9e561b	-0.07731267
40	0x3e590019	0.21191444
41	0xbcf68dbb	-0.03009688
42	0xbe05e328	-0.13074934
43	0x3e36ede7	0.1786419
44	0xbd608af2	-0.05482001
45	0x3e88969c	0.26677406
46	0xbe4db51c	-0.20088619
47	0xbe4d0348	-0.20020783
48	0xbe840f76	-0.25793046
49	0xbdb98e48	-0.09060341
50	0x3d9829a3	0.074298166
51	0x3e79e011	0.24401881
52	0xbe2db103	-0.16962056
53	0x3e05c562	0.13063577
54	0x3dc92f2e	0.09823452
55	0x3e31f5ea	0.17378965
56	0x3e03d854	0.12875491
57	0xbe0bf4ae	-0.13667557
58	0xbe62c701	-0.22146226
59	0xbc6a3beb	-0.014296512
60	0x3d8b1e35	0.06792871
61	0x3def068e	0.11671172
62	0x3de1be86	0.110226676
63	0x3e40cbce	0.18827745
64	0x3d92a8f4	0.071611315
65	0xbdde607e	-0.10858248
66	0xbd7f546a	-0.062336363
67	0xbdcf2c0f	-0.101158254
68	0x3e02b03a	0.12762538
69	0x3da218c3	0.07914879
70	0xbce17443	-0.027521258
71	0x3e819e5a	0.25316125
72	0xbe717002	-0.23577884
73	0xbe39c8a0	-0.18142939
74	0xbe3157a4	-0.17318588
75	0x3deecd55	0.11660258
76	0x3e316991	0.17325427
77	0xbd86d333	-0.06583252
78	0xbd442185	-0.04788353
79	0xbe39cccf	-0.18144535
80	0xbe79d8e6	-0.24399146
81	0xbe34f7ed	-0.17672701
82	0xbd23a168	-0.03994885
83	0x3dbdeff9	0.09274287
84	0x3e223621	0.15840961
85	0x3ccc35db	0.024928024
86	0xbde70cbe	-0.11281727
87	0xbea20b5e	-0.31649297
88	0xbd4b14f2	-0.049580522
89	0xbe04eea0	-0.12981653
90	0xbc8e2bdb	-0.017354896
91	0xbe6fa2c6	-0.23401937
92	0x3d7e3d3d	0.06207012
93	0xbd49edfc	-0.049299225
94	0xbda93744	-0.08262494
95	0x3e2a5fa4	0.16638047
96	0xbc09575d	-0.008382645
97	0xbbfa8539	-0.007645276
98	0x3da66517	0.0812475
99	0xbdaba577	-0.08381169
100	0xbd1c1820	-0.038108945
101	0xbe3c6001	-0.18395998
102	0xbe834255	-0.25636545
103	0xbd3ed530	-0.04659003
104	0x3e9ce3f7	0.30642673
105	0x3da7a4a0	0.081856966
106	0xbe37dca5	-0.17955263
107	0x3d8d6bb6	0.0690531
108	0x3c89ff26	0.016845297
109	0x3c81c0cd	0.015839005
110	0xbde6b920	-0.112657785
111	0xbe9d1027	-0.30676386
112	0xbd8c666d	-0.06855474
113	0x3daaa151	0.0833155
114	0x3cf3d60a	0.029765148
115	0x3c1adecc	0.009452533
116	0xbd4c29ff	-0.049844738
117	0x3d824769	0.06361277
118	0xbdcffe4d	-0.10155926
119	0x3dbf538f	0.093421094
120	0xbc303333	-0.010754394
121	0xbd2f2b45	-0.042765874
122	0x3d9924db	0.07477733
123	0xbcedc65c	-0.02902525
124	0x3ce65420	0.028116286
125	0x3da9226a	0.08258517
126	0x3e3fcf2d	0.18731375
127	0x3e216e0c	0.15764636
128	0xbe55aa66	-0.20865783
129	0xbd4d303a	-0.05009482
130	0x3e0b7080	0.13617134
131	0xbd890f11	-0.06692327
132	0xbe8fbbc1	-0.28072932
133	0x3e9128ca	0.28351432
134	0xbeb0ac2a	-0.3450635
135	0x3d69fff2	0.057128854
136	0x3e9a130d	0.3009266
137	0xbe574cf4	-0.21025449
138	0x3dc4d09a	0.096101
139	0x3dffe2e1	0.124944456
140	0x3e1d1334	0.15339357
141	0x3c8d7bdc	0.017270975
142	0x3d723bc5	0.059139032
143	0xbe13ff08	-0.14452755
144	0x3df2b954	0.11851755
145	0xbe1835e6	-0.1486431
146	0xbdb2868e	-0.087170705
147	0xbdb3b768	-0.08775216
148	0xbe41e3a7	-0.18934499
149	0x3debb62f	0.11509358
150	0xbdd25544	-0.102701694
151	0xbc9383e5	-0.018007228
152	0x3d4533e7	0.0481452
153	0x3dca3c56	0.098747894
154	0xbe0f4c4e	-0.13993952
155	0xbe551c8e	-0.20811674
156	0x3b058301	0.0020372274
157	0xbe8fdc90	-0.28097963
158	0xbded3513	-0.11582389
159	0xbcb43842	-0.021999482
160	0x3e9a1fa5	0.30102268
161	0x3e1adbb5	0.15122874
162	0xbe942aa5	-0.28938785
163	0xbe21382d	-0.15744086
164	0xbe7b480b	-0.24539201
165	0x3d0571cc	0.03257923
166	0x3ea89750	0.32927942
167	0xbe1482be	-0.14502999
168	0xbe894f63	-0.2681838
169	0x3e5b7a9a	0.21433488
170	0x3d5771e4	0.05259885
171	0x3dfacbb1	0.12245882
172	0x3e985467	0.29751894
173	0x3d886141	0.06659175
174	0xbe5d7cf3	-0.21629696
175	0xbe096445	-0.13417156
176	0xbd7a7c03	-0.061153423
177	0x3dbf9485	0.093545
178	0x3e7c87fd	0.2466125
179	0x3db0ceed	0.08633218
180	0x3e24545a	0.16047803
181	0xbc1f894c	-0.009737324
182	0xbee14cbc	-0.44003856
183	0xbcd011c9	-0.025399106
184	0x3ccf4672	0.025302146
185	0xbe89d39c	-0.26919258
186	0x3c20fcc8	0.009825893
187	0xbe5dd50e	-0.21663305
188	0xbdb982cd	-0.090581514
189	0x3e880dc7	0.2657301
190	0xbe32bd9e	-0.17455146
191	0x3d93f54e	0.072245225
192	0x3e639097	0.22223125
193	0x3e13012c	0.14355916
194	0xbe5b072b	-0.21389453
195	0x3e83107d	0.25598517
196	0xbcba5e0c	-0.022749923
197	0xbe7b465d	-0.2453856
198	0x3e2300b3	0.15918235
199	0x3e1506b2	0.14553335
200	0xbe4a27da	-0.19741765
201	0x3e05d327	0.1306883
202	0xbe17b8a0	-0.14816523
203	0xbdf541fd	-0.11975477
204	0x3e8a987a	0.27069455
205	0xbe3183a0	-0.17335367
206	0xbe24a1f0	-0.16077399
207	0x3d8069b2	0.0627016
208	0x3e2b957c	0.16756243
209	0x3cc99548	0.024607316
210	0x3e8b581c	0.2721566
211	0xbe11248b	-0.14174096
212	0x3e033622	0.12813619
213	0x3d6c485f	0.057686206
214	0x3e347a67	0.17624818
215	0xbea7e0cc	-0.32788694
216	0x3a5d85e0	0.000845043
217	0xbe63e6f2	-0.22256067
218	0xbe5d9dc3	-0.21642213
219	0xbe07e8ff	-0.13272475
220	0x3d3f53f2	0.046710916
221	0x3e931e8f	0.28734252
222	0xbdd2a9d0	-0.102862954
223	0xbbdb2592	-0.0066878283
224	0xbe2c9832	-0.16854933
225	0x3de93178	0.113863885
226	0xbe1c61cd	-0.15271683
227	0xbda9966c	-0.08280644
228	0x3e0a63fb	0.13514702
229	0x3e693d32	0.2277725
230	0xbdc0b32f	-0.094091766
231	0x3e2276dc	0.15865654
232	0x3e3c3267	0.18378602
233	0xbe6fe4fd	-0.23427196
234	0xbe00c606	-0.1257554
235	0x3bf6ff26	0.0075377403
236	0xbe558d11	-0.20854594
237	0xbe421130	-0.18951869
238	0x3cd44f74	0.025916792
239	0x3daeff97	0.08544844
240	0x3dc9296c	0.09822354
241	0xbe227a41	-0.15866949
242	0xbd40a6ef	-0.0470342
243	0x3d1ef18e	0.038804583
244	0x3e098278	0.13428676
245	0xbe1df7e9	-0.15426601
246	0xbd5d06df	-0.05396163
247	0x3e9e0f7f	0.30871198
248	0x3de3f5a0	0.111308336
249	0xbd10a814	-0.03531654
250	0x3e13f529	0.1444899
251	0xbe1348c8	-0.14383233
252	0x3ce34020	0.027740538
253	0x3d9b12aa	0.07571919
254	0x3d51f980	0.051263332
255	0xbdd38027	-0.103271775

model.backbone.encoder.layers.0.self_attn.W_Q.bias f4 [16]
0	0x3dba2bfa	0.09090419
1	0x3df3ee13	0.119106434
2	0xbe07f854	-0.13278323
3	0x3d313cbe	0.04327082
4	0xbebe1c7f	-0.37131116
5	0x3d1bf0af	0.03807133
6	0xbe156f88	-0.14593327
7	0x3ddcba00	0.10777664
8	0x3e479d6b	0.19493644
9	0xbcbe0860	-0.023197353
10	0xbe40dc38	-0.18834007
11	0x3ea68049	0.3251975
12	0xbdf36561	-0.11884571
13	0x3d8b4fdb	0.068023406
14	0xbe2842f3	-0.16431789
15	0xbd5a6dc4	-0.053327337

model.backbone.encoder.layers.0.self_attn.W_K.weight f4 [16, 16]
0	0xbe7d53c7	-0.2473899
1	0xbe211f17	-0.15734516
2	0xbe13b0d8	-0.1442293
3	0x3e414065	0.18872221
4	0xbd350d6d	-0.044202257
5	0xbe4d5026	-0.20050105
6	0x3e03be47	0.12865554
7	0x3e557ed5	0.20849164
8	0x3e05a1c6	0.13049993
9	0xbce63eec	-0.028106175
10	0xbc81ae69	-0.015830236
11	0xbe20c39b	-0.15699618
12	0x3d1dd831	0.038536254
13	0x3e8012d1	0.25014356
14	0xbda5b493	-0.080910824
15	0xbe889bd0	-0.26681376
16	0xbdc4a7de	-0.096023306
17	0x3e24e4fa	0.16102973
18	0xbe1770e6	-0.14789161
19	0x3e356142	0.17712882
20	0x3da87b8d	0.082266904
21	0x3dde1bff	0.108451836
22	0xbdd48209	-0.10376365
23	0xbdb870b2	-0.0900587
24	0xbe67371d	-0.22579618
25	0x3cc8b055	0.024498144
26	0x3e2ac9c0	0.16678524
27	0x3e3c66b7	0.18398558
28	0x3dbfcf92	0.09365763
29	0xbe8219fc	-0.2541045
30	0x3e188805	0.14895637
31	0x3deb268e	0.11481963
32	0x3de40dff	0.11135482
33	0xbe3bf788	-0.18356144
34	0x3e738e31	0.2378471
35	0xbb322b71	-0.0027186538
36	0xbbe22086	-0.0069008498
37	0xbe0086e8	-0.12551463
38	0xbb36cbbe	-0.0027892436
39	0x3db3cc46	0.087791964
40	0x3d299d7c	0.041409954
41	0xbe157fd2	-0.14599541
42	0xbd162384	-0.036654964
43	0xbc3396db	-0.01096126
44	0xbd265ecf	-0.04061776
45	0x3d93fa20	0.07225442
46	0xbdeab3fd	-0.11460111
47	0x3e3ac327	0.18238507
48	0x3c25a0dd	0.010109154
49	0xbe3d4c1d	-0.18486066
50	0xbdc3b8de	-0.09556745
51	0xbe384526	-0.17995128
52	0x3e38d74b	0.18050878
53	0xbe473b27	-0.19456159
54	0x3e3eef9f	0.18646096
55	0x3d007e0c	0.031370208
56	0x3dee5b4f	0.116385095
57	0x3d9f0981	0.077654846
58	0xbe07fc2c	-0.1327979
59	0x3cb7d936	0.022442441
60	0xbe2c82c7	-0.16846763
61	0x3e2e435b	0.17017882
62	0xbe83a8f4	-0.25714839
63	0x3e32eb57	0.17472588
64	0x3e07f869	0.13278355
65	0x3d473d2f	0.048642334
66	0xbdc5c74d	-0.09657154
67	0x3e86d685	0.2633554
68	0xbe253af7	-0.16135775
69	0x3d16bf4e	0.036803536
70	0x3e11fe7b	0.14257233
71	0xbe3b2594	-0.18276054
72	0x3e96471f	0.29351136
73	0xbcedfad0	-0.02905026
74	0x3edafacd	0.4276947
75	0xbe4c8c91	-0.19975497
76	0x3d3d91f3	0.046281766
77	0x3ea8df89	0.32983044
78	0xbc68f72e	-0.0142190885
79	0x3e0a23ff	0.13490294
80	0xbe2ee02c	-0.17077702
81	0x3e594a9a	0.21219864
82	0xbd81b385	-0.06333069
83	0x3e25a955	0.16177876
84	0x3e2cb9b7	0.1686772
85	0x3e894a46	0.2681448
86	0x3db99d2c	0.09063181
87	0x3e8f33c5	0.27969185
88	0xbcf1f0da	-0.029533792
89	0x3e552859	0.20816173
90	0x3e166feb	0.14691131
91	0xbe109b8d	-0.14121838
92	0x3ddfd378	0.10929006
93	0xbe5daa7c	-0.21647066
94	0xbe1d4d94	-0.15361625
95	0xbe5be773	-0.2147501
96	0xbe4d669e	-0.20058677
97	0x3df1af91	0.11801065
98	0x3e71748c	0.23579615
99	0x3df3c206	0.119022414
100	0x3d84ab11	0.06477941
101	0xbe03db19	-0.12876548
102	0xbdda3a56	-0.10655658
103	0x3d1bff9b	0.03808556
104	0xbdaec2ba	-0.08533235
105	0x3d8a888c	0.067643255
106	0xbd03afeb	-0.03215019
107	0x3e0316b8	0.12801635
108	0xbe80e0b5	-0.25171438
109	0x3e68bb2c	0.2272765
110	0xbcce32c0	-0.025170684
111	0x3d13ae68	0.036055
112	0x3d691138	0.056901187
113	0xbda18783	-0.07887175
114	0xbe318426	-0.17335567
115	0xbc7f0d16	-0.015567085
116	0xbe6adc61	-0.2293563
117	0x3e88c3f1	0.2671199
118	0xbca9d8fc	-0.020733349
119	0x3caeb371	0.021325799
120	0xbd49d251	-0.04927284
121	0xbd8d629e	-0.06903575
122	0x3e220ef5	0.15826018
123	0xbe0bd5ef	-0.13655828
124	0x3e182a13	0.148598
125	0xbea8ee6f	-0.3299441
126	0xbe398ecf	-0.18120883
127	0xbe1d31a4	-0.15350968
128	0xbd5d6c46	-0.054058336
129	0x3d96162f	0.0732845
130	0xbd0e4a89	-0.03473905
131	0xbd98ee68	-0.074673474
132	0x3e2f91e3	0.17145495
133	0x3d4859d7	0.048913803
134	0xbe7cff6f	-0.24706815
135	0x3e51c641	0.20485784
136	0x3e5b9a17	0.214455
137	0x3dd0ce96	0.10195653
138	0xbe50c597	-0.20387875
139	0xbeb1243a	-0.3459795
140	0xbd916720	-0.07099748
141	0xbdc40973	-0.09572115
142	0xbd552172	-0.05203385
143	0xbea67448	-0.3251059
144	0x3e412dfc	0.18865198
145	0x3ce337fd	0.027736658
146	0x3dc6fbf1	0.09716023
147	0xbdb585fb	-0.08863445
148	0xbde12613	-0.1099359
149	0x3b8818d3	0.00415335
150	0xbd66fc21	-0.056392793
151	0x3bc06cb9	0.0058723358
152	0xbdbac105	-0.09118847
153	0x3d412244	0.04715182
154	0x3e315487	0.17317401
155	0x3c8937e0	0.016750276
156	0xbd70c612	-0.058782645
157	0x3e6b01e4	0.2294994
158	0x3e306eb2	0.17229727
159	0x3e12688e	0.14297697
160	0x3c2320a3	0.009956512
161	0xbd1361ea	-0.03598205
162	0x3d7380ed	0.059449125
163	0x3e43c115	0.19116624
164	0x3e504f57	0.20342766
165	0xbe31598e	-0.17319319
166	0x3df4f72e	0.11961208
167	0xbc59e275	-0.0132986205
168	0xbe9978cf	-0.29974982
169	0xbe81eb3d	-0.25374785
170	0xbd983b34	-0.07433167
171	0x3db3c744	0.08778241
172	0xbcd8c539	-0.02646123
173	0x3e81e21c	0.2536782
174	0x3e4f258e	0.2022917
175	0x3e42f2f0	0.19037986
176	0xbc6d0165	-0.0144656645
177	0x3e047642	0.12935737
178	0xbe11e15e	-0.14246127
179	0x3bc74707	0.006081465
180	0xbd9d5dc7	-0.07683902
181	0x3e7d87a0	0.24758768
182	0xbe36e344	-0.17860132
183	0x3e5463b4	0.20741159
184	0xbe9e6127	-0.30933496
185	0x3e945955	0.28974405
186	0x3d847d24	0.06469181
187	0xbdb46319	-0.08807964
188	0xbde97a99	-0.11400337
189	0xbbad8283	-0.005295099
190	0xbe79920d	-0.2437212
191	0x3da88fcb	0.08230551
192	0x3cbb80c9	0.022888558
193	0x3e05d0bd	0.13067909
194	0xbe1a05c3	-0.1504126
195	0x3c479869	0.0121823335
196	0x3b698d5d	0.0035637238
197	0x3e7a9324	0.24470192
198	0xbd4d1a65	-0.050074
199	0xbe81d78a	-0.25359756
200	0xbe4bdce5	-0.19908483
201	0xbddd9107	-0.108186774
202	0xbdbd30eb	-0.09237846
203	0xbe616495	-0.22011025
204	0xbe11b2ec	-0.1422841
205	0xbd4ae029	-0.049530182
206	0xbdb2e05d	-0.087342
207	0x3e20c985	0.15701874
208	0xbcad6618	-0.021166846
209	0x3d183a0d	0.037164737
210	0xbbe60d68	-0.007020641
211	0xbdf7fb08	-0.12108427
212	0x3d03507e	0.032059185
213	0x3c251b64	0.010077331
214	0x3e3774b2	0.1791561
215	0x3e6c7ec6	0.23095235
216	0xbda21a8f	-0.07915222
217	0x3d323338	0.043505877
218	0xbd041685	-0.03224804
219	0x3dac9e69	0.08428652
220	0xbe05ee35	-0.1307915
221	0x3ce84092	0.028351102
222	0x3e64640e	0.22303793
223	0xbe5c8609	-0.21535505
224	0x3dfdf782	0.12400724
225	0xbe839b80	-0.25704575
226	0x3e88048b	0.26565966
227	0x3da5a790	0.08088601
228	0xbd9ab9cc	-0.07554969
229	0x3ce708f5	0.028202513
230	0x3dbaa3ea	0.091132954
231	0xbe226c96	-0.15861735
232	0x3e9d9714	0.30779326
233	0x3e11df4a	0.14245334
234	0xbe0cf155	-0.13763936
235	0x3d53185f	0.051536914
236	0x3e805af6	0.25069398
237	0xbc9bb6e1	-0.019008102
238	0x3e8151f8	0.2525785
239	0xbe0dad3d	-0.13835616
240	0xbe40f047	-0.18841659
241	0xbe26fd77	-0.16307627
242	0x3d8c4728	0.068495095
243	0x3e71ab5c	0.23600525
244	0x3dfb1c98	0.12261313
245	0x3cdf25b9	0.027239667
246	0x3e04ea09	0.12979902
247	0x3d6c1cf9	0.057644818
248	0xbe58df9d	-0.21179052
249	0x3ca6d6fc	0.020366184
250	0xbc3dacbf	-0.01157683
251	0x3de719ad	0.11284194
252	0x3e3966fe	0.18105695
253	0x3cc99cbf	0.024610875
254	0x3da09ce6	0.07842426
255	0xbe508839	-0.20364465

model.backbone.encoder.layers.0.self_attn.W_K.bias f4 [16]
0	0xbd4685c5	-0.048467416
1	0xbdee7b3f	-0.11644601
2	0xbb15f0b7	-0.0022879073
3	0xbe363a8c	-0.17795771
4	0x3d83fea2	0.06445052
5	0x3e30239f	0.17201088
6	0xbe553a7e	-0.20823094
7	0x3e644712	0.22292736
8	0x3dd1bb74	0.10240832
9	0xbdef8a13	-0.116962574
10	0x3c4c1cb1	0.012458012
11	0xbe23e5d5	-0.16005643
12	0x3e764b83	0.24052243
13	0xbe3e296b	-0.18570487
14	0x3e6e22fa	0.2325553
15	0xbde09514	-0.109659344

model.backbone.encoder.layers.0.self_attn.W_V.weight f4 [16, 16]
0	0x3dcbfaa5	0.09959916
1	0xbdf5dd2d	-0.120050766
2	0x3b06c801	0.002056599
3	0x3dc908cf	0.09816133
4	0xbd17e059	-0.03707919
5	0x3d64c279	0.055849526
6	0xbd46f733	-0.04857559
7	0xbe258455	-0.16163762
8	0xbe73a3d3	-0.23792963
9	0xbe4b6add	-0.19864984
10	0xbdb99d18	-0.090631664
11	0x3d3d7189	0.046250854
12	0x3a1832e4	0.0005805923
13	0xbdb84d10	-0.089990735
14	0xbe5a0ec7	-0.212947
15	0xbc672b77	-0.014109484
16	0x3e7a23f4	0.24427778
17	0xbd025df9	-0.0318279
18	0xbe406420	-0.18788195
19	0x3e064c17	0.13114963
20	0xbe4d4fca	-0.20049968
21	0xbd8c3eff	-0.06847953
22	0x3db67557	0.089090995
23	0xbc77a912	-0.015115993
24	0x3e2323a2	0.15931562
25	0x3dc8cee8	0.09805089
26	0xbe5e1435	-0.21687396
27	0x3d4359f6	0.047693215
28	0xbc9dd46e	-0.019266333
29	0x3cec158d	0.02881887
30	0x3e1e72af	0.15473436
31	0x3dbca5f0	0.092113376
32	0xbe523617	-0.20528446
33	0x3daf486b	0.085587345
34	0x3dca76d8	0.09885949
35	0xbd9eddc8	-0.07757145
36	0x3e568c5a	0.20951977
37	0x3e3dd639	0.1853875
38	0xbe54d103	-0.20782857
39	0xbdb7cefc	-0.08975026
40	0x3e32f3b2	0.17475775
41	0x3e7e394c	0.24826545
42	0xbdc62b0c	-0.09676179
43	0xbe113db5	-0.14183696
44	0xbe386a8e	-0.18009397
45	0xbcb7f404	-0.022455223
46	0xbd3bea37	-0.04587766
47	0xbd62aeff	-0.05534267
48	0xbd8da8ab	-0.069169365
49	0xbd81e378	-0.06342214
50	0x3d5bd927	0.05367389
51	0x3e16cbed	0.14726229
52	0x3dc5ed80	0.0966444
53	0x3dc06b30	0.093954444
54	0xbe583124	-0.21112496
55	0x3d0babc1	0.034099344
56	0x3cc861e6	0.024460744
57	0x3e23ab79	0.1598338
58	0x3c1467aa	0.009057919
59	0x3ba8b066	0.0051479815
60	0xbe57e3a6	-0.21082935
61	0xbde7be8c	-0.11315641
62	0xbe162eec	-0.14666337
63	0xbe0d9f56	-0.13830313
64	0xbe32bf57	-0.17455803
65	0xbe55f079	-0.20892514
66	0x3e8b1aff	0.27169034
67	0xbdad96c2	-0.084760204
68	0xbe6cd8b3	-0.23129539
69	0x3e36e4ae	0.17860672
70	0xbecaafce	-0.39587253
71	0xbe3b0b7b	-0.18266098
72	0x3a91c98c	0.0011122688
73	0xbd02a200	-0.031892776
74	0x3e181fbe	0.14855859
75	0xbed5442d	-0.41653576
76	0xbe41c1bf	-0.18921565
77	0xbcb95343	-0.02262271
78	0xbe3448d1	-0.17605902
79	0xbd9919dc	-0.074756354
80	0xbebe6d96	-0.37192982
81	0xbecd9a54	-0.40156806
82	0x3d989b75	0.07451526
83	0x3b92a43a	0.0044751437
84	0xbd4aba4c	-0.049494073
85	0x3d2c1f75	0.042022187
86	0xbe709e27	-0.2349783
87	0x3ced9eed	0.029006446
88	0xbde13d1d	-0.109979846
89	0xbe2b08f8	-0.1670264
90	0xbb2d1c57	-0.0026414597
91	0xbe0c86e6	-0.13723335
92	0xbd85dc46	-0.065361544
93	0x3cc51911	0.024059804
94	0xbdb3112b	-0.08743509
95	0x3e9d0179	0.30665186
96	0x3e312af4	0.17301542
97	0x3dc108f4	0.09425536
98	0xbde52853	-0.11189332
99	0xbe38d22b	-0.18048923
100	0xbe3e96ba	-0.18612185
101	0xbe9a5037	-0.30139324
102	0x3e5c74f1	0.21528985
103	0xbe1c0031	-0.15234448
104	0x3d239739	0.03993914
105	0x3e15a97d	0.14615436
106	0x3e12b41d	0.1432652
107	0x3e42f575	0.19038947
108	0x3e00d090	0.1257956
109	0xbdbd1873	-0.09233179
110	0xbd1ca607	-0.038244274
111	0xbe6936bd	-0.22774787
112	0x3e9a47c8	0.3013289
113	0x3db6397b	0.08897682
114	0x3e27762a	0.1635367
115	0x3e8c67bf	0.27422902
116	0x3d682d6b	0.05668394
117	0xbe7b33d7	-0.24531494
118	0x3e2eeee2	0.17083314
119	0x3dda4b6d	0.106589176
120	0xbea0cda4	-0.3140689
121	0xbe88e55a	-0.2673748
122	0xbe0e0a9d	-0.13871236
123	0x3d244791	0.040107314
124	0x3e1f708c	0.15570277
125	0xbe639b13	-0.22227125
126	0xbe522ba0	-0.20524454
127	0xbe878a72	-0.26472813
128	0xbe0788cf	-0.13235782
129	0xbe49d2cc	-0.19709319
130	0xbd3f1299	-0.046648595
131	0x3d886a8e	0.06660949
132	0x3e40496c	0.18778008
133	0xbdd9893d	-0.10621879
134	0xbdfc54b4	-0.12320843
135	0xbdf8da8a	-0.12151058
136	0xbe0edaf5	-0.13950713
137	0x3e568220	0.20948076
138	0xbd8b8f6a	-0.068144634
139	0xbe827971	-0.25483277
140	0x3dbe5ba3	0.09294822
141	0xbc4de41a	-0.012566591
142	0xbdf00b3b	-0.11720892
143	0xbdcafce6	-0.09911518
144	0xbe0814e1	-0.13289215
145	0xbe486f53	-0.19573717
146	0xbe992641	-0.29911998
147	0x3e29642f	0.16542123
148	0x3e58e928	0.21182692
149	0xbe9d164f	-0.30681083
150	0x3e8046b0	0.2505393
151	0x3e970643	0.29496965
152	0xbe602399	-0.2188858
153	0xbe4cf334	-0.2001465
154	0xbe986502	-0.29764563
155	0x3e51b108	0.20477688
156	0x3e9a2f2c	0.30114114
157	0x3c85adee	0.016318288
158	0x3e86467f	0.2622566
159	0x3e67225b	0.225717
160	0x3e60962e	0.21932289
161	0x3d23ba6d	0.03997271
162	0xbd8e2581	-0.06940747
163	0x3e38e721	0.18056919
164	0xbe20526e	-0.15656444
165	0xbe8f208d	-0.27954522
166	0x3e0ad251	0.13556792
167	0xbb05ad7e	-0.00203976
168	0xbe6c2f68	-0.23064959
169	0xbd098a14	-0.033578947
170	0x3d8b557b	0.068034135
171	0x3e9a6f0b	0.30162844
172	0x3e2b264a	0.16713825
173	0x3c3f93b1	0.011692927
174	0xbdb4daea	-0.08830817
175	0x3e490fd1	0.1963494
176	0x3de77651	0.11301864
177	0xbd30b6f7	-0.04314324
178	0x3d1193d8	0.035541385
179	0x3c8bbb57	0.017057104
180	0x3c06b2c4	0.008221332
181	0x3e91824e	0.28419727
182	0x3dc7a0eb	0.097474895
183	0x3e337bb4	0.17527658
184	0x3c5a9e56	0.013343414
185	0xbd7ad7d4	-0.061240986
186	0x3dfaa8f6	0.12239258
187	0xbe6ca78d	-0.2311079
188	0x3e4b5a55	0.19858678
189	0xbdb822ae	-0.089909896
190	0xbd6437b1	-0.055717174
191	0xbdac36df	-0.08408903
192	0xbdc9c564	-0.098521024
193	0xbd5c7c54	-0.053829506
194	0xbd8cb148	-0.06869751
195	0x3dcbbd9a	0.09948273
196	0x3de0015b	0.109377585
197	0x3e224548	0.15846741
198	0x3d81bf95	0.063353695
199	0xbe60cf8e	-0.21954176
200	0xbda61039	-0.08108563
201	0x3d40576a	0.046958365
202	0xbe25a9c2	-0.16178039
203	0xbe50c4ea	-0.20387617
204	0x3e7080ca	0.23486629
205	0x3e71d8df	0.23617886
206	0xbdd03a0d	-0.10167322
207	0x3e33eafd	0.1757011
208	0xbe07b75b	-0.13253538
209	0x3d2c2611	0.04202849
210	0x3e0a5ebe	0.13512704
211	0x3e2ea4a3	0.17054991
212	0xbb6d655c	-0.0036223745
213	0x3e53924f	0.20661281
214	0xbe2d1d03	-0.16905598
215	0xbeaa7a50	-0.33296442
216	0x3e35c117	0.17749439
217	0x3df17524	0.11789921
218	0x3e471df0	0.19445014
219	0x3e0e35db	0.13887732
220	0x3c99eaa1	0.018788638
221	0x3e362372	0.17786959
222	0xbdf6bb63	-0.1204746
223	0xbe6246bc	-0.22097296
224	0xbd5d72a1	-0.054064397
225	0xbeac6523	-0.3367091
226	0xbd5c8c5d	-0.0538448
227	0x3db267d0	0.08711207
228	0xbdf5e880	-0.120072365
229	0xbe8d4b80	-0.27596664
230	0xbd4ff9d7	-0.050775375
231	0xbe2ecc51	-0.17070128
232	0x3e406aec	0.18790787
233	0xbe85d236	-0.2613694
234	0x3e076b9d	0.13224645
235	0x3d02b096	0.031906687
236	0xbd19350d	-0.03740411
237	0x3dc3f278	0.095677316
238	0x3e61e67d	0.2206058
239	0xbe23eee3	-0.16009097
240	0xbe1adc76	-0.15123162
241	0xbe5b2e57	-0.21404396
242	0xbd1bf1bd	-0.038072336
243	0xbe6a729e	-0.22895285
244	0x3e7612a0	0.24030542
245	0x3e2266a5	0.15859468
246	0xbe15eec2	-0.1464186
247	0x3e723d62	0.23656228
248	0xbe4fc1e9	-0.20288815
249	0x3e3f72ea	0.1869618
250	0x3dfdad34	0.123865515
251	0xbe341ca4	-0.1758905
252	0x3e2c8a99	0.16849746
253	0xbe412d67	-0.18864976
254	0xbc3fc039	-0.011703544
255	0x3e7f5cf1	0.24937798

model.backbone.encoder.layers.0.self_attn.W_V.bias f4 [16]
0	0xbe4009a1	-0.18753673
1	0x3e30abb1	0.17252995
2	0x3c1d61da	0.009605849
3	0xbe4c10fa	-0.19928351
4	0x3dc11927	0.094286256
5	0x3e24a220	0.16077471
6	0x3e18b867	0.14914094
7	0x3e492e98	0.1964668
8	0xbd8c7fa7	-0.06860285
9	0x3e47fd98	0.19530332
10	0xbe742904	-0.23843771
11	0xbe1a94df	-0.15095852
12	0x3c9fc75e	0.019504245
13	0x3e2adf6d	0.16686793
14	0x3e06ef12	0.13177136
15	0x3e1e4846	0.15457258

model.backbone.encoder.layers.0.self_attn.to_out.0.weight f4 [16, 16]
0	0xbe194eac	-0.14971417
1	0x3c38f619	0.011289143
2	0x3da5b10f	0.08090412
3	0xbe3307e6	-0.17483482
4	0xbd061d4b	-0.03274278
5	0x3e2aab2e	0.16666862
6	0x3d9cec31	0.076622374
7	0x3d1b84a1	0.03796828
8	0x3e014bd1	0.12626578
9	0xbc24d84f	-0.010061338
10	0xbe947a63	-0.28999624
11	0xbe40c190	-0.18823838
12	0x3e505e7a	0.2034854
13	0x3bfd48d7	0.0077296305
14	0x3e51d823	0.20492606
15	0xbe3e156c	-0.1856286
16	0x3e8384ec	0.2568735
17	0xbde847a2	-0.11341788
18	0xbddc2bda	-0.107505515
19	0x3e622f96	0.22088465
20	0x3dad4141	0.08459712
21	0xbd622f2c	-0.055220768
22	0x3d5a0a44	0.053232446
23	0xbdd79be4	-0.10527781
24	0xbdb8eecd	-0.09029923
25	0xbe7ebf37	-0.2487763
26	0x3db779e9	0.089587994
27	0xbdbe1dbb	-0.092830144
28	0xbdebc96a	-0.11513026
29	0x3e22c6e6	0.15896186
30	0x3d9d37ca	0.076766565
31	0xbe5e061f	-0.21682023
32	0xbe0142ac	-0.1262309
33	0xbe2d8bfa	-0.16947928
34	0x3e2458f6	0.16049561
35	0xbe25e741	-0.16201498
36	0xbd9ea28f	-0.07745849
37	0xbe8cec5e	-0.27524084
38	0x3ca493c0	0.020089984
39	0x3e317caf	0.1733272
40	0x3deef70a	0.11668213
41	0x3e904592	0.28178078
42	0x3e732159	0.2374319
43	0xbe915bc1	-0.28390315
44	0xbde73d4e	-0.1129099
45	0x3d851703	0.0649853
46	0xbe4e8b0c	-0.2017023
47	0xbcf896df	-0.030345378
48	0xbe4780a1	-0.19482662
49	0x3e203f5c	0.1564917
50	0x3e46d13d	0.19415756
51	0xbe87329d	-0.26405802
52	0x3af511e6	0.0018697351
53	0x3d26355b	0.040578227
54	0xbd3477fc	-0.04405974
55	0xbd8e264d	-0.06940899
56	0xbdc3353f	-0.0953164
57	0x3d0f1293	0.034929823
58	0xbddf34de	-0.108987555
59	0xbe8147fd	-0.25250235
60	0x3c9f0b2a	0.019414503
61	0xbd510aaa	-0.05103556
62	0x3c10fcb3	0.008849311
63	0x3e3b9df3	0.18321972
64	0x3db4aeb4	0.088223845
65	0x3e01fe67	0.12694703
66	0xbe8d7176	-0.27625626
67	0xbe8feb00	-0.28108978
68	0xbe382d7e	-0.17986104
69	0x3db5b4c5	0.0887237
70	0xbe3f9d72	-0.18712404
71	0x3e86cf1b	0.26329884
72	0xbdbc2ef4	-0.09188643
73	0xbdfb1a35	-0.12260858
74	0x3e075512	0.13216045
75	0x3e293b40	0.16526508
76	0xbd700967	-0.058602717
77	0xbdacfc79	-0.08446593
78	0xbd9b4768	-0.07581979
79	0xbe166aa8	-0.14689124
80	0x3d6ad289	0.05732969
81	0x3dc6912c	0.09695658
82	0xbdc14ebb	-0.09438845
83	0x3d28730e	0.04112535
84	0xbe9bc732	-0.3042541
85	0xbd905f0d	-0.070493795
86	0xbe2065fd	-0.15663905
87	0x3d242bd9	0.04008088
88	0xbe569186	-0.2095395
89	0x3c424052	0.0118561555
90	0x3da84566	0.08216362
91	0x3c348c81	0.011019827
92	0x3e1808e9	0.14847149
93	0xbe8ecb8d	-0.27889672
94	0xbda8a2ae	-0.08234154
95	0x3e40f961	0.1884513
96	0xbe7bb33f	-0.24580096
97	0xbc8e05d7	-0.017336769
98	0x3e4167e3	0.18887286
99	0xbe81c19f	-0.25343034
100	0x3e9ebe96	0.3100478
101	0x3e9d86db	0.3076695
102	0xbe1c43fb	-0.15260307
103	0xbe94cc66	-0.29062194
104	0x3def5d35	0.116877
105	0xbe46830d	-0.1938593
106	0xbe83223f	-0.25612065
107	0x3da9b8a1	0.08287168
108	0x3cfb91a3	0.030709093
109	0x3cc6c3ad	0.024263227
110	0x3e701501	0.23445512
111	0x3e6cdba7	0.23130666
112	0x3d8e4b6a	0.06947978
113	0x3d84fac9	0.06493146
114	0xbe4da318	-0.20081747
115	0xbd9db560	-0.0770061
116	0xbdabd7bf	-0.0839076
117	0x3dc591e2	0.096469656
118	0xbe6ceaac	-0.23136395
119	0xbd944a7b	-0.072407685
120	0xbe38a499	-0.18031539
121	0xbe7fabbd	-0.24967857
122	0xbe921997	-0.28535149
123	0x3e1aede0	0.15129805
124	0x3e1065ed	0.14101382
125	0xbe1a8cad	-0.15092726
126	0x3dda1e60	0.10650325
127	0xbe5351cf	-0.20636676
128	0xbe835876	-0.25653428
129	0xbe3aca5a	-0.18241253
130	0x3e455341	0.1927004
131	0xbe610db2	-0.2197788
132	0xbe05caea	-0.13065687
133	0x3e0624b3	0.13099937
134	0xbc84ac4d	-0.01619544
135	0xbe05d34d	-0.13068886
136	0xbc204af0	-0.0097834915
137	0x3e629e53	0.22130708
138	0x3c283f20	0.010268956
139	0xbe31611b	-0.17322199
140	0x3ddfbb89	0.10924441
141	0xbe10410e	-0.14087316
142	0xbe1009f0	-0.14066291
143	0x3d566a84	0.052347675
144	0x3c59086e	0.013246639
145	0x3d8ba7e1	0.0681913
146	0x3e271472	0.16316393
147	0xbde22e18	-0.11043948
148	0x3e9375f6	0.28800935
149	0x3c8c7601	0.017146112
150	0xbe8c0d4b	-0.27353892
151	0xbe4a1399	-0.19734038
152	0xbe37ac42	-0.17936805
153	0xbe5c1b72	-0.21494845
154	0xbcf82123	-0.030289238
155	0x3e2fccbe	0.17167947
156	0x3e15e660	0.14638662
157	0xbb108c45	-0.0022056263
158	0x3e19e067	0.15027009
159	0x3d86d50e	0.06583606
160	0xbd363d7d	-0.044492234
161	0x3c606eb4	0.013698269
162	0xbb87be28	-0.0041425414
163	0xbe09fd87	-0.1347562
164	0xbe818640	-0.25297737
165	0xbe4e8f12	-0.20171764
166	0x3e0809bd	0.13284965
167	0x3ddde833	0.10835304
168	0x3d904071	0.07043541
169	0x3e735f21	0.23766758
170	0x3e81981e	0.2531137
171	0x3d2c875a	0.04212127
172	0xbd7cc577	-0.061711755
173	0xbd7c8391	-0.06164891
174	0xbe0ce545	-0.13759334
175	0x3a38792a	0.0007037098
176	0x3b9b82c4	0.004745813
177	0xbe9476a8	-0.28996778
178	0x3dd11688	0.102093756
179	0x3de01751	0.10941947
180	0x3ebdf81a	0.3710335
181	0x3e4f69d1	0.2025521
182	0xbe358faa	-0.17730585
183	0xbe0cc6b7	-0.13747679
184	0x3e495805	0.19662483
185	0xbee5a1fd	-0.4485015
186	0xbb3ff4c9	-0.002929019
187	0xbe170483	-0.14747815
188	0xbe32fe52	-0.17479828
189	0xbe68b571	-0.22725464
190	0xbdeff88e	-0.1171733
191	0xbe529df7	-0.20568071
192	0xbe7086de	-0.23488948
193	0xbd646729	-0.055762444
194	0xbd5dfd54	-0.05419667
195	0xbdbbd1dc	-0.09170887
196	0xbe272618	-0.16323125
197	0x3e1ee6e9	0.15517773
198	0xbcca95e9	-0.024729686
199	0x3d0ba0b3	0.0340888
200	0x3dde27f2	0.10847463
201	0xbe1edf3b	-0.15514843
202	0x3e509261	0.20368339
203	0x3da91ae8	0.08257085
204	0xbea9c8a5	-0.33160892
205	0xbe8264a7	-0.25467417
206	0x3df7c1fe	0.12097548
207	0x3e87ffb8	0.26562285
208	0x3d286ac2	0.041117437
209	0xbd2e3cba	-0.042538382
210	0x3e8984ff	0.2685928
211	0x3df93bd1	0.12169612
212	0x3da6b2ac	0.08139548
213	0x3e0498d2	0.12948921
214	0x3dd1be34	0.102413565
215	0xbe071934	-0.13193208
216	0x3e6a3cb6	0.22874722
217	0xbc71c13c	-0.014755543
218	0xbe2145f8	-0.15749347
219	0x3d89d858	0.067307174
220	0x3c41f3bd	0.011837897
221	0x3e960fa0	0.29308796
222	0xbe4ac577	-0.1980189
223	0x3db65dea	0.089046314
224	0xbe6d8814	-0.23196441
225	0x3b687247	0.0035468505
226	0x3da927b1	0.08259524
227	0xbe3ed05d	-0.18634172
228	0xbe043580	-0.12911034
229	0x3cd85925	0.026409695
230	0x3e7b6a10	0.24552178
231	0x3d10617b	0.035249215
232	0xbd7b3476	-0.061329328
233	0x3dac4e96	0.084134266
234	0x3e953822	0.29144388
235	0x3c5a6f66	0.0133322235
236	0xbe4bc54c	-0.19899482
237	0xbda7e1ea	-0.081973866
238	0xbe7d0f4d	-0.24712868
239	0x3e4157ea	0.18881193
240	0x3d6ca3e8	0.0577735
241	0xbdd96559	-0.10615034
242	0x3e7bf376	0.24604592
243	0x3e26d233	0.16291122
244	0x3e0ee03c	0.13952726
245	0xbdff10da	-0.12454386
246	0x3e4c88de	0.19974086
247	0xbd8f1c66	-0.069878384
248	0xbe1aded4	-0.15124065
249	0x3d49b85a	0.049248077
250	0x3de524fb	0.11188694
251	0x3e272403	0.16322331
252	0xbc32675d	-0.010888902
253	0x3e861850	0.26190424
254	0x3e0e774a	0.13912693
255	0x3c9f07a3	0.019412821

model.backbone.encoder.layers.0.self_attn.to_out.0.bias f4 [16]
0	0x3e26c144	0.16284662
1	0xbdc704ca	-0.0971771
2	0x3c029e9f	0.0079723885
3	0x3de4c421	0.11170221
4	0x3de80ca0	0.11330533
5	0x3e578364	0.21046215
6	0xbdeb4cbe	-0.11489247
7	0xbdc81ba8	-0.097709
8	0xbd83ea37	-0.06441157
9	0xbce19875	-0.027538517
10	0xbda4f015	-0.080536045
11	0xbcbc337a	-0.022973765
12	0xbe51f6a5	-0.20504244
13	0xbe0cb6f6	-0.13741669
14	0x3de75c12	0.11296858
15	0xbe5cb605	-0.2155381

model.backbone.encoder.layers.0.norm_attn.1.weight f4 [16]
0	0x3f776e2e	0.96652496
1	0x3f68cd4c	0.9093826
2	0x3f89a2db	1.0752825
3	0x3f70ba98	0.9403472
4	0x3f712e47	0.9421124
5	0x3f8bebbb	1.0931314
6	0x3f866cc6	1.0501945
7	0x3f70159b	0.9378297
8	0x3f80eafd	1.0071713
9	0x3f7c4a5c	0.98550963
10	0x3f827bbc	1.0194011
11	0x3f88a3da	1.0675004
12	0x3f6a365a	0.91489184
13	0x3f8558ef	1.0417765
14	0x3f834b41	1.0257341
15	0x3f5d8737	0.86534446

model.backbone.encoder.layers.0.norm_attn.1.bias f4 [16]
0	0x3d1dd829	0.038536225
1	0x3d64a245	0.055818815
2	0xbb9475f1	-0.0045306613
3	0xbd219518	-0.039448828
4	0xbd874251	-0.06604446
5	0xbd6a8f8d	-0.057265807
6	0x3d1694e7	0.036763098
7	0x3bbbd630	0.0057323202
8	0xbd18ceb0	-0.037306488
9	0xbd53c027	-0.051696923
10	0x3c88569c	0.016642861
11	0x3cd37e77	0.02581714
12	0xbd60976f	-0.05483192
13	0xbd3d964e	-0.04628592
14	0xbd0d212f	-0.034455474
15	0xbbe8b40e	-0.0071015423

model.backbone.encoder.layers.0.norm_attn.1.running_mean f4 [16]
0	0x3e9e82c2	0.30959135
1	0xbe774363	-0.241468
2	0x3dd4658c	0.10370931
3	0x3e91d6b8	0.2848413
4	0x3e03be52	0.1286557
5	0x3e164b86	0.14677247
6	0x3da28b58	0.07936734
7	0xbec214a0	-0.3790636
8	0x3dedc017	0.11608904
9	0x3e268c38	0.16264427
10	0xbe201080	-0.15631294
11	0xbe7050d2	-0.2346833
12	0xbe4608d5	-0.19339307
13	0x3e23fd1e	0.16014525
14	0x3dc32f8e	0.09530555
15	0xbe0c6744	-0.13711268

model.backbone.encoder.layers.0.norm_attn.1.running_var f4 [16]
0	0x3ebce356	0.36892194
1	0x3ed191c7	0.40931532
2	0x3fa8c08a	1.3183758
3	0x3f85699a	1.0422852
4	0x3f037003	0.5134279
5	0x3ef0c399	0.4702423
6	0x3f18df65	0.59715873
7	0x3f2244bc	0.6338613
8	0x3eb1883e	0.34674257
9	0x3fcbadcb	1.5912412
10	0x3f5466d4	0.82969403
11	0x3f067b56	0.52531946
12	0x3ea4cee3	0.32189092
13	0x3e876343	0.26442918
14	0x3f464843	0.7745401
15	0x3e556632	0.20839766
