TSF_Finance/checkpoints/ixic_200__PatchTST_custom_ftM_sl200_ll48_pl36_dm16_nh4_el3_dl1_df128_fc1_ebtimeF_dtTrue_Exp_0/checkpoint.pth (torch_old, 298394 bytes, 65 tensors)

model.backbone.W_pos f4 [90, 16]
0	0x3c7a585d	0.0152798565
1	0xbb0e8d86	-0.0021751835
2	0xbb888235	-0.0041659125
3	0x3d10168e	0.03517776
4	0x3cbccc12	0.023046527
5	0x3bb77f0b	0.0055998615
6	0x3cb21be4	0.021741815
7	0xbc7a5b4a	-0.015280554
8	0xbc6a6c15	-0.014307995
9	0x3b902f9c	0.0044002067
10	0xbcb893cf	-0.022531418
11	0x3ca408f6	0.020023804
12	0x3b3c7832	0.0028758165
13	0xbc48d09a	-0.012256766
14	0xbb824866	-0.0039759157
15	0xbc7799e0	-0.01511237
16	0x3cade91d	0.021229321
17	0x3d056852	0.03257019
18	0x3c60dd98	0.013724707
19	0x3d103099	0.035202596
20	0xbc0f5982	-0.008749368
21	0x3cb90b0e	0.02258828
22	0xbd154b8c	-0.036449
23	0xbbdcf241	-0.006742746
24	0xbd484e4e	-0.048902802
25	0xbc09f240	-0.008419573
26	0x3d21ad73	0.039472055
27	0xbc186290	-0.009300843
28	0xbd3427fd	-0.04398345
29	0x3d173178	0.03691241
30	0xbc6dcf22	-0.014514716
31	0xbd286cc9	-0.04111937
32	0xbb9134f3	-0.004431361
33	0xbc9a2585	-0.018816719
34	0x3b44bc53	0.0030019477
35	0x3c48e73d	0.012262163
36	0xbce96515	-0.028490582
37	0x3ce2f759	0.027705835
38	0x3bd2156d	0.0064112456
39	0xbc724c37	-0.014788679
40	0xbb79ffa5	-0.003814676
41	0xbc104b64	-0.008807037
42	0xbc3e305f	-0.011608212
43	0xbc517b99	-0.012785816
44	0xbc570fdb	-0.013126339
45	0xbc13e54c	-0.009026837
46	0x3a9ee7d3	0.0012123532
47	0x3c9a6017	0.018844647
48	0x3c11ef55	0.008907159
49	0xbbdcee4b	-0.006742274
50	0x3ce70808	0.028202072
51	0x3d0b7856	0.03405031
52	0xbceae302	-0.028672699
53	0x3cf76360	0.030198753
54	0x3ccee6a0	0.025256455
55	0xbd1df277	-0.03856131
56	0xbce3923b	-0.027779689
57	0x3cddd1fe	0.027077671
58	0x3bb19839	0.0054197577
59	0xbc32221f	-0.010872393
60	0xbc39e3cb	-0.011345814
61	0xbc57087e	-0.013124583
62	0x3badbc3b	0.00530198
63	0xbd3737e1	-0.044731025
64	0xbccd250a	-0.025042076
65	0x3c98081e	0.018558558
66	0xbc9a9a88	-0.018872514
67	0x3cd609f3	0.026127791
68	0xbcae4496	-0.021272939
69	0x3d2129f6	0.039346658
70	0x3c9d3d3a	0.019194234
71	0xbcd2a5d9	-0.025713848
72	0xbc34bcb0	-0.011031315
73	0xbcb93502	-0.022608284
74	0x3cf9fd1b	0.030516198
75	0xbcb1c18b	-0.021698734
76	0xbc1152ef	-0.008869871
77	0x3c6b2583	0.014352205
78	0xbd1c07d7	-0.038093414
79	0xbbb9a22f	-0.0056650857
80	0xbccdcd00	-0.025122166
81	0x3cad75f0	0.021174401
82	0x3cbde83e	0.02318203
83	0x3cb94f6c	0.02262088
84	0xbc1bae45	-0.009501998
85	0x3c6a164b	0.014287542
86	0x3ca20a62	0.019780342
87	0x3d13cc5c	0.036083564
88	0xbbeda2d8	-0.0072520785
89	0xbb9d08fb	-0.0047923303
90	0x3c102671	0.008798228
91	0x3bbdba40	0.005790025
92	0xbd3327d2	-0.043739147
93	0xbcfa6bd8	-0.030569002
94	0xbd1adca4	-0.037808076
95	0xbd083c38	-0.033260554
96	0x3d1f7c94	0.038937166
97	0x3c2abc1f	0.010420828
98	0x3d648ed7	0.055800285
99	0x3be54d13	0.0069977134
100	0xbd11fe11	-0.035642687
101	0xbcb2d20b	-0.021828672
102	0x3c05b130	0.008159921
103	0xbcc7bd2b	-0.024382195
104	0x3ad5fc21	0.0016325751
105	0x3cb06c04	0.02153588
106	0x3c893186	0.016747247
107	0xbcfaef6b	-0.030631742
108	0x3c2997fe	0.010351179
109	0xbcc545b8	-0.024081096
110	0x3b9f96cb	0.004870271
111	0x3c998149	0.018738406
112	0x3c362c0d	0.011118901
113	0x3cca7967	0.024716092
114	0xbc97c21e	-0.01852518
115	0x3cefc66d	0.029269421
116	0x3d20f4ab	0.039295834
117	0xbd01bf86	-0.03167679
118	0xbceb7df8	-0.02874659
119	0x3ce1728a	0.027520437
120	0x3cee6c70	0.029104441
121	0x3cd7912d	0.026314342
122	0xbce6e498	-0.028185174
123	0x3980f33c	0.00024595286
124	0x3c51613a	0.012779528
125	0x3d1a4ad3	0.037669014
126	0x3c5eebc3	0.013606015
127	0xbd05f0b4	-0.032700256
128	0x3b3072da	0.0026923926
129	0x3c9efe0b	0.019408247
130	0xbb8a41dc	-0.004219277
131	0xbc3f4e0e	-0.0116763245
132	0xbc91b443	-0.01778615
133	0x3d1e5304	0.03865339
134	0xbc001a6c	-0.0078187995
135	0xbd18c94f	-0.037301358
136	0xbd33ca95	-0.04389437
137	0xbd1e9b07	-0.038722064
138	0xbc0e316f	-0.008678778
139	0xbcf7ee6f	-0.030265061
140	0x3b812af0	0.003941886
141	0xbd18d014	-0.037307814
142	0x3c4bcfc4	0.012439672
143	0xbc8859ac	-0.016644321
144	0x3c1f9c5c	0.009741869
145	0x3d0363b4	0.032077506
146	0xbcd72d9b	-0.026266864
147	0x3ca9e8fe	0.020740982
148	0x3ce8ab76	0.028402071
149	0x3c1a1f58	0.009406887
150	0x3ce317e3	0.027721351
151	0x3d2921df	0.041292068
152	0x3c8666c9	0.016406434
153	0xbd117354	-0.035510376
154	0xbd0ee5e6	-0.034887217
155	0xbd0add1c	-0.033902273
156	0x3ca41b2c	0.020032488
157	0xbd40ef17	-0.047103014
158	0xbcf1c550	-0.029513031
159	0xbcbb502a	-0.022865374
160	0x3d36ce60	0.04463041
161	0xbc97d52c	-0.018534265
162	0xbce45be0	-0.02787584
163	0x3d28a6f0	0.04117483
164	0x3c865386	0.016397249
165	0x3ce1e682	0.027575735
166	0xbcd25b8f	-0.025678424
167	0xbc2ad03a	-0.010425622
168	0xbd202baa	-0.03910414
169	0x3c4814cb	0.012211989
170	0x3d1294a4	0.035786286
171	0xbcd6a68e	-0.026202466
172	0xbc1b5f54	-0.009483177
173	0xbcf5ad4a	-0.029989857
174	0x3c5c4b3a	0.01344567
175	0xbce9751a	-0.028498221
176	0x3ca937fa	0.020656575
177	0x3c09364f	0.008374765
178	0x3d20fee2	0.039305575
179	0xbd2e2515	-0.042515833
180	0x3ca83b25	0.020536015
181	0x3cde9949	0.027172701
182	0xbd074b27	-0.033030655
183	0xbd09c959	-0.033639286
184	0xbc86ff63	-0.0164792
185	0xbcc62d14	-0.024191417
186	0x3c3e6a85	0.011622076
187	0xbb6b3fa1	-0.003589608
188	0xbce38c12	-0.027776752
189	0x3d069941	0.032860998
190	0x3c768a7c	0.015047666
191	0x3c0693f7	0.0082139885
192	0x3bcea21b	0.0063059456
193	0x3cc8ef2c	0.024528109
194	0xbd2456dc	-0.040121898
195	0x3cd53d7b	0.026030293
196	0xbcb6db27	-0.022321297
197	0x3c4ed67b	0.012624378
198	0xbd78fb28	-0.060786396
199	0xbc5f03b5	-0.013611724
200	0xbbd18ccc	-0.006394958
201	0x3c101181	0.008793236
202	0xbc9231b7	-0.017845972
203	0xbb59a0d4	-0.0033207433
204	0xbc301403	-0.010746959
205	0x3be15f59	0.0068778214
206	0xbcefe24a	-0.029282708
207	0x3c2e7ac9	0.010649391
208	0x3c5031f8	0.012707226
209	0xba0937a4	-0.00052344264
210	0x3cbd4009	0.023101823
211	0xbce118e1	-0.027477683
212	0x3d2aefef	0.041732725
213	0xbca5ab34	-0.020223238
214	0xbd04f17b	-0.032456856
215	0xbc7e8455	-0.01553448
216	0xbc2cd1da	-0.010548079
217	0xbcface8d	-0.03061607
218	0xbbfb871e	-0.0076760193
219	0xbd189825	-0.03725447
220	0xbd0d5217	-0.034502115
221	0xbcd181ae	-0.025574531
222	0xbc4d49ab	-0.012529771
223	0xbc87f8e5	-0.016598174
224	0xbc3caf5d	-0.011516419
225	0x3c6da9b3	0.0145057915
226	0x3cb01dce	0.021498587
227	0x3c8e74d0	0.017389685
228	0xbbcd5c2f	-0.0062670927
229	0xbcba9e2c	-0.0227805
230	0xbd411bd4	-0.04714568
231	0xbd09dc4a	-0.03365735
232	0x3cc4e8bd	0.02403676
233	0xbcf5b3db	-0.029992988
234	0x3ca9aba1	0.020711722
235	0xbc47cb73	-0.012194502
236	0xbd2f4c3c	-0.042797312
237	0x3c820a51	0.01587406
238	0x3cc104ae	0.023561802
239	0xbcf0b921	-0.029385151
240	0xbb29ba8e	-0.0025898549
241	0xbd14821b	-0.03625689
242	0xb9e0e150	-0.0004289248
243	0x3d17c97d	0.03705739
244	0xbb05dbc1	-0.0020425173
245	0x3b6df673	0.0036310225
246	0xbd2a5314	-0.041583136
247	0xbd28eb09	-0.041239772
248	0xbd15a097	-0.036530104
249	0xbd0c316e	-0.034226827
250	0x3c1c5dbf	0.009543835
251	0xbc2f6019	-0.010704064
252	0xbcbaf645	-0.022822509
253	0xbc7c9952	-0.015417414
254	0x3d46b29e	0.048510186
255	0xbd455136	-0.048173152

model.backbone.W_P.weight f4 [16, 24]
0	0xbe2ae557	-0.16689049
1	0xbc1742f1	-0.009232269
2	0x3dae0226	0.084965035
3	0x3d95a6a9	0.073071785
4	0x3c39223b	0.011299665
5	0xbe1fd52d	-0.15608664
6	0xbe54761d	-0.20748182
7	0x3e2b4ab1	0.16727711
8	0xbde45b16	-0.11150186
9	0xbe49bc6f	-0.19700788
10	0x3dc1c082	0.09460546
11	0xbe611a4a	-0.21982685
12	0x3de01004	0.10940555
13	0xbe347e65	-0.1762634
14	0x3d9a7ae1	0.075429685
15	0xbda83358	-0.08212918
16	0xbcaefc3f	-0.021360515
17	0xbde64683	-0.11243918
18	0x3dbb1c79	0.0913629
19	0x3d9a5189	0.07535083
20	0x3dd6d174	0.10489169
21	0xbdbd3dc1	-0.09240294
22	0x3e3f113b	0.18658917
23	0xbc238940	-0.009981453
24	0xbd740516	-0.059575163
25	0xbe48c0fb	-0.19604866
26	0x3e02f84a	0.12790027
27	0xbe3f76f6	-0.18697724
28	0xbe0ffce9	-0.14061321
29	0xbdaeb7c2	-0.08531143
30	0x3d7254cb	0.059162896
31	0x3d7d7271	0.061876718
32	0x3df5062d	0.119640686
33	0xbbc44bb7	-0.005990471
34	0x3da5ca8a	0.08095272
35	0x3df97d4b	0.12182101
36	0xbe57d82b	-0.21078555
37	0xbe3fd583	-0.18733792
38	0xbe5feb1b	-0.2186703
39	0xbe292f6e	-0.16521999
40	0x3daa56a3	0.08317306
41	0x3e28643a	0.16444483
42	0x3d4cbe30	0.049986064
43	0xbe39f316	-0.18159136
44	0x3d9a8b46	0.075460956
45	0x3dbdc712	0.09266485
46	0x3e1f281b	0.15542643
47	0xbe5af000	-0.21380615
48	0xbcb0575e	-0.021526035
49	0xbdbcf7e5	-0.0922697
50	0x3e4007cf	0.18752979
51	0x3dfe2769	0.12409861
52	0x3d0e2b36	0.034709178
53	0x3cd8c055	0.026458899
54	0x3dd469b1	0.103717215
55	0xbe0ff5c3	-0.14058594
56	0x37160aa0	8.9431705e-06
57	0xbe057335	-0.13032229
58	0x3dc34d4d	0.09536228
59	0x3da2c813	0.079483174
60	0xbe205396	-0.15656886
61	0x3bc48524	0.005997317
62	0x3dd52c1e	0.10408805
63	0x3de4baca	0.1116844
64	0x3e4a4434	0.1975258
65	0xbe318da8	-0.17339194
66	0xbd65c9f2	-0.056100793
67	0xbda583f6	-0.0808181
68	0xbe36c202	-0.17847446
69	0xbe5da974	-0.21646672
70	0xbe3c69eb	-0.1839978
71	0x3d80c851	0.06288207
72	0xbe327ba1	-0.17429973
73	0xbdcc7691	-0.09983552
74	0xbe137ecf	-0.14403842
75	0xbe2de698	-0.16982496
76	0x3e29b547	0.16573058
77	0xbd22a372	-0.039706655
78	0xbdc30d76	-0.09524052
79	0x3e23a7a2	0.15981916
80	0xbe13f33c	-0.14448255
81	0xbdeaf49b	-0.11472436
82	0xbdb66622	-0.08906199
83	0xbe232c6e	-0.15934917
84	0xbe02d245	-0.12775524
85	0xbd9d2002	-0.07672121
86	0xbc173451	-0.009228782
87	0xbe13a822	-0.14419606
88	0xbcee21a5	-0.029068777
89	0x3e368846	0.17825422
90	0xbcb924ba	-0.02260052
91	0xbd3ca464	-0.046055213
92	0xbe64ac6e	-0.22331402
93	0xbe317dab	-0.17333095
94	0x3db1c75c	0.08680603
95	0x3dcd625c	0.10028526
96	0xbe558cd6	-0.20854506
97	0x3cd38ef4	0.025825001
98	0x3cffbc57	0.031217737
99	0xbdc516e9	-0.096235104
100	0x3e1c2163	0.15247111
101	0x3cd7b0f0	0.026329488
102	0xbe219954	-0.15781146
103	0x3e2e56e3	0.17025332
104	0x3dc5023a	0.09619565
105	0xbdc46312	-0.09589209
106	0x3ca1f4c3	0.019770032
107	0x3e197556	0.14986166
108	0x3e27eff9	0.16400136
109	0x3dc954d3	0.09830632
110	0x3d773811	0.060356203
111	0xbbe5be99	-0.0070112464
112	0x3d2851c1	0.04109359
113	0xbe1357c1	-0.14388944
114	0x3c1453a6	0.0090531465
115	0xbe471f17	-0.19445454
116	0x3df9d965	0.12199668
117	0xbe102ada	-0.14078847
118	0xbe07b8c4	-0.13254076
119	0x3e27428d	0.16333981
120	0xbd67a6e7	-0.056555655
121	0xbe001e2f	-0.12511514
122	0xbe19c173	-0.15015201
123	0x3dc99137	0.09842151
124	0xbe2c55cc	-0.16829604
125	0x3e2abb46	0.16673002
126	0x3da30576	0.07960026
127	0x3e4f7826	0.20260677
128	0xbd708626	-0.058721684
129	0xbe1e4ed5	-0.1545976
130	0xbb8faca5	-0.0043845945
131	0x3e34c137	0.1765183
132	0xbd928d56	-0.07155864
133	0xbe2f9191	-0.17145373
134	0x3e29aa1f	0.16568802
135	0x3e1cbdef	0.15306829
136	0x3e35d09c	0.1775536
137	0x3e09aa57	0.13443886
138	0x3c782046	0.015144413
139	0xbe23bb4c	-0.15989417
140	0xbe16b171	-0.14716126
141	0xbde8b847	-0.11363273
142	0xbe1ce841	-0.15322973
143	0xbe42c0a7	-0.19018804
144	0x3e14b337	0.1452149
145	0x3e1011cb	0.14069287
146	0xbe11eff3	-0.1425169
147	0xbccae777	-0.024768574
148	0x3e349c9f	0.17637871
149	0x3daa5d39	0.08318562
150	0xbd71e5f0	-0.059057176
151	0xbd90463d	-0.07044647
152	0x3db1d1fb	0.08682629
153	0xbdc3334b	-0.09531268
154	0xbe2b775a	-0.16744748
155	0xbd8eaa8e	-0.069661245
156	0x3df6e22f	0.1205486
157	0xbdb22284	-0.086979896
158	0xbe17895c	-0.14798492
159	0xbda7280b	-0.081619345
160	0xbda75f26	-0.08172445
161	0xbe174eb5	-0.14776118
162	0xbb46624d	-0.0030270994
163	0x3dc9c2c4	0.09851602
164	0x3e490b02	0.19633105
165	0x3d8e6dd0	0.06954539
166	0x3e3e4861	0.18582298
167	0x3dd6bd50	0.10485327
168	0xbd5117fe	-0.05104827
169	0xbe1ae7dc	-0.1512751
170	0xbd4b099a	-0.049569704
171	0x3dc938bb	0.098252736
172	0x3d357b41	0.044306997
173	0xbd554104	-0.052063957
174	0xbbc949ea	-0.0061428444
175	0x3d9aeab8	0.075643
176	0xbc9ac001	-0.018890383
177	0x3e21702c	0.15765446
178	0xbdfe83c1	-0.12427474
179	0x3ce7ae44	0.028281339
180	0x3df0f2d3	0.11765065
181	0x3e2a7dfa	0.16649619
182	0x3d0eae21	0.03483403
183	0x3cb1d292	0.021706853
184	0x3e3bcf95	0.18340905
185	0xbe0d3196	-0.13788447
186	0xbdba0604	-0.09083179
187	0xbde3eabc	-0.111287564
188	0x3e4e50dc	0.20148033
189	0x3c91a6ce	0.017779734
190	0xbe1f645e	-0.15565631
191	0x3ced9686	0.02900244
192	0xbe36d138	-0.17853248
193	0x3e0128f7	0.12613283
194	0x3e361936	0.17783055
195	0x3dd57a11	0.10423673
196	0xbcb49920	-0.022045672
197	0xbdc2d1c1	-0.09512664
198	0x3e4d393e	0.20041367
199	0xbc73eb93	-0.014887708
200	0x3dd7d894	0.10539356
201	0x3c2b83d9	0.010468447
202	0x3e49f040	0.19720554
203	0xbc25ecb2	-0.010127233
204	0x3e214d1a	0.15752068
205	0xbe02d7a9	-0.1277758
206	0xbe14757e	-0.14497945
207	0x3d6b29af	0.0574128
208	0x3e48662e	0.19570228
209	0xbde0532c	-0.10953364
210	0x3e2440e5	0.1604038
211	0x3d507ee7	0.050902274
212	0xbe1f2bc5	-0.1554404
213	0xbdc94579	-0.09827704
214	0xba846228	-0.0010100054
215	0x3d78fbec	0.060787126
216	0x3dad2498	0.08454245
217	0x3e3b0b4b	0.18266027
218	0x3e335516	0.17512926
219	0xbe26cb1e	-0.1628842
220	0x3de706f1	0.11280621
221	0xbd5baea3	-0.053633343
222	0xbc570d9d	-0.013125804
223	0x3e4b2568	0.19838488
224	0xbcc83e3e	-0.024443742
225	0xbd872c1c	-0.0660021
226	0x3e0822f9	0.13294591
227	0x3c9094f7	0.017649157
228	0x3d6daea5	0.058027882
229	0x3d0817dd	0.033225883
230	0x3e5909bf	0.21195124
231	0x3e4582a4	0.19288117
232	0x3dcc0d47	0.0996347
233	0x3d6630bf	0.05619883
234	0x3dd1c961	0.10243488
235	0xbd25adca	-0.04044894
236	0x3e1d5763	0.15365367
237	0x3e522099	0.20520248
238	0x3e4d78dd	0.20065637
239	0xbd843104	-0.064546615
240	0xbde8e328	-0.113714516
241	0x3e1e2000	0.15441895
242	0x3e133533	0.14375763
243	0x3dd79e53	0.10528245
244	0x3e18f769	0.1493813
245	0x3e314d8c	0.17314738
246	0xbdf2b568	-0.11851007
247	0xbe335315	-0.17512162
248	0xbc803e64	-0.01565475
249	0x3ddd3ef9	0.10803027
250	0xbde13022	-0.10995509
251	0xbe10c8ea	-0.14139143
252	0xbe5998e7	-0.21249734
253	0x3c629f95	0.013831993
254	0x3bb9c54f	0.005669273
255	0xbe027214	-0.1273883

model.backbone.W_P.bias f4 [16]
0	0xbd79f542	-0.06102491
1	0x3d938a10	0.07204068
2	0x3c8bc80b	0.017063161
3	0xbd491475	-0.049091775
4	0x3e18bd65	0.14915998
5	0xbcee9754	-0.029124893
6	0x3cacc34e	0.021089222
7	0xbe3e2d67	-0.18572007
8	0xbdb9c39f	-0.09070515
9	0x3e19ab0d	0.15006657
10	0x3ca9006c	0.020630084
11	0x3de57ed7	0.112058334
12	0x3d1ce070	0.038299978
13	0x3e2a95ea	0.1665875
14	0xbe0350f7	-0.12823854
15	0x3cb19cf3	0.021681285

model.backbone.encoder.layers.0.self_attn.W_Q.weight f4 [16, 16]
0	0xbd67e05d	-0.056610454
1	0xbe66fae5	-0.22556646
2	0xbdbda83a	-0.09260602
3	0x3d9e57de	0.07731603
4	0xbd783c3a	-0.06060431
5	0xbe019723	-0.1265531
6	0xbdc209f5	-0.094745554
7	0xbd4b4cc2	-0.04963375
8	0x3e4c31b9	0.19940843
9	0xbe2aa89e	-0.16665885
10	0x3bebf657	0.007200997
11	0x3c4ceddf	0.012507885
12	0xbd87f31f	-0.066381685
13	0x3d3a0661	0.04541624
14	0x3e77a17b	0.24182694
15	0xbe343a02	-0.17600253
16	0xbe48f049	-0.19622912
17	0xbe841298	-0.25795436
18	0xbb4263e4	-0.002966159
19	0xbe6e135c	-0.23249573
20	0x3e524f63	0.20538096
21	0x3db7d3a4	0.08975914
22	0xbdff2482	-0.12458135
23	0x3e298ad8	0.16556871
24	0xbe30a259	-0.1724943
25	0x3e0bdd19	0.13658561
26	0x3e45b0e6	0.19305763
27	0xbe2d41dc	-0.16919655
28	0x3e49eeda	0.19720021
29	0xbe18e039	-0.14929284
30	0xbc812cc3	-0.015768414
31	0x3e788f4d	0.24273415
32	0xbe2ab6a1	-0.1667123
33	0x3e47bd0c	0.1950571
34	0xbd5fba61	-0.054621104
35	0xbe43f125	-0.19134958
36	0x3e08135e	0.13288638
37	0x3e3f106e	0.18658611
38	0x3e0735ea	0.1320416
39	0x3e3c0fa6	0.18365344
40	0xbdd82f6e	-0.105559215
41	0x3e22d4f3	0.15901546
42	0xbe575503	-0.21028523
43	0xbe315857	-0.17318855
44	0x3b3fcf84	0.0029267976
45	0x3dbfe266	0.09369354
46	0x3e1c5d9f	0.15270089
47	0x3e0f6d75	0.14006598
48	0xbdf52cb3	-0.11971416
49	0x3d943bd5	0.072379746
50	0x3c996cd6	0.018728655
51	0xbdfe51b0	-0.124179244
52	0xbe46186f	-0.19345258
53	0x3d3c6523	0.04599489
54	0x3de31829	0.110885926
55	0x3cc168d4	0.023609556
56	0x3e035037	0.12823568
57	0x3d9ab7e3	0.07554605
58	0xbe2ad145	-0.16681392
59	0xbe336825	-0.17520197
60	0x3e426fad	0.18987913
61	0xbc865b6c	-0.016401015
62	0x3e6aadad	0.22917815
63	0xbe5718e7	-0.21005593
64	0x3e4c0339	0.19923104
65	0xbdecd1ff	-0.11563491
66	0x3b988eae	0.0046556806
67	0x3e701437	0.23445211
68	0x3dc01844	0.09379628
69	0xbd6b53bf	-0.057452913
70	0x3cfc7246	0.030816209
71	0xbe323c25	-0.17405756
72	0xbddf6f50	-0.10909903
73	0xbe2d89e1	-0.16947128
74	0x3ded0a88	0.11574274
75	0xbe20b75a	-0.15694943
76	0xbd343a1b	-0.044000726
77	0x3e7e89ca	0.2485725
78	0x3d856526	0.06513433
79	0xbe3f6db6	-0.18694195
80	0xbe005906	-0.1253396
81	0xbe721373	-0.23640232
82	0x3e1fe6c0	0.15615368
83	0xbe88a519	-0.2668846
84	0x3c0633fd	0.008191106
85	0xbe5e6899	-0.21719588
86	0x3c284f3d	0.010272798
87	0x3e297634	0.16548997
88	0x3e00b9f1	0.12570931
89	0x3e4a76f5	0.19771941
90	0x3e046cfd	0.129322
91	0xbe6e7945	-0.23288448
92	0xbe392c8e	-0.18083403
93	0x3d19a113	0.037507128
94	0xbe012312	-0.12611035
95	0xbcbbb118	-0.022911593
96	0xbe0f91e8	-0.14020503
97	0x3e1c7274	0.15278035
98	0x3e858182	0.2607537
99	0xbe45ae7a	-0.19304839
100	0x3d98bbb4	0.074576765
101	0x3df72cdb	0.120691024
102	0xbe5b0351	-0.21387984
103	0xbe52a2ee	-0.20569965
104	0xbe53b17f	-0.20673178
105	0xbdf0b4a9	-0.11753208
106	0xbdb5a496	-0.08869283
107	0xbe86ec7b	-0.26352295
108	0xbd64b2ff	-0.055834766
109	0xbd1f505b	-0.038894992
110	0x3e24d519	0.16096915
111	0x3df944b6	0.12171309
112	0x3e2066ea	0.15664259
113	0x3db22a08	0.08699423
114	0xbe4d2054	-0.20031863
115	0xbe315368	-0.17316973
116	0xbddcaf9b	-0.107756816
117	0x3e0cf8c9	0.13766779
118	0xbe7c8058	-0.24658334
119	0x3e43c857	0.19119392
120	0xbd9206d7	-0.07130211
121	0xbe1ea94e	-0.15494272
122	0x3e4da60e	0.20082876
123	0x3e267580	0.1625576
124	0xbd8eeccb	-0.069787584
125	0xbda6abdd	-0.08138249
126	0xbe01ae54	-0.12664157
127	0xbdaaa6fc	-0.08332631
128	0x3ce1a1a4	0.027542897
129	0x3d1c0d97	0.038098898
130	0xbc1ae29f	-0.009453445
131	0x3b69ad74	0.0035656365
132	0xbdf4db86	-0.11955933
133	0x3d8a21b0	0.06744707
134	0xbe7cfb8c	-0.24705333
135	0xbd90b3e1	-0.07065559
136	0xbe7a79b5	-0.2446049
137	0xbdb54b7c	-0.08852288
138	0xbcc34bfd	-0.023839945
139	0xbb861a1f	-0.0040924693
140	0x3e4a7ac9	0.19773401
141	0xbe705fa5	-0.23473985
142	0x3db97532	0.09055556
143	0x3e5bfd62	0.21483377
144	0xbe828356	-0.25490826
145	0x3ca4c512	0.020113502
146	0x3d6d13c0	0.057880163
147	0xbe89aa59	-0.26887777
148	0x3e8379f8	0.25678992
149	0x3e6c1156	0.23053488
150	0xbdd5fa6a	-0.10448153
151	0xbe127ddc	-0.14305824
152	0x3e1aa686	0.15102586
153	0xbe058753	-0.13039903
154	0xbe599585	-0.21248443
155	0x3dbf2882	0.09333898
156	0x3da506c1	0.08057929
157	0x3cccf1d5	0.025017658
158	0x3e2601f7	0.16211687
159	0x3e52b9b1	0.20578648
160	0x3dd4d6b2	0.103925124
161	0x3de6b495	0.11264912
162	0xbe679423	-0.22615103
163	0xbc8ac8cf	-0.016941456
164	0xbe367e62	-0.17821649
165	0x3da1a268	0.07892305
166	0xbe54ca48	-0.20780289
167	0xbda53a01	-0.08067704
168	0xbe297cd9	-0.16551532
169	0xbe429eb1	-0.19005848
170	0xbe7045c2	-0.2346411
171	0x3deed3d5	0.116614975
172	0x3e0ce9db	0.13761084
173	0xbe4e78e1	-0.20163299
174	0x3d965edc	0.07342312
175	0xbe4b64d1	-0.19862677
176	0xbe771532	-0.24129179
177	0xbe41cf62	-0.18926767
178	0x3e3a37c2	0.18185332
179	0xbe891ce2	-0.26779848
180	0xbd2a8135	-0.041627128
181	0x3e4600ea	0.19336286
182	0xbd2ce201	-0.04220772
183	0xbe0c0c1a	-0.13676491
184	0x3c0fdb56	0.008780321
185	0x3dfa4952	0.12221016
186	0xbe08a4a8	-0.13344061
187	0xbe173020	-0.14764452
188	0x3e46681d	0.19375654
189	0xbe0ddd3f	-0.1385393
190	0xbd1cfb11	-0.038325373
191	0x3c924dfb	0.01785945
192	0xbca50d45	-0.020147929
193	0x3e0c7eee	0.13720295
194	0x3d53e953	0.051736187
195	0xbe03e6c2	-0.12880996
196	0x3e498a6a	0.19681707
197	0xbdb3aab0	-0.087727904
198	0xbdf2fc5e	-0.118645415
199	0xbdafd26a	-0.08585055
200	0xbe2dbe14	-0.1696704
201	0xbd40bd94	-0.047055796
202	0x3d9689d0	0.073505044
203	0x3e2c505c	0.1682753
204	0x3e48eebe	0.19622323
205	0x3cc84044	0.024444707
206	0x3c24b228	0.010052241
207	0x3d65454d	0.055974294
208	0xbd31e306	-0.043429397
209	0xbc9ebbef	-0.019376723
210	0x3d7d190c	0.061791465
211	0xbe3d8df0	-0.18511176
212	0xbe048964	-0.12943035
213	0xbd973577	-0.073832445
214	0x3de30195	0.11084286
215	0x3d39c973	0.045358133
216	0x3d92df51	0.071715005
217	0x3dd4c1a0	0.103884935
218	0x3e03aad9	0.12858142
219	0x3d23f71d	0.040030587
220	0xbd8b8cb5	-0.06813947
221	0xbd913ac1	-0.070912845
222	0x3cc1200d	0.023574853
223	0xbcbf6259	-0.023362326
224	0xbcc927c5	-0.024555096
225	0xbe282e16	-0.1642383
226	0xbbc336d1	-0.0059574624
227	0x3dc828d4	0.09773412
228	0x3e65eb3c	0.22453016
229	0x3e1e6085	0.15466507
230	0xbdb70c70	-0.08937919
231	0x3d9906c5	0.07471994
232	0x3e7b20ca	0.24524227
233	0xbe6ad552	-0.22932938
234	0x3debb7aa	0.115096405
235	0xbe890534	-0.26761782
236	0xbe30361c	-0.17208141
237	0xbe10d438	-0.14143455
238	0xbe0d3680	-0.13790321
239	0xbe7c81e1	-0.2465892
240	0xbe572a24	-0.21012169
241	0x3d9700cd	0.073731996
242	0xbda8634e	-0.08222066
243	0xbd714429	-0.058902893
244	0xbe329a57	-0.17441688
245	0x3e80fd7a	0.25193387
246	0xbd377a37	-0.044794288
247	0x3de351bb	0.11099573
248	0x3dbf1817	0.09330767
249	0xbd9767d0	-0.073928475
250	0x3e7e7399	0.24848785
251	0xbd05a307	-0.032626178
252	0xbe6c1186	-0.2305356
253	0xbe86bea3	-0.2631732
254	0x3e1811c4	0.14850527
255	0x3e62c928	0.22147048

model.backbone.encoder.layers.0.self_attn.W_Q.bias f4 [16]
0	0x3dbf6806	0.09346013
1	0xbd8a199f	-0.06743168
2	0x3ea06af1	0.3133159
3	0x3e7c9e8f	0.2466986
4	0x3e5695fe	0.20955655
5	0x3d8d15e0	0.06888938
6	0x3dfc717b	0.12326332
7	0xbdad97fd	-0.08476255
8	0x3e84a227	0.25904962
9	0xbe1c61bf	-0.15271662
10	0xbdea1df5	-0.11431495
11	0x3de9966d	0.114056446
12	0x3c7b3a46	0.015333718
13	0x3e3b9c22	0.18321279
14	0xbe2e52cb	-0.1702377
15	0xbd97f870	-0.074204326

model.backbone.encoder.layers.0.self_attn.W_K.weight f4 [16, 16]
0	0xbe3e3702	-0.18575671
1	0x3d34c208	0.044130355
2	0x3df90a04	0.121601135
3	0xbe445a67	-0.19175111
4	0xbd5ed500	-0.05440235
5	0x3e13592c	0.14389485
6	0x3e233f76	0.15942177
7	0xbd8d4b0e	-0.06899081
8	0xbe005c86	-0.12535295
9	0xbaf03972	-0.0018327667
10	0x3e484238	0.1955651
11	0xbb4d9d26	-0.0031374185
12	0xbe1d7c4f	-0.15379451
13	0xbdb38ef4	-0.087675005
14	0xbdd5f9a4	-0.10448006
15	0x3e1d0f4b	0.15337865
16	0x3de8bb91	0.113639005
17	0xbde92c4c	-0.11385402
18	0x3e2bdb42	0.16782859
19	0x3e4c1734	0.19930726
20	0x3d9501bf	0.07275724
21	0xbe74cc62	-0.23906091
22	0x3e89d3a2	0.26919276
23	0x3d22a77a	0.0397105
24	0xbdd7d91c	-0.10539457
25	0x3dc776a6	0.09739427
26	0x3e302c63	0.17204432
27	0x3e746a33	0.23868637
28	0xbcadea1a	-0.021229792
29	0x3e51d5c6	0.20491704
30	0x3c52c3b9	0.012864047
31	0xbc8cc976	-0.017185908
32	0x3e00fcfc	0.12596506
33	0xbde82837	-0.113357954
34	0xbc831680	-0.01600194
35	0x3d6daf48	0.05802849
36	0x3e058e8b	0.13042657
37	0x3e5a47d0	0.21316457
38	0xbde2c678	-0.11073011
39	0xbd397418	-0.04527673
40	0xbd83f102	-0.06442453
41	0x3ca43dad	0.02004894
42	0xbdbfbbd7	-0.093619995
43	0x3d9e03ba	0.077155545
44	0xbdf9d660	-0.12199092
45	0xbe561842	-0.20907691
46	0x3dcc2059	0.09967107
47	0xbe8474af	-0.25870273
48	0xbe0c030b	-0.13673036
49	0x3ceb4996	0.028721612
50	0xbe6cbb49	-0.23118319
51	0x3cc6663b	0.02421867
52	0x3e58ae47	0.21160232
53	0xbd81b920	-0.06334138
54	0xbe63a779	-0.22231854
55	0xbda2b8dd	-0.07945416
56	0xbe13aa22	-0.1442037
57	0xbd908858	-0.070572555
58	0xbdd43a85	-0.10362724
59	0xbe4fe380	-0.20301628
60	0xbd4160b1	-0.047211353
61	0xbde74940	-0.11293268
62	0x3e1d9bf6	0.15391526
63	0xbe173906	-0.14767846
64	0x3e2029e1	0.15640976
65	0xbc7d9883	-0.015478256
66	0xbe681956	-0.22665915
67	0xbd80f13e	-0.06296013
68	0xbe6ee22c	-0.23328465
69	0x3e1e642a	0.15467897
70	0xbe0f6ae4	-0.1400562
71	0xbd94c24b	-0.07263621
72	0xbde7c0de	-0.11316083
73	0xbda67a91	-0.081288464
74	0x3dd84317	0.10559671
75	0xbe7dbbbb	-0.24778645
76	0xbd43cc1e	-0.047802083
77	0xba9cf636	-0.0011975232
78	0xbd2077d0	-0.039176762
79	0x3a3b1ed7	0.00071380794
80	0xbe52af34	-0.20574647
81	0x3e66a1c4	0.22522646
82	0xbe1f769e	-0.15572593
83	0xbe54f01f	-0.20794724
84	0x3e55e4ab	0.20888011
85	0xbdd86624	-0.10566357
86	0x3d16f321	0.03685296
87	0x3e46fdc4	0.19432741
88	0x3e43dd41	0.1912737
89	0x3e5682ea	0.20948377
90	0xbe0c3da4	-0.13695389
91	0x3d348a42	0.044077165
92	0x3be282eb	0.0069125793
93	0xbe12c615	-0.14333375
94	0x3db2edd7	0.087367706
95	0xbd95a72c	-0.07307276
96	0x3e1f2063	0.15539698
97	0x3d473418	0.048633665
98	0x3d089f23	0.03335489
99	0xbd433678	-0.047659367
100	0x3e342d31	0.17595364
101	0xbe19a3f7	-0.15003954
102	0x3d169bc2	0.036769636
103	0xbe8f8415	-0.28030458
104	0xbe8a65a1	-0.27030662
105	0xbe2e698b	-0.17032449
106	0xbe3068fd	-0.1722755
107	0x3cbed810	0.023296386
108	0xbdf4b343	-0.11948254
109	0xbe81a02d	-0.25317517
110	0x3e2db07f	0.16961859
111	0xbe4f809e	-0.20263907
112	0x3e63bcb8	0.22239959
113	0xbe39a60d	-0.1812975
114	0x3dcd7075	0.10031215
115	0x3e0cc985	0.13748749
116	0x3c4e2904	0.012583021
117	0x3df2efa4	0.11862114
118	0xbb38dbba	-0.002820714
119	0x3df43141	0.11923457
120	0xbdb23bad	-0.087027885
121	0x3e188507	0.14894496
122	0x3dfb3910	0.12266743
123	0xbdb99d13	-0.09063163
124	0xbd8db43b	-0.06919142
125	0xbe63056c	-0.22170037
126	0xbe21f949	-0.15817751
127	0xbcb53602	-0.02212048
128	0xbe0129e0	-0.1261363
129	0xbe588052	-0.211427
130	0xbe64bfdb	-0.22338812
131	0x3e18d436	0.14924702
132	0xbe434f43	-0.19073205
133	0xbe5f1ab0	-0.21787524
134	0xbd4b16ea	-0.0495824
135	0x3e6b8d10	0.2300303
136	0xbe1398a8	-0.14413702
137	0xbd4e93ab	-0.050433796
138	0xbe30ce90	-0.17266297
139	0xbcf8be29	-0.030364113
140	0x3e24362f	0.16036294
141	0x3c056a7a	0.008143062
142	0xbe1d5f02	-0.15368274
143	0x3ca82c0b	0.020528814
144	0x3e1ac269	0.15113224
145	0x3e27f752	0.16402939
146	0xbc82c180	-0.015961409
147	0x3e45d5b0	0.19319797
148	0xbe4c1707	-0.19930659
149	0xbe1da1c1	-0.15393735
150	0x3e02d27f	0.1277561
151	0x3d48882c	0.04895799
152	0xbddc2a70	-0.10750282
153	0xbd2e4e15	-0.042554934
154	0x3ce0960b	0.027415296
155	0xbe661462	-0.22468713
156	0xbe09a7fb	-0.13442986
157	0xbe507361	-0.20356514
158	0x3df8c99c	0.12147829
159	0x3d83263d	0.06403778
160	0x3dd632ed	0.10458932
161	0x3e62c482	0.22145274
162	0xbe72864b	-0.23684041
163	0xbe032587	-0.12807284
164	0xbdb3947f	-0.08768558
165	0x3df117f6	0.11772148
166	0xbdb7a428	-0.08966857
167	0x3da96b08	0.08272368
168	0x3e66f1dd	0.22553201
169	0x39c5e232	0.00037743297
170	0xbe42ff52	-0.1904271
171	0x3dde076d	0.1084126
172	0x3e2abc49	0.16673388
173	0xbd848122	-0.06469943
174	0xbe7d20cd	-0.24719544
175	0x3e5f3479	0.2179736
176	0x3c0a0220	0.008423358
177	0xbe2a3d2d	-0.16624899
178	0xbd859f9d	-0.065245844
179	0x3e4af035	0.19818194
180	0xbdba395f	-0.09092974
181	0xbe3b5c13	-0.18296842
182	0x3db355f4	0.08756629
183	0xbe3b8cc6	-0.1831542
184	0xbbe30c6f	-0.0069289724
185	0x3ccd564d	0.025065565
186	0xbe3f38a7	-0.18673955
187	0xbe0bd864	-0.13656765
188	0xbe4a49c1	-0.19754697
189	0x3e37a2e2	0.17933229
190	0x3c87f674	0.01659701
191	0xbd3393e5	-0.043842215
192	0x3df518b6	0.11967604
193	0xbe2b198c	-0.16708964
194	0xbe1a433a	-0.15064707
195	0xbe3f223e	-0.18665406
196	0xbe27e767	-0.16396867
197	0xbd0303c5	-0.031986017
198	0xbe7f76a8	-0.24947608
199	0xbe758af3	-0.23978786
200	0x3dd3cfe9	0.1034239
201	0xbe2ae165	-0.16687544
202	0xbe60f835	-0.21969683
203	0xbc510701	-0.0127580175
204	0xbe6a7b95	-0.22898705
205	0xbe7129cd	-0.23551102
206	0xbd85a1c7	-0.06524997
207	0xbd95ddc9	-0.07317693
208	0xbe0fd034	-0.14044267
209	0xbdae5788	-0.08512789
210	0x3e8e52b6	0.27797478
211	0x3e8939b3	0.26801834
212	0x3ddb08e5	0.10695056
213	0xbd0b539e	-0.03401529
214	0x3d0e3d3a	0.03472636
215	0x3dc6ec07	0.097129874
216	0xbe6cc81b	-0.23123209
217	0x3db914d9	0.090371795
218	0xbe52f5f7	-0.2060164
219	0xbe0d28b8	-0.13785064
220	0x3e0d57c5	0.13803013
221	0xbe34e55f	-0.17665623
222	0xbde222b1	-0.11041773
223	0x3e16013d	0.1464891
224	0x3de6749a	0.11252709
225	0xbcca690d	-0.024708295
226	0x3e350407	0.17677318
227	0xbe8885ea	-0.26664668
228	0x3e30ec7b	0.1727771
229	0xbd47a9ca	-0.048745908
230	0x3e53a5fe	0.2066879
231	0x3e456f37	0.19280706
232	0xbe207c10	-0.15672326
233	0x3e48b765	0.1960121
234	0x3d825e0e	0.06365596
235	0xbe46efe9	-0.19427456
236	0x3ca6a979	0.020344483
237	0x3e0e14ec	0.13875169
238	0x3e1b656e	0.15175411
239	0xbdaec539	-0.08533711
240	0xbe804218	-0.25050426
241	0xbe12ee7d	-0.14348789
242	0xbdc7f014	-0.09762588
243	0xbd193abe	-0.037409537
244	0xbdc5657b	-0.096384965
245	0xbd03f6f4	-0.032217935
246	0x3e37eee0	0.17962217
247	0xbe4029fe	-0.18766019
248	0x3db50245	0.088383235
249	0x3e7c09e0	0.24613142
250	0xbcf6733c	-0.030084245
251	0xbd43dc97	-0.047817793
252	0x3e74a0ae	0.2388942
253	0x3dc9d5cf	0.09855234
254	0x3d3643cc	0.04449825
255	0xbd3ac7be	-0.045600645

model.backbone.encoder.layers.0.self_attn.W_K.bias f4 [16]
0	0xbd50ce5d	-0.050978053
1	0x3d4dfaa9	0.050287876
2	0xbe5194bf	-0.20466898
3	0xbd5216c2	-0.051291235
4	0x3d5d4a32	0.054025836
5	0xbe3a211a	-0.1817669
6	0x3d43dcc6	0.047817968
7	0xbd917742	-0.07102825
8	0x3e5a9ca6	0.21348819
9	0x3e0ce343	0.13758568
10	0x3e25c02d	0.1618659
11	0xbd65bef1	-0.0560903
12	0x3ca1a703	0.019732958
13	0xbded7e90	-0.115964055
14	0x3e648a16	0.223183
15	0x3bfddef5	0.007747526

model.backbone.encoder.layers.0.self_attn.W_V.weight f4 [16, 16]
0	0xbe32e56f	-0.17470334
1	0x3e67ac11	0.22624232
2	0xbd81b691	-0.0633365
3	0x3e415119	0.18878593
4	0xbe1cc58c	-0.15309733
5	0x3e52d6c1	0.20589735
6	0xbe04323c	-0.12909788
7	0xbe5b6810	-0.21426415
8	0xbc030ec6	-0.007999128
9	0xbdbba38d	-0.09162054
10	0x3e73b467	0.23799287
11	0xbdeddca7	-0.11614352
12	0xbd4da5ab	-0.05020682
13	0x3e1abf89	0.15112127
14	0x3e07b240	0.1325159
15	0xbd46cf12	-0.04853732
16	0xbe0e3554	-0.1388753
17	0x3dc15e59	0.094418235
18	0x3e07b0c6	0.13251027
19	0xbd9f0316	-0.077642605
20	0x3d1d4f0a	0.038405456
21	0x3d65bbc4	0.05608727
22	0xbdfa70d5	-0.12228552
23	0xbe031fd8	-0.12805116
24	0x3c1c65f6	0.009545794
25	0xbe1af5b2	-0.15132788
26	0x3e827e88	0.2548716
27	0xbe635f4b	-0.2220432
28	0xbd45038e	-0.048099093
29	0x3c968263	0.01837272
30	0xbe676638	-0.22597587
31	0x3dc676e2	0.09690644
32	0x3d1fff1b	0.039061647
33	0xbe679e50	-0.22618985
34	0x3e331367	0.1748787
35	0xbe3f893e	-0.18704697
36	0x3d011fdc	0.031524524
37	0x3e2710dd	0.16315027
38	0x3cae1b82	0.021253351
39	0x3dd65316	0.10465066
40	0x3d157ce4	0.036496058
41	0x3c816056	0.015793007
42	0xbe352647	-0.17690383
43	0x3cf080a3	0.029358214
44	0x3cf3df55	0.029769579
45	0x3d4f1ca0	0.05056441
46	0x3dc7223a	0.09723325
47	0xbe2d02a7	-0.16895543
48	0x3c31aa3f	0.0108438125
49	0x3c027e44	0.007964674
50	0x3d5ea831	0.05435962
51	0x3e348414	0.17628509
52	0x3e36fcd3	0.17869882
53	0xbe10c0ae	-0.14136001
54	0xbd6e39e1	-0.058160666
55	0xbc2062ef	-0.009789213
56	0xbdcfb6d7	-0.10142296
57	0xbe07ae1c	-0.13250011
58	0x3dee828b	0.11645993
59	0x3e125a82	0.14292338
60	0xbe5c7137	-0.21527563
61	0xbd3b9628	-0.045797497
62	0x3e87d569	0.26530007
63	0x3e4838ee	0.19552967
64	0x3e7abcc8	0.24486077
65	0x3dd166b4	0.10224667
66	0x3d62f144	0.05540587
67	0xbe761161	-0.24030067
68	0xbe72695b	-0.23673002
69	0xbe735fe8	-0.23767054
70	0xbd095796	-0.033530794
71	0x3e322a5d	0.17398973
72	0xbe473e26	-0.19457301
73	0x3e35e6a5	0.17763765
74	0xbc80d128	-0.015724733
75	0xbdb46807	-0.08808904
76	0xbdacc29a	-0.08435555
77	0x3dfbfadf	0.12303709
78	0xbe6fa27b	-0.23401825
79	0x3ddb881e	0.10719322
80	0xbd03e975	-0.032205064
81	0xbcfb3d2e	-0.030668821
82	0xbe03b617	-0.1286243
83	0xbe143eb2	-0.14477041
84	0xbc83c512	-0.016085181
85	0xbe3b12c9	-0.18268885
86	0x3e279157	0.16364037
87	0x3d3627af	0.04447144
88	0x3e1c36c1	0.15255262
89	0xbe001e37	-0.12511526
90	0xbca4163d	-0.020030135
91	0xbcc8d503	-0.024515634
92	0x3cb63099	0.02223997
93	0x3e3615dd	0.17781778
94	0x3df2123e	0.11819886
95	0xbd31082c	-0.043220684
96	0x3d8cedd3	0.06881299
97	0xbdf53565	-0.11973075
98	0x3dd71dfc	0.10503766
99	0xbe77ae9d	-0.24187703
100	0x3ce934f7	0.028467638
101	0x3de3ba9b	0.111195765
102	0xbdbd0ac8	-0.09230572
103	0x3e20a219	0.15686835
104	0xbcab8c98	-0.020941064
105	0x3c26ab95	0.010172744
106	0x3da45894	0.080247074
107	0x3d89f110	0.06735432
108	0x3db632f8	0.0889644
109	0xbe447ee4	-0.1918903
110	0x3e4486e4	0.19192082
111	0xbd43bba9	-0.04778639
112	0x3dbb0be9	0.09133131
113	0xbe83eab9	-0.25765017
114	0xbd35270c	-0.04422669
115	0xbe3f6d30	-0.18693995
116	0x3e4636c3	0.19356827
117	0x3cf252f2	0.029580567
118	0xbd0e20ba	-0.03469918
119	0xbd2f45e0	-0.042791247
120	0x3e72c0fa	0.23706427
121	0x3c9a96a0	0.018870652
122	0xbe28366b	-0.16427009
123	0x3dfdd5c7	0.123942904
124	0x3e0e6a61	0.13907768
125	0x3e0d6b65	0.13810499
126	0xbe44414a	-0.19165531
127	0xbdaa620c	-0.08319482
128	0xbe07b01f	-0.13250779
129	0x3e6c3ba1	0.23069622
130	0x3e6daefd	0.23211284
131	0x3ccc2d00	0.024923801
132	0xbe4036e9	-0.18770947
133	0x3e2131c3	0.15741639
134	0x3e3729ac	0.1788699
135	0xbe039b76	-0.12852272
136	0x3e187fc4	0.14892489
137	0xbe47ee54	-0.19524509
138	0x3e19988a	0.14999595
139	0xbd8f3d21	-0.06994081
140	0x3e415bb2	0.18882635
141	0x3e2b4380	0.16724968
142	0x3e5d2f14	0.2159999
143	0xbc9322a3	-0.017960852
144	0xbe6da90e	-0.2320902
145	0x3d4286d5	0.047491867
146	0x3d15fc69	0.03661767
147	0x3e578f39	0.21050729
148	0x3d747886	0.059685253
149	0x3e6ba36e	0.23011562
150	0xbe83edca	-0.25767356
151	0x3e4570a5	0.19281252
152	0x3e293105	0.16522606
153	0x3e23c9a5	0.1599489
154	0x3d8728ee	0.065996036
155	0xbdf61a70	-0.12016761
156	0x3e257056	0.16156134
157	0x3e321a49	0.1739284
158	0x3def8e12	0.1169702
159	0xbe757983	-0.23972134
160	0x3e04cce2	0.12968782
161	0xbda115e7	-0.07865506
162	0x3d48b942	0.0490048
163	0xbdaf79d7	-0.08568161
164	0x3d26c38f	0.040713843
165	0x3e530110	0.20605874
166	0xbda9738e	-0.082739934
167	0x3e3db43d	0.18525787
168	0xbde03028	-0.10946685
169	0xbe150476	-0.14552483
170	0xbe80382c	-0.25042856
171	0x3c2aeb15	0.0104320245
172	0xbe1f98d4	-0.15585643
173	0x3e09f8c3	0.13473801
174	0xbd3f647d	-0.046726692
175	0x3dd971b5	0.10617391
176	0xbe8566e7	-0.2605507
177	0x3e32d3f8	0.17463672
178	0x397da3f7	0.00024189042
179	0x3d732c65	0.05936851
180	0x3d207264	0.03917159
181	0x3dfdd5b7	0.123942785
182	0xbd304f65	-0.043044467
183	0x3c0231cf	0.007946446
184	0xbdf249f5	-0.118305124
185	0xbdb511c4	-0.08841279
186	0xbda8dedb	-0.08245631
187	0xbe4876db	-0.1957659
188	0xbc8dfed3	-0.017333424
189	0x3d02224a	0.03177098
190	0xbe1d4ce8	-0.15361369
191	0xbe037526	-0.12837657
192	0x3e4bc87b	0.19900696
193	0xbd30422e	-0.043031864
194	0x3e35e17b	0.17761795
195	0x3d78af4d	0.060714055
196	0xbe83db76	-0.25753373
197	0xbd162cbb	-0.036663752
198	0xbca7ac6d	-0.020467961
199	0x3de9001d	0.11376975
200	0xbdc2c4a4	-0.095101625
201	0x3e37ea8e	0.1796057
202	0xbce7bf60	-0.028289497
203	0x3dc2aea9	0.0950597
204	0x3e46b4d8	0.19404924
205	0x3e30a600	0.17250824
206	0xbdd75586	-0.10514359
207	0x3e675783	0.22591977
208	0xbd879faa	-0.066222504
209	0x3d0cf5b8	0.034414023
210	0xbe7a7961	-0.24460365
211	0xbde699dc	-0.11259815
212	0xbe5ed773	-0.21761875
213	0x3d774520	0.060368657
214	0x3dab4db2	0.083644286
215	0xbd8a39aa	-0.0674928
216	0x3e2709c7	0.16312324
217	0xbe625310	-0.22101998
218	0xbbeaa806	-0.0071611432
219	0xbe58ce2c	-0.21172398
220	0x3d7e9bde	0.062160365
221	0x3dbbcd11	0.09169973
222	0x3e5fcd2c	0.2185561
223	0x3c67c258	0.014145456
224	0xbd8ee5e4	-0.06977442
225	0xbe4e05bc	-0.20119375
226	0x3d239117	0.03993329
227	0xbe42d0a6	-0.19024906
228	0x3db9dd12	0.09075369
229	0xbe465fe8	-0.19372523
230	0x3dbbed47	0.091761164
231	0x3e82ff5c	0.2558545
232	0x3c2056be	0.009786306
233	0x3e4abf37	0.19799505
234	0x3d9d15e8	0.07670194
235	0xbd57e260	-0.052706122
236	0xbd765fa4	-0.060149804
237	0xbe30afde	-0.17254588
238	0x3e479dce	0.19493791
239	0x3e6559e8	0.22397578
240	0xbd30e97c	-0.043191418
241	0x3c4a2cfd	0.012339828
242	0x3e0a9b57	0.1353582
243	0xbe6e4101	-0.23266985
244	0xbe0897ff	-0.13339232
245	0xbe222925	-0.15836008
246	0xbe82fe3a	-0.25584584
247	0xbe750214	-0.23926574
248	0x3bf680d1	0.0075226803
249	0x3d708c81	0.058727745
250	0xbcb2c898	-0.021824166
251	0xbe50c419	-0.20387305
252	0xbe8209e3	-0.25398168
253	0xbe540e08	-0.20708477
254	0xbe65f511	-0.22456767
255	0xbe6aff84	-0.22949034

model.backbone.encoder.layers.0.self_attn.W_V.bias f4 [16]
0	0xbc31115b	-0.0108073605
1	0x3e35302d	0.17694159
2	0xbe605b5e	-0.21909854
3	0xbe2aca7f	-0.16678809
4	0x3e708546	0.2348834
5	0xbe45d270	-0.19318557
6	0x3df0622e	0.11737476
7	0xbc9525c4	-0.018206485
8	0x3db7d4c3	0.08976128
9	0x3e485ebb	0.19567387
10	0x3e839c8d	0.25705376
11	0x3e20b55c	0.15694183
12	0xbe0bcdec	-0.13652772
13	0xbe530cd6	-0.20610365
14	0xbe1c6ada	-0.15275136
15	0x3d4e63bc	0.050388083

model.backbone.encoder.layers.0.self_attn.to_out.0.weight f4 [16, 16]
0	0xbc3bf149	-0.011471101
1	0x3e0ab7e7	0.13546716
2	0xbdf77a2d	-0.1208385
3	0x3d00682a	0.03134934
4	0x3d80f3c7	0.06296497
5	0x3dfd7048	0.123749316
6	0x3e2d6e1a	0.16936532
7	0xbe6026d0	-0.21889806
8	0x3e596390	0.21229386
9	0xbe3f3acf	-0.18674777
10	0xbc863e15	-0.016387025
11	0xbe35bca3	-0.1774774
12	0x3e64900d	0.22320576
13	0x3e733764	0.23751599
14	0xbd918d4f	-0.071070306
15	0xbe1a41c0	-0.15064144
16	0xbe2bfcfb	-0.16795723
17	0xbe713fd7	-0.23559509
18	0x3e04bcc2	0.1296263
19	0xbb6cd86e	-0.0036139744
20	0xbe8534e0	-0.26016903
21	0x3dc7c588	0.09754473
22	0xbe6433ff	-0.2228546
23	0x3d1d90e0	0.03846824
24	0x3e5f1f74	0.21789342
25	0x3a9da67f	0.0012027769
26	0x3dec511c	0.11538908
27	0x3e3198a0	0.17343378
28	0x3e50b62d	0.20381995
29	0x3e05e814	0.13076812
30	0xbd4de520	-0.05026734
31	0x3e5c1822	0.21493581
32	0xbe656259	-0.22400798
33	0xbdbb0d81	-0.09133435
34	0xbe42eac2	-0.19034865
35	0xbe555f6a	-0.20837179
36	0x3ca28cb8	0.01984249
37	0x3d95a416	0.073066875
38	0xbe58230e	-0.21107122
39	0xbc44c237	-0.012009195
40	0x3dad1fa6	0.08453302
41	0xbd893dba	-0.067012265
42	0x3e418b39	0.18900765
43	0x3dfe5541	0.12418605
44	0x3da40635	0.080089964
45	0xbd3dfe24	-0.046384946
46	0x3e1f1889	0.15536703
47	0x3e62107d	0.22076602
48	0xbe34f874	-0.17672902
49	0xbe4f4e81	-0.2024479
50	0x3ccf617c	0.025315039
51	0xbd6c154c	-0.057637498
52	0xbe83aa13	-0.25715694
53	0x3e176d1f	0.1478772
54	0xbe006953	-0.12540178
55	0x3db4ee77	0.08834546
56	0xbd039113	-0.032120775
57	0xbe7f396c	-0.24924248
58	0x3c946204	0.018113144
59	0x3ce0bc0d	0.02743342
60	0x3c085c83	0.008322838
61	0xbc976d98	-0.018484876
62	0xbe837c1c	-0.25680625
63	0xbe291ab9	-0.165141
64	0x3d825f53	0.06365838
65	0xbc8f90c8	-0.017525092
66	0xbd6aa5aa	-0.057286896
67	0x3e522bc9	0.20524515
68	0xbd1ee001	-0.038787846
69	0x3d434f16	0.047682844
70	0x3dd4b1a3	0.10385444
71	0x3d88b026	0.06674223
72	0xbe161ffe	-0.14660642
73	0x3cca2cc0	0.024679542
74	0xbdbf814b	-0.093508326
75	0xbd62d2ae	-0.0553767
76	0x3e49da13	0.19712095
77	0x3e261a95	0.16221078
78	0x3e5e08cf	0.21683048
79	0xbe49b22c	-0.19696873
80	0x3d14a47b	0.036289673
81	0xbdf5e5ce	-0.120067224
82	0xbd90d6a6	-0.07072191
83	0x3dd0e50a	0.10199936
84	0x3e8131bb	0.25233254
85	0x3d44a99f	0.048013326
86	0x3e260cae	0.16215774
87	0xbb61a6fd	-0.0034431808
88	0x3e870ca6	0.26376837
89	0x3e630cb0	0.22172809
90	0xbe0b09fb	-0.13578026
91	0xbba5b3a7	-0.0050568166
92	0xbdcd5921	-0.100267656
93	0xbe621f1b	-0.22082178
94	0x3e60bfcd	0.21948166
95	0x3e460f49	0.19341768
96	0xbdfde52e	-0.12397228
97	0x3d911aef	0.07085215
98	0x3bc1a85f	0.005909964
99	0xbd1783f4	-0.036991075
100	0xbe20748b	-0.15669458
101	0x3e687250	0.22699857
102	0xbe40eea0	-0.18841028
103	0x3de98461	0.114022024
104	0x3e4c2c73	0.19938831
105	0xbd5fa135	-0.0545971
106	0xbe0441be	-0.12915704
107	0x3d66d779	0.056357834
108	0x3d8585f5	0.06519691
109	0xbc8c224c	-0.017106198
110	0x3d6bb97d	0.057549942
111	0x3db59042	0.088654056
112	0x3ca181a0	0.01971513
113	0x3e6564f9	0.224018
114	0xbe2fccb6	-0.17167935
115	0xbe64528f	-0.22297119
116	0xbe1ea690	-0.15493226
117	0xbdaaa15a	-0.083315566
118	0x398ef50e	0.0002726693
119	0x3c5b7f6c	0.013397079
120	0xbda72a3e	-0.08162354
121	0x3ddf2536	0.10895769
122	0x3d5426ea	0.051794924
123	0xbe4e93ff	-0.20173644
124	0x3c45e372	0.012078153
125	0xbe8034d2	-0.250403
126	0xbe5de495	-0.21669228
127	0xbd321aa0	-0.043482423
128	0x3e4505e8	0.19240534
129	0x3e311122	0.17291692
130	0xbd4e2738	-0.05033037
131	0xbcc61831	-0.024181457
132	0x3dbb89dc	0.09157154
133	0xbcd0cba6	-0.025487732
134	0x3de92034	0.113830954
135	0xbda5a140	-0.080873966
136	0x3e520e6a	0.20513311
137	0x3d954d24	0.07290104
138	0x3dfdf997	0.12401121
139	0xbdbffa5f	-0.09373926
140	0xbe49ec92	-0.1971915
141	0xbe8624cd	-0.26199952
142	0xbe8097b9	-0.25115755
143	0xbe08e65c	-0.13369125
144	0x3d5cd411	0.05391318
145	0xbe2947f2	-0.16531351
146	0x3d397abf	0.045283075
147	0xbe27b9b6	-0.16379437
148	0x3d81a19d	0.063296534
149	0x3b871e00	0.0041234493
150	0x3e0de688	0.13857472
151	0x3e2628d9	0.1622652
152	0xbe59667d	-0.21230502
153	0xbe6acf3e	-0.22930619
154	0xbd04e23b	-0.032442313
155	0xbe35e3f6	-0.17762741
156	0xbc99f393	-0.018792903
157	0x3cc9dd4a	0.024641652
158	0xbe31bfb1	-0.1735828
159	0x3d26319a	0.040574647
160	0xbdf755e2	-0.12076928
161	0x3dbc5590	0.09196007
162	0x3d3124e2	0.043248065
163	0xbe365d6a	-0.17809072
164	0xbe2dd1de	-0.16974589
165	0xbe64bb4c	-0.22337073
166	0x3d830b7b	0.06398674
167	0xbe0f7ab5	-0.14011653
168	0xbdfe6e95	-0.124234356
169	0xbe675562	-0.22591165
170	0xbe0eeba3	-0.13957076
171	0x3df5f948	0.12010437
172	0x3d9fe680	0.07807636
173	0xbd9bf5fc	-0.07615277
174	0x3d74afb0	0.05973786
175	0x3e0c5da3	0.13707595
176	0x3df92f08	0.121671736
177	0x3e1dd98f	0.15415023
178	0x3db4ee7a	0.08834548
179	0xbe07eb3f	-0.13273333
180	0x3c8fd45f	0.017557321
181	0x3e3c9e25	0.18419702
182	0xbdcf70a1	-0.10128904
183	0x3caba008	0.020950332
184	0x399b6244	0.00029637117
185	0xbe68cd32	-0.22734526
186	0x3e6c5c23	0.23082022
187	0x3e231844	0.15927225
188	0x3e04071a	0.12893334
189	0x3dfe3c05	0.124137916
190	0x3e7f728c	0.2494604
191	0x3da97260	0.082737684
192	0x3dde1072	0.108429804
193	0xbd3a43b5	-0.045474727
194	0x3cd99cc2	0.026564006
195	0xbca26402	-0.019823078
196	0x3e649a79	0.22324552
197	0xbe3d9cbd	-0.18516822
198	0xbe45ea40	-0.1932764
199	0x3e7f1318	0.24909627
200	0x3a7007cd	0.0009156436
201	0x3dcfba5b	0.10142966
202	0xbe1e5330	-0.15461421
203	0x3d7d606d	0.061859537
204	0x3d5329e7	0.051553633
205	0x3e39f4bf	0.1815977
206	0x3e0820c9	0.13293757
207	0x3c242744	0.010019127
208	0xbd69a729	-0.057044182
209	0xbe6a8a97	-0.2290443
210	0xbe41de57	-0.18932472
211	0x3e5dcf10	0.2166102
212	0x3e6b0b06	0.22953424
213	0xbe830370	-0.2558856
214	0xbe85ba7e	-0.26118845
215	0x3e54af16	0.20769915
216	0x3dc4aa29	0.09602768
217	0x3dc23fd7	0.09484833
218	0x3e7d665d	0.2474608
219	0x3e4926a6	0.1964365
220	0x3db1cfcc	0.08682212
221	0x3d533ce6	0.05157175
222	0x3a78d5d2	0.0009492311
223	0x3df3dcf3	0.11907377
224	0xbc099fce	-0.008399917
225	0xbd81b41a	-0.0633318
226	0x3d6f95a8	0.058492333
227	0xbd8590d8	-0.065217674
228	0x3e120659	0.14260234
229	0x3bcd6972	0.0062686736
230	0xbdc1c293	-0.0946094
231	0xbdde8c64	-0.10866621
232	0x3e7091b5	0.23493083
233	0xbe22c2b9	-0.15894593
234	0xbdfe3fc4	-0.12414506
235	0x3e3d4d01	0.18486406
236	0xbd9aeb8c	-0.07564458
237	0xbe07d1d6	-0.1326364
238	0x3e218c75	0.15776236
239	0xbe409c62	-0.18809655
240	0xbd938cc3	-0.072045825
241	0x3dc28fa3	0.09500053
242	0xbe4726ef	-0.19448446
243	0xbe1161f1	-0.14197518
244	0xbd09ca91	-0.033640448
245	0xbe5afe56	-0.21386084
246	0xbe3312c1	-0.17487623
247	0xbd83c6ed	-0.064344265
248	0x3e3ebda7	0.18627034
249	0xbdb6ca20	-0.08925271
250	0x3e490489	0.19630636
251	0x3e08a801	0.13345338
252	0xbe06dc87	-0.13170062
253	0x3dd0819c	0.10180971
254	0xbdf0c2c9	-0.11755902
255	0x3e1d0d5a	0.15337124

model.backbone.encoder.layers.0.self_attn.to_out.0.bias f4 [16]
0	0xbe85f850	-0.2616601
1	0xbe882868	-0.26593328
2	0xbe25e5cf	-0.16200946
3	0x3dae34ed	0.085061885
4	0xbe49ee6b	-0.19719855
5	0x3e1efaa1	0.15525295
6	0xbe1a0ebd	-0.15044685
7	0x3dbc06e7	0.09181004
8	0xbdd71a9c	-0.10503122
9	0xbe64a39f	-0.22328041
10	0x3e5e77e0	0.21725416
11	0xbd33cfa5	-0.043899197
12	0x3e12cd53	0.14336137
13	0xbe79e399	-0.24403228
14	0xbd45bcca	-0.048275746
15	0x3e623bd2	0.22093132

model.backbone.encoder.layers.0.norm_attn.1.weight f4 [16]
0	0x3f80729d	1.0034977
1	0x3f76b717	0.9637312
2	0x3f87a56b	1.0597357
3	0x3f7de4c7	0.9917721
4	0x3f7e55da	0.9934975
5	0x3f7e769d	0.9939974
6	0x3f7dfbd6	0.99212396
7	0x3f810346	1.0079124
8	0x3f8042a8	1.0020342
9	0x3f82ec0d	1.0228287
10	0x3f846ea6	1.0346267
11	0x3f81c2a8	1.0137529
12	0x3f77a432	0.9673492
13	0x3f78b5ea	0.9715258
14	0x3f7e90eb	0.9943988
15	0x3f7fe28f	0.99955076

model.backbone.encoder.layers.0.norm_attn.1.bias f4 [16]
0	0xbb199df8	-0.0023440104
1	0x3c34b886	0.011030322
2	0xbcf41478	-0.029794917
3	0x3c98b723	0.018642014
4	0xbd124107	-0.035706546
5	0xb9299ea0	-0.00016176188
6	0x3c764e80	0.015033364
7	0x3ca67612	0.020319972
8	0x3b3e1837	0.0029006132
9	0xbc98ca24	-0.018651076
10	0xbc3b5dea	-0.011435965
11	0x3a86c8c7	0.0010283225
12	0xbcedc14b	-0.029022833
13	0xbc34ccb0	-0.011035129
14	0x3c5ee370	0.01360403
15	0x3cab27c9	0.020892994

model.backbone.encoder.layers.0.norm_attn.1.running_mean f4 [16]
0	0xbec3c9c2	-0.38239866
1	0xbea4f194	-0.3221556
2	0xbe3b4081	-0.18286325
3	0xbce8eeaa	-0.028434116
4	0xbe7ec174	-0.24878484
5	0x3e25c3e7	0.16188012
6	0xbe77a57c	-0.24184221
7	0x3de9d958	0.11418408
8	0x3d8b9fa8	0.068175614
9	0xbd9b2c9c	-0.07576868
10	0x3e01fb67	0.12693559
11	0xbc7c2831	-0.015390442
12	0x3e0792a0	0.13239527
13	0x3dd1e4e5	0.10248736
14	0xbe4f2ccd	-0.20231934
15	0x3ee18694	0.44047987

model.backbone.encoder.layers.0.norm_attn.1.running_var f4 [16]
0	0x3f0ac53e	0.5420722
1	0x3f3c7ae4	0.73625016
2	0x3e99d223	0.30043134
3	0x3ff88bcd	1.9417664
4	0x3e98e348	0.29860902
5	0x3ea16c94	0.3152815
6	0x3e8788c4	0.2647153
7	0x3e70fbe7	0.23533593
8	0x3f1c41c2	0.6103784
9	0x406fd5ae	3.747417
10	0x3f7fc319	0.9990707
11	0x3f46b3d5	0.7761815
12	0x3f55434f	0.8330583
13	0x3f92d6d5	1.1471812
14	0x3f035b0a	0.5131079
15	0x3eff7c38	0.4989946
