TSF_Finance/checkpoints/ixic_ig_0613__PatchTST_custom_ftM_sl96_ll48_pl16_dm16_nh4_el3_dl1_df128_fc1_ebtimeF_dtTrue_Exp_0/checkpoint.pth (torch_old, 126538 bytes, 65 tensors)

model.backbone.W_pos f4 [38, 16]
000000 8a 35 79 bc 5b b4 82 ba 61 23 81 bc de df ab 3c
       -0.015210519 -0.0009971963 -0.01576394 0.020980772
000010 eb a5 83 3a f7 38 14 3b 47 80 39 bc 85 e7 c3 3b
       0.0010043954 0.0022616962 -0.011322088 0.005978527
000020 c8 7a f7 bb 61 d4 2c 3c 2a 82 bf bb 0b b5 df bb
       -0.0075524785 0.010548682 -0.005844374 -0.006827002
000030 94 b9 87 3c c6 a9 d1 3a 85 3d 6a bc ce b6 8a 3c
       0.016567983 0.0015996031 -0.014296894 0.016932871
000040 91 f4 86 3b af e0 08 3c 23 25 52 3c ec 13 2f ba
       0.00411851 0.00835435 0.012826237 -0.0006678689
000050 f9 4b 0b b9 85 53 48 3c 3f 41 4b bc 00 33 c0 3b
       -0.00013284375 0.012226944 -0.012405693 0.0058654547
000060 06 8f 77 bc 79 75 ba 3b cb df a3 3c 55 84 02 3c
       -0.015109783 0.0056902734 0.020004174 0.007966121
000070 a9 6c 0d bc 7c 7a 3e 3c 1c 89 e7 bb 86 c1 e6 bb
       -0.008631864 0.011625882 -0.0070659053 -0.0070421128
000080 e8 40 67 bc 03 7b 9e bc 85 3d 2e 3b 57 70 25 bc
       -0.014114596 -0.019345766 0.0026586961 -0.010097585
000090 de b8 82 bc d1 ca 6f 3c e5 da 45 bc c5 9c 03 3b
       -0.015957292 0.014635758 -0.012076114 0.0020082456
0000a0 94 2a a5 3c 57 84 58 3c 16 4d ed 3a 0f 01 49 3b
       0.020161904 0.013215146 0.0018104638 0.0030670797
0000b0 b9 95 e9 3b 2a 3f ac 3c b7 64 3b 3c 8b 95 68 3c
       0.007128444 0.021026213 0.0114375865 0.01419581
0000c0 98 83 fb bb 42 8d fd 3b 7d e2 88 3c 09 8c 76 3c
       -0.0076755993 0.0077377865 0.01670956 0.015048035
0000d0 0d c9 5e bc 03 f3 8a 3c 23 7c a6 3b d4 65 c6 bc
       -0.013597739 0.01696158 0.005080716 -0.024218477
0000e0 48 b6 4f 3c 11 f2 81 3c d3 3f 05 bc 86 89 56 bc
       0.012677737 0.015862497 -0.008132893 -0.013094312
0000f0 3a ab 6a 3c 19 62 39 3c 49 8a b1 bc 8a 8b 94 bc
       0.01432305 0.011314892 -0.021672385 -0.018132944
000100 c2 f7 9a bb 1d 08 14 bc 88 de c3 bb 6b 3a 64 3c
       -0.004729242 -0.0090351375 -0.0059774555 0.013929944
000110 f9 05 94 bc d7 5b a7 3c 92 ab 71 ba a6 cf 56 bc
       -0.018069254 0.020429535 -0.00092189864 -0.013111031
000120 70 14 66 3c 42 d5 e6 bb b8 e9 7e 3c d6 6c 74 3b
       0.014042959 -0.0070444653 0.015558653 0.0037296317
000130 9f 2e 75 3c c5 d0 7f 3c 86 39 75 bc 3c cf 97 bc
       0.014964729 0.015613739 -0.014967328 -0.018531434
000140 b3 c2 9e 3b 87 86 40 bb d6 43 83 3c 07 ce 53 3b
       0.0048449873 -0.002937706 0.016023558 0.0032318847
000150 30 07 2c 3c 7a 17 23 3c e4 db 92 3c 6c 20 29 3c
       0.0104997605 0.009954328 0.017927118 0.010322671
000160 f2 8c 5b 3c f7 86 ab 3b 37 5d 82 3c 7a 76 68 3c
       0.013400303 0.005234595 0.015913589 0.014188403
000170 0a 30 44 bc 5c 36 41 bc 81 39 84 bc 71 9d 59 bc
       -0.011974344 -0.011792745 -0.016140701 -0.013282166
000180 6c 3b 2a 3c cf c1 34 3c 92 cb 55 3c 9d 90 b8 3c
       0.010390144 0.011032536 0.013049023 0.022529894
000190 de 9e cf bc 58 3b 71 bb 35 69 bf b9 d1 e6 2c bc
       -0.025344308 -0.0036809053 -0.00036508744 -0.010553078
0001a0 ee e9 02 bc bb b7 4d b9 b6 b7 f0 3b b1 82 68 bc
       -0.0079903435 -0.00019618768 0.007346119 -0.0141913155
0001b0 e8 a0 30 3c 50 50 ba bb ac d4 f1 3b 93 db ba 3a
       0.010780551 -0.0056858435 0.007380089 0.0014256112
0001c0 e6 dd fe bb 78 29 de ba 6d 8e 0a 3c dc e5 c9 3b
       -0.007777917 -0.0016949615 0.0084568085 0.0061614346
0001d0 69 f8 3e 3c f3 7a 56 bc 78 6f 35 bc 46 f6 bc 3b
       0.011655905 -0.013090837 -0.0110739395 0.005766663
0001e0 01 d1 81 3b 7d e2 b4 3c 7b 59 f5 3b 3e 20 22 3c
       0.003961683 0.022080654 0.0074874735 0.009895382
0001f0 ea b6 c9 3b 25 1a 80 3c f3 00 3b 3a 42 df fa bb
       0.0061558383 0.015637467 0.00071336253 -0.007656009
000200 a1 c5 9f bc cd 05 67 3c ff e7 f2 3b 88 07 0c 3c
       -0.019503416 0.014100504 0.00741291 0.008546717
000210 09 63 6a 3b 0f 57 21 3c 00 c9 12 3c e2 38 91 bc
       0.0035764596 0.009847417 0.008959055 -0.01772732
000220 d1 79 6c bc 69 4b d4 bc 81 df d5 3b 94 ac f0 b6
       -0.01443334 -0.025914865 0.006526888 -7.172648e-06
000230 da 6d 71 bb 05 eb 20 bc 3b 6b 4c bc fa 94 88 bc
       -0.0036839158 -0.009821658 -0.012476738 -0.0166726
000240 29 35 88 bc 3d 1c 86 3c 4f df 33 bb c7 32 24 3c
       -0.016626911 0.016370887 -0.0027446335 0.010021872
000250 97 0a de 3b 01 22 9a 3c e7 ea c2 3b 52 80 38 3c
       0.0067761648 0.018815042 0.0059484127 0.011261063
000260 cc 20 48 3b 80 2b a8 bc 92 07 62 bc 94 97 52 bb
       0.0030537127 -0.020528555 -0.01379575 -0.0032133805
000270 1c 13 8d 3b 1b 57 af bc 86 bb bb bb cf 64 d4 3b
       0.0043052565 -0.02140384 -0.0057291416 0.006481744
000280 f0 4a 33 3c 8c e7 67 b9 7a 58 2f bc b3 56 0d 3c
       0.010943159 -0.00022116135 -0.010702247 0.008626628
000290 cf ed 4f bc 5a 49 20 3b ea 40 b6 bc 1a 98 9c 3b
       -0.012690975 0.0024457783 -0.02224775 0.004778874
0002a0 96 f3 83 bc a3 47 83 3b 7d fb eb 3b 1d 5c 3e bc
       -0.016107362 0.0040063425 0.0072016106 -0.011618641
0002b0 c7 e9 79 3b 5a 21 cc bc db aa 38 3c 47 04 29 bc
       0.0038133727 -0.024918247 0.011271204 -0.010315961
0002c0 29 01 65 3c 00 36 af 3c dc 48 90 3c 92 06 78 bc
       0.013977327 0.021388054 0.017612867 -0.015138285
0002d0 8e df 7d bb c6 16 14 3c 9f 86 39 bc 3d ac 13 bc
       -0.0038737985 0.009038633 -0.0113236 -0.009013233
0002e0 0e 1a 78 3c 7e a5 8e bc f1 2b 20 bc 4b 01 93 bc
       0.015142931 -0.017412897 -0.009776101 -0.017944952
0002f0 9c c7 86 3b 11 8f b1 3b 45 94 8d 3c f3 b6 a9 3c
       0.0041131508 0.005418666 0.017282614 0.02071712
000300 d5 8b fd bb 82 f6 05 bc 4c 36 84 bc a6 8c dc 3b
       -0.0077376165 -0.008176448 -0.016139172 0.006730634
000310 42 c7 e6 bb 72 98 99 3c 45 cc 9b bc 38 bc ad 3c
       -0.0070427964 0.01874945 -0.019018302 0.021207914
000320 5d 14 79 bc 38 e1 66 bb f9 e7 1b bc 3c 9b d1 3b
       -0.015202609 -0.0035229456 -0.009515756 0.006396679
000330 b1 d7 3a bc a9 d0 8c bc 15 a3 4e bc 73 68 a0 3c
       -0.011403964 -0.01718934 -0.012612124 0.019581055
000340 9b 90 b2 3c 13 69 89 bc 76 fe 13 3c b1 1c 7d bb
       0.021797469 -0.016773736 0.009032836 -0.0038621838
000350 23 96 98 3c df 3e 8c bc 61 52 98 3b 39 a5 cd 3b
       0.018626278 -0.017119823 0.004648492 0.0062757996
000360 32 9f a7 bc ce c2 31 3a 72 3a 02 bc 9a b6 67 bc
       -0.020461652 0.00067810423 -0.007948505 -0.014142657
000370 77 df 85 bc 34 3f 94 bb ad dd e4 bb 81 00 32 3c
       -0.016341908 -0.004524136 -0.0069844336 0.010864378
000380 f0 0a 5b bc c6 93 ba 3b af 4f 0e bb d3 00 cf 3a
       -0.013369307 0.0056938855 -0.0021714976 0.0015793092
000390 5f 1f 85 3c 8f ba d3 bb 6b b9 85 bc 76 40 aa bc
       0.01625031 -0.0064614485 -0.016323766 -0.02078269
0003a0 15 8d 71 3c 11 e6 49 3b 82 0a e8 ba 80 57 69 bc
       0.014743109 0.0030807296 -0.0017703327 -0.014242053
0003b0 7c d5 3e bc 95 50 00 bc 3c 78 34 bb 89 f1 81 bb
       -0.011647578 -0.007831712 -0.0027537486 -0.003965561
0003c0 6a b0 96 3c da bf 07 bb 47 f9 39 3c 8d 18 47 3c
       0.018394668 -0.0020713718 0.011350936 0.012151849
0003d0 b0 3a 0f 3b 21 04 8e bc be 49 c5 bb cf a4 3d bc
       0.0021855049 -0.017335953 -0.0060207536 -0.011574938
0003e0 97 6f b7 bb b4 cb 89 3a 99 9f 89 bc 83 bf af 3b
       -0.0055980193 0.0010512979 -0.016799735 0.005363406
0003f0 77 9d b2 3b 6b cd 26 3c 95 73 a4 3c 25 76 cb bb
       0.0054509 0.010180811 0.020074645 -0.0062091523

model.backbone.W_P.weight f4 [16, 24]
000000 6c ad 0f be 19 18 49 3c 64 3e d0 3d 63 0b b9 3d
       -0.14030999 0.012273812 0.1016815 0.09035375
000010 6e 98 fd 3c 8a 13 06 be 9d 5b 37 be b0 1b 43 3e
       0.030956473 -0.13093391 -0.17906041 0.1905353
000020 a8 73 a6 bd b8 cd 24 be 1e 29 01 3e 4e 9f 49 be
       -0.081275284 -0.160941 0.12613341 -0.19689676
000030 2a 2e 00 3e 9c ba 22 be f3 5f c0 3d 5f 1b 78 bd
       0.1251761 -0.15891498 0.09393301 -0.060572978
000040 22 90 37 3b 9a 60 aa bd cc 70 ef 3d 07 af d0 3d
       0.0028009494 -0.083192065 0.11691436 0.10189634
000050 5d d7 0a 3e a4 3e 66 bd 4a 6d 6a 3e 25 32 10 3d
       0.13558717 -0.056212083 0.22893253 0.03520407
000060 e1 62 6a bd 67 c5 44 be c9 ec 04 3e bc 78 41 be
       -0.057223205 -0.19215928 0.12980951 -0.18893713
000070 16 6f 13 be 16 1d a7 bd e4 21 80 3d e4 14 8a 3d
       -0.14397845 -0.081598446 0.06256464 0.06742266
000080 b7 57 fa 3d 48 62 16 bb 7d d0 b1 3d 87 a7 f7 3d
       0.122237615 -0.0022946764 0.08682344 0.120925
000090 4b 8d 54 be 9e 7d 3d be 28 40 56 be 8c 1b 1f be
       -0.20757024 -0.1850495 -0.20922911 -0.15537852
0000a0 54 ad ba 3d 57 df 2f 3e 7f 3c 82 3d 0e ba 26 be
       0.09115091 0.17175041 0.06359195 -0.16281912
0000b0 89 05 be 3d fd 5b e6 3d 81 51 38 3e 34 1e 37 be
       0.092783995 0.11248014 0.17999841 -0.17882615
0000c0 91 ed 09 bd 87 7e de bd a3 f2 30 3e 14 90 e0 3d
       -0.033673827 -0.10863977 0.17280059 0.10964981
0000d0 3b c2 cb 3c fb 2f 85 3c d2 76 b6 3d 9d ac 1b be
       0.02487289 0.01625823 0.08909382 -0.15202565
0000e0 8f 9a 19 bc 5b 27 0f be 89 48 ab 3d e5 b1 9a 3d
       -0.009375229 -0.13979857 0.08363444 0.07553462
0000f0 f3 4b 24 be da 0f bb 3b 9b fb d3 3d 3e 0f df 3d
       -0.16044597 0.0057086768 0.10350724 0.10891579
000100 a4 38 49 3e 9a cf 33 be b7 1e 62 bd 35 65 98 bd
       0.19650513 -0.17559662 -0.055205073 -0.07441179
000110 b0 18 32 be 5f 78 64 be 85 f2 3d be b5 8f 5a 3d
       -0.1739223 -0.22311543 -0.18549545 0.053359706
000120 0a dd 33 be 5a bf be bd 14 74 0a be 42 1d 20 be
       -0.17564788 -0.09313841 -0.13520843 -0.15636161
000130 87 c2 3e 3e bf f1 9b bc 87 d4 8a bd 57 48 40 3e
       0.18628894 -0.019036172 -0.067788176 0.18777595
000140 e5 fe e5 bd 72 f6 9f bd dd 04 73 bd cb d1 07 be
       -0.11230258 -0.078106776 -0.05933081 -0.13263623
000150 a1 38 c0 bd c5 07 5d bd bb 8c 22 3c fa c2 03 be
       -0.09385801 -0.053962488 0.009921248 -0.12867346
000160 cd 81 8c bc 42 42 42 3e 1e bd 0b bc 35 6f 18 bd
       -0.017151738 0.18970588 -0.008528976 -0.03721543
000170 8a 63 5d be 53 52 2d be 1b cc a4 3d e9 25 c2 3d
       -0.21620002 -0.16925935 0.080467425 0.09479887
000180 12 af 38 be 4c cc 67 3d a8 01 5d 3d d4 20 89 bd
       -0.18035534 0.056591317 0.053956658 -0.066957146
000190 e3 fd 2f 3e b5 70 3b 3d e5 6f 0d be ee 52 40 3e
       0.17186694 0.045761783 -0.13812216 0.18781635
0001a0 d8 d3 e1 3d 92 53 ad bd 9c b8 ef 3c 91 1b 25 3e
       0.11026734 -0.084632054 0.029262833 0.16123797
0001b0 80 0f 2d 3e 3d 12 e3 3d e9 0e 93 3d e5 2b c4 3b
       0.16900444 0.11087463 0.07180578 0.005986678
0001c0 95 c8 4f 3d 80 eb 05 be 20 bb a6 3c d1 c1 39 be
       0.0507284 -0.13078117 0.0203529 -0.18140341
0001d0 fa 20 0b 3e ea d7 fa bd f4 bb ee bd 5e 89 3c 3e
       0.13586798 -0.122482136 -0.11656943 0.18411776
0001e0 3b 22 6d bd d7 b2 fd bd c2 42 1d be dd 79 cb 3d
       -0.057893973 -0.123876266 -0.15357497 0.09935353
0001f0 8d 81 2d be e5 19 25 3e 44 ba 89 3d b3 2b 45 3e
       -0.16943951 0.16123159 0.067249805 0.19254951
000200 b9 89 96 bd 09 08 2c be e9 a8 13 bc 79 bb 31 3e
       -0.07350487 -0.1679994 -0.009012439 0.17356671
000210 12 a9 a9 bd d6 7e 34 be da 8c 23 3e 88 51 11 3e
       -0.08284201 -0.17626509 0.159717 0.14191258
000220 92 b3 23 3e da 99 fc 3d 0c 10 42 3b f5 d5 2c be
       0.1598647 0.12334032 0.0029611615 -0.16878493
000230 aa f2 17 be c4 55 ef bd c0 71 24 be 02 a1 47 be
       -0.14838663 -0.1168628 -0.16059017 -0.19495013
000240 e9 d5 1c 3e 2d 29 1a 3e 0b b7 08 be 88 6b 85 bc
       0.15315975 0.1505477 -0.13351075 -0.016286626
000250 71 c5 41 3e 4a 44 c5 3d f5 ba 2b bd 76 01 67 bd
       0.18922974 0.09632166 -0.041926343 -0.056397878
000260 23 db d7 3d 0d f3 9b bd 5d fb 17 be 30 67 5c bd
       0.10539844 -0.07614718 -0.14841981 -0.053809345
000270 ea 30 04 3e 32 94 a5 bd a7 73 0d be 02 e5 8e bd
       0.12909284 -0.08084907 -0.13813649 -0.069772735
000280 93 2d 92 bd 68 98 12 be 53 75 44 3a c4 9c da 3d
       -0.07137599 -0.14315951 0.00074942893 0.10674432
000290 fa e4 46 3e d0 c4 8f 3d 50 3a 38 3e f1 4f da 3d
       0.19423285 0.07019961 0.17990994 0.10659779
0002a0 07 6c 47 bd a5 c9 18 be ae 74 40 bd 74 2b d4 3d
       -0.048687007 -0.14920671 -0.046986274 0.103598505
0002b0 c4 e5 53 3d d3 d5 2e bd 73 cf 9f 3b 2b e5 a5 3d
       0.051732793 -0.042684387 0.004877025 0.08100351
0002c0 13 69 75 bc 8b 38 26 3e 4a bf e1 bd 13 ce 2a 3d
       -0.014978665 0.16232507 -0.110228136 0.041700434
0002d0 93 6c ff 3d 1b a3 35 3e ea 27 41 3d 26 cb fd 3c
       0.12471881 0.17738001 0.047157206 0.030980658
0002e0 c8 a9 43 3e 9a 38 07 be 9d d0 b3 bd ff 44 e1 bd
       0.19107735 -0.13205186 -0.08780024 -0.10999488
0002f0 4b 96 4c 3e 9d fd 74 3c a9 8e 28 be fe e8 6f 3c
       0.19979207 0.014953044 -0.1646067 0.014642952
000300 0c 40 49 be de 10 d6 3d 2c 0e 1b 3e c0 ca a1 3d
       -0.19653338 0.10452436 0.15142125 0.078999996
000310 29 cc 3d bd 69 28 ef bd de 74 31 3e e6 a1 1d bd
       -0.04633728 -0.116776295 0.17329738 -0.038484477
000320 9d 70 a1 3d 30 7f 7e bc 4b 69 29 3e f4 38 0b bd
       0.078828074 -0.015533254 0.16544072 -0.03398986
000330 b7 3d 06 3e e6 03 18 be c7 4c 2d be e7 0b 07 3d
       0.1310948 -0.14845237 -0.1692382 0.032970335
000340 53 25 29 3e bc f9 0d be dd 7e 02 3e 9c 26 7d 3c
       0.16518144 -0.13864797 0.12743707 0.0154511
000350 5d 3d 46 be 3c e7 15 be 81 a1 66 bd 7f b2 c4 b9
       -0.19359346 -0.1463899 -0.056306366 -0.00037517023
000360 6e 9f c5 3d f0 97 41 3e 6c bf 3e 3e 7e 5c 2b be
       0.096495494 0.18905616 0.18627709 -0.16734502
000370 94 f3 e7 3d e1 c2 66 bd 10 3f 72 bc 4c 7b 3d 3e
       0.11325756 -0.056338195 -0.014785543 0.18504065
000380 5f 8f 25 bd 32 6a b7 bd 58 46 d8 3d a3 51 1e bc
       -0.040419932 -0.08955802 0.10560292 -0.009663018
000390 31 e6 20 3d 36 74 91 38 a4 4f 34 3e 48 c9 1f 3e
       0.039282028 6.935785e-05 0.17608505 0.15604126
0003a0 72 b5 88 3d 39 7d d5 3c 81 8f 8d 3d c9 b5 90 bd
       0.06675233 0.026060687 0.06912137 -0.07065923
0003b0 9b 76 02 3e f5 c8 3a 3e 60 ab 36 3e f1 32 bd bd
       0.12740557 0.18240722 0.17838812 -0.09238232
0003c0 e1 90 e2 bd cd 94 20 3e 5a a6 15 3e c4 58 e0 3d
       -0.1106279 0.15681763 0.1461424 0.10954431
0003d0 e7 ed 1d 3e f3 1f 32 3e b2 a5 f9 bd 99 1f 32 be
       0.15422784 0.17395 -0.12189807 -0.17394866
0003e0 5c 50 5f bc a0 78 ee 3d 5a 41 cb bd c1 32 03 be
       -0.013629999 0.11644101 -0.09924574 -0.1281233
0003f0 af ba 4e be 10 6d cd 3c 99 a0 9c 3c a6 f7 f6 bd
       -0.20188402 0.02507642 0.019119548 -0.12058954

model.backbone.W_P.bias f4 [16]
000000 6e 00 a1 bd 91 a0 a5 3c 93 99 20 3d fc 86 88 bd
       -0.0786141 0.020218166 0.03920896 -0.06666371
000010 c3 a0 12 3e a8 ae 7e bd 48 b1 03 3d b6 bd 17 be
       0.14319138 -0.062178284 0.03215149 -0.14818463
000020 32 7d 6a bd 1b 18 2c 3e 7b 0d b0 bb 92 36 d3 3d
       -0.0572483 0.1680607 -0.0053727007 0.10313143
000030 43 3a d1 3c 20 96 1f 3e 2d 19 f4 bd c1 09 4e 3d
       0.025540477 0.15584612 -0.119188644 0.05030227

model.backbone.encoder.layers.0.self_attn.W_Q.weight f4 [16, 16]
000000 90 46 37 be d3 97 8a bd 44 1a 4f 3e 7a 1c 10 3d
       -0.17898011 -0.067672394 0.20224863 0.035183407
000010 14 c6 02 3e ea ed 70 bd c5 08 10 3e c4 51 25 3d
       0.12770873 -0.058820643 0.14065845 0.04036118
000020 ff 56 43 be de 10 6a 3e 77 47 6a be f4 3b 31 3e
       -0.19076155 0.22857997 -0.22878824 0.17308027
000030 b6 18 2b be 2d 25 71 3e ae 18 b5 3d b0 0b 79 3e
       -0.16708645 0.23549338 0.08842598 0.24320865
000040 f1 24 57 3e c3 20 23 3d 74 38 6a 3e 97 92 1a be
       0.21010186 0.039826166 0.22873098 -0.15094982
000050 47 a1 34 be 12 75 57 be 28 27 1a be a8 6a 02 3e
       -0.17639647 -0.21040753 -0.15054 0.12735999
000060 90 06 09 3e 3c b3 77 be 14 d3 44 be 71 a6 1f 3e
       0.1338141 -0.24189466 -0.19221145 0.15590836
000070 c5 8e 71 3e c1 67 13 3e 7b d2 7e 3d c5 d7 b8 bd
       0.23589619 0.14395048 0.06221245 -0.0902553
000080 5a 9e 3e 3d 47 df 2c 3e f9 58 64 be 3a 3c e1 bd
       0.046537735 0.16882049 -0.22299565 -0.109978154
000090 b6 0b b0 3c 88 73 85 be a1 7b 4a 3c 4e d9 1f 3d
       0.02148996 -0.26064706 0.012358577 0.039025597
0000a0 a7 26 70 3d 63 74 e3 bd 50 08 13 3e ca f7 5e be
       0.05863061 -0.111061834 0.1435864 -0.21774212
0000b0 0e 9e 76 be 37 58 2a 3d 13 d6 02 3e c6 e1 80 bb
       -0.2408373 0.041588034 0.12776975 -0.0039331643
0000c0 a9 30 3f 3e 80 72 f7 3d 5f 64 16 3e 4d 63 42 bd
       0.18670906 0.12082386 0.14686726 -0.04745798
0000d0 67 11 30 3e b5 83 41 be d0 f9 14 be a6 e6 c9 bd
       0.17194138 -0.18897898 -0.14548421 -0.09858446
0000e0 c6 b0 14 3e 2d 9a 61 3e b5 97 1a be cd 40 0f 3e
       0.14520559 0.2203147 -0.15096934 0.13989563
0000f0 c2 78 0f be e7 33 82 3d 2d 0b 3b 3e 5f 2e 6c 3d
       -0.14010909 0.06357556 0.18265982 0.05766141
000100 41 49 15 bc a4 b9 fc 3b bd 54 d5 bc 36 91 70 be
       -0.009111703 0.00771256 -0.026041383 -0.23492894
000110 70 17 1d 3d e9 76 5b bc d9 9d 88 3e 3c ba 4c be
       0.03835243 -0.01339505 0.26682928 -0.19992918
000120 b6 4d 62 3e 89 92 66 3e e2 05 61 be b9 74 20 bd
       0.22099957 0.22516836 -0.219749 -0.039173815
000130 9c 26 d2 3d 09 38 e3 3d bf 2e eb bd c9 71 28 be
       0.102612704 0.11094672 -0.114835255 -0.16449656
000140 7e 28 ed bd 61 8a c6 bd 74 55 bc 3d 3d 87 e8 bc
       -0.11579989 -0.096943624 0.091959864 -0.0283848
000150 e7 76 e8 3d b6 10 19 bd f3 77 29 3d 91 5c e1 3d
       0.11350804 -0.037369452 0.041374158 0.11003984
000160 a7 1a 4b be b3 53 d2 bd ac 97 80 be 15 9e c5 bd
       -0.19834386 -0.102698706 -0.25115716 -0.096492924
000170 c5 ae 3f be ba ba 75 be d5 28 6a 3e 2c e7 db bd
       -0.18719013 -0.23997012 0.22867139 -0.10737452
000180 2d 3e c0 3b 19 1c 1a be 06 4f bf ba b8 c2 6c be
       0.005866787 -0.15049781 -0.0014595694 -0.23121154
000190 34 ff 49 bd 83 a8 7f bd 4c 9c 80 3d d9 66 12 3c
       -0.049315646 -0.062416565 0.06279811 0.008935654
0001a0 3d 4d 17 3e d5 a9 ab 3b 13 b8 e9 bd d6 ff 81 3e
       0.14775558 0.0052387514 -0.114120625 0.253905
0001b0 1b 38 35 bd 68 50 61 3e 89 e1 54 be 95 b3 10 be
       -0.04424296 0.22003329 -0.2078916 -0.14131005
0001c0 71 22 54 be ec 82 1b be f5 35 ad 3b c0 9a 40 3e
       -0.20716263 -0.15186661 0.005285973 0.18809032
0001d0 ce 6d 46 be 81 5e 7a 3d 27 e8 45 3e af f3 64 3e
       -0.19377825 0.061125282 0.1932684 0.22358583
0001e0 30 ae 94 3d 92 90 d5 bd 3b b7 59 be 66 cf 3c 3d
       0.07259786 -0.10427965 -0.21261303 0.046096228
0001f0 2e 88 0d 3e ea ca ac 3c 2e f1 d2 3d 63 a4 64 3e
       0.1382148 0.02109285 0.102999076 0.22328334
000200 44 4f fe bc 60 47 28 be 57 74 0b bd d5 c6 9a bd
       -0.031043656 -0.16433477 -0.034046497 -0.075574555
000210 1d b4 18 3e 25 b0 f9 3d c0 83 bd bc 46 e6 0c 3e
       0.14912458 0.121918 -0.023134112 0.13759717
000220 15 7c 7e be 65 16 34 be 51 0a ff 38 f6 30 45 3d
       -0.24852021 -0.17586668 0.00012161269 0.048142396
000230 e8 2b 43 3e 4a 40 c8 3c ae fc 17 be ca 45 8a bd
       0.19059718 0.024444718 -0.14842483 -0.067515925
000240 2f fc 32 be a7 55 0c be 76 76 a5 bd 2a 08 0f 3e
       -0.17479013 -0.13704549 -0.08079235 0.13967958
000250 3a 4a 84 3e b1 df 81 3d 9d 0d 4c be e8 57 54 be
       0.2583788 0.06341494 -0.19927068 -0.20736659
000260 ae 9f c9 bd 71 cc 4a be 8d 4a 35 be fb b2 68 be
       -0.098449096 -0.1980455 -0.1770422 -0.22724526
000270 2e 28 38 3d 38 1b eb 3c 05 41 e2 bc 35 96 77 3c
       0.044960193 0.028699502 -0.027618894 0.015111496
000280 75 5d 36 3d 7a 13 7a 3d 42 61 7a 3c 78 5e 7a bd
       0.04452272 0.06105373 0.015281977 -0.06112525
000290 94 2d 3d bc 56 15 67 be 3a ea 38 be 69 f5 05 be
       -0.011546511 -0.22566733 -0.180581 -0.13081898
0002a0 14 b0 38 3e 18 db 49 3e a4 4a 42 be f4 d0 d9 3d
       0.18035918 0.19712484 -0.18973786 0.10635558
0002b0 3f 91 57 bc af 9a 64 3d 9f b2 53 be 0c 5f 72 be
       -0.013157188 0.05581158 -0.20673607 -0.2366907
0002c0 c1 1c 09 be 63 b7 a6 3d c6 89 84 3d de b7 fa bc
       -0.13389875 0.08140447 0.06471591 -0.030605253
0002d0 66 7e 8f bd 93 09 92 3b b2 5f 07 be e1 bd c7 3d
       -0.070065305 0.0044567077 -0.13220099 0.097530134
0002e0 46 f1 79 3d 8b f1 d9 bd 9a 69 a2 3d 2e 8c 82 bd
       0.061021112 -0.10641774 0.07930298 -0.063743934
0002f0 f6 bb 8c 3d 49 4a c4 3d 29 6f 66 3e 30 0b 0d 3e
       0.06871788 0.09584481 0.22503342 0.13773799
000300 17 d8 60 be f7 54 38 3d 84 02 27 bd 64 25 25 be
       -0.21957432 0.045002904 -0.040773883 -0.16127545
000310 7b c1 68 be 8e 9b 49 3e a2 4d 45 be eb 73 29 3e
       -0.22730057 0.19688246 -0.19267896 0.16548125
000320 e9 91 f6 3d 5e 0d d2 bd 61 70 dc bd cf 50 14 3e
       0.12039549 -0.10256456 -0.10763622 0.14483951
000330 92 d7 f1 3d cd 1b dd bc 32 d5 b6 bd b8 cc a7 bd
       0.11808695 -0.026990796 -0.089273825 -0.08193344
000340 14 8d f6 b9 7d ff 68 be 83 a5 9a bd 34 fa 1a be
       -0.00047025888 -0.22753711 -0.075511 -0.15134507
000350 78 8a 3e be 89 3e ac 3d 31 c2 29 be 06 01 a3 bd
       -0.18607509 0.08410365 -0.16577984 -0.079591796
000360 e0 21 ae 3d 52 0a fa 3d 5c bf 44 bc d1 84 7b be
       0.08502555 0.12209 -0.012008514 -0.24562384
000370 7b 5d a5 3b 70 26 2e be 5f a0 40 be 2e 01 e7 3d
       0.005046544 -0.1700685 -0.18811177 0.11279522
000380 e8 e2 5a 3e ef 59 31 3e 09 6f 65 be ad 13 f4 bd
       0.2137562 0.17319463 -0.22405638 -0.11917815
000390 47 ce 24 be de 7d 33 3e 83 3b 65 3e ba 61 35 be
       -0.16094314 0.17528483 0.22385983 -0.17713061
0003a0 5a 92 17 be 0c 8e 74 3e b4 ea 09 3e 36 02 43 bc
       -0.14801922 0.23882312 0.13468438 -0.011902383
0003b0 49 0b 4d 3e d6 62 27 3e 68 b1 49 be f7 48 37 be
       0.20023836 0.16346297 -0.19696581 -0.17898928
0003c0 3b 26 73 3d c5 8f 4d 3e 26 6c 64 3c 82 24 c5 bc
       0.05936263 0.20074375 0.0139418 -0.02406526
0003d0 a9 e0 2c 3e 92 1e 3a be 3c 25 55 be 3e 49 d1 3d
       0.16882576 -0.18175724 -0.20814985 0.10219048
0003e0 ce ee c9 bd 46 3e 5c be 5d 89 38 be b6 1a 91 bd
       -0.098600015 -0.2150813 -0.1802115 -0.07085173
0003f0 56 3b e7 ba 57 4e 0c 3c 9f 11 5a be 86 2c 6f 3e
       -0.0017641585 0.0085636 -0.21295784 0.23356828

model.backbone.encoder.layers.0.self_attn.W_Q.bias f4 [16]
000000 36 23 08 3e d8 89 4e 3e 8b 44 26 be d7 0d 52 3e
       0.13294682 0.2016977 -0.16237085 0.20513092
000010 69 b5 5b 3d a8 4e 21 be 70 f3 0c 3d be d1 41 3e
       0.053639803 -0.15752661 0.034411848 0.18927667
000020 11 d6 cd bd 39 6e 0d 3e aa bc 3a be 71 30 73 be
       -0.100505956 0.13811578 -0.18236032 -0.23748948
000030 4c 52 61 3e 99 96 5f bd 9c 22 4a be 0e f3 0c 3e
       0.2200405 -0.05458698 -0.19739765 0.13764593

model.backbone.encoder.layers.0.self_attn.W_K.weight f4 [16, 16]
000000 70 c7 03 3e ba b2 c7 bd d5 eb 80 3e f2 95 63 be
       0.12869048 -0.09750886 0.25179926 -0.22225168
000010 31 88 2d 3e 28 6d ce 3c 7e c7 62 3e ad 16 12 be
       0.16946484 0.025198534 0.22146413 -0.14266463
000020 c5 c2 b4 bc c0 57 74 be cf d6 6a be e8 3a e5 3c
       -0.02206553 -0.23861599 -0.22933505 0.02798219
000030 98 f7 30 3e 8a ce 0e 3e db 62 2e be 0d e6 0f 3d
       0.1728195 0.13945976 -0.17029898 0.035131503
000040 ac 2d e2 bd f8 43 e5 3b 0c 2e 0c be 13 91 76 bd
       -0.110438675 0.006996628 -0.1368944 -0.060196947
000050 26 8e ee 3d 84 a3 1f 3e 79 a0 29 bc 31 7c cd 3d
       0.116482064 0.1558972 -0.010353201 0.10033453
000060 44 92 2a 3e 76 33 56 be 40 3e c9 bd aa 46 2b 3d
       0.16657358 -0.20918068 -0.09826326 0.041815437
000070 8d 68 fb bd d0 fd 34 be c6 fb 75 3c 3c cd 29 3d
       -0.12275801 -0.17674947 0.015013641 0.041455492
000080 f0 7a 3c 3e 86 49 50 be 7c 7b d6 bd 5e 16 79 3d
       0.18406272 -0.20340547 -0.104727715 0.060812347
000090 02 52 1a 3e 31 93 7e be 76 3b d8 3d ed e4 70 3e
       0.15070346 -0.24860837 0.10558216 0.23524828
0000a0 d5 92 67 3d 21 2d 75 3d 88 27 98 3d 88 46 a6 bd
       0.056536514 0.05985749 0.07429415 -0.081189215
0000b0 8f 67 b9 3d b5 4b db 3d 3f 6e cc 3b 34 3f d6 bd
       0.09052955 0.10707799 0.0062387283 -0.10461274
0000c0 c7 6a 26 3e 4e 14 e9 3d 68 fe 69 be bb 87 8a bc
       0.1625167 0.11380826 -0.22850955 -0.016910424
0000d0 37 08 29 be fa 77 0d bd 57 7e 4f 3d 2c d9 00 bd
       -0.1650704 -0.034538247 0.050657596 -0.03145711
0000e0 8e 7d 7d 3e 78 c1 43 3e 16 eb bd bc 90 96 71 3e
       0.24754927 0.19116771 -0.023183387 0.23592591
0000f0 28 ce 89 bd fa 64 f4 bb c8 3f ec bd 43 78 f4 3d
       -0.06728774 -0.0074583264 -0.11535603 0.119370006
000100 49 c3 7f be d3 44 49 be 4a c2 1f be db ef ef 3d
       -0.24976839 -0.1965516 -0.15601459 0.11715671
000110 a4 fd a7 3c 41 c8 66 be 35 b0 29 3e 6a 2d 4f 3e
       0.020506687 -0.22537328 0.16571124 0.20232168
000120 a5 84 4f 3e 0a 5d 25 3d 55 45 ea bb eb 1d 4c be
       0.20265444 0.040371932 -0.0071493783 -0.19933288
000130 5c 5f 97 3d af 49 80 3e 7c 01 d8 bd de 0a 5e be
       0.07391235 0.25056216 -0.10547158 -0.21683833
000140 da ab fd bd 01 ab c5 3d 47 17 12 be e5 8c 46 3e
       -0.12386294 0.09651757 -0.14266692 0.19389684
000150 bb d3 c9 3d be 29 09 3e c4 c5 d4 bd 57 97 d2 bd
       0.098548375 0.1339483 -0.10389283 -0.10282772
000160 6e 8f 44 be 8e c9 f1 3c 0a 63 41 3e dd 10 21 3e
       -0.19195339 0.029515054 0.18885437 0.15729089
000170 56 19 10 3e 00 0c 76 be e0 2d 31 3e ad 65 e1 3d
       0.14072165 -0.24028015 0.17302656 0.11005721
000180 5f 8d 42 3e 41 05 43 be c4 c7 54 3e 44 29 b6 bc
       0.18999241 -0.19044973 0.2077933 -0.022236474
000190 92 11 7e 3d 2b d5 37 be 05 44 72 3d 8c 91 ee 3d
       0.062028475 -0.17952411 0.0591469 0.116488546
0001a0 2c 2c 80 bc 78 8a 15 be 54 b1 8d bd 48 fc 64 3d
       -0.015646063 -0.14603603 -0.06918588 0.055904657
0001b0 80 f8 df bb a3 ef 21 3d cc 22 cb bd 80 7f 80 3e
       -0.0068350434 0.039535176 -0.09918746 0.25097275
0001c0 d8 07 37 3d 50 f1 1e be 51 1d 04 be 09 84 10 be
       0.044685215 -0.15521741 -0.12901808 -0.14112867
0001d0 0e a9 44 3e e4 a4 52 be 3f dc 4f 3e c0 86 f2 3d
       0.19205114 -0.20570713 0.20298861 0.11842108
0001e0 f2 ee 62 3d cd d8 63 3d 49 dc 67 be 63 7b f1 3d
       0.055403657 0.05562668 -0.22642626 0.11791112
0001f0 3d 0f 3d be 4c d2 43 3e 37 4b 5f be f5 c4 43 3e
       -0.18462844 0.1912319 -0.21806036 0.19118102
000200 55 2a 81 3e c7 05 e1 3d ad bf 79 be b1 b3 63 3e
       0.2522761 0.1098743 -0.24389525 0.22236516
000210 fb 10 f0 bd d7 59 5a 3c 2e 27 6c 3e 06 37 3d bd
       -0.11721989 0.013327084 0.23061821 -0.046195053
000220 71 4c b0 3d a6 45 8a 3d b9 c0 33 3e 49 d5 01 be
       0.0860833 0.06751566 0.17553987 -0.12679018
000230 87 e8 d6 3d 32 73 27 3e b5 98 bb bd 3d 87 2a 3e
       0.1049357 0.16352537 -0.09159986 0.16653152
000240 0b e4 03 bb a2 dc 57 3e 47 e7 c9 bd 8e e8 25 3e
       -0.0020124938 0.21080258 -0.09858566 0.16201994
000250 78 74 65 3e 2d f2 46 3e 72 e0 1a 3e 9a 8d 5c 3e
       0.2240771 0.1942832 0.15124682 0.21538392
000260 61 1b e0 3b f4 fc 66 3e 5e bf 6b 3e b2 4e 98 bd
       0.0068392013 0.22557431 0.2302222 -0.07436885
000270 ea cb 24 3e 1c 3d b0 bd a3 51 3e be 05 0e 6c be
       0.16093412 -0.08605406 -0.1858583 -0.23052223
000280 43 b0 61 be f1 c4 56 3d 9e 57 55 3e fe 0c 0b 3d
       -0.22039895 0.05243391 0.20834205 0.033947937
000290 b9 78 2d 3e 29 4f 50 be df 00 39 3c cb c1 1c 3e
       0.16940583 -0.20342697 0.011291712 0.15308301
0002a0 ed 85 d5 bd d7 3f fd 3d 3d 9e ff bd 79 04 55 3e
       -0.10425935 0.12365692 -0.124813534 0.20802487
0002b0 7c f6 19 be 39 78 0e 3e 8f 59 96 bd 4e 7f f4 3d
       -0.15035433 0.13913049 -0.07341301 0.11938344
0002c0 c9 92 69 3e a3 b4 b1 bd 7a e6 82 be d1 c8 fa bc
       0.228099 -0.08677032 -0.25566465 -0.030613335
0002d0 94 f2 6b be 79 5b 15 3e e3 bc 71 3d e2 28 3b 3c
       -0.23041755 0.14585675 0.059018027 0.011423321
0002e0 d3 06 8f bd 00 e1 cf bc 5b be 44 3e 0c 21 28 bd
       -0.069837235 -0.025375843 0.1921324 -0.04104714
0002f0 6d a4 35 3e 0f 17 4e be d6 d3 7a be 16 fb 33 be
       0.17738505 -0.20125984 -0.24494871 -0.1757625
000300 39 19 21 3e 99 f0 91 bd 2b c7 8e bd bf a0 81 3d
       0.15732278 -0.071259685 -0.06971582 0.06329488
000310 ff 60 62 3e 7b 95 e7 bd 7d 1d 05 be 77 d5 95 3d
       0.22107314 -0.11307808 -0.1299953 0.07316106
000320 b6 f6 14 3e 70 0f 03 3d 9a 02 4f be e9 61 69 be
       0.14547238 0.031997144 -0.20215836 -0.22791256
000330 bf c3 88 bc a7 6e ac 3d 29 e7 45 3d b0 d1 61 be
       -0.016694902 0.08419543 0.048316155 -0.22052646
000340 8e 44 b0 3d 92 f4 fc bb 5c 50 ad 3d 36 5d 28 be
       0.08606826 -0.0077195847 0.08462593 -0.16441807
000350 67 bf ed bd a4 54 14 bd 33 83 01 3c 26 6d 8e 3d
       -0.11608773 -0.036213532 0.0079048155 0.06954412
000360 f1 df eb bd a2 e4 84 3d 96 78 1a 3e 0c 54 4c 3c
       -0.11517323 0.06488921 0.15085062 0.01247121
000370 5d fa dc bc e1 bb 4e 3e 79 28 49 3e f9 18 5a 3e
       -0.026974851 0.20188858 0.19644345 0.21298589
000380 dc 32 d4 bd 0a 9c 18 3e a9 fd 7e 3d a3 6a d0 3d
       -0.10361263 0.14903274 0.062253628 0.10176589
000390 96 99 a8 3d 64 75 87 bd 38 9d f1 3c f0 94 29 3e
       0.08232419 -0.06614187 0.029493913 0.16560721
0003a0 58 2f 4a be a7 76 63 be 31 5d 49 be be 58 0a bc
       -0.19744623 -0.22213231 -0.19664456 -0.008444009
0003b0 8f 1e ce bd bd a0 c3 3d 70 b7 f8 3d 98 a2 04 3e
       -0.10064422 0.09552143 0.12144363 0.1295265
0003c0 5e ae 32 3d 72 46 bf 3b 62 9b 02 be 5d fa 2d 3d
       0.04362332 0.005837255 -0.12754586 0.042475093
0003d0 16 fa fd 3d cd f8 12 3e 8e 59 f1 bd 43 f9 b2 3d
       0.12401216 0.14352722 -0.11784659 0.08738949
0003e0 d2 c0 76 be a7 c3 40 3e e3 9c eb 3d 68 61 e1 bc
       -0.24096993 0.18824635 0.11504533 -0.027512267
0003f0 4c f2 1f be 44 99 38 3e 33 fa 54 be 9c ae 39 3e
       -0.15619773 0.18027216 -0.20798568 0.18133014

model.backbone.encoder.layers.0.self_attn.W_K.bias f4 [16]
000000 f9 a3 88 bd b8 54 ca 3d dd 43 22 be a8 e9 cf bb
       -0.066719 0.0987944 -0.158462 -0.0063449927
000010 80 fb 21 3d ba 59 61 3e b3 03 e2 bd 2f 9a 50 be
       0.03954649 0.22006884 -0.11035862 -0.20371316
000020 23 ee 69 bd 6b 27 c3 bd 04 8f 0d be 24 bc 84 bd
       -0.05711187 -0.09529003 -0.13824087 -0.064811975
000030 02 1e eb bd 00 fd f4 3d 01 b9 84 bd 12 2f cd 3d
       -0.11480333 0.119623184 -0.06480599 0.100187436

model.backbone.encoder.layers.0.self_attn.W_V.weight f4 [16, 16]
000000 8b 1b 06 3e ae 4c 94 3d ef ff 05 be 1e 6e b7 bd
       0.13096444 0.07241188 -0.13085912 -0.0895655
000010 03 ab e9 bb 08 a7 ec bc 76 09 7e 3e df 5c 68 3e
       -0.007130982 -0.02888824 0.24808297 0.22691678
000020 19 73 6d be c3 ad f5 3b 5c 14 ff bd 61 7f 1c 3e
       -0.23188438 0.0074975207 -0.12455055 0.15282966
000030 b3 54 41 be 22 40 6f bd 30 61 3b 3e 2e 06 2a be
       -0.18879966 -0.05841077 0.18298793 -0.1660392
000040 ef fd 28 3e 52 d8 24 be 04 ee 78 3e e3 ed 86 3d
       0.16503118 -0.16098145 0.24309546 0.06588342
000050 f4 1e 02 bd f9 fe 34 3c 7d b4 d5 3d d5 b1 13 be
       -0.0317678 0.011047118 0.10434816 -0.14423306
000060 7b 9f 60 3e 84 4e 1c 3e 62 e7 49 be ea 8f ad 3d
       0.21935837 0.15264326 -0.19717172 0.08474715
000070 1c e7 75 3e bb 72 ab bd 0d b6 6d 3e ac cf 02 be
       0.24013942 -0.083714925 0.23213978 -0.12774533
000080 02 30 5f be a4 2e 51 be d5 7e d9 3d db 4c 57 3e
       -0.21795657 -0.20427948 0.106198944 0.21025412
000090 80 5b 2c 3e ce 84 5f bc 59 70 2f 3e b8 dd b3 3d
       0.1683178 -0.013642503 0.17132701 0.08782524
0000a0 d7 5c 2a be 35 bc 93 3d b3 51 d3 bc 94 61 0e 3e
       -0.16636978 0.07213632 -0.025795793 0.1390441
0000b0 7c e5 72 3e 4c ee 0d bd 8f b3 d0 3d 37 9f 5e be
       0.23720354 -0.034651086 0.10190498 -0.21740423
0000c0 1d ee 1d bd 7c a9 de bd 33 06 d6 bb cd da 28 be
       -0.03855716 -0.1087217 -0.0065315007 -0.16489716
0000d0 b1 87 65 3d 5b f3 28 3e 6a 77 4c be 93 e1 62 3e
       0.05603761 0.16499083 -0.19967428 0.22156362
0000e0 ff 3f b9 3d 79 33 fc bd 0f 12 1f 3c 59 2e 21 be
       0.090454094 -0.12314505 0.009708895 -0.15740336
0000f0 3e cc 71 3e 78 91 47 be d3 49 75 3e dc 7c f6 bd
       0.23613068 -0.19489086 0.23953943 -0.12035534
000100 e1 39 99 3d 39 f8 1c be a0 c9 14 3d 7f 7c c3 3d
       0.07481743 -0.15329064 0.036325097 0.0954523
000110 9a dd 39 3b 3a 18 e0 3d 0e 5e f6 bd 5c 62 f4 bd
       0.0028360845 0.10942121 -0.12029658 -0.11932823
000120 4b 41 4a be 87 27 51 be 2d b2 91 bd d5 5d 4b 3c
       -0.1975147 -0.20425235 -0.071140625 0.012412508
000130 79 c7 a1 bc 71 cb 8c bd 1b 1e 47 be 8f b5 a8 bc
       -0.019748436 -0.06874741 -0.19445078 -0.020594386
000140 16 60 2f 3e 12 22 d4 bd 74 5c 2c be 4a b8 4b 3d
       0.17126498 -0.10358061 -0.16832143 0.0497363
000150 d4 ab 15 be fb 38 43 bd 1d 8b 1d 3d 65 58 c3 3c
       -0.14616328 -0.047661763 0.038462747 0.02384586
000160 76 e4 6a 3e 95 02 07 3e d9 43 55 be de 2b 2c 3d
       0.22938713 0.13184579 -0.20826663 0.042034023
000170 46 bd 99 3c d7 76 97 3d 23 9a 0e 3e 79 00 32 3e
       0.01876701 0.07395714 0.13925986 0.17382993
000180 e6 4f 03 be 01 48 27 3e 7b 87 a9 3d 38 1b 1f 3c
       -0.12823448 0.16336061 0.08277794 0.009711079
000190 a7 ea eb 3d 00 07 29 3e 1a 84 28 be 83 09 0e be
       0.11519366 0.16506577 -0.16456643 -0.13870816
0001a0 5d 0f fd 3d a2 0c 4f 3e 96 2f d5 bd 06 30 1d be
       0.12356446 0.20219663 -0.10409467 -0.1535035
0001b0 50 05 5d be d6 d9 b8 bd 6f 2c 12 bc fd 82 18 be
       -0.21584058 -0.09025924 -0.008921727 -0.14893718
0001c0 7b f5 3e bd 66 69 70 bd 42 6c 15 3d 00 39 1b 3e
       -0.046620827 -0.058694266 0.036480196 0.15158463
0001d0 5c c2 34 3e b6 fc d9 3d cb 36 55 be 79 02 d9 3d
       0.17652267 0.10643904 -0.20821683 0.10596175
0001e0 1f 70 7e 3c e7 c1 44 3e 55 78 78 bc e3 1d 39 3d
       0.015529661 0.19214593 -0.015165408 0.045194518
0001f0 10 70 4f be b8 51 da bd cb 45 15 be e8 5c 1e be
       -0.20257592 -0.10660118 -0.14577405 -0.15465128
000200 57 c3 48 3d 31 24 6d bd ee 02 3b 3e 52 1a 5e 3d
       0.049014416 -0.057895843 0.18262836 0.05422432
000210 0b 09 5a be 93 8e 33 bc b9 20 2a be 39 3a 41 be
       -0.21292512 -0.010959285 -0.16614045 -0.18869866
000220 b9 be 94 bd b1 26 06 bd dc 7b 8f bc b5 7a 31 be
       -0.0726294 -0.032751743 -0.017515115 -0.17331965
000230 6f 52 39 be 62 17 65 3d b0 49 10 be cc 53 0f be
       -0.18097852 0.055930503 -0.1409061 -0.1399681
000240 44 99 40 be bc 39 76 be 27 4f a3 bc a2 43 12 3e
       -0.18808466 -0.24045461 -0.019935204 0.14283612
000250 5d f4 bc bd df 31 5d bd 21 04 c2 bd 16 0c 22 bd
       -0.09226296 -0.05400264 -0.09473444 -0.039562307
000260 08 7c 74 be 67 12 6d be 3f b9 2e be 35 0f 1a 3b
       -0.23875439 -0.23151551 -0.17062853 0.00235076
000270 f2 82 21 be 86 11 a5 3d ef a4 8f bd 27 6c 55 3e
       -0.15772608 0.08059983 -0.070138805 0.20842038
000280 45 2d c2 3d d2 32 6e 3d 98 ae ab bd 63 c9 60 be
       0.09481291 0.058153935 -0.083829105 -0.21951823
000290 65 64 44 be 7a 46 63 be 71 fd 24 3e 2d ab f1 bd
       -0.19178922 -0.22194853 0.16112305 -0.11800227
0002a0 73 35 58 3d a8 ed 4e 3e 4e fd 58 3e 56 b2 ad 3d
       0.05278535 0.20207846 0.21190378 0.084812805
0002b0 e1 02 27 3e 8f 2d 53 be 1d 8e 9e bd 3f 5a 4a be
       0.16309692 -0.20622848 -0.0774195 -0.19760989
0002c0 8d 69 1f 3e 6c eb b2 bc a5 e2 47 3e 1d e7 c2 3d
       0.15567608 -0.021840774 0.19520052 0.095167376
0002d0 26 d2 de 3d 2a 45 84 be 98 0f 06 3e 63 9e d4 3d
       0.108799264 -0.25834018 0.13091886 0.10381772
0002e0 88 61 84 be 30 70 43 be bb b4 99 bd b4 f1 71 bb
       -0.2585566 -0.19085765 -0.07505175 -0.0036917748
0002f0 ae 10 3b 3e 25 57 2f be 10 55 7c be c4 89 cc bd
       0.18268082 -0.17123087 -0.24641824 -0.09987214
000300 74 05 c4 bd 02 32 3a be d4 28 4b bd d1 a6 ba 3d
       -0.095713526 -0.18183139 -0.049599484 0.09113849
000310 70 3d 44 3e cc 97 03 be 2a e2 70 bd 2c 86 12 be
       0.19164062 -0.12850875 -0.058809437 -0.14308995
000320 37 30 31 be e3 d2 68 3e 52 ce a1 bd f6 59 73 be
       -0.17303549 0.22736697 -0.079006806 -0.23764786
000330 ac ba dd 3d 2e b9 41 bd 10 20 f5 bd 7d a1 f6 bd
       0.108266205 -0.04729574 -0.11969006 -0.1204252
000340 ef 77 4f be 5a e9 1c be 94 73 7f be 07 7e 05 3e
       -0.20260595 -0.15323392 -0.24946433 0.13036357
000350 fe 20 0b 3e 7e c0 3c be 6e 92 bd 3d 03 52 66 3e
       0.13586804 -0.18432805 0.09256445 0.22492222
000360 87 e2 0d be a7 d9 6c be 1a 59 70 be 03 94 74 bd
       -0.13855945 -0.23129903 -0.2347149 -0.059711467
000370 fd e8 66 3e fc 19 85 bd 29 b0 7d 3e bf bd 48 3e
       0.22549815 -0.06499097 0.24774231 0.19603632
000380 cb e2 d2 3d a8 eb 73 3d 1d 3d a6 bc 1d 87 b9 3d
       0.102971636 0.05955091 -0.020292813 0.09058974
000390 22 70 64 be f1 81 5e be 35 2c 48 3d 1c 57 b9 bd
       -0.223084 -0.21729256 0.048870284 -0.09049818
0003a0 48 3c 32 be 52 fc 90 bd 4e 41 14 3e c1 0b 2b 3e
       -0.17405808 -0.07079376 0.14478037 0.16703703
0003b0 e4 61 d6 3d 6a e7 ac 3b d2 2c f4 bd 45 a7 6d 3e
       0.1046789 0.00527661 -0.11922611 0.2320834
0003c0 83 56 0d 3e 6e 81 78 bd fa 8b a5 3b f7 e9 29 bc
       0.13802533 -0.06067031 0.005052087 -0.010370723
0003d0 9c 0f 3e bd 61 d4 6b 3e da 5e 08 3e c1 25 81 3e
       -0.046401605 0.23030235 0.13317433 0.25224116
0003e0 2f 6f 44 bd 23 7e 94 3c 74 77 b7 3d 14 99 27 be
       -0.047957595 0.018126553 0.08958331 -0.16366988
0003f0 38 c8 6d 3e 80 4f 00 be 88 4a 92 bd 1f 33 33 bd
       0.23220909 -0.12530327 -0.07143122 -0.043749925

model.backbone.encoder.layers.0.self_attn.W_V.bias f4 [16]
000000 03 7d 58 bd ce 66 37 bd fd c3 9f bd 66 5c 14 3e
       -0.052853595 -0.044775777 -0.07801054 0.14488372
000010 7b e0 7e 3d ad 8d 25 3e a2 e9 a5 3d 68 2e 48 be
       0.0622258 0.16167326 0.081012025 -0.19548953
000020 27 1c 60 bd c0 15 99 3d 10 79 1b be 8e 88 18 be
       -0.05471435 0.074748516 -0.151829 -0.14895841
000030 93 3e 80 3e 9b bf 3f 3e 24 e1 fa bd 43 e6 2b 3e
       0.2504774 0.18725435 -0.122499734 0.16787057

model.backbone.encoder.layers.0.self_attn.to_out.0.weight f4 [16, 16]
000000 d9 70 29 be 24 6e 25 3d 95 9f 04 3e c9 3f 05 3e
       -0.16546954 0.04038824 0.129515 0.13012613
000010 ec 43 c4 bc 1b 4e 5a 3e 10 e9 ec bd 9e c0 83 be
       -0.023958169 0.21318857 -0.11567891 -0.25732893
000020 69 7d 65 3e 5f 50 43 3e ee b0 4f 3e 60 77 d5 3d
       0.22411121 0.19073628 0.20282337 0.104231596
000030 45 80 cf 3d 5c 21 f2 3d f4 88 c2 bd 16 59 38 be
       0.10131887 0.11822769 -0.09498778 -0.18002734
000040 a8 1c 05 bd a0 99 56 be f4 56 a5 bd 5a d1 7e 3d
       -0.03249803 -0.20957041 -0.080732256 0.062211372
000050 be 82 80 bd 6e a6 03 be 5c ee bd bd c2 a9 b9 bd
       -0.06274937 -0.12856457 -0.09273979 -0.09065582
000060 f1 34 4c 3e 84 90 19 be 1e f4 6e 3c 1a 8d b7 3c
       0.1994207 -0.14996535 0.014584569 0.02240615
000070 da 60 85 bd 68 2f 65 3d 67 6c 87 3e f1 c0 2f be
       -0.065126136 0.055953413 0.26449892 -0.17163445
000080 da 8d 31 be ea 04 73 be c6 63 70 3b 79 73 4e be
       -0.17339268 -0.23732343 0.0036680563 -0.20161237
000090 9a a4 3a 3e 05 fe d4 3d 36 bd 03 be d7 73 04 3e
       0.18226853 0.10400013 -0.12865147 0.12934814
0000a0 09 dd 53 be 93 1c f0 3d 12 ef 4e 3e c1 91 46 be
       -0.20689787 0.117242 0.20208386 -0.19391538
0000b0 e2 55 33 3e 6d 1e 3c be 94 32 36 bb c4 69 71 3e
       0.1751323 -0.18370982 -0.0027801143 0.23575503
0000c0 1b cc 4c be 7e 36 3f 3e 05 34 21 bd ea 9f 45 be
       -0.19999735 0.18673131 -0.03935625 -0.19299284
0000d0 f5 3e 01 3e 8e 68 43 3e ce 9e e7 3d 00 03 64 3e
       0.12621672 0.19082853 0.113095865 0.2226677
0000e0 1a 08 b2 bd e8 77 15 3e aa fb 51 be 4a 91 36 be
       -0.086929515 0.14596522 -0.20506158 -0.17828861
0000f0 53 63 55 3c d5 d9 c7 3d b5 d3 1b 3e 71 8d 0b 3e
       0.013024169 0.09758345 0.15217479 0.13628174
000100 3b e2 22 be a3 ed 3e 3d 94 e6 c0 3a 7c 5a 09 be
       -0.15906613 0.046613347 0.0014717155 -0.13413423
000110 7d a4 3d be 7d c5 31 3d 52 75 ed 3d 6e 38 84 3d
       -0.18519779 0.04340123 0.11594643 0.064560756
000120 3b a1 23 3e a4 22 ab 3d 66 fd 40 be 81 29 33 be
       0.15979473 0.083562165 -0.18846664 -0.17496301
000130 ef 19 59 3e 42 10 3f 3c 7e 38 4a 3e 04 aa 4d be
       0.21201299 0.011661591 0.19748113 -0.20084387
000140 e1 70 53 3e 2d eb e7 bd 4c 45 64 bc c6 c7 69 3e
       0.20648529 -0.11324153 -0.013932537 0.22830114
000150 65 f0 4d 3d 4c 01 ba bd 6f d4 01 3d 46 f4 de bd
       0.050278086 -0.090822786 0.031696733 -0.10886435
000160 43 09 c3 bd 50 05 3e be c8 b0 0f 3e b3 ec 10 be
       -0.09523251 -0.18556714 0.1403228 -0.14152794
000170 25 2d 96 bd 58 83 4e 3e 3e 81 c1 3d 55 27 55 be
       -0.073328294 0.20167291 0.09448479 -0.20815785
000180 95 e8 0a be c6 3f 72 be d8 91 3f 3e af 36 73 be
       -0.13565286 -0.2365714 0.18707979 -0.23751329
000190 ba 74 10 3d ef 46 48 be b8 0e d3 bb b7 da de 3d
       0.03526757 -0.19558309 -0.0064409636 0.1088156
0001a0 2d c4 cd 3d 6f c4 35 3e f9 5c 11 3e e6 62 80 be
       0.10047183 0.17750715 0.14195623 -0.25075454
0001b0 12 e6 28 be 47 60 77 3d 29 56 0b be b7 ec c1 bc
       -0.16494015 0.06039455 -0.13607086 -0.023672445
0001c0 72 db 22 be 16 3e ed 3d 3c 16 47 3e cf fe 75 be
       -0.15904024 0.115841076 0.19442075 -0.24022983
0001d0 b6 9c a2 3d a3 9f 7a 3d 05 d4 21 be 57 f4 06 be
       0.079400465 0.061187398 -0.15803535 -0.13179146
0001e0 ac 11 1f be e1 fb 9c bd f2 b0 ef bd 21 fe 5e be
       -0.15534085 -0.076652296 -0.117036715 -0.2177663
0001f0 92 4b fe bc 2b a0 09 bd 85 f9 f6 3d ad 88 1d 3e
       -0.031041894 -0.033600014 0.12059311 0.15384169
000200 a1 96 1d 3e 5a d8 96 3d be fa 6b be 14 d3 37 be
       0.15389492 0.073654845 -0.2304487 -0.17951614
000210 3d 90 e0 bd 5c 31 0f 3e b3 61 69 be 82 d3 4e 3e
       -0.10965011 0.13983673 -0.22791176 0.20197871
000220 e3 be 9c bd 04 f7 07 be fe a1 32 3e 73 d5 16 3e
       -0.07653596 -0.13277823 0.17444608 0.14729862
000230 ae 9a 9c bd 51 5c c9 bd c2 3f 0b be 2e 6c 90 bd
       -0.0764669 -0.09832061 -0.1359854 -0.07051884
000240 ef f4 7f 3d b1 5e f1 3c 9e b9 1c bd 06 80 c7 3c
       0.062489446 0.029464098 -0.038262956 0.024353039
000250 7a 59 06 be 40 0f 80 3d ae 7b 61 be 38 cf 4a bd
       -0.1312007 0.06252909 -0.22019836 -0.049514025
000260 70 00 7a be 29 1d dc bd 7d 09 89 bd b5 83 09 bc
       -0.2441423 -0.10747749 -0.06691263 -0.008393218
000270 e9 45 36 3e ce 26 7e be 74 63 b3 3d 25 ef 43 3e
       0.17800106 -0.2481949 0.087592036 0.19134195
000280 11 51 66 be 2d 8b 60 3d a9 94 91 3d 2d 24 6f be
       -0.22491862 0.05482023 0.07108433 -0.23353644
000290 88 9d 74 3e c7 1c 65 3e 19 93 f3 bd 75 9d 3b be
       0.23888218 0.22374259 -0.11893291 -0.18321784
0002a0 58 6a 0b 3e 00 41 2b be 49 9e 3c be b9 2f cf 3d
       0.13614786 -0.16724014 -0.18419756 0.10116524
0002b0 bb 2e 59 3d df 20 96 bb af 84 4a 3e 0a d6 34 3e
       0.05302308 -0.0045815553 0.19777177 0.17659774
0002c0 4f 21 ae 3d 5a 6a b0 3d 0e c9 70 be 36 47 2f bd
       0.08502447 0.08614035 -0.23514196 -0.04279252
0002d0 bd 6e 28 be 5a 76 a5 3d 39 19 52 be 50 43 b6 bc
       -0.16448493 0.080792144 -0.20517434 -0.022248894
0002e0 1f 31 0c be f6 b3 2e be 0b 05 7a be e6 8b 0a 3e
       -0.13690613 -0.17060837 -0.24415986 0.1352993
0002f0 0f f5 18 3e 80 d0 3a be 9c 2b 44 3d 09 fb 40 be
       0.14937232 -0.18243599 0.04789315 -0.18845762
000300 c1 e0 73 be 6f 63 3c be 1f 0d 30 3e 9e 0e 72 be
       -0.23816206 -0.18397306 0.17192505 -0.23638389
000310 58 e8 ff bc f1 1f 50 3e 06 e5 09 bd ed 15 0f be
       -0.03123872 0.20324685 -0.03366568 -0.13973208
000320 f9 a5 6a bc dd 04 bf 3d c8 20 f8 bd 1d 75 1e be
       -0.0143217975 0.093270995 -0.121156275 -0.15474363
000330 04 12 3e 3e 40 3e 28 be 9b 5c 3a bd d2 c0 b8 3b
       0.1856156 -0.16429996 -0.04549847 0.0056382203
000340 e2 7e b7 bc 8b 0a 10 3e ca a8 a2 3d b3 cb da bd
       -0.02239937 0.14066522 0.0794235 -0.10683384
000350 bc cf 3b 3e 84 a3 48 bd 8b 5b 12 be 90 04 b7 bd
       0.18340963 -0.048984066 -0.14292733 -0.08936417
000360 40 5f 32 be 77 28 9c bd ee 3b a4 3d 72 2f fe 3d
       -0.17419147 -0.076249056 0.08019243 0.12411393
000370 86 98 49 3e 46 32 35 3c 9b 7e 75 3c 3c 28 7b 3d
       0.1968709 0.011059349 0.014983798 0.061317667
000380 e2 cd 5d bd d4 7c ea bc 16 16 a0 3d da 87 4a be
       -0.054151423 -0.028623976 0.078167126 -0.19778386
000390 aa 48 00 be ca d8 bb bd 2f 38 03 3e f8 d6 36 3d
       -0.12527719 -0.091722086 0.12814401 0.044638604
0003a0 17 fb 8a 3d c8 ba e6 3d 3a 24 14 3e 72 a3 7d 3d
       0.06786173 0.112660944 0.14466944 0.06192345
0003b0 40 6f 61 bd 01 b7 8f bd ad 6e 9e 3c 90 a7 8d bc
       -0.055037737 -0.07017327 0.019339884 -0.017291814
0003c0 f8 02 e1 bc 64 07 2f be 87 ba 04 bd 26 e2 c6 3d
       -0.027467236 -0.17092663 -0.03240445 0.09711103
0003d0 dc 1a 5f 3e 68 38 e7 3d 42 d6 76 bd 1c 65 9c 3d
       0.2178759 0.112900555 -0.060262926 0.076364726
0003e0 6e d2 73 3e 4f bf 66 be a5 03 fa 3d 31 f4 79 be
       0.23810741 -0.22533916 0.122077264 -0.24409558
0003f0 6d f8 31 be 41 29 1b be ca 8c 2f be 02 84 78 be
       -0.17379923 -0.15152456 -0.1714355 -0.24269107

model.backbone.encoder.layers.0.self_attn.to_out.0.bias f4 [16]
000000 4f 47 48 be 2e 23 6e 3d 68 46 e4 bd 0d fd a7 bd
       -0.19558452 0.05813902 -0.111462414 -0.082025625
000010 cf 14 20 be ee b4 3b 3e 01 e4 a8 3b 05 bd a7 3d
       -0.15632938 0.18330738 0.0051541333 0.081903495
000020 2b 8c d3 3d ef fd 3a bd 60 8d 68 3e 77 32 5b bb
       0.10329469 -0.045652326 0.2271018 -0.0033446827
000030 e6 7a 54 be 16 e3 72 be 8b 59 e9 3d 73 5e 62 3e
       -0.20750007 -0.23719439 0.11394032 0.22106342

model.backbone.encoder.layers.0.norm_attn.1.weight f4 [16]
000000 02 45 7f 3f a6 53 81 3f 3f e4 81 3f 39 7d 7b 3f
       0.9971467 1.0103652 1.014778 0.9823795
000010 f2 73 7e 3f 46 73 83 3f 5c a2 82 3f b6 45 7c 3f
       0.9939567 1.0269554 1.0205798 0.9854387
000020 e1 e1 80 3f 82 b2 80 3f ad e1 7c 3f 6e a4 80 3f
       1.0068933 1.0054476 0.98781854 1.005018
000030 12 0b 7e 3f 95 26 7c 3f 7c 8f 80 3f 16 dd 7a 3f
       0.9923564 0.9849637 1.0043788 0.979936

model.backbone.encoder.layers.0.norm_attn.1.bias f4 [16]
000000 07 66 8a bb 5c a6 de ba 43 2a 44 ba 90 45 25 bb
       -0.0042235884 -0.0016986835 -0.0007483104 -0.0025218464
000010 81 be f7 bb c5 fa bc 3b d4 ea 0f bc 97 13 a8 bb
       -0.0075605516 0.0057671987 -0.008784015 -0.0051292884
000020 63 09 bc bb 83 90 03 bc ba c2 90 3b ee 67 00 bc
       -0.0057384237 -0.00803006 0.0044177445 -0.007837279
000030 89 2f ee ba 4b e0 01 3c 00 ba 0d 3c 65 fe f5 bb
       -0.0018172126 0.007927011 0.008650303 -0.007507133

model.backbone.encoder.layers.0.norm_attn.1.running_mean f4 [16]
000000 9b 83 2e be a9 23 9c 3b 28 7a 8e bc e8 01 2d bd
       -0.17042391 0.004764993 -0.017392233 -0.042238146
000010 5e 3a b1 3d e0 80 80 3d 95 57 3c bc 2f dd b1 3b
       0.08653711 0.06274581 -0.011495491 0.0054279785
000020 43 cf bc bd 7c 9b 52 3e 74 ef 70 3e de 28 07 3e
       -0.092192195 0.20567125 0.23528844 0.13199183
000030 4e ac b1 bc 54 3e f5 bc 52 af aa bd 4e dc 24 3e
       -0.021688607 -0.029936947 -0.08334221 0.16099665

model.backbone.encoder.layers.0.norm_attn.1.running_var f4 [16]
000000 1c 23 86 3e b4 fc c5 3e f8 20 ef 3e 07 78 4d 3f
       0.2619866 0.3866936 0.4670484 0.8026127
000010 26 2e dd 3e b8 ef e3 3e 8a 63 9e 3e 1a 87 98 3e
       0.4319927 0.44518828 0.30935317 0.29790574
000020 9a af 54 3e c9 77 aa 3f 02 db 5b 3f e2 f4 a3 3e
       0.20770112 1.3317806 0.85881054 0.32022768
000030 42 8d 8f 3e fc e5 cf 3e 7d 03 97 3e 84 25 9a 3e
       0.2803746 0.40605152 0.2949485 0.30106747
