TSF_Finance/checkpoints/ixic_only_0613__PatchTST_custom_ftS_sl96_ll48_pl36_dm16_nh4_el3_dl1_df128_fc1_ebtimeF_dtTrue_Exp_0/checkpoint.pth (torch_old, 175258 bytes, 65 tensors)

model.backbone.W_pos f4 [38, 16]
00000000: a7e0 2b3b a050 4e3c 3299 1439 7419 9c3c
00000010: a8c8 26bc f885 4c3c 1d20 9dbc 34fe f23c
00000020: 8d9c ad3a 77d7 c43c f92f 88bc 547d f9ba
00000030: e2e8 0e3c fb31 f1bb 5a28 f539 2e81 05bc
00000040: a156 b63c c4dc 893b 48f5 d83b 6fca 873c
00000050: 38f8 45bc ffcf ff3c c65d efbc 050b 07bc
00000060: c591 ffbb d58d ef3b 7603 133d 6529 10bb
00000070: 2fea 77bc 63d9 e63b ab68 39bc 03ac bdbb
00000080: 1b87 e8ba 9fc9 54bb 9afc cf3c 7ffc cc3b
00000090: c9be f4bc 05b5 1d3d 541c ffbc 535d 8a3c
000000a0: 82e6 3f3d 1520 58bb ca88 cf3c 7d33 a2bc
000000b0: fb42 64bc 7608 eb3a bc4a d03c 768a acbb
000000c0: 186b e2bc 58bb cb3c 7c6a b23c a54c c93c
000000d0: 67e5 a7bc 5bb7 183d 7b97 43bb a045 f7ba
000000e0: fe54 0d3d e612 95bb a163 a33b a314 00bd
000000f0: eca4 8d3b e943 15bb 4c38 823b 4c07 e8bc
00000100: c639 243c 7ce2 8a3b 88bb 9b3c d4e8 b43b
00000110: 6312 6abc f37f 093d 7deb abbc 452e e2bc
00000120: b0fc 213d b8a9 b5bc 6821 033d 5a28 82bc
00000130: dad8 d1bb e412 be3b 26ff e3bc b00b 14bd
00000140: 2167 57bc d1ae bbbb f524 d23b 8211 863c
00000150: a135 8c3c 546f 1c3c 3b48 21bb 0aa8 e23c
00000160: d88f 873c 6a7f e8ba c0fc 103d 92af 943c
00000170: b81f 01bd add2 5e3b 3a47 97bc b7d3 82bb
00000180: 4590 983c 6141 c43b fbe9 043d 7d19 ad3c
00000190: 3c7b 09bd 7297 833c bc41 91bb 9b1b d5bc
000001a0: a11d cd3a b478 743a c009 f13b eb80 a1bb
000001b0: eade 3dbb cc51 5cbc 1af8 923c 4336 923c
000001c0: 382b bbbb 25f8 443c aff6 ec3c 5057 8d3c
000001d0: 1641 5c3b e4c3 223c 0b47 04bd a7d8 893b
000001e0: 6cf3 133d 80b2 693c 7163 e13c 4ac2 bebb
000001f0: f240 34bc 1590 ea3b e1ba a63c f5f0 f8ba
00000200: ef00 1cbc f753 823b 3285 c03c 1e99 97ba
00000210: fe7e 343c c1b3 00bc 74d1 c33c 9eda ddbc
00000220: 5690 a2bc 1b16 37bc ae6a 27bc ea36 27bc
00000230: 2946 b0b9 5da2 b7bc d7be cfbc 0ec0 bcbc
00000240: 9ec1 0cbd 07e3 de3c 93ad caba 3a71 04bc
00000250: e5fd 633c 239b 113d 88d0 10bc e376 fc3c
00000260: 268d 1d3c 4852 13bd 2529 2fba 4cc6 913b
00000270: 1f89 29bc 31cb 38bc 3068 613c 2a23 c2ba
00000280: f1ed 663c 91b0 213c 68d9 403c 30dd ac3b
00000290: 4e82 15bb f2fc 983c 9838 12bd 7586 a23a
000002a0: bdcf 033c 9b82 b63b eba1 623b 6ecb cabc
000002b0: a951 193c 3ec2 e4bc c6dc e33c 854b 143c
000002c0: a910 50bc fc01 843b e2f4 a83c 282b 45bb
000002d0: 6f5c 7ebc c1ab d93b 8801 b1bb f476 c1bc
000002e0: 7c98 193d 6bb4 07bd 2ae8 adbb 1791 19bd
000002f0: 2535 8cbc bb05 803c 170b 5c3b 2e80 b93c
00000300: bbe6 c1bc 8afe d2b9 b3d1 883b 97c0 923c
00000310: b83e d7bc 62d8 1c3d fcbf 22bd f9e2 d13c
00000320: 512a af3b ee9c d1bc 2f3b 93bb 2427 823c
00000330: 871a efbc 684a eebb 5c30 583b 08c8 613c
00000340: daa7 1b3a 1f94 09bb 3fb2 ce3c 2aea 6cbc
00000350: 8d42 f73b 818b 83ba 1e79 9cbc 575c ea3c
00000360: 3a35 36bb 406d 8cbc 0f80 693c ec8a 03bd
00000370: 2e9b f7bc eb0b 8cbc 1c21 8b3b 72a0 163a
00000380: 5c2a 0fbd 90bd 213c e82d 7e3a 3fdc 933a
00000390: d083 b13b c1ca 923b df63 1bbd bfe6 623b
000003a0: 5cb4 293d 4841 55bc a9c8 5a3c a854 e6bc
000003b0: 9bb0 5ebc 18f2 a7bc 8101 b73a 9c9c 6ebc
000003c0: f797 613c cf6f 02bc 5703 fa3c 1087 93ba
000003d0: d286 c5bb 71c9 f43b 3877 d4bc fc89 fd39
000003e0: 47f1 133c 759c b1bc 8b45 013c 3c1e 2abc
000003f0: c618 aeba 2c4e 97b9 7b47 1f3d a7ac 9b3b
0.0026226433 0.012592465 0.0001417145 0.019055106 -0.010179676 0.0124831125 -0.019180352 0.02966223
0.0013245508 0.024028523 -0.016624438 -0.0019034543 0.008722516 -0.0073606945 0.00046760106 -0.008148475
0.022258105 0.0042072255 0.0066210367 0.01657602 -0.012083106 0.03122711 -0.02921952 -0.008242373
-0.0077993595 0.007310609 0.035891972 -0.002199733 -0.015131517 0.0070449575 -0.011316459 -0.0057883277
-0.001774046 -0.0032468808 0.025389004 0.006255686 -0.02987613 0.03850271 -0.031141438 0.016890204
0.04685069 -0.0032978107 0.02533378 -0.019799942 -0.013931985 0.0017931599 0.025426261 -0.0052655293
-0.027638957 0.024869606 0.021779291 0.02457268 -0.02049513 0.037284236 -0.0029844928 -0.0018865354
0.034504883 -0.004549372 0.004986242 -0.03126968 0.0043226387 -0.0022776073 0.0039739963 -0.028323792
0.01002354 0.004238425 0.01901032 0.0055209193 -0.01428661 0.033569288 -0.020986313 -0.027609954
0.039547622 -0.022175655 0.03201428 -0.015888382 -0.0064040245 0.005800592 -0.027831625 -0.03614396
-0.013147146 -0.005727627 0.006413097 0.01636577 0.017115416 0.009548027 -0.0024609703 0.027668018
0.016548082 -0.0017738168 0.03539729 0.018150125 -0.03152439 0.0034000084 -0.01846658 -0.0039925235
0.01862348 0.005989239 0.032449704 0.021130318 -0.03356479 0.016063426 -0.004432885 -0.02601414
0.0015649089 0.00093258475 0.0073558986 -0.0049286983 -0.0028971978 -0.013447236 0.01794057 0.01784814
-0.005711939 0.012022053 0.028926222 0.017253548 0.003360813 0.009934399 -0.032294314 0.004206735
0.036120817 0.014263749 0.027513238 -0.005821501 -0.011001812 0.007158289 0.020352783 -0.0018992709
-0.009521707 0.0039772945 0.023501012 -0.0011566018 0.011016605 -0.007855357 0.023903586 -0.027081784
-0.019844215 -0.011174704 -0.0102183055 -0.010205964 -0.0003362161 -0.022416288 -0.025359554 -0.023040798
-0.034364335 0.027207864 -0.0015463106 -0.008083636 0.013915514 0.03554834 -0.00883878 0.030818408
0.009616172 -0.03596714 -0.0006681851 0.0044486877 -0.010347634 -0.011278913 0.01375775 -0.0014811505
0.014094816 0.009868757 0.011770584 0.005275391 -0.0022813263 0.018675301 -0.035698503 0.001239969
0.008045134 0.0055697686 0.0034581374 -0.024755206 0.009357848 -0.027924653 0.027815234 0.009051208
-0.012699285 0.004028557 0.020624582 -0.0030085538 -0.015524968 0.006642789 -0.005401794 -0.023616292
0.037498936 -0.033131044 -0.005307217 -0.037491884 -0.017115185 0.015627733 0.0033575946 0.022644129
-0.023669591 -0.00040243968 0.0041753887 0.0179141 -0.026275024 0.038292296 -0.03973387 0.025620924
0.0053456207 -0.025587525 -0.004493139 0.015887804 -0.029187454 -0.0072720535 0.0032987809 0.013780601
0.00059377926 -0.0020992828 0.025231479 -0.014460126 0.0075457753 -0.0010036082 -0.019100722 0.028608484
-0.0027802722 -0.017141938 0.014251723 -0.032114908 -0.030225363 -0.017095527 0.0042458903 0.0005745954
-0.034952506 0.009871855 0.00096961716 0.0011280848 0.0054173246 0.0044797366 -0.03793704 0.0034622399
0.04143177 -0.013016053 0.013353505 -0.02811654 -0.013591911 -0.020501181 0.001396224 -0.014563706
0.013769141 -0.007961228 0.03051917 -0.0011255462 -0.0060280347 0.0074703027 -0.025935754 0.00048358727
0.009029693 -0.02168105 0.0078901155 -0.010383185 -0.001328253 -0.00028859207 0.03888653 0.0047508064

model.backbone.W_P.weight f4 [16, 24]
00000000: ff81 1cbe f0ee 0a3b 5c96 c13d bf48 ab3d
00000010: 144d ce3c 9b02 0fbe 5b35 41be e106 3d3e
00000020: 3b0f b4bd aede 2bbe 4141 f73d b06b 4fbe
00000030: 2684 ff3d 33f4 22be 111c c43d 3574 79bd
00000040: 1e4e 163b 226f afbd 114b e83d 5da2 c63d
00000050: f227 003e cc34 9abd a160 553e fff8 413c
00000060: 034e 5fbd 98b5 42be 2a08 0b3e 2516 3abe
00000070: d67b 09be 0857 94bd b997 933d 47e0 993d
00000080: 5e67 043e e900 553b 43cb bf3d d550 033e
00000090: 51e8 4ebe 4503 37be eaaf 52be b8b4 1dbe
000000a0: 80dd ba3d f73c 2e3e 4027 713d ecbf 2ebe
000000b0: 07f3 ae3d f2af cd3d 8189 2a3e 4b0c 4ebe
000000c0: b8a1 01bd 0e28 dabd 74d8 343e 34a8 e73d
000000d0: 8ffe d03c 98c2 7a3c f5b6 b93d d1e9 1dbe
000000e0: 11ae 52bc 0c6f 13be 4f2c a73d eb83 933d
000000f0: d1fd 2bbe 6046 e9b9 a7a6 ce3d 4f62 dc3d
00000100: b0e8 483e 278f 35be 2519 69bd 4bef 98bd
00000110: 34e4 2bbe 0c95 50be e8b1 2dbe 6109 8f3d
00000120: 6dd3 2dbe 651d b5bd 2ecb 06be 1a69 1dbe
00000130: f78e 3e3e 15c1 b6bc 5946 8fbd 6fe2 3c3e
00000140: 49d6 f1bd 5879 b0bd eaff 86bd 4df2 0dbe
00000150: 3235 d2bd eb70 70bd 52ed 503b a537 09be
00000160: 0e83 b8bc 4de6 3e3e c052 26bc 1eff 17bd
00000170: 4d36 5bbe def1 26be af63 b43d 92c4 d53d
00000180: ae6d 3ebe cdd9 503d d85f 4e3d 7e39 94bd
00000190: 9b6d 2b3e 3a0a 1f3d f9c6 15be ace1 393e
000001a0: 5f04 d63d 4744 b2bd bddd d13c 1f8b 223e
000001b0: 62ba 2a3e a5cf dd3d 9242 8b3d 9d0c e63a
000001c0: fc73 403d 06e6 09be bec2 8b3c f3e0 3dbe
000001d0: 8471 073e ce68 02be fa71 fabd 30fe 363e
000001e0: 8eef 66bd e512 ffbd 3eb5 1ebe 90df cd3d
000001f0: 288f 30be a933 273e e694 923d 5ed1 4a3e
00000200: 548b 92bd 7969 2cbe 328f 3abc c55c 2e3e
00000210: 8c14 b8bd 76ac 3bbe da5a 233e 89cb 123e
00000220: 0ea3 263e 2170 023e 893b 9a3b 4233 2dbe
00000230: 4f65 16be dcc7 d8bd ca53 17be b0e7 36be
00000240: 7084 153e 6666 133e ebb7 0ebe d265 abbc
00000250: a4ff 3f3e 3f07 bc3d b1f7 44bd 71fa 7ebd
00000260: f450 cb3d c744 aabd a598 20be b026 70bd
00000270: 0972 033e bce4 a7bd e2fa 0fbe ab34 94bd
00000280: 6dda 96bd c7bb 14be 7ced 7d3a 4373 dd3d
00000290: 6d10 483e d7e9 843d b0ba 323e 1d16 c83d
000002a0: 9582 66bd 2456 21be 4ed1 64bd aae3 c33d
000002b0: 435b 293d fa2a 5ebd c3d4 f0bb 45d6 923d
000002c0: 8ea5 cfbc 60ff 1d3e e276 fdbd 39a7 ed3c
000002d0: e16e e13d 6bdc 283e b3ee fb3c 107c 883c
000002e0: 45c3 383e 0fce 10be 7f23 c1bd 90ae efbd
000002f0: 973d 483e 5a94 143c f2ce 2abe 36b3 a63c
00000300: f5a2 4dbe 0df4 d13d 99dd 1a3e 92e8 9e3d
00000310: 73dd 47bd a100 f4bd cf16 313e c688 20bd
00000320: 0d09 a33d 55bf 74bc 6807 2a3e 5720 11bd
00000330: 1aed 053e 5d92 19be aca5 2ebe f2ad 083d
00000340: 6649 2d3e 436d 0abe b203 083e f6ad b73c
00000350: 5ded 3bbe f10c 04be 9008 1bbd f2c8 9a3c
00000360: a46d a63d 3954 343e dd9e 323e ed48 36be
00000370: 8a2c d53d 48b0 86bd d10f c6bc d585 363e
00000380: 9890 50bd cc23 c9bd 6fdd c93d 6e19 2abc
00000390: 64be 373d 01f3 023c e574 3c3e 8d90 293e
000003a0: 79e1 993d ed54 0b3d d51c 9d3d 8c90 7fbd
000003b0: a14d 0a3e 77fa 3d3e 8b91 383e 36cb bbbd
000003c0: adee c9bd 0621 2e3e 6946 213e 8b59 f63d
000003d0: 9a2c 283e cb53 3c3e c572 e4bd 2258 28be
000003e0: f418 9bbb 8570 fb3d c0c8 bebd 15f4 00be
000003f0: c786 4fbe 7a1c d53c 709b a93c 80f2 efbd
-0.15283965 0.0021199547 0.09452507 0.083634846 0.025183238 -0.13965838 -0.1886801 0.18459655
-0.087919675 -0.16784164 0.12072993 -0.20255923 0.12476377 -0.15913467 0.09575666 -0.06090184
0.0022934745 -0.08566119 0.11342443 0.09698937 0.12515238 -0.075296015 0.20837642 0.01183915
-0.054517757 -0.19014585 0.13577333 -0.1817251 -0.13426146 -0.072431624 0.07206673 0.07513481
0.12930056 0.0032501763 0.09364941 0.12823804 -0.20205809 -0.17872341 -0.20574918 -0.1540097
0.09124279 0.17015444 0.058875322 -0.170654 0.085424475 0.100433245 0.16654016 -0.20121877
-0.031648368 -0.10652171 0.17660695 0.11311379 0.025512008 0.015305184 0.090680994 -0.15421225
-0.0128588835 -0.1439783 0.08162748 0.07202896 -0.16796042 -0.00044493657 0.1009038 0.107609384
0.19620013 -0.1773039 -0.056908745 -0.074675165 -0.16786271 -0.20369357 -0.16962397 0.06984211
-0.16975184 -0.08843497 -0.13163444 -0.15372124 0.18609224 -0.022308866 -0.069958396 0.18445753
-0.1180845 -0.086168945 -0.065917805 -0.13861962 -0.102640525 -0.058701437 0.0031879735 -0.13400133
-0.02252343 0.1864254 -0.010151565 -0.037108533 -0.21407433 -0.16303203 0.08808076 0.104378834
-0.18596527 0.05098896 0.050384372 -0.07237528 0.1674103 0.038828112 -0.14626683 0.18152493
0.104500525 -0.08704429 0.025618428 0.15873383 0.16672662 0.10830621 0.06799807 0.0017551366
0.04698561 -0.13466653 0.017060634 -0.18542843 0.13226897 -0.12735292 -0.122287706 0.17870402
-0.0563808 -0.12454776 -0.15498826 0.10052407 -0.1724211 0.163283 0.071573064 0.1980643
-0.07155481 -0.1683711 -0.0113866795 0.17027576 -0.08988294 -0.18327507 0.15952626 0.14335455
0.16273138 0.12738086 0.004706804 -0.16914085 -0.14687084 -0.10584995 -0.14778057 -0.1786182
0.14601302 0.1439453 -0.13937347 -0.020922575 0.18749863 0.091810696 -0.04808778 -0.06225056
0.0992755 -0.083138995 -0.1568323 -0.058630645 0.1283647 -0.081979245 -0.14060548 -0.07236608
-0.0736588 -0.14524756 0.0009686572 0.10813 0.19537516 0.06489914 0.17454028 0.09769843
-0.056276876 -0.15755516 -0.05586367 0.09564908 0.0413468 -0.054240204 -0.007349582 0.07169775
-0.025347497 0.15429449 -0.12376191 0.029010402 0.110074766 0.16490333 0.03075347 0.01666072
0.1804324 -0.14141105 -0.094305985 -0.11703217 0.19554745 0.009068573 -0.16680506 0.020349126
-0.20081694 0.10251627 0.15123595 0.07759203 -0.048795175 -0.119141825 0.17293857 -0.039192937
0.07960711 -0.014938195 0.16604388 -0.035431232 0.13078728 -0.1499724 -0.17055386 0.033369012
0.1692253 -0.13518243 0.1328266 0.022421818 -0.18352266 -0.12895562 -0.037849963 0.018894646
0.08126381 0.17610253 0.17443414 -0.17801256 0.10408886 -0.06576592 -0.024177464 0.1782449
-0.050919145 -0.09821281 0.09856688 -0.0103820395 0.044859305 0.007992507 0.18403967 0.16559048
0.075137086 0.03401654 0.07671515 -0.06239371 0.13506176 0.18552576 0.1802427 -0.09169619
-0.09859977 0.17004785 0.15749516 0.12028798 0.16423264 0.1839134 -0.11154703 -0.1643987
-0.0047331993 0.12277321 -0.09315634 -0.1259311 -0.20266257 0.026014555 0.020704001 -0.11716175

model.backbone.W_P.bias f4 [16]
00000000: 1605 b8bd 7095 943c 0b2b 463d 36ad 8bbd
00000010: b239 143e 091c 72bd dfe5 cd3c 2ff3 20be
00000020: 26dd 36bd fb55 2e3e b3cb 043b 4710 d03d
00000030: 9541 e43c d1cb 213e 5f1f f1bd f2bb 5c3d
-0.08985345 0.018137664 0.048380893 -0.06820147 0.14475134 -0.059108768 0.025134025 -0.15717767
-0.044644497 0.17024986 0.0020263016 0.10159355 0.027863303 0.15800406 -0.11773562 0.053890176

model.backbone.encoder.layers.0.self_attn.W_Q.weight f4 [16, 16]
00000000: c552 3dbe 9d3c 97bd 0b67 4d3e cdf8 143d
00000010: 4571 0a3e b97b 7cbd 22b9 113e 79ef 683d
00000020: 2221 39be 4249 6c3e 4a61 6dbe 870c 353e
00000030: 60a3 22be 2fb1 763e bd66 b73d 5f30 7d3e
00000040: 92fc 523e 343e 133d b374 6b3e 6aef 23be
00000050: 639e 31be dbbd 50be 3e7b 20be e511 063e
00000060: 881f 0d3e 5efc 70be a29f 43be 9bb5 213e
00000070: 1637 763e 50c0 123e a499 5b3d 6d29 b0bd
00000080: 12c0 4a3d 62a7 2e3e 7399 65be f08d dbbd
00000090: 5bf7 b33c 8555 84be 671d 273c ee93 253d
000000a0: 2a32 693d 91de ebbd 3cab 0b3e f030 60be
000000b0: cd6d 7ebe d2d2 413d 5230 093e 645e f4bb
000000c0: 2057 403e 1a5f 013e 8687 153e d2d8 37bd
000000d0: f7d9 313e 2c6f 49be d58f 0fbe ba56 e5bd
000000e0: 3f2d 0f3e 7b30 613e 9925 1abe 410c 133e
000000f0: 446a 14be f3e8 8d3d 1297 3c3e 719d 6c3d
00000100: bb55 8739 a58f 863b e824 ffbc d0bf 73be
00000110: 7752 343d 8ec9 5bbc ec35 863e a773 44be
00000120: 1d62 583e 0029 6d3e e70c 71be f9c3 1fbd
00000130: 74d1 c13d 352b f03d d4ee e0bd 369f 34be
00000140: 1d0e 01be feaf c4bd 3a19 d63d 173d babc
00000150: 0455 d73d fbc6 f2bc ce81 2d3d 0972 d93d
00000160: 4278 41be 6600 e5bd d765 71be 0cb6 d2bd
00000170: 5311 3abe 029e 7fbe ff21 6b3e 241e cbbd
00000180: 450e 8b3c f69c 1fbe 1f12 07bc a072 72be
00000190: e78b 4abd a9b6 82bd 3cd0 803d 8f0b 823c
000001a0: 78c0 0b3e 59d6 653c 8650 05be c8ce 823e
000001b0: 56c5 51bd 7795 643e 64d6 51be 1841 1cbe
000001c0: f937 46be 7240 1dbe f6b2 a3bb ae43 3e3e
000001d0: 1795 42be 0434 753d 0262 413e 5771 703e
000001e0: a345 813d b7b2 c8bd a213 6cbe f08e 3b3d
000001f0: 196b 033e df01 d33c e1de dd3d edea 563e
00000200: b338 f0bc 29a8 22be 4419 c0bc 7469 87bd
00000210: 8dfd 053e 81eb 043e 3128 a5bc 6790 ff3d
00000220: 4208 7fbe 9a35 3ebe 7342 903c bc05 373d
00000230: 98a9 463e fc5b 033c e0c8 12be e31f 86bd
00000240: 34ca 44be 202d 09be fef5 9ebd 004f 113e
00000250: ec20 823e b623 773d e33b 4cbe 0b4e 5bbe
00000260: 6c29 b9bd 72e6 4bbe b7ea 28be b202 68be
00000270: 2f3e 463d c5fd fa3c b570 f0bc c973 db3c
00000280: e25a dc3c 52be 6d3d c8a0 8f3c 8504 78bd
00000290: 9320 23bc 2e0d 68be 66ec 40be 1ff8 07be
000002a0: 511f 3d3e 78d6 4b3e 0235 3ebe 54eb d33d
000002b0: 123f 90bc 9ecc 853d 8719 52be 7435 6dbe
000002c0: 32a1 11be 7f4b c23d 4fef 9e3d 2319 86bc
000002d0: 2b65 acbd 47fa a23c 4901 10be 454f ae3d
000002e0: 3cc2 8e3d d2c0 f9bd 1395 cb3d fa5c 99bd
000002f0: 34f1 893d 5302 a93d 2a82 723e cd23 103e
00000300: 7a87 4ebe 4bae 293d 841b 49bd 64db 26be
00000310: 4189 6dbe 0403 413e fd26 3ebe 75a6 283e
00000320: f585 de3d 3aa4 d0bd 719e f1bd 60a1 193e
00000330: b963 f13d 833b f3bc d804 b3bd 73e9 babd
00000340: f0ea 2cbc 53d5 63be a8db 76bd 980b 12be
00000350: 0ae1 38be 35dc cb3d 9736 3dbe adfa 9fbd
00000360: d19c c03d cf4c e93d f8b4 81bb b4aa 80be
00000370: bc02 b83b 397f 2ebe 1b0f 3abe 93b0 e13d
00000380: 06f6 5e3e f3e3 253e 5dd1 70be 9201 06be
00000390: 81df 21be a47e 283e 9e8f 753e 8e89 35be
000003a0: 98a2 1ebe f718 803e c84d 053e 3acf 24bb
000003b0: 21b5 533e d2b6 2b3e adcf 55be ae0f 33be
000003c0: 9f5e 943d ff4a 503e af37 483c dc55 8ebc
000003d0: b5fb 263e d292 3cbe dbcc 56be d580 c63d
000003e0: 7047 d7bd e948 62be 0ed4 3cbe 3c2a 94bd
000003f0: d046 85bb 888d 093b ab86 51be dee4 663e
-0.18488605 -0.07384608 0.20058839 0.036370087 0.13519771 -0.06164143 0.14230779 0.056869004
-0.18079045 0.2307482 -0.23181644 0.1768056 -0.15882635 0.24091028 0.08955143 0.24725483
0.2060416 0.035947993 0.22993736 -0.16009298 -0.17345576 -0.20384924 -0.15672013 0.13092764
0.1378156 -0.2353377 -0.19103864 0.15791933 0.24044451 0.14331174 0.05361332 -0.08601651
0.04949958 0.17056039 -0.22421817 -0.10720432 0.021968534 -0.25846496 0.010199881 0.04042428
0.056932606 -0.115170605 0.1363954 -0.21893668 -0.24846573 0.047320195 0.13397339 -0.0074575413
0.18783236 0.12633935 0.1460248 -0.04488451 0.17368303 -0.19671315 -0.14019711 -0.111981824
0.13982104 0.2199115 -0.15053405 0.14360143 -0.14493662 0.06929197 0.18417004 0.057767335
0.0002581308 0.004106479 -0.031145528 -0.2380364 0.044023957 -0.013414754 0.26213014 -0.19184743
0.21131177 0.23160172 -0.23540078 -0.039005253 0.09463778 0.11726991 -0.10983053 -0.17638859
-0.1260304 -0.0960388 0.1045403 -0.022734208 0.10514262 -0.029635897 0.04236012 0.106174536
-0.18893531 -0.111817166 -0.23574005 -0.10288629 -0.18170671 -0.24962619 0.22962187 -0.09917858
0.016974578 -0.1558722 -0.0082440665 -0.23676538 -0.049449828 -0.06382496 0.062897176 0.015874652
0.1364764 0.014028155 -0.13018999 0.25548387 -0.051213585 0.22322641 -0.2049194 -0.15259206
-0.1935729 -0.15356615 -0.004995699 0.18580505 -0.19002186 0.05986406 0.18885043 0.23480736
0.0631211 -0.09799712 -0.23054364 0.045790613 0.12833823 0.025757728 0.108335264 0.20988055
-0.029323911 -0.1588446 -0.023449548 -0.066119105 0.13085003 0.12980463 -0.020160766 0.124787144
-0.24905494 -0.18575135 0.01760981 0.044683203 0.19400632 0.008017536 -0.1433444 -0.06549051
-0.1921776 -0.1339612 -0.07761763 0.14190292 0.25415742 0.06033679 -0.1994472 -0.2141649
-0.09041104 -0.19912127 -0.16495787 -0.22657278 0.048399147 0.030638585 -0.029350618 0.02678861
0.026898805 0.05804283 0.017532721 -0.060551185 -0.009956497 -0.22661278 -0.18840179 -0.13278244
0.18468978 0.19906032 -0.18574908 0.1034762 -0.0176082 0.06533168 -0.2051755 -0.23164922
-0.14221647 0.09487056 0.07760488 -0.016369408 -0.08417734 0.019894732 -0.1406299 0.08511213
0.06970641 -0.12194981 0.09940543 -0.07488437 0.06735459 0.082523964 0.23682466 0.14076157
-0.20168868 0.041425984 -0.049098507 -0.16294628 -0.2319689 0.18848807 -0.1856956 0.16469748
0.10865394 -0.10187574 -0.117977984 0.15002966 0.11786599 -0.029691463 -0.08741158 -0.09126558
-0.01055406 -0.22249345 -0.060268074 -0.14262235 -0.18054596 0.099541105 -0.18477856 -0.078114845
0.0940491 0.11391603 -0.0039583407 -0.25130236 0.0056155603 -0.17040719 -0.18169825 0.11020007
0.21773538 0.16200237 -0.23517366 -0.13086537 -0.15807916 0.1645456 0.23980567 -0.17728254
-0.15491712 0.25019047 0.13017952 -0.002514793 0.20674564 0.16768959 -0.20880003 -0.1748645
0.0724461 0.20341109 0.012220307 -0.017374925 0.16306956 -0.18415383 -0.20976584 0.096925415
-0.105116725 -0.22098126 -0.18440267 -0.07234618 -0.0040672794 0.00209889 -0.20461528 0.22548243

model.backbone.encoder.layers.0.self_attn.W_Q.bias f4 [16]
00000000: 5362 f83d 5366 493e cf73 20be 1df8 6a3e
00000010: 4a29 6f3d e099 2ebe ab32 0e3d 17a7 3f3e
00000020: f1da ddbd aafe 163e 075d 2abe 8799 74be
00000030: 5dda 563e 44ee 2ebd 50f7 48be d67e 093e
0.12128129 0.1966794 -0.15669177 0.2294621 0.058388986 -0.17050886 0.03471629 0.18716083
-0.108327754 0.14745584 -0.1663705 -0.23886691 0.20981736 -0.042707697 -0.19625592 0.1342729

model.backbone.encoder.layers.0.self_attn.W_K.weight f4 [16, 16]
00000000: 2c75 0f3e 3ee9 b1bd 93f7 723e c35b 60be
00000010: 29ab 293e 8516 273c 0e65 6c3e 7295 11be
00000020: bbe5 0cbd c27f 75be 90cb 7abe 4be8 073d
00000030: dd59 303e 39b1 0a3e 4068 2dbe c1dc d03c
00000040: 45c5 dfbd 8f99 803c adaa 15be 2521 88bd
00000050: 23c2 f33d ed2b 193e 8fed 2abc 49ba d43d
00000060: 6285 2d3e 9be7 4bbe a2f7 dbbd 9fed 203d
00000070: a018 00be 2ae4 2abe 6350 173c 6a76 2f3d
00000080: 30dc 3d3e 5a91 5dbe 8da5 c4bd 42e6 863d
00000090: 8f40 1c3e 9b90 78be 6f36 d23d 8a40 713e
000000a0: cde3 663d f908 693d 1345 a83d 1193 a7bd
000000b0: fece b43d b40b d93d 27b6 1a3c 5a99 dcbd
000000c0: e4d9 343e a61e ff3d daad 7fbe 74dd 8bbc
000000d0: 5351 2cbe 3fb5 64bd 8ec6 823d bcd0 fabc
000000e0: 8e4e 713e d908 493e 5454 30bd ecd9 753e
000000f0: cdcd 8dbd 4436 01bc ed47 efbd 44a4 e13d
00000100: f790 75be a00b 48be b6d4 24be 0002 ef3d
00000110: 1d7a b93c 7d0e 70be a2af 2e3e b203 513e
00000120: b131 493e fd16 283d 15c1 81bc dbd5 43be
00000130: 17a6 8f3d f0d9 7f3e 8053 e3bd 0aca 68be
00000140: f122 06be 5eb0 b33d 1834 13be 4dd7 3d3e
00000150: 361f dc3d b26d 043e 12d5 cebd acdc c1bd
00000160: 53bd 3ebe 1c5f 1a3d 4b56 473e 50b0 2d3e
00000170: c4a2 1a3e b659 70be ba42 2a3e 4bc3 fc3d
00000180: 76aa 493e 0585 41be 14bf 4f3e 7204 c6bc
00000190: 6015 833d 6981 41be 31d2 863d 3d61 f23d
000001a0: 558d 94bc cc52 15be e39d 9ebd bb60 843d
000001b0: a8b6 02bc 305e 2d3d eda6 d5bd afdf 793e
000001c0: 1b7d 153d 68ea 21be 803e f9bd 52d4 11be
000001d0: f09e 463e b33a 45be 335d 443e 25db fa3d
000001e0: e5b3 703d 0e40 5c3d 6ad4 65be b1ce d93d
000001f0: 7dbf 3ebe 7e0d 483e 1fa9 5cbe dbc1 463e
00000200: 6d98 7d3e 002e ee3d 2f40 7bbe a953 6a3e
00000210: b985 fdbd ad35 573c 503f 6a3e 404d 59bd
00000220: 818e b63d b926 753d d6ed 323e 7be8 04be
00000230: e7bf d13d 9d09 283e 684c acbd b6af 2d3e
00000240: bf8b 05bb e6fa 443e 143d babd 1f64 213e
00000250: e607 6c3e de9e 3f3e 7dbc 243e cc5d 5e3e
00000260: c361 9e3b 49bb 6b3e 60c9 723e a3b4 82bd
00000270: d0d8 333e c285 a7bd 7237 46be 4b2b 66be
00000280: c3dd 65be b7c6 893d 4863 513e 4747 353d
00000290: 9078 2c3e fb26 44be 85bc e5bb 0eb1 273e
000002a0: 934b e7bd 9205 ec3d 8d95 12be 0bb1 473e
000002b0: cccf 30be b051 0f3e b891 73bd a081 d13d
000002c0: 8ae4 5c3e 77bf b2bd 2f9c 78be 0b07 07bd
000002d0: fbe5 75be c5c2 113e 6dff 8b3d a9a1 5cbc
000002e0: ac64 4bbd 390c 03bd d496 643e 75e6 1ebd
000002f0: e1cf 463e 59dd 56be fde9 7fbe 6f53 19be
00000300: cd6e 2e3e d717 99bd 1871 b2bd 75ca 543d
00000310: 3f0a 583e 8233 16be 3de6 c0bd 9755 683d
00000320: 57c1 0b3e 81eb 183d 57fa 4dbe c084 50be
00000330: 8bdc af3b 4a4e b23d 568d 073d 551b 4dbe
00000340: 6328 9e3d 3136 3ebc aa10 bf3d 5988 24be
00000350: 49f5 e4bd d94a c6bc edc0 95bb fc5a 9b3d
00000360: a149 eabd 1c4d 6d3d 5c23 1d3e b921 b13b
00000370: c7d2 e4bc 2cbb 4a3e 316e 4e3e 9be8 523e
00000380: 4c6f eebd 9edd 223e 0077 a03d 9d75 eb3d
00000390: 84b2 b33d 1d3d 13bd 04a5 7cbb 5296 373e
000003a0: 629e 3ebe 8237 70be 8357 49be ff92 fcbc
000003b0: 2513 f9bd f23a bc3d d364 0d3e dcee e33d
000003c0: e181 623d eb64 403c 1c4e 12be ffe8 153d
000003d0: 44bb f13d 15c3 fe3d 5c71 cabd 466d 9b3d
000003e0: 6afb 74be 8498 473e fe6c eb3d 91f3 6dbc
000003f0: f479 1cbe 6cfb 3b3e 6792 5bbe 6e8a 433e
0.14009541 -0.086870655 0.23727255 -0.21910004 0.16569199 0.01019824 0.23085424 -0.14217165
-0.034398776 -0.23974517 -0.24491715 0.033180516 0.1722178 0.13544168 -0.169343 0.025495889
-0.10926298 0.015698222 -0.14615889 -0.06646947 0.11902263 0.14958163 -0.010432615 0.103870936
0.16945413 -0.19912569 -0.107405916 0.039289113 -0.12509394 -0.166886 0.009235474 0.042837538
0.18541026 -0.21637478 -0.09601889 0.06586887 0.15259002 -0.24273913 0.10264289 0.23559776
0.05636959 0.056893323 0.082163 -0.081823476 0.08828543 0.10597935 0.009442843 -0.10771437
0.17661244 0.124570176 -0.24968663 -0.01707337 -0.16827898 -0.055836912 0.063855276 -0.03061711
0.23565122 0.19632281 -0.04304917 0.24008912 -0.06924019 -0.007886473 -0.11683641 0.11017659
-0.23981081 -0.19535685 -0.16096768 0.11670303 0.022641236 -0.23443027 0.17059186 0.20411566
0.19647862 0.04103755 -0.015839139 -0.19124548 0.07014101 0.2498548 -0.11099911 -0.22733322
-0.13099267 0.08773874 -0.14375341 0.18539162 0.107481405 0.1293247 -0.10099234 -0.09465918
-0.18626909 0.03768836 0.19466512 0.16961789 0.15101153 -0.23471722 0.16627017 0.12341937
0.19693932 -0.18898399 0.20287734 -0.024172042 0.06400561 -0.18897022 0.065830596 0.11834953
-0.018133799 -0.14582366 -0.07744958 0.064637624 -0.007978119 0.042326152 -0.10432229 0.24401735
0.036496263 -0.15812075 -0.12170124 -0.1424115 0.19396567 -0.19260673 0.19176178 0.1224883
0.05876531 0.053772025 -0.22444311 0.106351264 -0.18627734 0.19536397 -0.2154889 0.19409887
0.24765177 0.116298676 -0.24536203 0.22883476 -0.12379021 0.013135356 0.22875714 -0.053052187
0.08913899 0.059851382 0.1747354 -0.1297931 0.102416806 0.16409917 -0.08413011 0.1696156
-0.0020377485 0.19236335 -0.09093681 0.1576085 0.23049888 0.18712947 0.16087528 0.21715468
0.0048334314 0.23020662 0.23709631 -0.0638211 0.17563176 -0.08179809 -0.19357088 -0.22477452
-0.22447877 0.06727355 0.20448029 0.04425743 0.16842866 -0.19155495 -0.0070109987 0.16376135
-0.112937115 0.115245 -0.14314862 0.1950113 -0.17266768 0.13996005 -0.05946514 0.10229802
0.21571556 -0.08727925 -0.2427833 -0.0329657 -0.24013512 0.14234455 0.06835828 -0.013466277
-0.049656555 -0.03199408 0.22323161 -0.038794 0.19415237 -0.20982875 -0.24991603 -0.14973234
0.17034455 -0.0747525 -0.08712977 0.05195089 0.21097659 -0.14668086 -0.094189145 0.05672225
0.13647972 0.03733397 -0.20115028 -0.2036314 0.005366867 0.08706339 0.033093773 -0.20029958
0.07722547 -0.0116096 0.0932935 -0.16067638 -0.11179597 -0.024205612 -0.0045701177 0.07585713
-0.11439825 0.057934865 0.1534552 0.0054056314 -0.027932538 0.19797963 0.20159222 0.20596544
-0.11642322 0.15904853 0.078351974 0.11497042 0.087742835 -0.035946954 -0.0038550505 0.17928436
-0.18615106 -0.23458675 -0.1966229 -0.030831812 -0.12161855 0.091909304 0.13807993 0.11129543
0.055299643 0.011742811 -0.14287609 0.036599156 0.11803296 0.12439553 -0.09884903 0.07589202
-0.23924032 0.19491774 0.11495398 -0.014523403 -0.15280896 0.18357629 -0.21442567 0.19095775

model.backbone.encoder.layers.0.self_attn.W_K.bias f4 [16]
00000000: 66ac 88bd 215c ca3d 8742 22be 9fce cfbb
00000010: 1a09 223d 6858 613e 0508 e2bd 3e9b 50be
00000020: 84ec 69bd 9c1e c3bd 768d 0dbe 6abf 84bd
00000030: 4d24 ebbd eff7 f43d a4ba 84bd 632b cd3d
-0.066735074 0.098808534 -0.1584569 -0.00634177 0.03955946 0.2200638 -0.11036686 -0.2037172
-0.057110325 -0.09527323 -0.13823494 -0.06481822 -0.11481533 0.11961352 -0.064809114 0.10018041

model.backbone.encoder.layers.0.self_attn.W_V.weight f4 [16, 16]
00000000: 36f6 f73d 7eb8 803d e706 f8bd 5aa3 c0bd
00000010: c820 99bb 13f3 77bc 1ce3 6b3e 292d 753e
00000020: 5603 5ebe 745d 083c 4e20 f5bd db14 123e
00000030: 2e63 3ebe 50be 67bd 8054 3e3e 1885 23be
00000040: 103e 283e eec2 25be 55e2 773e 0f61 873d
00000050: 508d 0dbd 1689 883c f862 c53d e3d4 0fbe
00000060: 95f5 623e 9863 1a3e 93cc 4abe 09c5 9a3d
00000070: 84ee 703e 051f b0bd cec2 713e 5398 03be
00000080: 67ed 55be f195 46be 0fa3 c63d eab4 5c3e
00000090: e43b 2a3e b18f d8bc c74c 3f3e d4dd 983d
000000a0: ef86 39be df07 903d 3aa9 fdbc 9e3e 193e
000000b0: 0d58 6f3e 8a74 14bd 47fc cc3d 8818 65be
000000c0: 2f4b 4cbd b285 edbd 0577 2b3c a90e 2ebe
000000d0: b7f3 613d cd1a 353e a035 56be 7d91 5c3e
000000e0: 8110 dd3d 4070 00be 025a d33c df9c 29be
000000f0: f02a 7a3e 35d0 45be ccd7 743e 17f8 dbbd
00000100: 0e40 923d afd6 20be 8e93 193d c372 ba3d
00000110: 27a9 ca3a 6c0a d33d 5060 dbbd a465 fabd
00000120: 81cd 47be 32f3 4dbe 1f0a 87bd bfba b33c
00000130: d963 eabb ba83 8bbd 8d7d 4cbe 0489 31bc
00000140: ccd8 333e 5d20 cdbd bfd7 39be de02 4c3d
00000150: b826 16be 4488 61bd fcaa 433d f20b d93c
00000160: 0449 603e a9e5 093e ffd5 60be 6234 4b3d
00000170: 367a 973c 0351 933d bbc8 0c3e 4a63 2f3e
00000180: 0ffa 0ebe 71e1 1d3e 7f4b ce3d e1f9 c03b
00000190: 0a02 ec3d ed03 323e 5aeb 2ebe d026 18be
000001a0: 4be0 0c3e ec72 4b3e 2e44 b6bd 7d5a 25be
000001b0: 4c0e 54be af5e b4bd b8fa 18bc 0cb6 0cbe
000001c0: 409e 4dbd 8982 7abd 290a 013d bb8f 103e
000001d0: dafd 3b3e d70f e03d 9e79 5bbe fa4b ee3d
000001e0: 9cba b53c 3a93 4e3e 956e b6bc 248a 3d3d
000001f0: 0beb 4ebe 948a cfbd 55fe 19be 35e5 1abe
00000200: 4dee 413d 70f3 5ebd f2ef 3f3e 58e7 563d
00000210: 6add 56be 3235 c2bb 35de 34be 6ae9 46be
00000220: a516 8dbd 94b9 02bd a8f3 8cbc 3c57 38be
00000230: 96bf 3ebe ec36 773d 98cf 0ebe 8c38 0fbe
00000240: a953 34be ef68 6bbe 0888 02bd b13a 183e
00000250: f373 bebd dea3 6bbd e010 d6bd 3dc2 1ebd
00000260: 1e76 7abe d3a5 6cbe a416 3ebe 9f2d 63bb
00000270: 3705 35be ac36 a23d 50aa 81bd c3a1 453e
00000280: d137 cb3d a50a 673d 8f3f bfbd 2622 6abe
00000290: 2f64 40be 75aa 6ebe c1f2 343e b139 efbd
000002a0: 3fdc 523d 0250 5a3e 3daf 503e 0ab4 b93d
000002b0: de5f 283e 3572 50be 5553 aabd bd4a 4bbe
000002c0: 3072 1a3e b16d d5bc 1d89 4e3e a78c b93d
000002d0: 911f e83d c3fd 7dbe ba83 f73d 95e2 da3d
000002e0: b48e 81be 0a7d 3fbe 445b 93bd e0c8 59bc
000002f0: a0ee 3a3e a084 2bbe 0cdc 7dbe 8aa8 c5bd
00000300: b0cc acbd 5a7d 2cbe 8e10 7bbd f3e4 d43d
00000310: e42e 413e 73d9 08be dc8f 66bd 30b7 0fbe
00000320: ed4c 41be ee19 663e 6e9b c1bd ff31 70be
00000330: a505 c23d e782 4dbd 503e e8bd b739 0abe
00000340: 51b8 57be bbaa 22be 65dd 6fbe 3a58 033e
00000350: 3e68 093e 8b8a 2fbe a142 a53d 5bb0 603e
00000360: 7594 00be 638a 70be fb4b 63be 479a 96bd
00000370: fd25 6b3e 5e8c 85bd e085 803e 7b85 503e
00000380: 8f3c b43d 40f8 3b3d 877d 833a 3410 aa3d
00000390: 5972 65be 321c 4fbe 776a 203d 100d cebd
000003a0: c4db 22be 1214 97bd 89af 283e 7f18 213e
000003b0: 8ce1 f13d c634 c33b ec04 fbbd a04a 7d3e
000003c0: 985f 083e 6cf8 8abd 8daa 5b3c 1af0 4bbc
000003d0: a3e5 54bd d827 693e e42b 183e 5152 7a3e
000003e0: ae8b 2ebd 9057 8d3c 6bc0 d03d d116 24be
000003f0: 88ac 7b3e f7bc 04be c019 96bd 9eed 08bd
0.12107508 0.06285189 -0.121106915 -0.09406157 -0.0046730973 -0.015133637 0.23035854 0.23943008
-0.2168096 0.008323062 -0.11969052 0.14265768 -0.18592522 -0.05657798 0.18586922 -0.1596874
0.16429925 -0.16187641 0.24207433 0.06610309 -0.034558594 0.01666693 0.096380174 -0.14046054
0.22163995 0.15077055 -0.19804601 0.07557113 0.23528486 -0.085996665 0.23609468 -0.12851076
-0.20891343 -0.19393136 0.0969907 0.21553388 0.16624409 -0.026435705 0.18681632 0.07464185
-0.1811788 0.07032751 -0.030964483 0.14965293 0.23373432 -0.036243953 0.100090556 -0.22372639
-0.04987639 -0.11597766 0.010465388 -0.1699778 0.055164065 0.17686005 -0.20918894 0.21539874
0.107941635 -0.1254282 0.025799755 -0.16563748 0.24430442 -0.19317706 0.23910445 -0.10740679
0.07141124 -0.15706895 0.037494235 0.0910392 0.0015461788 0.10304722 -0.107117295 -0.12226418
-0.19511987 -0.20112303 -0.06593727 0.021939633 -0.007153016 -0.06812234 -0.19969769 -0.01083589
0.1756317 -0.100159384 -0.18148707 0.049807422 -0.14663208 -0.055061594 0.047770485 0.026494954
0.21902853 0.13466515 -0.21956633 0.049610503 0.018490892 0.07193186 0.13748448 0.1712772
-0.13962577 0.1541803 0.100729935 0.005889163 0.115238264 0.1738431 -0.17081967 -0.14858556
0.13757436 0.19868058 -0.08899723 -0.161478 -0.20708579 -0.08807122 -0.00933712 -0.1374132
-0.050199747 -0.061159644 0.03150383 0.14117329 0.18358555 0.10940521 -0.21433112 0.11635585
0.022183709 0.2017335 -0.022269526 0.04627432 -0.2020685 -0.101338536 -0.15038426 -0.15126498
0.047346402 -0.05443138 0.18743876 0.05246672 -0.209829 -0.0059267515 -0.1766289 -0.19424978
-0.06889085 -0.031915262 -0.017206028 -0.18002027 -0.18627772 0.060355112 -0.13946378 -0.13986415
-0.17610039 -0.22989248 -0.03186801 0.14866139 -0.09299459 -0.057529323 -0.104524374 -0.03875946
-0.2445912 -0.23110132 -0.18563324 -0.0034664643 -0.1767777 0.07920584 -0.06331313 0.19299988
0.099227555 0.056406636 -0.09338295 -0.22864589 -0.18788217 -0.23307212 0.17670728 -0.11680926
0.051479574 0.21319583 0.20379348 0.09067543 0.1644282 -0.20356067 -0.083166756 -0.19852729
0.15082622 -0.026053282 0.20169492 0.090600304 0.11334146 -0.24803834 0.12085672 0.10687748
-0.25304186 -0.18700042 -0.07195142 -0.013292521 0.1825509 -0.16749811 -0.24790972 -0.09651287
-0.084374785 -0.16844693 -0.061295085 0.10395231 0.18865544 -0.133642 -0.05628954 -0.14034724
-0.18877001 0.22470829 -0.09453474 -0.23456572 0.09473733 -0.050173666 -0.1134001 -0.13498579
-0.21066405 -0.15885441 -0.23424299 0.12826625 0.13418671 -0.17142694 0.08069349 0.21942274
-0.12556632 -0.2349029 -0.22196953 -0.07353645 0.2296371 -0.065209135 0.2510214 0.20363419
0.08800613 0.045891047 0.0010031917 0.08303872 -0.22406901 -0.202256 0.039164033 -0.10061085
-0.15904146 -0.07376875 0.16473211 0.15732001 0.11810598 0.005957219 -0.12256798 0.24735498
0.13317716 -0.06785664 0.013407362 -0.012447381 -0.05197681 0.22769105 0.14860493 0.24445464
-0.042613678 0.017253667 0.10192951 -0.16024329 0.24577534 -0.1296271 -0.0732913 -0.033429734

model.backbone.encoder.layers.0.self_attn.W_V.bias f4 [16]
00000000: 3cfa 66bd 0278 48bd 3753 91bd 6f7f 163e
00000010: c7a6 8c3d 1312 223e 543d b03d cab7 4bbe
00000020: 5683 4fbd 6c63 933d 15a0 1cbe 3cae 21be
00000030: cf99 7c3e 5af2 413e f44a f6bd a2e8 293e
-0.056390986 -0.048942573 -0.0709595 0.1469705 0.06867748 0.15827207 0.086054474 -0.19894329
-0.05066236 0.071966976 -0.15295441 -0.15789121 0.24668048 0.18940106 -0.12026015 0.16592649

model.backbone.encoder.layers.0.self_attn.to_out.0.weight f4 [16, 16]
00000000: 39e0 1bbe 7f07 103d 33d0 f63d d258 ed3d
00000010: 1342 93bc 9e1e 5a3e de68 ebbd d794 83be
00000020: fbfb 693e d9ba 453e 501f 4e3e 209d d63d
00000030: 0e8b cd3d 4350 f33d 51cf d2bd 21f3 3cbe
00000040: 58eb 34bd 3a2e 59be 481a babd 3bef 993d
00000050: ed2d 83bd 81de 08be 5e43 acbd e29b bebd
00000060: 3d36 4b3e 48ef 1fbe ae93 5d3c 89e1 543c
00000070: a837 82bd 3ba4 403d 2ef0 833e 58e4 25be
00000080: 1ff6 30be c03f 6bbe 76f1 553c 1b10 52be
00000090: 7d89 303e 7767 de3d 3d69 05be bd0f 063e
000000a0: 7d79 5cbe 1ffd df3d 8579 5e3e 955b 43be
000000b0: b74b 333e 7992 3dbe ed0e a73c a736 743e
000000c0: 8e97 52be 60b1 3c3e c1e5 39bd 8a1e 3ebe
000000d0: 599b 043e 5ea8 433e b1a0 eb3d f5bd 5f3e
000000e0: 4410 a8bd 90fb 1b3e aa4a 55be a608 37be
000000f0: 2d7a 4e3c 5946 cd3d be9e 233e 8de5 0f3e
00000100: c241 1bbe 5180 453d b8f7 3e3c a997 17be
00000110: 5696 34be a789 333d f1f3 df3d 9e10 763d
00000120: ffd4 223e 0040 b83d fb72 40be eef5 2ebe
00000130: 2692 5a3e e08f 833c d296 4e3e cd9b 4fbe
00000140: f42a 463e 70d0 e1bd a138 1ebc a818 793e
00000150: e3d0 3d3d 6523 b0bd 8852 0e3d 238d e7bd
00000160: 97ee c8bd 6dc5 3dbe d3c8 0f3e 7668 11be
00000170: 2039 8fbd 40ab 543e ed23 dd3d 23a5 4dbe
00000180: e091 f2bd bcf0 74be 5302 423e 6489 84be
00000190: 6493 243d 4e71 42be cbe3 10bc b187 e33d
000001a0: a5ed cf3d 08ce 393e 2ae2 0e3e 3e95 7ebe
000001b0: 8118 26be 290e 873d 9405 14be f66d 12bd
000001c0: 0325 1fbe 90a9 e43d 76c2 4c3e 5adc 75be
000001d0: 01d5 a93d 2d05 833d 2fb2 24be 2b04 0abe
000001e0: 547b 20be c8ca 90bd 1469 eebd a58a 5abe
000001f0: dc12 c5bc 4f12 dfbc 69d5 033e 8402 1e3e
00000200: 053f 283e f031 a53d d779 69be 5a49 39be
00000210: 057d ffbd d489 0f3e bc3e 65be 91d9 5d3e
00000220: 733f adbd 7a33 1abe 1681 433e b15b 1b3e
00000230: 9de4 a6bd 6c07 d7bd b4fe ffbd ef22 9cbd
00000240: 3362 9d3d ecb7 043d 084d dabc 21dd be3b
00000250: 3de6 fdbd fe68 893d dff6 6ebe 4ef6 53bd
00000260: 90b4 78be 7ceb c7bd e160 85bd 4c28 0d3a
00000270: 8270 363e e542 75be 5962 bb3d eb1f 393e
00000280: c03d 76be f76d 763d 89d1 943d 57c1 63be
00000290: da09 6e3e c0c9 643e 3475 f5bd 120f 41be
000002a0: 14fa 073e 8fa4 2dbe 6174 39be 4f25 cb3d
000002b0: 58f5 533d e82f c0bb 8929 593e 67fb 3d3e
000002c0: 8b77 bd3d 0526 a63d 4265 6dbe 43fe 4cbd
000002d0: fd42 23be 9b81 a23d dad5 51be 60b9 7bbc
000002e0: ce23 0abe 14ea 28be d70b 80be 0a4f 0b3e
000002f0: 7676 193e 488b 38be f836 133d 61a5 47be
00000300: 576e 62be 6908 3ebe ed36 393e 7bb6 83be
00000310: bd82 dbbc cdf1 563e c440 2cbd 8aaa 0dbe
00000320: df4f 6ebc 87ad cb3d c5f8 f6bd f64b 17be
00000330: 1922 3f3e 34f1 1cbe ab4e 45bd 09e8 d8bb
00000340: 82d5 8ebb c3c9 0d3e 9e86 b03d 4000 02be
00000350: 1e74 3e3e b9e2 28bd e065 19be 1805 b3bd
00000360: 2499 31be 42bb 8fbd 4cc4 a93d 8547 083e
00000370: ca14 493e fb03 b63c d688 8d3c e651 513d
00000380: 2086 80bd 5bdd fabc 5676 8a3d 10e6 3bbe
00000390: 96da 04be 072c b9bd 6f43 0d3e e213 313d
000003a0: 6330 8d3d e9df e03d 5d19 133e ec38 6f3d
000003b0: 6b83 5ebd 6615 91bd 5a10 af3c 50e5 1ebc
000003c0: aaf0 9fbc 5e65 2cbe fdcd b6bc d202 b93d
000003d0: bd14 5c3e 3be9 f23d 151e 87bd ae03 9d3d
000003e0: d69e 703e f65c 66be f7cb 013e 090c 72be
000003f0: 090a 2fbe 24af 15be 4306 24be e31d 80be
-0.15222253 0.0351634 0.120514296 0.11589207 -0.017975843 0.21300742 -0.11494611 -0.25699493
0.22850029 0.19309558 0.20129132 0.10479188 0.10036288 0.11880543 -0.10293449 -0.18452121
-0.044169754 -0.2120904 -0.09087044 0.07516333 -0.06405244 -0.13366129 -0.08411287 -0.09307076
0.19844909 -0.15618622 0.013523979 0.012993225 -0.06358272 0.047031622 0.2576918 -0.16200387
-0.17281388 -0.22973537 0.013058057 -0.20513956 0.17239948 0.10859578 -0.13028426 0.13091941
-0.21530719 0.10936951 0.21726044 -0.19077905 0.17509352 -0.18512906 0.02039286 0.23848973
-0.20565626 0.18427038 -0.045385126 -0.18566337 0.12949885 0.19107196 0.11505259 0.21849807
-0.082062274 0.15232682 -0.20829263 -0.17874393 0.012602371 0.100231834 0.15978524 0.1405241
-0.15161803 0.048218075 0.01165574 -0.14803948 -0.17635474 0.043832447 0.109352 0.06007444
0.15901564 0.08996582 -0.18793862 -0.17086002 0.21344814 0.016059816 0.20174721 -0.20274277
0.19352323 -0.110260844 -0.009657056 0.24325812 0.046341788 -0.08600501 0.034746677 -0.113062166
-0.098111324 -0.18532343 0.14041452 -0.14200005 -0.069933176 0.20768452 0.10797868 -0.20082526
-0.1184423 -0.23919958 0.18946199 -0.2588607 0.040179625 -0.18988535 -0.008843373 0.111098655
0.10152749 0.18145001 0.13953462 -0.24861619 -0.16220285 0.06594498 -0.14455253 -0.0357494
-0.15541463 0.11165154 0.19996056 -0.24009839 0.082925804 0.063974716 -0.16083597 -0.13478152
-0.15672046 -0.070699275 -0.11641136 -0.21341951 -0.024056844 -0.02723041 0.12874378 0.15430647
0.1643029 0.080661654 -0.22800384 -0.18094388 -0.124750175 0.14017421 -0.22387213 0.21665026
-0.084593676 -0.15058699 0.19092211 0.15171696 -0.08149073 -0.104994625 -0.12499753 -0.076238506
0.07684746 0.032401964 -0.02664806 0.0058247005 -0.1239743 0.06709479 -0.23336361 -0.051748566
-0.24287629 -0.09761712 -0.06512619 0.0005384728 0.17816356 -0.239513 0.09149618 0.18078582
-0.24046993 0.060163464 0.07266528 -0.22241722 0.23245946 0.22342587 -0.11985245 -0.18853405
0.13278991 -0.16957305 -0.18110801 0.099192254 0.05174765 -0.005865086 0.2120725 0.18552934
0.09251317 0.081127204 -0.23183158 -0.05004717 -0.15943523 0.079348765 -0.20491734 -0.015364021
-0.13490221 -0.16495544 -0.25009033 0.1360437 0.14986596 -0.18021882 0.035941094 -0.19496681
-0.22112404 -0.18557896 0.18087359 -0.2572516 -0.02679574 0.20990677 -0.042053953 -0.13834587
-0.01454541 0.09945207 -0.12059168 -0.1477507 0.18665351 -0.15326387 -0.048170727 -0.0066194576
-0.004358948 0.13846497 0.08619426 -0.12695408 0.18598983 -0.041231845 -0.14980268 -0.08741206
-0.17343575 -0.070181385 0.08289394 0.13308533 0.19636837 0.022218695 0.017277163 0.051103495
-0.06275582 -0.030623129 0.06760852 -0.1834948 -0.12974009 -0.09041601 0.13795255 0.043231852
0.06893995 0.109802075 0.14365144 0.058403894 -0.05432455 -0.070841596 0.021370102 -0.009698227
-0.019523937 -0.16835544 -0.02231502 0.09033741 0.21492286 0.118608914 -0.065975346 0.076667175
0.23498091 -0.224964 0.12675463 -0.23637404 -0.17093672 -0.14617592 -0.16018014 -0.25022802

model.backbone.encoder.layers.0.self_attn.to_out.0.bias f4 [16]
00000000: 14af 49be b564 723d 5756 e6bd 6bab a3bd
00000010: 52be 1ebe f2cc 413e 5b85 bb3b 38a1 b13d
00000020: 69d3 c23d 9806 3dbd 2285 6a3e 85db b5bb
00000030: 036f 55be ca3b 76be a84b ef3d a0cd 663e
-0.19695693 0.059178073 -0.11246937 -0.0799168 -0.15502289 0.18925837 0.0057226843 0.08673328
0.095129795 -0.046148866 0.22902349 -0.0055498504 -0.20843129 -0.24046245 0.11684352 0.22539377

model.backbone.encoder.layers.0.norm_attn.1.weight f4 [16]
00000000: 5806 813f 2596 7e3f 589f 813f da89 7c3f
00000010: 882d 7d3f 3e61 823f 9fb3 823f 53f6 7c3f
00000020: e4ca 813f 6837 7f3f 47d1 7e3f 651d 803f
00000030: 8b6a 7d3f ee63 7b3f 665e 7d3f 7c3c 7d3f
1.0080061 0.9944785 1.0126753 0.98647845 0.988976 1.0185926 1.0211066 0.9881336
1.0140042 0.9969392 0.9953808 1.000897 0.98990697 0.98199356 0.98972166 0.98920417

model.backbone.encoder.layers.0.norm_attn.1.bias f4 [16]
00000000: a4f2 47bb d793 b039 387e bdbb 27d1 15bc
00000010: da26 2ebc 38fd e4bb 4af9 e6bb dfeb 07bc
00000020: 6af1 38bc ccee 4bbc b6c1 0a3c 2846 7fbb
00000030: 07bf f83b a2b0 aa3b 6c89 423c d2d0 33bb
-0.0030509615 0.00033679485 -0.0057828687 -0.009144104 -0.01062938 -0.006988194 -0.0070487605 -0.008295982
-0.011288026 -0.01244707 0.008469036 -0.0038951728 0.0075911316 0.0052090446 0.011873584 -0.00274377

model.backbone.encoder.layers.0.norm_attn.1.running_mean f4 [16]
00000000: bf49 03be 4300 143c 5a8f a4bd 0aab b9bc
00000010: f604 c33d cad1 3c3d 268b 323c 5f5b 5c3c
00000020: ce85 cabd 3db6 833e 24f7 033e 26d1 2a3e
00000030: 67c1 81bd 0f9a 12bd 6ab1 83bd e782 0b3e
-0.128211 0.0090332655 -0.08035155 -0.022664566 0.095224306 0.046098508 0.010897433 0.013449519
-0.098888025 0.25724974 0.12887245 0.16681346 -0.06335717 -0.035791453 -0.064303234 0.13624154

model.backbone.encoder.layers.0.norm_attn.1.running_var f4 [16]
00000000: 28c9 513e fc12 863e 2c6d bd3e a9e7 613f
00000010: 2dfd a33e 9968 b23e 72bf 6f3e f2e9 0e3e
00000020: 8f6b fb3d 5394 b53f f32e 2e3f f285 663e
00000030: f130 483e b78c 7e3e 1c40 453e ec3a 793e
0.20486891 0.2618636 0.36997354 0.8824411 0.32029095 0.34845427 0.23412874 0.1395643
0.122763745 1.418589 0.6804039 0.22512034 0.1954992 0.24858366 0.19262737 0.24338883

model.backbone.encoder.layers.0.ff.0.weight f4 [128, 16]
00000000: 8767 1f3e 7462 78bd 5e2a 733e bbdd 463e
00000010: 4f96 f53d 8a80 133e 2f2a 793d 6669 17be
00000020: c37f 6a3e ea7e d4bd 753f 25be 3304 083e
00000030: d2fd 94bc 4f71 593e 5d19 00be 8751 c1bc
00000040: 0942 52be 6139 4f3c 12ab 033e 114c 46be
00000050: e85e f1bc 6a76 163e 5121 203e 9892 2bbd
00000060: 69fd fcbd 0d5f bfba 8c05 3e3e ca27 093c
00000070: 972c 09be 6c7f a4bd e468 e3bd bf4b 183e
00000080: 1386 cf3d d3fd 99bd aad3 423e 6db7 603e
00000090: fa04 453d 053d 5abe ceee 753e ce2e 3f3c
000000a0: bdb9 cbbd 3cbc a43d 0bd0 4f3e 7b88 593e
000000b0: bda4 30bd 9f8e 4b3e 5d63 0c3d 1aba 8bbc
000000c0: 6888 db3d 8cf3 adbd e193 53bc 1c3e 543d
000000d0: a182 df3d 3aa5 6c3e 787d 03be 1b8b 8bbd
000000e0: 2949 31bd 86dd bc3c 1f76 95bd 948b 523d
000000f0: c5d1 07be 7808 46be ec75 d23d deb7 6bbe
00000100: ad7d 18be bceb 8a3d c9c3 7dbe be52 ba3c
00000110: d27b 3a3e 743e 70bd ae60 66be 0845 eebd
00000120: 7c90 17be c0b7 92bd c97a b7bd 3765 61be
00000130: 5360 8abd 88f9 e6bd 800e 213e 434a f2bd
00000140: f392 c53d 5865 0bbd b086 71be 3b49 b8bd
00000150: ad9b 5abe 57fe 223e 87d1 0abe 1365 1bbd
00000160: 58aa 82bd 09ee 4abd ad64 b93d 97fe 69be
00000170: c1ce d3bc b782 ab3c e2a0 61bd cd3a f63c
00000180: 872c 19be 21d5 753e 682b 31be 4c42 3ebe
00000190: 4f72 543e 79cc f6bd f924 173d c4f2 3d3e
000001a0: e183 183e fc6e 4b3e f6d9 27be 2892 283d
000001b0: 0e73 5bbc c7a9 18be cb18 b63d de2f e0bd
000001c0: 69a1 e83d 8727 eebb 1315 9b3c 2a7b b5bd
000001d0: 82aa 6e3e 7343 22be a1fa 213d 1f62 63be
000001e0: 2760 5abe c972 01be b51f 53be 022f 883d
000001f0: 1916 b5bd 9beb 64be 699b 0d3e 6fe8 3dbe
00000200: 8a10 3d3e e124 31be 42ae 143e 21aa 1b3e
00000210: fffb a1bb 6be8 303e 3a38 1fbd 00d8 c53d
00000220: 3560 a5bd 7fca da3d 4364 243e fdad ecbd
00000230: ef8d 9fbd 6ada 76be 7c6d 04be 42ec a0bc
00000240: 15fe aebd 9537 2bbe cdf6 52be 0ccc 483e
00000250: 7730 67be a8e6 48be 5d19 a0bd 107c 3d3e
00000260: 013f 38be f8ed b2bd 4cfb 18be acdc 80bd
00000270: cc71 e73d 1b6e cbbc c776 e6bd 2832 afbc
00000280: def5 2f3e b5c4 153e bcec 1ebd c217 3a3e
00000290: dce1 30be a414 32be 691a 193e 4389 9d3d
000002a0: 2d2e c6bd 6aab 05bd fe68 ca3b 954d 51be
000002b0: ab18 fcbd e578 44be 6d5f cf3d 8581 6b3d
000002c0: b75d b73d 906d 733e 9f39 62be c9cb d8bd
000002d0: cff9 e3bd 58fa 043e c041 eabd 8b7b 823d
000002e0: f1f4 713e 0c47 5bbc 6a9c 39be 87c1 ae3d
000002f0: ec2a 173e 873d 87bd 83e2 62be 6996 4d3e
00000300: 2bc2 fab8 ae8a 3fbe aa2a 79bd 4de8 323e
00000310: 08c9 4abd 33a1 3cbe d430 c23d 5cac 12be
00000320: e40a 663c 557a 113d e6d5 3bbe 8199 f8bd
00000330: 0cb5 32be c09f 3f3e 2593 ecbb a23c c1bc
00000340: 5eca b53d 2e46 37be e252 16be 413f 4abe
00000350: a2cf 12be 2a1e 01bd 69f3 7dbe 6b01 65be
00000360: 54ae 033e b2b2 26be 382f 6dbe 9a7d 83bb
00000370: fbb3 6fbe f315 67be ff50 b7bd a5bf a6bd
00000380: 4987 2ebe 05f0 debd d3e9 6b3e 3668 6d3e
00000390: 2d5f 043e 16ea 93bd 4c8e a13d 8c55 ee3d
000003a0: e5f3 44be 2699 043e d806 75be 8334 d4bd
000003b0: 703b 243e c2ac 0ebe 7e96 16be 66ba 343e
000003c0: 4341 243e 1d72 09bb 6fa8 683e 3f93 6abe
000003d0: b7bb 0a3e 5bca 64bc 7753 273e 2bb7 243e
000003e0: 537d 53be 29cb 213e 0045 cb3d 99bb 67be
000003f0: 5573 cebb 1b75 b13d 7591 413e f98c f5bd
0.15566836 -0.060640767 0.2374663 0.19420521 0.1199156 0.14404503 0.060831245 -0.147863
0.229003 -0.103757694 -0.16137488 0.13282852 -0.018187437 0.2123463 -0.12509675 -0.023598446
-0.20533003 0.012647958 0.12858227 -0.19364955 -0.0294642 0.14693609 0.15637709 -0.04188785
-0.12353022 -0.0014600471 0.18556803 0.008371303 -0.13395916 -0.08032116 -0.11103991 0.14872645
0.101329945 -0.07519116 0.19026056 0.21944971 0.04810045 -0.2131234 0.24016878 0.011668874
-0.09947536 0.08043715 0.20294206 0.2124347 -0.043125857 0.19878624 0.034274448 -0.017056514
0.10719377 -0.084937185 -0.012913675 0.051817045 0.10913587 0.23109904 -0.12840831 -0.06813642
-0.04328266 0.02305485 -0.072979204 0.051402643 -0.13263614 -0.19339168 0.10276398 -0.23019359
-0.14891692 0.06783244 -0.24781717 0.022744533 0.18211296 -0.05865331 -0.22497818 -0.116342604
-0.1480121 -0.07163954 -0.08958966 -0.22011267 -0.06756654 -0.11278063 0.15728188 -0.118305705
0.09647169 -0.034032196 -0.23586535 -0.089983426 -0.21348448 0.15917335 -0.13556491 -0.03793819
-0.06380147 -0.049543414 0.090524055 -0.22851025 -0.025855424 0.020936353 -0.05508507 0.030057335
-0.14958392 0.24007083 -0.17301714 -0.18579978 0.2074673 -0.12050719 0.036900494 0.18549639
0.14894058 0.19866556 -0.16391739 0.04115501 -0.01339413 -0.14908515 0.08891448 -0.1094663
0.113589115 -0.0072678956 0.018930947 -0.08861382 0.23307231 -0.15846042 0.03954566 -0.22205399
-0.21325742 -0.12641443 -0.20617564 0.06649591 -0.088421054 -0.22355501 0.13828816 -0.18545698
0.1846334 -0.17299224 0.14519599 0.15201618 -0.0049433704 0.1727616 -0.03887198 0.09660339
-0.08074991 0.10683154 0.16053872 -0.11556623 -0.077907436 -0.24106756 -0.1293239 -0.019643907
-0.08544556 -0.16720422 -0.2060196 0.19609088 -0.22577082 -0.19619238 -0.07817338 0.18504357
-0.17992784 -0.08736795 -0.14939612 -0.0629209 0.11301002 -0.024832776 -0.11253124 -0.021386221
0.17183635 0.14625819 -0.038799986 0.18173125 -0.17273659 -0.17390686 0.14951481 0.07692196
-0.09676776 -0.032634176 0.006177067 -0.20439751 -0.123093925 -0.19186743 0.10125623 0.057496566
0.089534216 0.23772264 -0.22092293 -0.10585744 -0.111316316 0.12986124 -0.11438322 0.0637122
0.23628594 -0.013383638 -0.18126073 0.08533006 0.14762467 -0.06603532 -0.2215672 0.20076908
-0.000119570956 -0.18705246 -0.060831703 0.17471428 -0.049508125 -0.18420868 0.094819695 -0.14323562
0.014040682 0.035517056 -0.18343315 -0.121386535 -0.17451876 0.18713284 -0.0072196894 -0.023588482
0.08876489 -0.17897865 -0.14680055 -0.19750692 -0.14337018 -0.031522907 -0.24799885 -0.22363822
0.1285947 -0.16279104 -0.23162544 -0.0040127756 -0.23408501 -0.22566967 -0.08950996 -0.08142022
-0.17043795 -0.10885624 0.23038416 0.23184285 0.12926932 -0.07222383 0.07888469 0.116374105
-0.19233663 0.12949046 -0.23928392 -0.10361578 0.16038299 -0.1393309 -0.14705846 0.1764923
0.1604052 -0.0020972558 0.22720502 -0.22907732 0.1354817 -0.013964261 0.16340433 0.16085498
-0.20653276 0.15800156 0.0992527 -0.22630157 -0.0063003697 0.08664914 0.18903144 -0.11989779
