TSF_Finance/checkpoints/ixic_test__PatchTST_custom_ftM_sl96_ll48_pl36_dm16_nh4_el3_dl1_df128_fc1_ebtimeF_dtTrue_Exp_0/checkpoint.pth (torch_old, 175258 bytes, 65 tensors)

model.backbone.W_pos f4 [38, 16]
000000 29 88 ce 3a b5 1f d3 3b fa 5a c8 ba 3e 1f 24 3d
       0.0015757132 0.0064429888 -0.0015285902 0.040068857
000010 c1 e4 f9 bb 5d 21 97 3c d4 1c 02 bd 57 aa a4 3c
       -0.0076261465 0.018448526 -0.031765774 0.020100756
000020 2f 69 3c bc b2 25 c6 3b bb 43 3b bc 4e 1e 9b bc
       -0.011499687 0.006046974 -0.011429722 -0.018935349
000030 10 98 93 3b 21 da 30 bc 80 c5 b7 3b d7 8b f5 bb
       0.0045042112 -0.0107941935 0.0056082606 -0.007493477
000040 f8 cc 3d 3c 69 43 ae 3c e4 4b 85 3c 9f 03 b2 3c
       0.011584513 0.021272378 0.016271539 0.021730242
000050 97 53 65 bc 41 b7 05 3d 30 54 0b bd 61 db 82 3c
       -0.01399698 0.032645468 -0.034015834 0.015973749
000060 f6 5f c0 bc 98 c8 06 bc 3a 08 e5 3c 42 a4 65 bb
       -0.023483258 -0.008226536 0.027958024 -0.0035040532
000070 be 88 dd bc 11 d3 b8 3b 77 33 0d 3c 0d b5 ae bc
       -0.027042743 0.0056403955 0.008618227 -0.021326566
000080 00 a1 a8 ba e8 fa 0d 3b 68 a4 82 3c 0a ab 3e 3c
       -0.0012865365 0.0021664444 0.015947536 0.011637459
000090 98 bc 13 bd 09 46 f0 3c 9d 15 d2 bc d5 80 72 3c
       -0.03606853 0.02933027 -0.025645072 0.014801224
0000a0 64 e7 8c 3c 59 1e d3 3b cb e3 32 3c d0 39 c2 bc
       0.01720018 0.0064428267 0.010918568 -0.023709208
0000b0 9b 99 3d bb 47 74 3f 3c 93 bf ee 3c 4c c1 a8 b9
       -0.0028930667 0.0116854375 0.029144084 -0.00032187474
0000c0 49 b9 1d bc 1d 5a c6 3c 4b 04 c6 3c 00 c1 0c 3d
       -0.009626695 0.024212891 0.024171969 0.034363747
0000d0 1d d1 ca bc ca 4b 0c 3d 4c 4b 09 bc 84 39 11 bc
       -0.024757916 0.034251966 -0.008379769 -0.00886381
0000e0 02 c1 2e 3c 80 97 d2 ba e5 02 94 bb 78 9e e1 bc
       0.010666134 -0.0016066879 -0.0045169466 -0.027541384
0000f0 35 70 10 3b 97 e8 e1 3b f1 81 82 ba e3 13 ba bc
       0.0022039537 0.006894182 -0.0009956938 -0.02271456
000100 9a bf c7 3b b2 7c c0 3b a9 c7 f0 3b fc f4 cb 3c
       0.0060958387 0.00587424 0.00734802 0.024897091
000110 23 80 ea bc 13 76 fc 3c 24 64 c6 bc 2e 61 d0 bc
       -0.028625553 0.03081802 -0.024217673 -0.025436964
000120 b0 45 8b 3c 66 ef 92 bc a7 c0 c7 3c 2a 98 b5 bc
       0.017001003 -0.01793642 0.024383856 -0.022167284
000130 b7 ab cd bb 0b bd f2 3b 5e 3b f6 bb d8 b1 01 bd
       -0.0062765735 0.0074077896 -0.0075144013 -0.031663746
000140 56 44 87 ba bd 86 18 3c ae f8 4f 3c eb a2 cc 3c
       -0.0010320048 0.009309468 0.012693567 0.02498003
000150 8a 00 c0 3b fd be 9e 3c 3a 53 14 ba 89 d0 a1 3c
       0.0058594393 0.01937818 -0.00056581537 0.019752758
000160 4c e9 b5 3b ce a6 33 bc 88 01 ce 3c b7 a0 50 3c
       0.005551493 -0.010965062 0.025147215 0.01273363
000170 09 d9 d9 bc 04 bf fd bb d4 3f 1d bc 57 ee 9b bc
       -0.026592748 -0.007743718 -0.009597737 -0.019034548
000180 ca 8a b8 3c 58 72 bb 3c fd 7f 79 3c 3e 22 27 3d
       0.022527117 0.022881672 0.015228269 0.04080414
000190 60 38 09 bd 35 bf 0b 3c 30 82 4f bc 72 73 30 bc
       -0.03350103 0.008529474 -0.012665316 -0.010769712
0001a0 91 dc 1c bc 44 25 0a bc 77 01 06 ba 7c 56 78 bc
       -0.0095740715 -0.008431736 -0.00051119126 -0.015157338
0001b0 0c f3 60 b9 c3 a2 08 bc 87 ee 7c 3c b5 2c aa bb
       -0.00021452847 -0.008339587 0.015437729 -0.005193318
0001c0 40 fd ef 3b e7 f8 26 3c 2b f6 98 3c 02 da a1 3c
       0.007323891 0.010191179 0.01867207 0.019757275
0001d0 38 b7 66 3b bf 05 75 3b f2 4c f8 bc 52 77 3f 3b
       0.0035204422 0.0037387458 -0.030310128 0.0029215408
0001e0 a7 f8 1c 3c 64 99 ff 3b d2 a9 97 3c 70 be 1f bb
       0.009580768 0.007800268 0.018513594 -0.0024374984
0001f0 bc 52 2a b9 9f 3d f2 3b 9b 99 84 3c 1c a0 6d bc
       -0.00016243284 0.0073925997 0.016186526 -0.014503505
000200 04 cf 6f bc 51 92 8b 3c 3e 60 91 3c 67 e6 65 3c
       -0.014636759 0.017037543 0.017746087 0.014031983
000210 61 ab 25 3b 26 89 51 3b 65 d9 8f 3c 58 aa 45 bc
       0.0025279152 0.0031972616 0.017559716 -0.012064539
000220 74 33 ad bc 4d 7f 86 bc 8f f8 c7 bb 8b c7 b0 bb
       -0.021142699 -0.016418124 -0.0061026285 -0.005394881
000230 79 68 fd bb f4 c2 77 bc 1f ad 4d bc 13 48 91 bc
       -0.0077334014 -0.015122164 -0.012553482 -0.017734563
000240 e3 28 b1 bc 3e 15 c3 3c 50 1e 7f ba 05 47 2b 3c
       -0.021625942 0.02381384 -0.0009731995 0.010453944
000250 2e e9 27 3c af 42 df 3c 0d de 27 bb bf 54 ad 3c
       0.010248465 0.027253477 -0.002561453 0.021158574
000260 1f 75 87 3b a8 a1 00 bd 08 74 68 bc b8 f9 f6 ba
       0.004133835 -0.031404167 -0.01418782 -0.0018842733
000270 4c db dd bb f1 4c 54 bc 66 8d c5 3b 1b ef b7 ba
       -0.006770527 -0.012957797 0.006028819 -0.0014033051
000280 fd 92 19 3c 75 f4 14 3b 6b 58 42 3b a0 8a 13 3c
       0.009373424 0.0022728716 0.0029654752 0.009005219
000290 30 3b a6 bb e0 6f 24 3c 22 4f fe bc 6e a8 5f 3c
       -0.0050729737 0.010036439 -0.031043593 0.013650997
0002a0 02 da c1 bb c2 9c b0 3b 41 98 f2 b9 99 5f 60 bc
       -0.005915881 0.0053897807 -0.00046271275 -0.013694667
0002b0 ad 14 cb 3a 7d 10 aa bc cd b7 b6 3c d5 ca d4 bb
       0.0015493833 -0.020759815 0.02230444 -0.006493906
0002c0 1a 7f 8d 3b 38 79 90 3c 84 b3 9b 3c c7 3a d8 bb
       0.00431813 0.017635927 0.019006498 -0.0065988037
0002d0 cd d9 9e ba af 19 f3 3b 60 c1 67 bb be 8f b0 bc
       -0.0012119353 0.007418833 -0.0035363063 -0.021552917
0002e0 9e 27 e3 3c b3 01 ad bc 60 a7 16 bc e9 16 cc bc
       0.027728852 -0.021118974 -0.009195179 -0.024913268
0002f0 05 8b f4 bb 2f 84 2d 3b 5b 47 f8 3b 75 6c c4 3c
       -0.0074628615 0.0026476493 0.0075768656 0.023977498
000300 d9 36 4e bb f4 09 15 bc be 5f a5 bb e7 78 71 3c
       -0.0031465797 -0.009096611 -0.0050468137 0.014738298
000310 af 83 1c bc e4 95 bd 3c 9c bf e2 bc 12 28 d3 3c
       -0.00955288 0.023142762 -0.027679257 0.025775943
000320 5c 19 08 bc a5 8f ce bb ca e5 09 bc a0 b1 06 3c
       -0.008306827 -0.006303745 -0.008416602 0.00822106
000330 11 33 83 bc 47 d4 4f bc 79 b6 c1 bb 07 f3 8a 3c
       -0.016015561 -0.012684888 -0.005911645 0.016961588
000340 02 b2 b0 3c 60 89 0c bc 9b 7e b1 3c a9 f6 26 bc
       0.021569256 -0.008577675 0.021666816 -0.010190644
000350 77 cd a4 3c 6e 5e 1d bc 2d d8 cb bb fd 61 3b 3c
       0.020117505 -0.009605033 -0.0062208385 0.011436936
000360 0a a3 31 bc 2f a9 cc ba 9d 5e e7 ba 19 fb a1 bc
       -0.010842094 -0.0015614385 -0.0017652098 -0.019773053
000370 74 25 cf bc 21 fa 91 bb fc ff c7 ba 98 a6 3d 3c
       -0.025286414 -0.0044548665 -0.0015258784 0.011575364
000380 00 49 cc bc 90 b4 90 3b 43 34 e4 39 27 6b 91 3b
       -0.024937153 0.004416056 0.00043526487 0.0044378224
000390 ae 51 71 3c 45 66 06 bc c3 75 9b bc 8e 9f f9 bb
       0.014728947 -0.008203094 -0.018977052 -0.0076178974
0003a0 46 1b f1 3c 79 c7 c0 3a 66 2e bd 3a e0 63 d6 bb
       0.02943195 0.0014707885 0.0014433383 -0.0065426677
0003b0 d4 14 30 bc b1 23 71 bc 92 13 1a 3c 0b 55 3b bc
       -0.010747153 -0.014717982 0.00940408 -0.01143385
0003c0 2d 36 09 3c 93 6f dc bb c9 11 bd 3c 78 54 e2 3b
       0.008374733 -0.006727168 0.02307977 0.006907042
0003d0 c2 57 08 3a ec d9 72 bb eb 0e a1 bc 57 6e 38 bb
       0.0005201065 -0.003705616 -0.019660434 -0.002814194
0003e0 1b 3d 28 3b 02 71 27 bc cf f0 3c bc e9 93 2b 3c
       0.0025671187 -0.010219814 -0.011532023 0.010472276
0003f0 fb db 0c 3b 7a 0c 32 3c 54 6f f9 3c cf 91 23 3b
       0.0021493423 0.010867232 0.030448593 0.0024958735

model.backbone.W_P.weight f4 [16, 24]
000000 5f 82 2f be a3 f9 34 bc fa 63 97 3d d5 7b 8e 3d
       -0.17139576 -0.011045846 0.07392116 0.06957213
000010 24 70 9e 3b 23 89 14 be 10 c3 48 be ba 79 28 3e
       0.0048351455 -0.14505439 -0.1960566 0.16452685
000020 32 3a ce bd 70 e2 31 be 66 aa df 3d 5a 67 4e be
       -0.100696936 -0.17371535 0.10921173 -0.20156613
000030 24 83 e0 3d e2 2a 22 be 7c 62 b6 3d c0 8b 59 bd
       0.10962513 -0.15836671 0.08905503 -0.05311179
000040 25 5f 72 3c c6 6e 8c bd 2e ac 05 3e 16 f5 ed 3d
       0.014793192 -0.06857066 0.13053963 0.11619012
000050 9e e9 12 3e 5c ba 50 bd c2 1e 69 3e 28 9a 1b 3d
       0.1434693 -0.050958976 0.2276564 0.03798881
000060 ac e6 8c bd 03 12 4b be 39 64 fa 3d 6f 16 47 be
       -0.06879935 -0.1983109 0.12226147 -0.19442151
000070 ce a5 1a be 69 38 ac bd 35 7c 5f 3d 66 35 6e 3d
       -0.15102312 -0.08409197 0.054561812 0.058156393
000080 68 6a ed 3d cb a4 05 bb 92 b9 ad 3d c4 7c f1 3d
       0.11592561 -0.0020392414 0.0848266 0.11791375
000090 55 26 56 be a1 66 36 be 12 56 53 be 79 e7 1d be
       -0.2091306 -0.17812587 -0.20638302 -0.15420331
0000a0 44 23 b3 3d b1 8f 30 3e b3 a6 7a 3d 69 bc 2c be
       0.08746961 0.17242314 0.061194133 -0.16868748
0000b0 25 d2 b4 3d dd 28 d2 3d 6a e4 2d 3e 91 00 47 be
       0.088291444 0.102617 0.16981664 -0.1943381
0000c0 16 c3 aa bc 83 3e c3 bd 1f 93 3c 3e df 7f e4 3d
       -0.020844977 -0.095334075 0.18415497 0.11157202
0000d0 c6 73 19 3d 34 55 a7 3c 00 d9 bd 3d 68 71 10 be
       0.037463926 0.02042637 0.09269905 -0.14105761
0000e0 2e 85 2d ba 78 0e 09 be 84 d0 bd 3d 85 c3 8e 3d
       -0.00066192716 -0.13384426 0.09268287 0.06970886
0000f0 5d 98 1e be 23 fd 4d bb 69 c1 c2 3d 45 39 c6 3d
       -0.1548781 -0.0031431399 0.09509546 0.09678892
000100 8c ef 37 3e 4a 94 3c be f0 2f 8e bd 91 99 b5 bd
       0.17962474 -0.18415943 -0.06942737 -0.08867181
000110 bf e1 40 be ae 27 64 be 8f 08 3c be 73 f1 72 3d
       -0.18836115 -0.22280762 -0.1836264 0.059312295
000120 b2 c3 4c be 90 ef ec bd cc 91 28 be ad b0 31 be
       -0.19996527 -0.115691304 -0.16461867 -0.17352553
000130 cc c9 27 3e 27 ba 01 bd 67 f6 ab bd 96 fa 29 3e
       0.16385573 -0.03167167 -0.08396607 0.16599497
000140 0c d0 00 be 7a af a1 bd a6 08 8b bd c2 51 03 be
       -0.12579364 -0.078947976 -0.06788759 -0.12824157
000150 c8 b2 98 bd e5 77 c7 bc 60 21 ea 3c 31 e9 de bd
       -0.07455975 -0.024349162 0.028580368 -0.108843215
000160 3e ed 85 3b 0f 41 53 3e c0 91 2a 3c 34 dd 4b bc
       0.0040871194 0.20630287 0.010410726 -0.012442876
000170 65 c3 3b be ea 73 0b be a0 09 dc 3d 39 fa f7 3d
       -0.18336256 -0.13618436 0.10744023 0.12108273
000180 5d e6 34 be 8b e3 5f 3d c0 5b 67 3d e1 af 7c bd
       -0.17666002 0.05466036 0.056483984 -0.06169117
000190 ec d9 34 3e 9f ff 47 3d 70 98 0a be ce 5d 45 3e
       0.17661256 0.048827764 -0.13534713 0.19274065
0001a0 92 8e eb 3d 6e 06 a2 bd f1 84 07 3d e7 f5 25 3e
       0.115018025 -0.079113826 0.033085767 0.16207086
0001b0 46 57 2d 3e 6b ca df 3d 47 cf 89 3d 8c ea 54 ba
       0.16927823 0.1092728 0.06728988 -0.00081221084
0001c0 38 87 3a 3d 05 78 0b be f0 05 5a 3c 77 e1 40 be
       0.04553911 -0.13620003 0.01330708 -0.18836008
0001d0 83 66 03 3e 64 82 04 be d5 aa ff bd 7d cb 32 3e
       0.12832074 -0.12940365 -0.124837555 0.17460437
0001e0 c9 15 74 bd 2a 5e 04 be f0 09 1f be 86 2d b2 3d
       -0.05959109 -0.12926546 -0.15531135 0.08700089
0001f0 2d 36 2d be 3a 4c 1d 3e 22 c2 7a 3d ec 6e 41 3e
       -0.16915198 0.1536111 0.061220296 0.1888997
000200 b0 81 97 bd 8a a1 30 be f4 46 84 bc 38 4a 21 3e
       -0.07397783 -0.17249122 -0.016147114 0.15750968
000210 b9 77 ab bd ec 8e 3e be cb 82 17 3e cb 95 05 3e
       -0.08372445 -0.18609208 0.14795987 0.13045423
000220 26 3b 17 3e 25 f6 ea 3d d5 fd 1b bc 10 6e 37 be
       0.14768657 0.114727296 -0.0095209675 -0.1791308
000230 3e 21 21 be 3f 1b f9 bd ae 42 26 be be 56 45 be
       -0.15735337 -0.121634 -0.16236374 -0.19271371
000240 61 9f 17 3e 34 45 18 3e 03 c0 03 be 8b 47 24 bc
       0.14806892 0.14870149 -0.12866215 -0.010026823
000250 36 b9 42 3e 69 1e c1 3d 97 fb 39 bd 49 d6 84 bd
       0.19015965 0.094296284 -0.04540595 -0.06486184
000260 78 1f b5 3d 0e 15 bf bd db 2e 25 be 83 ef 81 bd
       0.08843893 -0.09330188 -0.16131155 -0.06344511
000270 75 0e eb 3d 3d cb b5 bd 5c 9b 18 be 80 7c a3 bd
       0.11477367 -0.08876655 -0.14903015 -0.07982731
000280 44 9b 9b bd 1b 9f 17 be 60 6b 5d bb 98 99 c8 3d
       -0.07597974 -0.14806788 -0.0033785924 0.09794921
000290 2a 86 3d 3e 19 ae 84 3d 48 de 34 3e 5a 9a d6 3d
       0.18508211 0.06478519 0.17662919 0.10478659
0002a0 05 fe 76 bd 2d 5e 27 be 43 14 89 bd 23 86 a5 3d
       -0.060300846 -0.16344519 -0.06693318 0.08082225
0002b0 5f 4d 2f 3d 20 77 47 bd 02 85 e1 ba 6b 64 94 3d
       0.042798396 -0.04869759 -0.0017205777 0.07245716
0002c0 1a 56 39 bc f2 b8 25 3e 20 00 e6 bd cf 8a 05 3d
       -0.011312032 0.16183832 -0.112304926 0.03260308
0002d0 47 24 ed 3d b8 5b 2d 3e 02 34 04 3d 12 68 10 3c
       0.11579185 0.16929519 0.03227616 0.008813875
0002e0 d9 0b 23 3e 44 18 1d be 7c 83 ee bd 80 f7 0c be
       0.15922488 -0.15341288 -0.116461724 -0.13766289
0002f0 30 ac 28 3e fb 0d 9f bc bb 75 46 be 92 44 48 bc
       0.16471934 -0.019415846 -0.19380848 -0.01222338
000300 42 59 30 be 71 0a f0 3d d0 59 2a 3e f4 62 b3 3d
       -0.17221549 0.117207415 0.16635823 0.08759108
000310 04 9e 19 bd b6 95 e3 bd b0 d9 35 3e c4 57 e1 bc
       -0.03750421 -0.111125395 0.17758822 -0.02750767
000320 de b3 ad 3d 60 78 6f bc 35 f1 2a 3e 95 c9 13 bd
       0.084815726 -0.014616102 0.16693576 -0.036080915
000330 85 52 04 3e f2 98 1d be 09 8a 33 be 3d 41 a7 3c
       0.12922104 -0.15390375 -0.17533125 0.02041685
000340 1c 2e 1a 3e f9 a4 18 be 2d 06 ee 3d 28 ff e3 3b
       0.15056652 -0.14906682 0.11622272 0.006957907
000350 fc 80 4d be 46 3b 1a be 0b 3b 69 bd 1c f1 19 bb
       -0.20068735 -0.15061674 -0.056941073 -0.002348966
000360 6b ec ae 3d 99 88 39 3e 89 d2 2f 3e 00 2a 2c be
       0.08541187 0.18118514 0.17170157 -0.16812897
000370 d5 41 c3 3d 53 25 80 bd 0b bd 88 bc 1e c3 33 3e
       0.09534041 -0.06257119 -0.016691705 0.175549
000380 69 69 27 bd 9b f5 b3 bd 14 e9 e2 3d 03 77 c2 3b
       -0.04087201 -0.0878708 0.110796124 0.0059345975
000390 34 7c 35 3d 22 ea 52 3c 61 ff 3f 3e ad c5 2a 3e
       0.044307902 0.012873204 0.18749763 0.1667697
0003a0 be 77 ab 3d cb b2 1a 3d 51 31 af 3d c5 90 61 bd
       0.083724484 0.037768167 0.08554328 -0.055069704
0003b0 2d 4f 10 3e bb 28 49 3e 41 be 46 3e f9 15 9d bd
       0.14092703 0.19644444 0.19408514 -0.076702066
0003c0 fc 39 a3 bd e0 4c 30 3e ef ac 29 3e df 58 ea 3d
       -0.07970044 0.17216825 0.16569875 0.11442732
0003d0 73 71 30 3e 84 a4 3a 3e 71 91 d2 bd 04 b0 21 be
       0.17230777 0.1822682 -0.10281647 -0.15789801
0003e0 11 b0 53 3b 1a e1 f4 3d 18 23 c1 bd ac 16 0b be
       0.0032300989 0.11956997 -0.09430522 -0.13582867
0003f0 d7 ce 4b be 1b c2 8a 3c 96 4a 1f 3c 21 32 05 be
       -0.19903122 0.01693826 0.0097223725 -0.13007404

model.backbone.W_P.bias f4 [16]
000000 6d 41 96 bd 24 05 5c 3c e0 a8 16 3d d0 ea 79 bd
       -0.07336698 0.01342896 0.036782146 -0.06101495
000010 00 66 0f 3e 4e 9b 8f bd db 30 fd 3c 8e 32 18 be
       0.14003754 -0.07012044 0.030907085 -0.14863035
000020 96 33 83 bd e0 01 27 3e 79 ee 7a bc 4e d9 c4 3d
       -0.064063236 0.16309309 -0.015315645 0.0961176
000030 95 05 dc 3c 39 54 18 3e bc 6b f4 bd 39 8f 21 3d
       0.02685813 0.14875878 -0.11934611 0.03944323

model.backbone.encoder.layers.0.self_attn.W_Q.weight f4 [16, 16]
000000 5e f7 3c be e4 df 7e bd f2 42 56 3e d2 b9 2e 3d
       -0.18453738 -0.062225237 0.20923975 0.04265768
000010 24 93 05 3e 88 fe 58 bd 5e ab 08 3e 65 e1 56 3d
       0.13044411 -0.052977115 0.13346621 0.052461047
000020 90 28 3b be fc fc 5a 3e f3 59 71 be 7f 61 30 3e
       -0.18277192 0.21385568 -0.23569469 0.17224692
000030 f7 c7 33 be 62 e8 65 3e 21 f5 d8 3d 04 59 6a 3e
       -0.1755675 0.22451928 0.1059363 0.2288552
000040 49 7c 58 3e 57 94 69 3d d5 a4 74 3e 33 c5 10 be
       0.21141161 0.057026234 0.23891003 -0.14137726
000050 49 ef 3f be 41 48 4d be 1e b8 21 be fa 61 e3 3d
       -0.18743624 -0.20047094 -0.15792891 0.11102672
000060 41 d6 01 3e 98 f6 80 be 3b 87 3c be 4d 38 10 3e
       0.12679388 -0.25188136 -0.18410961 0.14083977
000070 2d 2d 62 3e 2f 35 12 3e 86 c0 8d 3d 6d ee c1 bd
       0.22087546 0.142781 0.069214866 -0.09469304
000080 01 35 21 3d 47 11 32 3e fc e6 5a be 58 41 c2 bd
       0.03935719 0.17389403 -0.21377176 -0.094851196
000090 4c 3b 58 3c 0a 70 80 be 3a 4e 5c 3c 74 46 41 3d
       0.013197731 -0.2508548 0.013446385 0.04718633
0000a0 b4 ae 8d 3d a9 47 01 be 85 ff 1b 3e 79 0f 65 be
       0.069180876 -0.12624992 0.15234192 -0.22369184
0000b0 e7 d9 7d be d1 2c ce 3c a7 f3 17 3e e0 32 44 bc
       -0.24790154 0.025167855 0.1483904 -0.01197502
0000c0 20 a9 44 3e 84 d9 ca 3d 50 d9 fe 3d 5f db 8a bd
       0.19205141 0.09904769 0.12443793 -0.06780123
0000d0 8d 15 40 3e cc 9a 59 be e9 e1 f8 bd cc 1f ab bd
       0.18758221 -0.21250457 -0.12152464 -0.08355674
0000e0 01 0d 07 3e 8d 5a 78 3e 9d b4 2b be 80 c5 28 3e
       0.13188554 0.24253292 -0.16768117 0.1648159
0000f0 27 3f eb bd d7 d8 96 3d 57 b8 23 3e 2e 3a 87 3d
       -0.11486655 0.07365578 0.15988289 0.06602894
000100 94 a5 24 bc 1e 47 f6 3b a2 27 fd bc 2a b2 6b be
       -0.0100492425 0.007515802 -0.030902687 -0.23017183
000110 3b 37 10 3d 3e e6 dd bb cb 55 86 3e c7 1f 51 be
       0.035208922 -0.006771832 0.2623733 -0.20422278
000120 cc bd 55 3e bc 4d 66 3e f5 67 64 be 65 8b 38 bd
       0.20873183 0.22490591 -0.22305281 -0.045054812
000130 9b 26 bc 3d 1d d0 db 3d 4d 07 e5 bd f8 f9 33 be
       0.09187051 0.10733054 -0.11183033 -0.17575824
000140 a1 42 e6 bd 52 d2 92 bd 62 f0 f2 3d 84 02 db 3b
       -0.11243177 -0.07169022 0.11862256 0.0066836495
000150 83 7d a6 3d 61 75 82 bc 87 a4 01 3d b4 c9 ca 3d
       0.08129408 -0.015925111 0.031651046 0.09901753
000160 e6 ca 41 be 5a d5 16 be 44 75 64 be ba 5f f7 bd
       -0.18925056 -0.14729825 -0.22310358 -0.12078805
000170 b7 17 56 be 9c ae 8c be a2 57 84 3e 04 64 e4 bd
       -0.20907484 -0.27476966 0.2584811 -0.11151889
000180 71 e3 d9 3b 0f d5 17 be e0 21 16 3c 8f f1 55 be
       0.0066494276 -0.14827369 0.00916335 -0.20892929
000190 ba 12 90 bd ed 03 23 bd 55 f9 4d 3d 28 60 11 3c
       -0.07034822 -0.039798666 0.05028661 0.008873023
0001a0 30 45 12 3e 3c ef cb bc 35 05 da bd 88 82 63 3e
       0.14284205 -0.02489435 -0.106455244 0.22217762
0001b0 63 11 7a bd 9c 51 44 3e fd 74 33 be 8c d4 21 be
       -0.061051738 0.19171757 -0.17525096 -0.15803736
0001c0 6f 42 49 be 1e f2 0d be f8 cc 5a bb 29 1e 4c 3e
       -0.19654249 -0.13861892 -0.003338633 0.1993338
0001d0 43 56 57 be 72 af 8b 3d 4f d1 42 3e 09 65 65 3e
       -0.21029 0.06820573 0.19025157 0.22401823
0001e0 2d 36 6d 3d a1 12 e5 bd 93 6f 60 be 62 64 0a 3d
       0.057912994 -0.11185194 -0.21917562 0.03378714
0001f0 f5 3c f1 3d 0d ea db 3b 28 7b f1 3d 1c e2 53 3e
       0.11779205 0.0067112506 0.11791068 0.20691723
000200 ce e3 a3 bb 53 51 23 be be fa 03 bd 9e f5 6f bd
       -0.0050015217 -0.15948991 -0.03222155 -0.05858385
000210 a9 1d e7 3d b1 75 ed 3d 81 84 60 bb 00 db ff 3d
       0.11284954 0.115947135 -0.0034258666 0.12492943
000220 7e 15 76 be 49 5d 44 be 1b ad e5 3c 92 5d 3a 3d
       -0.24031636 -0.1917621 0.028036645 0.04549939
000230 59 79 49 3e 59 bd 2e bc d1 dc 0b be 56 40 91 bd
       0.19675197 -0.010665261 -0.13658454 -0.07092349
000240 b5 bc 43 be 0b 92 0e be b0 ad 8f bd ae 7d 07 3e
       -0.19114955 -0.13922898 -0.0701555 0.13231537
000250 c6 a4 89 3e b7 20 76 3d b8 f8 48 be 59 49 65 be
       0.26883525 0.060089793 -0.19626129 -0.22391261
000260 eb ce b1 bd bd c2 4c be cd fe 32 be 2f a7 65 be
       -0.086820446 -0.19996162 -0.17480011 -0.22427057
000270 74 9c 71 3d 09 1c 3b 3d 60 60 11 bd 4b 45 2d 3d
       0.058987096 0.045681033 -0.0354923 0.04230241
000280 2e e3 9b 3c 44 72 82 3d a1 8e 07 3d b3 6d 5b bd
       0.019029226 0.06369451 0.033095006 -0.053571414
000290 19 7b 06 3b f9 de 59 be 03 3d 4b be 37 5b 16 be
       0.002052015 -0.21276464 -0.19847493 -0.14683233
0002a0 04 1f 3c 3e 41 15 45 3e 9a fc 44 be 7c c0 c9 3d
       0.18371207 0.19246389 -0.19236985 0.098511666
0002b0 09 05 7e bc 87 2e 97 3d 82 4a 4f be b2 0a 67 be
       -0.01550413 0.07381921 -0.20243266 -0.22562674
0002c0 7b c4 f5 bd d5 43 a3 3d 76 ca 90 3d 81 2d bb bc
       -0.12000366 0.07971922 0.07069866 -0.022848846
0002d0 c9 79 c8 bd f6 7f 84 b7 d4 dc de bd 90 f5 9c 3d
       -0.09788854 -1.5795213e-05 -0.10881963 0.07664025
0002e0 64 ac 91 3d 62 36 f4 bd f8 49 d8 3d a4 78 8f bd
       0.07112959 -0.11924435 0.105609834 -0.07005432
0002f0 1e 86 b1 3d 66 41 92 3d 64 a5 64 3e 51 71 24 3e
       0.08668159 0.0714138 0.22328717 0.16058852
000300 0c 70 4a be aa 91 87 3d e4 6a 3c bd b9 05 07 be
       -0.19769305 0.0661958 -0.046000376 -0.13185777
000310 c4 c7 81 be d4 93 62 3e 50 04 5b be eb 64 21 3e
       -0.25347722 0.22126704 -0.21388364 0.15761153
000320 8a f8 ca 3d 98 c1 f7 bd 00 83 f8 bd b2 4d e7 3d
       0.09910686 -0.12097472 -0.12134361 0.11294116
000330 60 aa aa 3d 1a ee 55 bd 30 81 66 bd 84 dd e4 bd
       0.08333278 -0.052229024 -0.056275547 -0.11175063
000340 66 36 64 bc dd 29 77 be 64 83 9e bd 09 5f 28 be
       -0.013928985 -0.24137063 -0.077399045 -0.16442503
000350 c4 6b 22 be 7b b4 9a 3d 31 6a 33 be ce fa 9b bd
       -0.15861422 0.07553955 -0.17520978 -0.076161966
000360 4e aa a7 3d 47 9b 11 3e ac fe ed bc ae b4 66 be
       0.0818678 0.1421939 -0.029052101 -0.22529861
000370 8c ec ab 3c 24 b1 0f be f7 2b 54 be 4f ad f1 3d
       0.020986818 -0.14032418 -0.20719896 0.11800634
000380 80 cf 4b 3e 5e bd 15 3e 02 d3 6a be 63 9a 1c be
       0.19903374 0.14623019 -0.22932056 -0.15293269
000390 f9 52 14 be 20 3a 18 3e cf 6f 86 3e 13 16 42 be
       -0.14484777 0.14865923 0.26257178 -0.18953733
0003a0 f0 a1 0b be 8e 79 86 3e 47 17 13 3e cb 82 74 3c
       -0.13635993 0.26264614 0.14364348 0.014923762
0003b0 57 aa 6c 3e 20 cd 3e 3e 9f d8 6c be 1b 75 19 be
       0.23111854 0.18632936 -0.2312951 -0.14986078
0003c0 03 b3 6d 3d 9f 94 55 3e 02 4e 73 ba 61 96 98 bc
       0.058032047 0.20857476 -0.00092813384 -0.018626394
0003d0 86 3a 30 3e 92 af 32 be 36 64 68 be 4d cf d5 3d
       0.17209825 -0.17449787 -0.22694477 0.1043993
0003e0 f4 4b f4 bd 4b 19 57 be f4 b7 50 be 09 bd a6 bd
       -0.119285494 -0.21005742 -0.20382673 -0.08141524
0003f0 79 a6 57 bc 6e 81 41 3c 8f 09 4e be f6 c8 60 3e
       -0.013162249 0.011810644 -0.20120834 0.2195166

model.backbone.encoder.layers.0.self_attn.W_Q.bias f4 [16]
000000 bb d1 ec 3d c0 5d 74 3e a0 ea 41 be dc 9c 3b 3e
       0.115634404 0.23863888 -0.18937159 0.18321556
000010 d8 96 79 3d 3a 8a 33 be 24 84 1c 3c 64 c2 31 3e
       0.06093487 -0.17533198 0.009552989 0.1735931
000020 2a c5 12 be 9f 9a 30 3e be 21 0c be ff 2f 8a be
       -0.14333025 0.17246483 -0.13684747 -0.26989743
000030 31 cf 67 3e 63 0f 89 bc 4f 52 4c be 9a ce 25 3e
       0.22637631 -0.01673097 -0.19953273 0.16192093

model.backbone.encoder.layers.0.self_attn.W_K.weight f4 [16, 16]
000000 c7 1c f2 3d d0 28 a4 bd 92 66 81 3e f6 a5 6b be
       0.11821895 -0.08015597 0.25273567 -0.23012528
000010 5a 30 1d 3e 06 70 92 3c 7f 7d 66 3e e4 cd 30 be
       0.15350476 0.017875683 0.2250881 -0.17266041
000020 c4 c7 92 b7 9b 6e 6b be cf 87 60 be 47 87 5b 3c
       -1.749758e-05 -0.22991411 -0.21926807 0.013398952
000030 7f 61 33 3e 2f 08 fd 3d 4f ae 33 be 68 f6 2c 3d
       0.1751766 0.123550765 -0.17546962 0.04222718
000040 c4 89 0e be 80 25 fd 3a a5 47 e4 bd b4 50 87 bd
       -0.13919741 0.0019313544 -0.111464776 -0.0660719
000050 86 de fa 3d 42 de 33 3e ef 72 d5 bc 11 d4 e3 3d
       0.12249474 0.17565253 -0.026055781 0.11124433
000060 60 7d 50 3e 41 63 67 be 28 d6 8a bd 76 29 f8 3c
       0.20360327 -0.22596456 -0.06779128 0.030293208
000070 8f bd e0 bd df 21 3a be 74 45 8f 3c 73 9c 63 3d
       -0.109736554 -0.18176983 0.017489173 0.055569123
000080 78 86 4d 3e 47 e6 59 be 0a 8a e5 bd d0 6e 8e 3d
       0.20070827 -0.2127925 -0.112079695 0.069547296
000090 f6 07 23 3e 59 35 80 be 6b 84 d6 3d f5 4e 81 3e
       0.15921006 -0.250407 0.104744755 0.25255552
0000a0 52 c4 dc 3c 68 9c 4f 3d 1c 50 6b 3d 1c 39 8d bd
       0.026949082 0.05068627 0.057449445 -0.068956584
0000b0 5b 00 b0 3d ba 21 f5 3d 7d 21 39 3c c4 39 ec bd
       0.08593818 0.119693235 0.011299488 -0.115344554
0000c0 e1 02 14 3e 8f 65 04 3e a8 df 61 be 47 97 fa bc
       0.14454223 0.12929367 -0.22057974 -0.030589713
0000d0 6b 73 33 be 1c ef 1b bd be 56 4f 3d 91 f2 5e bd
       -0.17524497 -0.03806983 0.050619833 -0.054430548
0000e0 bd 55 8c 3e e4 b5 48 3e e3 6f ba bb bc b7 5d 3e
       0.27409163 0.19600636 -0.0056896075 0.2165212
0000f0 b9 03 71 bd 44 7d a4 bc 90 0e f8 bd 7d 45 08 3e
       -0.05884144 -0.020079263 -0.121121526 0.13307758
000100 ec ba 5c be b0 fb 33 be 95 68 2f be 07 21 04 3e
       -0.2155568 -0.1757648 -0.17129739 0.12903224
000110 c9 8d 5d bc 0c 51 56 be 75 0f 16 3e e3 a5 2c 3e
       -0.013522574 -0.20929354 0.14654334 0.16860156
000120 66 cf 40 3e 2b de 3c 3d 0f 3e 74 bd 1d 1a 7e be
       0.18829116 0.046110313 -0.059629496 -0.24814649
000130 24 6b f9 3c 98 7b 85 3e 85 2a b6 bd c8 67 7a be
       0.030446596 0.26070857 -0.08894829 -0.24453652
000140 cf c8 15 be 2c 95 86 3d 04 36 0a be f5 6e 2f 3e
       -0.14627384 0.06571421 -0.13497168 0.1713217
000150 c4 e4 07 3e 1b 4a ea 3d 62 87 ad bd 2d dc 9f bd
       0.13270861 0.11439916 -0.08473088 -0.07805667
000160 dd 07 40 be 91 40 22 3d b1 bc 64 3e f5 de 58 3e
       -0.18753 0.039612357 0.22337605 0.21178801
000170 7c b8 3b 3e a6 de 78 be 3c 21 17 3e b9 d7 12 3e
       0.18332094 -0.24303684 0.14758772 0.14340104
000180 c9 fc 5b 3e f8 21 2f be cd 9f 4a 3e b9 8a 3b bc
       0.21483149 -0.17102802 0.19787522 -0.011446648
000190 8d 8e ff 3c a4 37 24 be b2 c9 18 3d 9e 42 b3 3d
       0.031195903 -0.1603685 0.037301727 0.087529406
0001a0 f2 9d f0 bc 0f 4c 11 be af 74 ed bd 4e 2a 20 3c
       -0.02937219 -0.1418917 -0.11594521 0.009775711
0001b0 86 de 34 bd 63 7e 4f 3d 4b 16 aa bd db 2a 68 3e
       -0.044157527 0.05065764 -0.08305033 0.22672598
0001c0 77 d1 2d 3d cc 40 19 be 5f 68 03 be 19 73 08 be
       0.04243609 -0.14966124 -0.12832783 -0.13325156
0001d0 cd 6e 42 3e e6 7f 5b be bf e8 5b 3e 56 45 09 3e
       0.1898758 -0.21435508 0.21475504 0.13405356
0001e0 8b 8f 5e 3d e2 37 1b 3d 8e d9 53 be 83 9c ff 3d
       0.054336112 0.03789509 -0.2068846 0.12481024
0001f0 99 c7 3b be 68 fb 3d 3e 98 93 57 be a9 b7 45 3e
       -0.18337859 0.18552935 -0.21052396 0.19308342
000200 f3 0a 83 3e c5 51 13 3e 45 72 74 be c5 b1 6b 3e
       0.2559429 0.14386661 -0.23871715 0.23017032
000210 86 38 12 be 7e e6 65 3c 33 c2 5c 3e 0d 19 9e bd
       -0.14279374 0.014032004 0.21558456 -0.07719622
000220 f1 77 ce 3d e6 71 71 3d 70 e6 3f 3e 43 0c 0a be
       0.10081471 0.058946513 0.18740249 -0.1348124
000230 7f a9 ba 3d ea cb 19 3e 9b bc a9 bd 17 cd 14 3e
       0.0911436 0.15019193 -0.08287927 0.1453136
000240 e0 42 46 bd f5 be 17 3e 14 28 a3 bd 7a b9 0c 3e
       -0.04840362 0.14818938 -0.07966629 0.13742629
000250 e5 5b 8c 3e 8d ce 45 3e a8 81 31 3e 4f ab 83 3e
       0.2741386 0.19317074 0.17334616 0.25716636
000260 53 b7 86 3b 11 56 79 3e 8d 9c 6b 3e d5 ee 42 bd
       0.0041112094 0.24349238 0.23008938 -0.04759105
000270 31 a4 52 3e df 8b 39 bd de cf 51 be a8 ea 38 be
       0.20570447 -0.045299407 -0.20489451 -0.18058264
000280 37 0a 53 be 3e cb cc 3d 95 9b 5c 3e 4b d9 50 3d
       -0.20609365 0.09999703 0.21543725 0.050988477
000290 7f be 22 3e 95 2d 44 be e6 7f ac bc 5b 51 1a 3e
       0.15892981 -0.19158013 -0.02105708 0.15070097
0002a0 0e 2e a3 bd 4e 1b d4 3d 75 80 f6 bd 61 04 3f 3e
       -0.079677686 0.103567705 -0.1203622 0.18654014
0002b0 92 5a 40 be 37 d8 f2 3d eb 6d 6c bd 72 c0 aa 3d
       -0.1878455 0.11857646 -0.057722013 0.08337487
0002c0 d3 02 71 3e 12 32 8d bd bc 59 87 be 75 3a c5 bc
       0.23536234 -0.06894316 -0.2643565 -0.024075726
0002d0 da 43 89 be 2c c8 0e 3e 1b 9a 89 3d 44 2f c6 bc
       -0.2680958 0.13943547 0.067188464 -0.02419246
0002e0 d3 c2 a3 bd 75 57 b5 bc df 17 48 3e df e4 39 bd
       -0.07996144 -0.02213643 0.19540356 -0.045384284
0002f0 af b2 33 3e 9b c0 55 be 85 1c 75 be 60 e5 32 be
       0.17548631 -0.20874254 -0.2393666 -0.17470312
000300 7f 4e 1e 3e 7c 03 9f bd 3b 9f cb bd 7d de d7 3c
       0.15459631 -0.077643365 -0.0994248 0.026351208
000310 ba c7 75 3e 2f f2 15 be cf e0 d4 bd 25 62 90 3d
       0.24001971 -0.14643167 -0.10394441 0.070499696
000320 ea 4c 1b 3e 49 83 77 3d 63 a8 62 be 10 af 4c be
       0.15166059 0.060427938 -0.22134547 -0.19988656
000330 14 aa 21 38 bb bc de 3d fa 59 d1 3c 1c 21 41 be
       3.854379e-05 0.10875841 0.0255556 -0.18860286
000340 3d e7 94 3d ac 49 89 bc 12 e6 9c 3d 74 b6 19 be
       0.07270668 -0.016758762 0.0766107 -0.15011007
000350 14 cd ef bd c0 b9 08 bd b3 83 3f 3c c3 27 d9 3d
       -0.117090374 -0.03338027 0.011689114 0.10603287
000360 92 75 24 be 50 16 61 3d b9 5f 1f 3e dd a7 bb 3c
       -0.16060475 0.05495292 0.15563859 0.022907192
000370 2c 72 8f bc 26 07 46 3e 48 6d 58 3e b0 62 47 3e
       -0.017510496 0.19338664 0.21135437 0.1947124
000380 f5 b9 f6 bd 7c 7c 16 3e 8f 71 76 3d 9c 47 07 3e
       -0.12047187 0.14695925 0.06016689 0.1321091
000390 ab 2b 8b 3d 6d 72 80 bd 0e 41 f3 3c 05 b6 41 3e
       0.067954384 -0.06271825 0.029694106 0.18917091
0003a0 8f 96 73 be ea 5d 7d be 13 ce 3a be 14 a7 b3 bb
       -0.23787902 -0.24742857 -0.18242674 -0.0054825637
0003b0 fd 75 b3 bd 64 53 ab 3d ef af 11 3e 0e 0a e7 3d
       -0.08762739 0.08365515 0.1422727 0.11281215
0003c0 0b 66 28 3d 67 8b 03 3c 49 64 1f be 21 fd 8e 3c
       0.04111294 0.008028842 -0.155656 0.017454686
0003d0 cd 32 11 3e 59 26 eb 3d e0 25 bd bd d5 a9 a4 3d
       0.14179535 0.114819236 -0.0923574 0.080402054
0003e0 8a 4c 71 be 24 6b 5b 3e 85 68 d3 3d e8 4c 19 bc
       -0.23564354 0.2142759 0.1032267 -0.009356715
0003f0 87 d4 0f be f6 be 4b 3e 23 09 64 be 78 27 59 3e
       -0.14045916 0.19897065 -0.2226911 0.21206462

model.backbone.encoder.layers.0.self_attn.W_K.bias f4 [16]
000000 fd a9 88 bd 13 51 ca 3d 83 44 22 be f6 fa ce bb
       -0.06673048 0.09878745 -0.15846448 -0.006316538
000010 d3 14 22 3d 94 5a 61 3e fa 0c e2 bd 56 9b 50 be
       0.03957064 0.22007209 -0.11037631 -0.20371756
000020 57 f0 69 bd 9d 1e c3 bd 9f 90 0d be 63 ca 84 bd
       -0.05711397 -0.095273234 -0.138247 -0.06483915
000030 4f 25 eb bd 9e fe f4 3d 18 b9 84 bd 68 30 cd 3d
       -0.114817254 0.11962627 -0.06480616 0.100189984

model.backbone.encoder.layers.0.self_attn.W_V.weight f4 [16, 16]
000000 71 34 fe 3d 53 88 93 3d 93 e3 fc bd 46 33 b4 bd
       0.12412346 0.07203736 -0.12348094 -0.08798842
000010 06 f6 30 bc 0e 78 75 bc f4 ac 72 3e 24 85 67 3e
       -0.010800844 -0.014982237 0.23698789 0.22609383
000020 3e bb 66 be e6 34 5d 3b c9 e3 ef bd ed fc 13 3e
       -0.22532365 0.0033753454 -0.117133684 0.14451952
000030 be 89 41 be 13 8e 65 bd e0 a7 34 3e 77 ab 22 be
       -0.189002 -0.056043696 0.17642164 -0.15885721
000040 d7 a7 30 3e 5e af 1d be 41 d5 6f 3e 41 fc 87 3d
       0.17251526 -0.15398929 0.23421194 0.066399105
000050 24 6a 25 bd e4 af 3e 3c a7 e9 db 3d 60 57 18 be
       -0.040384427 0.011638615 0.10737925 -0.14877081
000060 5a 04 5d 3e 2e f2 21 3e 7e b7 50 be 9f 13 b9 3d
       0.21583691 0.1581504 -0.20382497 0.090369456
000070 38 48 6b 3e 64 93 a5 bd 48 f8 64 3e e3 56 09 be
       0.22976768 -0.08084753 0.22360337 -0.13412051
000080 b7 02 57 be 3e 2f 4e be 7a 66 c1 3d 47 e9 55 3e
       -0.2099713 -0.20135209 0.09443374 0.2088977
000090 e3 af 30 3e 1e af f4 bc 51 3b 3c 3e 45 c0 b0 3d
       0.17254595 -0.029868659 0.18382002 0.086304225
0000a0 08 ef 36 be bd 11 a4 3d b2 3f 15 bd 6b ed 1b 3e
       -0.1786462 0.08011196 -0.036437698 0.15227287
0000b0 5b c1 72 3e c5 97 0f bd 6f df d4 3d 11 37 69 be
       0.23706572 -0.035056848 0.10394179 -0.22774912
0000c0 77 de 1d bd ed 6e da bd 30 64 60 bc 08 e4 2b be
       -0.038542237 -0.10665689 -0.013695762 -0.16786206
0000d0 a6 8b 61 3d 03 22 2a 3e e5 7d 51 be 13 a3 62 3e
       0.05506482 0.16614537 -0.20458181 0.2213252
0000e0 34 13 b4 3d 44 03 ed bd e8 c3 92 3b de 9e 1b be
       0.08792725 -0.115728885 0.0044789203 -0.15197322
0000f0 52 d9 6b 3e 19 16 3f be 93 1e 6b 3e 50 20 f8 bd
       0.2303212 -0.18660773 0.22960882 -0.12115538
000100 47 a1 96 3d 05 2b 1b be 32 6d 17 3d 81 38 c0 3d
       0.0735498 -0.1515313 0.03696937 0.09385777
000110 9a ff 78 3b f1 f5 d8 3d 90 2e f4 bd 87 f4 e8 bd
       0.0037994147 0.105937846 -0.119229436 -0.11374765
000120 d3 45 4a be 36 81 4d be c5 0f 96 bd b1 70 43 3c
       -0.19753198 -0.20068821 -0.073272265 0.011928723
000130 99 fa 73 bc ba e8 98 bd b4 d0 3f be 21 13 93 bc
       -0.01489129 -0.07466264 -0.18731958 -0.017953457
000140 8a 12 2f 3e 02 4f ce bd 34 a9 2f be 50 00 46 3d
       0.17096916 -0.10073663 -0.1715439 0.04834014
000150 cc 90 14 be db 93 4d bd a4 a8 24 3d 86 9a cb 3c
       -0.1450836 -0.050189834 0.04019989 0.024853956
000160 96 b6 67 3e fd 83 0a 3e a9 de 58 be 67 b5 37 3d
       0.22628245 0.13526912 -0.21178688 0.044850733
000170 b6 1e a8 3c 62 f6 8b 3d 9a 3a 14 3e 29 21 32 3e
       0.020522457 0.06834103 0.1447548 0.17395462
000180 2b c9 fb bd 6a 3e 23 3e 5b f3 a1 3d f7 c2 45 3c
       -0.12294229 0.15941778 0.079077445 0.012070409
000190 95 89 e8 3d 09 0e 23 3e 86 9e 24 be 53 49 01 be
       0.11354367 0.15923323 -0.16076097 -0.12625627
0001a0 51 af fb 3d 5b c5 4e 3e 24 e6 e2 bd 4d 36 19 be
       0.12289298 0.20192473 -0.11079052 -0.1496212
0001b0 02 eb 64 be e5 d5 a6 bd e2 0f 3d bc 75 cc 1f be
       -0.22355273 -0.08146266 -0.011539431 -0.15605338
0001c0 b1 d5 68 bd c1 9f 8c bd 5a ad 3c 3d 6b 89 0f 3e
       -0.056844417 -0.06866408 0.04606376 0.14017265
0001d0 6e 6b 3c 3e bb 77 ec 3d 33 b2 63 be f6 d2 db 3d
       0.18400356 0.11546274 -0.22235946 0.10733597
0001e0 47 20 f7 3c 25 55 48 3e ce 8a 09 bc f7 d0 17 3d
       0.030166758 0.1956373 -0.00839491 0.03706452
0001f0 60 5b 45 be 7f 35 db bd 3e 89 16 be 5f 5c 14 be
       -0.19273138 -0.10703563 -0.14700791 -0.14488362
000200 1b dd 66 3d a7 2c 68 bd 78 de 33 3e c5 a4 74 3d
       0.056363206 -0.05668321 0.17565334 0.05972745
000210 62 da 61 be 6a 52 3b bc 31 38 21 be 44 c1 3e be
       -0.22055963 -0.011433223 -0.15744092 -0.18628412
000220 58 1c a2 bd cc 84 e0 bc 61 cb a3 bc c5 de 30 be
       -0.079155624 -0.027407072 -0.01999444 -0.1727248
000230 ab 4d 3d be 6f 5e 3d 3d 8f bc 0c be ab 09 18 be
       -0.18486659 0.046232637 -0.13743804 -0.14847438
000240 33 ce 3a be 2a ec 76 be a7 3d d2 bc 22 8a 15 3e
       -0.18242721 -0.24113527 -0.025664164 0.14603475
000250 6a 13 b1 bd 6f 71 56 bd ef a7 b2 bd 6a 96 58 bd
       -0.08646281 -0.052354272 -0.08723437 -0.05287782
000260 f5 ca 7c be 01 70 6a be 79 3d 2c be 79 71 87 3b
       -0.24686797 -0.22894289 -0.16820325 0.0041334
000270 1d f2 24 be 6a 7d a6 3d 56 74 9c bd 50 84 49 3e
       -0.16107984 0.081293896 -0.07639377 0.1967938
000280 96 b1 ad 3d 22 6d 55 3d 08 9b 99 bd 51 ba 70 be
       0.084811375 0.05210603 -0.07500273 -0.23508574
000290 9c d5 34 be 0b f9 5b be 85 81 0e 3e c8 02 fc bd
       -0.1765961 -0.21481721 0.13916595 -0.12305218
0002a0 6b 96 8a 3d 08 b5 4e 3e 9f 77 59 3e 8e bc 9e 3d
       0.06766971 0.20186245 0.21237038 0.07750808
0002b0 c1 7f 28 3e cf 90 41 be ff a1 ab bd 76 65 40 be
       0.16454984 -0.18902896 -0.08380508 -0.18788704
0002c0 36 71 1d 3e 4d f3 cd bc 2f 98 47 3e 1b fa bd 3d
       0.15375218 -0.025140429 0.19491647 0.092762195
0002d0 43 ed ea 3d e1 01 81 be 67 53 06 3e 4f 65 c7 3d
       0.11471035 -0.25196746 0.13117753 0.0973612
0002e0 7e 93 85 be ce 49 3e be 45 0b 95 bd 4e 5f 68 ba
       -0.2608909 -0.18582842 -0.0727754 -0.0008864299
0002f0 4c f1 39 3e 53 ce 28 be 10 91 82 be 64 75 ce bd
       0.18158454 -0.16484956 -0.255013 -0.10080984
000300 8d fc c1 bd b2 e4 2e be fa e0 20 bd 80 3a d5 3d
       -0.09471998 -0.17079428 -0.039277054 0.104115486
000310 2e b9 47 3e 03 15 f6 bd 65 89 88 bd 35 19 26 be
       0.19504234 -0.120157264 -0.06666831 -0.16220553
000320 94 f8 34 be 4e 2d 5a 3e 6d 70 95 bd 23 e7 72 be
       -0.1767295 0.21306345 -0.07296834 -0.23720984
000330 88 f9 c9 3d 78 a7 2a bd 29 72 f6 bd 35 0e fb bd
       0.098620474 -0.041663617 -0.12033493 -0.12258569
000340 67 3b 4f be 7b 6a 1c be b0 83 82 be bb 2a 03 3e
       -0.20237504 -0.15274994 -0.25491095 0.12809269
000350 3e 7c 0b 3e 69 ac 3c be 65 2f c1 3d 23 3d 69 3e
       0.13621613 -0.18425144 0.09432868 0.22777228
000360 be 4c 13 be 86 ee 60 be 2d 42 73 be f7 e7 5b bd
       -0.14384744 -0.2196599 -0.23755713 -0.053688016
000370 2d cb 63 3e ad a7 6f bd a0 7a 74 3e 36 a7 48 3e
       0.22245474 -0.058509517 0.23874903 0.19595036
000380 71 87 d7 3d 65 7f 60 3d 8b b6 05 bd 73 ca aa 3d
       0.1052388 0.054808993 -0.03264479 0.083393954
000390 f7 02 65 be 76 9d 67 be e6 7d 5a 3d b4 72 96 bd
       -0.22364412 -0.2261866 0.053342722 -0.07346097
0003a0 87 05 3b be e3 44 5f bd e1 64 09 3e f9 74 32 3e
       -0.18263827 -0.054509055 0.13417388 0.17427434
0003b0 84 7b d1 3d 8f 4e f9 3b 09 10 fb bd cc 8f 6a 3e
       0.10228637 0.007608242 -0.12258918 0.22906417
0003c0 12 60 06 3e 61 b2 88 bd 3e 78 2f 3c 16 2d a1 bc
       0.13122585 -0.06674648 0.01070982 -0.019674819
0003d0 49 da 30 bd ef fc 68 3e 22 00 13 3e 7a c8 83 3e
       -0.043176923 0.22752737 0.1435552 0.2573889
0003e0 f1 37 28 bd 78 34 c9 3c 4c a9 bc 3d 40 cf 27 be
       -0.041068975 0.024561152 0.09211978 -0.16387653
0003f0 91 48 77 3e 31 e8 fd bd 9a 47 8c bd 67 fa 0d bd
       0.24148776 -0.123978026 -0.068495944 -0.03466263

model.backbone.encoder.layers.0.self_attn.W_V.bias f4 [16]
000000 06 8f 51 bd 15 69 32 bd a3 55 9e bd 4c 6d 17 3e
       -0.05116179 -0.043557245 -0.07731178 0.14787787
000010 96 3e 54 3d 39 7a 20 3e 3c 80 a8 3d 5e 6e 49 be
       0.0518175 0.15671624 0.08227584 -0.19671008
000020 2c 7f 6c bd 97 1a b3 3d ff d1 11 be 67 e8 0e be
       -0.057738468 0.08745306 -0.14240263 -0.13955842
000030 5a 8f 87 3e 3a 90 43 3e 53 49 05 be f5 e7 25 3e
       0.26476556 0.19097987 -0.13016252 0.16201766

model.backbone.encoder.layers.0.self_attn.to_out.0.weight f4 [16, 16]
000000 3c af 24 be d3 dd de 3c 77 86 f3 3d bb 53 ef 3d
       -0.16082472 0.027205383 0.118908815 0.11685892
000010 5d 05 f5 bb fd 5b 56 3e 1f ca ec bd 41 c3 88 be
       -0.007477446 0.20933528 -0.11561989 -0.26711467
000020 09 31 60 3e 87 54 49 3e a3 d4 50 3e 7b aa d2 3d
       0.21893705 0.19661151 0.20393614 0.10286423
000030 12 29 e0 3d 97 5d e8 3d 7b 0e be bd 5e e2 33 be
       0.109453335 0.11345976 -0.09280106 -0.17566821
000040 be 83 fa bc c3 92 56 be 1a dd b9 bd c6 4c 74 3d
       -0.030580398 -0.20954423 -0.09075375 0.05964353
000050 68 30 75 bd dc 19 04 be 38 63 b4 bd a4 bf b3 bd
       -0.059860617 -0.1290049 -0.08807987 -0.08776787
000060 a0 69 49 3e 2c 6a 20 be 55 55 8c 3c 62 18 8e 3c
       0.19669199 -0.15665501 0.017130533 0.017345611
000070 81 e5 78 bd 80 83 57 3d 9b 83 85 3e 1d 6c 2f be
       -0.060765747 0.052615643 0.2607697 -0.17131086
000080 d0 96 36 be 11 5a 6b be 11 71 49 3c 1c 33 45 be
       -0.17830968 -0.22983576 0.012295024 -0.19257778
000090 ca b2 30 3e 8b 00 cc 3d 1c b9 f9 bd dc 93 01 3e
       0.17255703 0.09961041 -0.1219351 0.1265406
0000a0 70 3b 5a be 89 c3 ed 3d fb d3 42 3e c3 0c 54 be
       -0.21311736 0.11609561 0.19026177 -0.20707993
0000b0 06 ec 36 3e 63 7d 36 be eb 17 83 3a 3d 69 72 3e
       0.17863473 -0.17821269 0.0010001635 0.23672958
0000c0 c0 8e 44 be 21 a5 36 3e 82 10 86 bd ce cc 4f be
       -0.1919508 0.17836429 -0.06546117 -0.2029297
0000d0 ce 73 0c 3e 99 43 44 3e cd 04 d9 3d b8 39 67 3e
       0.13716051 0.19166411 0.10596619 0.22580612
0000e0 2c b8 ac bd 54 a6 1e 3e 4f 0e 56 be 42 5a 34 be
       -0.084335655 0.15493137 -0.20903896 -0.17612556
0000f0 9e 6d 4d 3c fe 6c d5 3d 49 a0 23 3e da ae 02 3e
       0.012538342 0.10421179 0.15979113 0.12762013
000100 a5 cb 1a be 75 bb 35 3d 48 9c 48 3c 5e 90 13 be
       -0.15116747 0.044368226 0.012244292 -0.1441054
000110 fb 18 36 be cd 51 54 3d bc c8 f5 3d f6 dd 80 3d
       -0.17782967 0.051835824 0.12001178 0.06292336
000120 22 9d 1e 3e 99 9e c1 3d 57 0c 42 be 10 a4 2e be
       0.15489629 0.09454078 -0.1895002 -0.17054772
000130 a9 0e 63 3e f9 3c 9a 3c 97 c7 42 3e 77 a1 4f be
       0.22173561 0.018827902 0.1902145 -0.20276438
000140 2c 3b 4e 3e 09 39 ed bd b0 10 64 bc 0d f5 73 3e
       0.2013976 -0.11583144 -0.013919994 0.23823948
000150 00 1a 4f 3d 37 86 b3 bd ae bc 13 3d fc 62 d4 bd
       0.050561905 -0.08765834 0.03606861 -0.10370442
000160 bb b2 b7 bd 63 0e 34 be 2a 3e 04 3e d3 d8 14 be
       -0.08969637 -0.17583613 0.12914339 -0.14535837
000170 0c e8 8f bd 0e 8d 5e 3e e1 36 d6 3d 1b b1 57 be
       -0.07026681 0.21733496 0.10459686 -0.21063654
000180 c3 87 0b be 45 d8 70 be b0 98 54 3e f3 8e 70 be
       -0.13626008 -0.2352 0.2076137 -0.23492031
000190 5b ae 33 3d 93 cb 51 be 15 95 0b bb 9e 88 cb 3d
       0.04386745 -0.20487814 -0.0021298577 0.09938167
0001a0 8c f6 d6 3d 9b 20 34 3e 01 b6 19 3e 9d 86 79 be
       0.10496244 0.17590563 0.15010835 -0.24367757
0001b0 98 8f 2c be 66 82 54 3d 8b e6 09 be b5 db 80 bc
       -0.16851652 0.05188217 -0.13466851 -0.015729764
0001c0 f6 82 19 be 8a bc fe 3d 33 73 4c 3e 3a 6a 7b be
       -0.14991364 0.12438305 0.1996582 -0.24552241
0001d0 f6 c6 92 3d 93 c9 70 3d c9 89 2f be d1 95 f5 bd
       0.07166855 0.058785986 -0.17142405 -0.11991466
0001e0 a8 3d 19 be ae 7d b1 bd 3a 01 d3 bd a8 35 50 be
       -0.14964926 -0.086665496 -0.10302968 -0.20332968
0001f0 8e a8 0d bd 6f bf 1c bd 5b a9 12 3e dd 29 0d 3e
       -0.034584574 -0.038268503 0.14322416 0.13785501
000200 c5 b3 13 3e ae 20 95 3d 45 ca 6b be d9 62 26 be
       0.14424045 0.07281624 -0.23026378 -0.16248645
000210 b6 50 eb bd 7b 4e 04 3e 9d ee 64 be f4 bd 4e 3e
       -0.11490004 0.12920563 -0.22356649 0.20189649
000220 60 f1 aa bd 3d d0 0a be 2d 20 27 3e 9c df 07 3e
       -0.0834682 -0.13555999 0.16320868 0.13268894
000230 e3 58 93 bd 00 fa c9 bd b7 5a 0b be aa a4 8a bd
       -0.07194688 -0.09862137 -0.13608824 -0.067696884
000240 ae 12 9b 3d 7d 44 f6 3c 1d 3b 6a bc 7b 0b e8 3b
       0.07571922 0.030061955 -0.01429632 0.0070814467
000250 d5 86 f5 bd 56 3e 89 3d 03 e9 6a be c3 fd 5e bd
       -0.11988608 0.06701343 -0.2294045 -0.054441225
000260 8f fd 7b be a7 1b d0 bd f3 4a 54 bd d1 21 cb 3b
       -0.24608444 -0.10161524 -0.05182929 0.0061990996
000270 56 3c 33 3e 06 c5 7e be 16 94 c0 3d 66 2e 42 3e
       0.17503485 -0.24879846 0.09403245 0.18963012
000280 11 88 65 be f9 d3 8a 3d b6 fd 9c 3d 0c 50 6c be
       -0.22415186 0.06778712 0.07665579 -0.2307741
000290 00 50 64 3e 81 4f 6d 3e 85 57 fa bd 10 80 2e be
       0.22296143 0.2317486 -0.12223724 -0.1704104
0002a0 7f d9 0b 3e ff d3 31 be d2 0b 39 be 7d 01 d5 3d
       0.13657187 -0.17366026 -0.18070915 0.104006745
0002b0 b1 f1 35 3d a2 58 f2 3a b6 35 50 3e 8a a4 28 3e
       0.044419948 0.0018489549 0.20332989 0.16469017
0002c0 05 27 b4 3d 3e 1f 9e 3d 70 4a 6f be 33 cd 56 bd
       0.08796505 0.07720803 -0.2336824 -0.052441787
0002d0 27 a5 1a be af 96 a4 3d 8e d5 55 be 05 7e da bc
       -0.15102063 0.08036553 -0.20882246 -0.026671419
0002e0 2c 12 04 be fd dd 25 be f1 ed 75 be b4 5b 14 3e
       -0.12897557 -0.16197963 -0.24016549 0.14488107
0002f0 31 36 17 3e 2d ee 3f be 1e 8c 50 3d 4c c3 3c be
       0.14766766 -0.187432 0.050914876 -0.18433875
000300 d5 38 70 be c8 87 32 be c7 39 4b 3e e5 b6 71 be
       -0.2345918 -0.17434609 0.19846259 -0.23604925
000310 5e c9 19 bd d3 95 51 3e 2f 54 e0 bc f6 0b 12 be
       -0.037545554 0.2046731 -0.027383892 -0.14262375
000320 b1 1b 5b bc ad fd bb 3d 09 7a f3 bd 1d fc 1a be
       -0.013373301 0.09179244 -0.11888511 -0.15135236
000330 9d fc 37 3e 40 6b 25 be 8d 16 5c bd 15 32 94 3b
       0.17967458 -0.16154194 -0.053732444 0.004522572
000340 07 bc e6 bc cb 43 0e 3e 8f 35 ad 3d 07 78 d7 bd
       -0.02816583 0.13893048 0.08457481 -0.1052094
000350 88 a9 3a 3e 90 93 1a bd ef 93 08 be 50 cb d0 bd
       0.18228734 -0.037738383 -0.13337682 -0.10195029
000360 ed 52 41 be 01 22 95 bd e2 46 98 3d a2 87 f3 3d
       -0.1887929 -0.07281876 0.07435395 0.11891104
000370 81 01 51 3e c0 22 c9 3c 44 65 d0 38 d6 f5 8c 3d
       0.2041073 0.024552703 9.937075e-05 0.06882827
000380 f4 7b 54 bd ff 0c 2d bd e3 a4 52 3d 30 d5 4f be
       -0.051876023 -0.042248722 0.05142678 -0.20296168
000390 e8 f5 e2 bd f2 3b b8 bd 0e 9e ff 3d 25 da 39 3d
       -0.11082059 -0.08995809 0.124813184 0.045374054
0003a0 3e a5 94 3d 98 a6 ff 3d 76 3c 0d 3e 08 70 7f 3d
       0.0725808 0.12482947 0.13792595 0.0623627
0003b0 9a 24 4a bd 15 db 7c bd 85 d3 ef 3c 9d b9 87 bc
       -0.049351312 -0.06173237 0.029275665 -0.016568
0003c0 0c 9f bc bc 93 fa 21 be 64 26 12 bc 1c 94 cf 3d
       -0.023025058 -0.15818243 -0.008920286 0.101356715
0003d0 72 01 54 3e e2 f5 e4 3d 34 7e 77 bd fc b1 b6 3d
       0.20703676 0.11179711 -0.06042309 0.089206666
0003e0 60 95 7c 3e 28 37 6b be 74 77 02 3e d1 ff 6f be
       0.24666357 -0.22970259 0.1274088 -0.2343743
0003f0 c3 5d 3a be 11 cd 15 be 5a 00 24 be fd fe 82 be
       -0.1819983 -0.14629008 -0.16015759 -0.25585166

model.backbone.encoder.layers.0.self_attn.to_out.0.bias f4 [16]
000000 22 ed 3b be c8 84 66 3d 38 23 dc bd 06 3a ad bd
       -0.18352178 0.056278974 -0.10748905 -0.08458333
000010 83 f8 18 be 25 a3 38 3e 42 96 0e 3c e4 4e 90 3d
       -0.1493855 0.18030985 0.008702816 0.07046297
000020 35 7b d8 3d 02 0f 34 bd f0 b5 5a 3e 4d bb 2e ba
       0.10570375 -0.043959625 0.21358466 -0.0006665483
000030 31 58 52 be 73 2b 66 be 1d 55 ec 3d 42 fe 56 3e
       -0.20541455 -0.22477512 0.115396716 0.20995429

model.backbone.encoder.layers.0.norm_attn.1.weight f4 [16]
000000 bb 15 82 3f 06 7f 7f 3f b1 a6 80 3f d9 56 7c 3f
       1.0162882 0.998032 1.005087 0.9857002
000010 b6 03 80 3f d0 a9 80 3f e1 50 83 3f b6 90 80 3f
       1.0001132 1.0051823 1.0259057 1.0044162
000020 ab bf 80 3f 38 0a 7d 3f 57 65 80 3f 04 5b 7e 3f
       1.0058492 0.9884372 1.0030926 0.9935763
000030 17 73 80 3f f1 66 7e 3f 52 8a 78 3f 08 57 82 3f
       1.0035123 0.99375826 0.9708606 1.018281

model.backbone.encoder.layers.0.norm_attn.1.bias f4 [16]
000000 93 be 37 bb 10 d5 b2 ba 9a 93 de bc dd d2 a9 3b
       -0.0028037175 -0.001364382 -0.027169991 0.0051826076
000010 f9 1d a5 bc 43 30 77 bc 1e b0 df bb fe 42 8a bb
       -0.020155894 -0.01508719 -0.0068264147 -0.004219412
000020 4a c5 89 bc e5 a6 86 bb eb b6 d1 bb 9b db 0f bc
       -0.016817708 -0.004109251 -0.0063999793 -0.008780385
000030 14 fe cf 3a 8a f8 b6 bb e0 31 4e 3c df 2e 12 bc
       0.0015868568 -0.0055838274 0.012585133 -0.008922308

model.backbone.encoder.layers.0.norm_attn.1.running_mean f4 [16]
000000 76 f7 b2 bd d5 79 aa 3c 6e d9 57 bd 17 06 92 3c
       -0.08738606 0.020810047 -0.05269759 0.01782517
000010 00 16 b0 3d 8b 75 45 3d 70 2d d4 bc e9 94 6d bd
       0.08597946 0.0482078 -0.025900573 -0.05800334
000020 b6 78 08 be 94 19 35 3e ee 3f 28 3e 4f 92 ea 3d
       -0.13327298 0.17685539 0.16430637 0.114536874
000030 9d 7c 7f bd 38 b9 5f bc bc 23 3b bd 62 4d 91 3d
       -0.0623747 -0.013654999 -0.045688376 0.07094838

model.backbone.encoder.layers.0.norm_attn.1.running_var f4 [16]
000000 7e e5 c5 3e 85 1a e7 3e 72 ad 10 3f 4e 7e 36 3f
       0.3865165 0.4513742 0.56514657 0.71286476
000010 8b 49 cb 3e 5f 9d 13 3f 60 ca a7 3e ea 1b 4a 3e
       0.39704546 0.57662004 0.32771587 0.19737211
000020 fc 43 94 3e b1 c6 b1 3f 24 37 4e 3f d4 8d 9d 3e
       0.28958118 1.3888761 0.8055289 0.3077227
000030 67 b8 d3 3e 1c cc c5 3e 3c 60 c3 3e 08 bd ac 3e
       0.41351625 0.38632286 0.38159359 0.3373797
