TSF_Finance/checkpoints/ixic_test_MS__PatchTST_custom_ftMS_sl96_ll48_pl36_dm16_nh4_el3_dl1_df128_fc1_ebtimeF_dtTrue_Exp_0/checkpoint.pth (torch_old, 175258 bytes, 65 tensors)

model.backbone.W_pos f4 [38, 16]
-0.017023746 -0.009414129 -0.023960447 0.021019157 0.016782422 -0.0046915202 -0.010312682 0.0051013133
-0.007615234 0.007039146 -0.005755442 -0.0014018755 0.019116836 0.0040426115 -0.019169873 0.020361828
-0.008524854 0.01866101 0.014363292 -0.0042990413 0.008064246 -8.1378086e-05 -0.015396877 0.021453425
-0.014135557 0.004055594 0.005194132 0.020720348 -0.01196646 0.015167923 -0.0049095256 -0.011069854
-0.024410632 -0.022572232 -0.0050205765 -0.014505276 -0.012035567 0.003682717 -0.0042979 -0.003224717
0.0114267925 0.02652606 -0.0024657748 0.0075234002 0.014416861 0.024856597 0.0041864174 0.025862616
-0.0077815843 4.8487917e-05 0.01612023 0.0115073575 -0.00427221 0.005464727 0.00035874383 -0.027443897
0.0060879416 0.02505347 -0.016931856 -0.0027477446 0.0154275885 0.018686825 -0.024651615 -0.0064787455
-0.0158469 -0.021931974 -0.010110527 0.01656874 -0.010153928 0.014909062 -0.0055253804 -0.0031474482
0.012817727 -0.0016284644 0.0042232154 0.013898117 0.014240971 0.010526311 -0.00964574 -0.008093912
0.008257258 0.0012050028 0.013417546 0.00018248167 0.0052199103 0.0076337196 0.02930177 0.0029189324
0.018820439 0.00947429 0.006654791 0.01836477 -0.0001733567 -0.01626478 -0.019522065 -0.018986756
0.010147947 0.016434481 0.0064884517 0.025747757 -0.012966187 -0.014753178 0.0057569975 -0.009117197
-0.0053507197 -0.00014226875 0.010271337 -0.019851923 0.016544834 0.0053793434 -0.009881954 -0.0045962604
-0.010732817 -0.0075347316 0.0027771564 0.0043466324 0.017285809 -0.024667887 -0.0011946913 0.0042760842
0.01076666 0.016401878 -0.0031669394 0.025007943 0.01380098 0.023555974 -0.0058307685 -0.0070148064
-0.024578618 0.019791627 0.0013873663 0.008956468 0.005636438 0.008311084 0.0070676734 -0.008627245
-0.015668923 -0.01797507 0.0063985144 0.009503646 -0.0025455074 -0.0021923685 -0.013575541 -0.007179466
-0.019167067 0.008102159 0.00026955677 0.014054585 0.0039504236 0.008472093 0.019089675 0.002877362
0.00465895 -0.008509869 -0.024381489 -0.0036345278 0.009492201 -0.021527022 -0.010354774 0.017825607
0.008715448 -0.0082690995 -0.014783331 0.0051965355 -0.01647645 0.0050246296 -0.022023112 0.01426998
-0.016936233 0.0073216264 0.012049199 -0.0004996164 0.0029337876 -0.02637963 0.00719912 -0.01582886
0.015810974 0.025726782 0.024006873 -0.02110155 0.0040768855 0.013750278 -0.01573489 0.000356414
0.01164152 -0.009031525 -0.010248655 -0.015173858 0.005637026 0.001546848 0.025441606 0.022040755
-0.0023287847 -0.008743901 -0.023308136 -0.0011864519 -0.004006044 0.008050635 -0.012568568 0.029145358
-0.022729915 0.0066055595 -0.0052888854 -0.0014940534 -0.005517951 -0.023334965 -0.015190793 0.020452274
0.030185707 -0.024973616 -0.00091350096 -0.0017521153 0.024000444 -0.015604957 0.009023748 0.0013455361
-0.012135777 0.0056467843 -0.013919382 -0.004513143 -0.007221275 0.0042822184 -0.012481274 0.017983232
-0.009182843 0.0011555196 0.00023994136 -7.775195e-05 0.014249419 -0.008215277 -0.017154966 -0.030984309
0.01436769 0.0064238645 -0.014394022 -0.0063470155 -0.023779875 -0.0077803377 0.008903498 -0.0037494674
0.013079387 -0.0023191907 0.007856683 0.019340279 0.0014503115 -0.01068241 -0.0016484648 -0.01650288
-0.006167513 0.0063919644 -0.023044474 0.0093141915 0.0023388756 0.0153382495 0.012599535 -0.003588667
00000000: 6275 8bbc b83d 1abc b348 c4bc 5e30 ac3c
00000010: 4a7b 893c 53bb 99bb 86f6 28bc eb28 a73b
00000020: 3689 f9bb a3a8 e63b 2698 bcbb 23bf b7ba
00000030: e99a 9c3c e277 843b 230a 9dbc d9cd a63c
00000040: d4ab 0bbc f9de 983c 0354 6b3c f9de 8cbb
00000050: e61f 043c 87a9 aab8 2f43 7cbc 18bf af3c
00000060: d398 67bc cae4 843b 8a33 aa3b b8bd a93c
00000070: f90e 44bc e182 783c 16e0 a0bb 555e 35bc
00000080: cef8 c7bc 67e9 b8bc a683 a4bb 8aa7 6dbc
00000090: d430 45bc bd59 713b 66d5 8cbb c655 53bb
000000a0: 7137 3b3c 2e4d d93c d698 21bb db86 f63b
000000b0: b334 6c3c 10a0 cb3c 372e 893b d6dd d33c
000000c0: a9fc febb 815f 4b38 930e 843c 5b89 3c3c
000000d0: e5fd 8bbb 7411 b33b c815 bc39 06d2 e0bc
000000e0: 5b7d c73b ef3c cd3c adb4 8abc 8113 34bb
000000f0: ffc3 7c3c 1d15 993c 2ff2 c9bc a84b d4bb
00000100: 5cd1 81bc afaa b3bc a0a6 25bc 2bbb 873c
00000110: a95c 26bc 2345 743c 400e b5bb 6b45 4ebb
00000120: 7201 523c 3372 d5ba e662 8a3b edb4 633c
00000130: f652 693c 8c76 2c3c 2a09 1ebc 549c 04bc
00000140: 7349 073c 2ff1 9d3a 44d5 5b3c 8d58 3f39
00000150: c80b ab3b 4824 fa3b 440a f03c 8f4b 3f3b
00000160: 522d 9a3c 0d3a 1b3c 6f10 da3b b771 963c
00000170: 16c7 35b9 b73d 85bc bdec 9fbc 1d8a 9bbc
00000180: 9343 263c 9ba1 863c 149d d43b f6ec d23c
00000190: 2170 54bc 50b7 71bc 32a5 bc3b 4c60 15bc
000001a0: 1755 afbb fa2d 15b9 1c49 283c 80a0 a2bc
000001b0: 0889 873c 3445 b03b ebe7 21bc 3a9c 96bb
000001c0: b3d8 2fbc e9e5 f6bb f400 363b 326e 8e3b
000001d0: f89a 8d3c 4f14 cabc 3097 9cba 651e 8c3b
000001e0: a566 303c 3b5d 863c 6d8c 4fbb 75dd cc3c
000001f0: 811d 623c 75f8 c03c 0810 bfbb 76dc e5bb
00000200: 1959 c9bc 0d22 a23c 4ad8 b53a 26be 123c
00000210: deb1 b83b 362b 083c f197 e73b 4a59 0dbc
00000220: 1d5c 80bc 7440 93bc a1aa d13b 2eb5 1b3c
00000230: 87d2 26bb d7ad 0fbb f26b 5ebc ba41 ebbb
00000240: 4104 9dbc ebbe 043c 4c53 8d39 3445 663c
00000250: 8e72 813b 89ce 0a3c f361 9c3c 2092 3c3b
00000260: 1baa 983b fa6c 0bbc b0bb c7bc 4231 6ebb
00000270: 2d85 1b3c 7059 b0bc 12a7 29bc 0207 923c
00000280: 3dcb 0e3c 1e7b 07bc c935 72bc b347 aa3b
00000290: 9ff9 86bc a6a5 a43b d069 b4bc a2cc 693c
000002a0: dbbd 8abc 41ea ef3b 016a 453c b0f8 02ba
000002b0: ca44 403b 181a d8bc 98e6 eb3b 87ab 81bc
000002c0: 0486 813c f9c0 d23c 10aa c43c 28dd acbc
000002d0: 6597 853b d948 613c 75e6 80bc 14dd ba39
000002e0: 13bc 3e3c f6f8 13bc fae9 27bc c69b 78bc
000002f0: cdb6 b83b 9bbf ca3a ea6a d03c d08e b43c
00000300: 869e 18bb 9442 0fbc b4f0 bebc b882 9bba
00000310: 2245 83bb d0e6 033c 65ec 4dbc 3fc2 ee3c
00000320: 1634 babc 7373 d83b 634e adbb 1dd4 c3ba
00000330: eecf b4bb f828 bfbc cee2 78bc 878b a73c
00000340: 0448 f73c 7895 ccbc 0378 6fba 3ca7 e5ba
00000350: 949c c43c efab 7fbc 58d8 133c b35c b03a
00000360: 23d5 46bc a908 b93b 1f0e 64bc fde2 93bb
00000370: 72a0 ecbb da51 8c3b 427e 4cbc 9251 933c
00000380: a373 16bc ce74 973a c598 7b39 c30e a3b8
00000390: 6576 693c 5f99 06bc 9288 8cbc ced2 fdbc
000003a0: 7666 6b3c 487f d23b e7d4 6bbc a0fa cfbb
000003b0: 03ce c2bc 34f2 febb fadf 113c a0b9 75bb
000003c0: ed4a 563c 90fd 17bb 51b9 003c 816f 9e3c
000003d0: 6118 be3a 4605 2fbc 4d11 d8ba 0c31 87bc
000003e0: d918 cabb af73 d13b c4c7 bcbc 8d9a 183c
000003f0: d247 193b 484d 7b3c 486e 4e3c d72f 6bbb

model.backbone.W_P.weight f4 [16, 24]
-0.16552137 -0.009390009 0.08306814 0.07422338 0.018868824 -0.14215586 -0.19160065 0.17910929
-0.089542136 -0.1680314 0.11864244 -0.20211686 0.12289429 -0.15734762 0.09477591 -0.06007461
0.0038841346 -0.08264075 0.11429544 0.09961577 0.12892498 -0.069526896 0.21351221 0.017101137
-0.05921807 -0.19436745 0.13229088 -0.18414265 -0.1356961 -0.07194199 0.073125206 0.07728549
0.13266799 0.007991543 0.09981527 0.13513096 -0.19288707 -0.1670461 -0.19409853 -0.14151342
0.10345665 0.18215743 0.07075072 -0.1584732 0.09730817 0.112745576 0.17942311 -0.18676987
-0.019764313 -0.09660019 0.1832281 0.117844775 0.031904697 0.022029461 0.096701376 -0.14650147
-0.005333874 -0.1365064 0.08531465 0.07487174 -0.1611045 0.0025443705 0.10281903 0.10726153
0.19679947 -0.17259635 -0.053003017 -0.07410666 -0.16886784 -0.20404126 -0.16877088 0.07180522
-0.19087984 -0.10946229 -0.1525533 -0.17111091 0.17330223 -0.030360755 -0.07203263 0.18761083
-0.11230406 -0.07635112 -0.05534519 -0.12702902 -0.08639103 -0.037759855 0.026719108 -0.109446526
0.0021899878 0.20939478 0.011414887 -0.015575463 -0.19328329 -0.14252748 0.10959126 0.12576887
-0.18505052 0.052175704 0.052287944 -0.07041879 0.1704099 0.0408385 -0.14564984 0.1827377
0.104074985 -0.08809971 0.02475416 0.15774378 0.16621852 0.10647951 0.06546362 -0.0010420235
0.04390812 -0.1378395 0.014380051 -0.18790872 0.13044201 -0.12950224 -0.12445747 0.17642644
-0.054894622 -0.12370497 -0.15457465 0.098898485 -0.1739834 0.161069 0.070176296 0.19643587
-0.07222652 -0.16944978 -0.013340718 0.16733027 -0.09159487 -0.18517359 0.15790309 0.1418713
0.16213422 0.12596868 0.0025233077 -0.17253235 -0.15137853 -0.10775935 -0.14788598 -0.17663582
0.15766154 0.15480417 -0.1291304 -0.010777207 0.19724135 0.09971716 -0.042716827 -0.059196554
0.10083786 -0.08245423 -0.15666759 -0.059779346 0.12623209 -0.08539016 -0.14498039 -0.07802768
-0.08011145 -0.1533157 -0.0077797705 0.09774365 0.18389986 0.052641537 0.16199373 0.08454641
-0.051544208 -0.15642273 -0.055386163 0.09698018 0.043743815 -0.055225458 -0.009189852 0.070452355
-0.027953811 0.15012716 -0.13320555 0.021892836 0.10349597 0.15820736 0.021359464 0.008244184
0.17438322 -0.15086754 -0.10362275 -0.12758248 0.18779722 3.7137346e-05 -0.17745315 0.00959531
-0.18302637 0.11725488 0.16256426 0.08604615 -0.041979343 -0.114584275 0.17736228 -0.03584018
0.08206361 -0.013852119 0.16518618 -0.0374097 0.12843895 -0.1522289 -0.17397115 0.028183127
0.16283605 -0.14206213 0.12433183 0.012720396 -0.19415554 -0.13959877 -0.04768546 0.01004611
0.086542405 0.18044841 0.17793003 -0.17405935 0.10735594 -0.06343152 -0.023195857 0.17757228
-0.05200253 -0.09953098 0.09447215 -0.014624024 0.041115694 0.0031628003 0.17665938 0.15623027
0.06612362 0.02715517 0.0719524 -0.06554114 0.13296084 0.1844455 0.17920947 -0.09210645
-0.08177409 0.18614282 0.17219561 0.13227299 0.17461896 0.19250871 -0.10326229 -0.15665157
0.0038549397 0.13088445 -0.086398795 -0.120689034 -0.19875565 0.029157331 0.023553325 -0.11468951
00000000: 6f7e 29be 8dd8 19bc a11f aa3d 6d02 983d
00000010: cb92 9a3c 4e91 11be f632 44be 6d68 373e
00000020: de61 b7bd 6c10 2cbe cffa f23d b9f7 4ebe
00000030: 00b0 fb3d bc1f 21be df19 c23d cb10 76bd
00000040: f78c 7e3b 8e3f a9bd ba13 ea3d 5a03 cc3d
00000050: e904 043e 1e64 8ebd f2a2 5a3e af17 8c3c
00000060: a68e 72bd 4308 47be 4377 073e e48f 3cbe
00000070: ebf3 0abe 5256 93bd abc2 953d db47 9e3d
00000080: 1eda 073e f6ee 023c f36b cc3d c55f 0a3e
00000090: 3084 45be 220e 2bbe c4c1 46be e5e8 10be
000000a0: 15e1 d33d 7a87 3a3e c1e5 903d cc46 22be
000000b0: 8149 c73d 27e7 e63d b1ba 373e 9a40 3fbe
000000c0: c5e8 a1bc 52d6 c5bd 26a0 3b3e 9a58 f13d
000000d0: 80ae 023d 2177 b43c 5f0b c63d 7b04 16be
000000e0: c7c7 aebb 55c8 0bbe 72b9 ae3d 5b56 993d
000000f0: 94f8 24be 74bf 263b c992 d23d efab db3d
00000100: cd85 493e 19bd 30be b119 59bd 3cc5 97bd
00000110: b1eb 2cbe 31f0 50be 46d2 2cbe 9d0e 933d
00000120: 0176 43be c42d e0bd ef36 1cbe b337 2fbe
00000130: 2476 313e 1eb7 f8bc d885 93bd 0e1d 403e
00000140: acff e5bd fa5d 9cbd a3b1 62bd e513 02be
00000150: c8ed b0bd 14aa 1abd 08e2 da3c 8025 e0bd
00000160: e685 0f3b 966b 563e 8205 3b3c 3a30 7fbc
00000170: 0eec 45be b9f2 11be 6271 e03d 8ec9 003e
00000180: e27d 3dbe 31b6 553d e22b 563d ba37 90bd
00000190: ef7f 2e3e 4546 273d 3b25 15be 971f 3b3e
000001a0: 4425 d53d 9f6d b4bd 3cc9 ca3c 9687 213e
000001b0: 3035 2a3e ee11 da3d ca11 863d 8294 88ba
000001c0: 00d9 333d cc25 0dbe 4e9a 6b3c 256b 40be
000001d0: 9792 053e 3c9c 04be 8fe3 febd 22a9 343e
000001e0: 2fd9 60bd 0859 fdbd d148 1ebe 4a8b ca3d
000001f0: b428 32be 46ef 243e 97b8 8f3d 7c26 493e
00000200: 7feb 93bd 3e84 2dbe 0793 5abc a058 2b3e
00000210: 1796 bbbd 259e 3dbe 59b1 213e b646 113e
00000220: 8306 263e effd 003e 145e 253b 52ac 30be
00000230: f902 1bbe efb0 dcbd 6c6f 17be 05e0 34be
00000240: 0772 213e fc84 1e3e c23a 04be e292 30bc
00000250: a3f9 493e 8338 cc3d d7f7 2ebd 1678 72bd
00000260: 1484 ce3d c3dd a8bd 786d 20be 30db 74bd
00000270: fc42 013e 09e1 aebd bd75 14be facc 9fbd
00000280: 7911 a4bd cafe 1cbe 72ed febb d32d c83d
00000290: 3f50 3c3e a79e 573d afe1 253e ab26 ad3d
000002a0: 0520 53bd 482d 20be 9adc 62bd 8b9d c63d
000002b0: b72c 333d 1734 62bd 0891 16bc 5349 903d
000002c0: 64ff e4bc efba 193e 0967 08be 9b58 b33c
000002d0: b2f5 d33d 1c01 223e 0bfa ae3c 9d12 073c
000002e0: 8491 323e 057d 1abe 2a38 d4bd fba4 02be
000002f0: ea4d 403e ecc3 1b38 47b6 35be a635 1d3c
00000300: 446b 3bbe 5423 f03d 3f77 263e f738 b03d
00000310: 88f2 2bbd 29ab eabd 759e 353e 27cd 12bd
00000320: f710 a83d 00f4 62bc 9126 293e ea3a 19bd
00000330: 8085 033e e5e1 1bbe 7e25 32be 4de0 e63c
00000340: 7ebe 263e bc78 11be b0a1 fe3d 3569 503c
00000350: b6d0 46be fbf2 0ebe d451 43bd 7098 243c
00000360: 253d b13d 78c7 383e 4a33 363e 9d3c 32be
00000370: 6edd db3d 62e8 81bd 3d05 bebc 82d5 353e
00000380: 9b00 55bd e6d6 cbbd 9d7a c13d 9a99 6fbc
00000390: ee68 283d fc46 4f3b 32e6 343e d4fa 1f3e
000003a0: d26b 873d 8574 de3c c85b 933d 6f3a 86bd
000003b0: e326 083e 48df 3c3e b082 373e 4ea2 bcbd
000003c0: 2d79 a7bd 399c 3e3e 0c54 303e 9272 073e
000003d0: 50cf 323e 0121 453e 2e7b d3bd 4569 20be
000003e0: 28a3 7c3b 9306 063e daf1 b0bd d02b f7bd
000003f0: 9a86 4bbe 5bdb ee3c e7f2 c03c 55e2 eabd

model.backbone.W_P.bias f4 [16]
-0.07975826 0.024117604 0.03572246 -0.06659176 0.14597589 -0.07342204 0.033775795 -0.15334016
-0.06536538 0.17229445 -0.0069498564 0.103786394 0.023476498 0.15341632 -0.11844118 0.04862781
00000000: 4c58 a3bd 4892 c53c b751 123d 4361 88bd
00000010: b47a 153e 4b5e 96bd 7d58 0a3d 3405 1dbe
00000020: 49de 85bd f56d 303e 9fbb e3bb f68d d43d
00000030: c951 c03c 2b19 1d3e 4a91 f2bd f42d 473d

model.backbone.encoder.layers.0.self_attn.W_Q.weight f4 [16, 16]
-0.19401786 -0.07166159 0.21060467 0.032772582 0.13329369 -0.054095536 0.13625817 0.035287946
-0.1794237 0.22437437 -0.22796434 0.17138198 -0.16309746 0.24351127 0.089080505 0.25302115
0.2116705 0.03920583 0.2300387 -0.15080126 -0.17793287 -0.19555114 -0.16496179 0.13836405
0.13337608 -0.2457005 -0.19529776 0.15024443 0.22824042 0.13871032 0.061394833 -0.09701182
0.041905757 0.16648327 -0.22152893 -0.11310702 0.018673688 -0.26598963 0.018213546 0.026055614
0.06005042 -0.10925181 0.14523138 -0.21433845 -0.2355896 0.045132115 0.12820435 0.00253252
0.19588172 0.12746666 0.1411705 -0.045008082 0.16036396 -0.20682248 -0.1267786 -0.11245005
0.13500924 0.22253336 -0.15130846 0.14566353 -0.13688749 0.05951303 0.18424249 0.05918734
-0.0077616395 0.00882633 -0.020621512 -0.22590779 0.031771358 -0.0040911087 0.25919282 -0.19613124
0.21488991 0.22052217 -0.21839026 -0.047068223 0.09582286 0.10389317 -0.10375083 -0.17173527
-0.12655932 -0.10485231 0.094669685 -0.03674175 0.11762439 -0.045514822 0.052520107 0.112641
-0.19505233 -0.10239405 -0.24366845 -0.08755494 -0.17323014 -0.24004781 0.22150934 -0.099804305
0.0019322246 -0.16284476 -0.0007557694 -0.23328364 -0.05545315 -0.05836963 0.05788562 0.011380343
0.15192688 0.0046708365 -0.11255404 0.24423328 -0.042970546 0.21502185 -0.19577323 -0.14754342
-0.20244803 -0.14792214 0.0073798895 0.19696027 -0.2019173 0.07106604 0.18482958 0.2290985
0.06743848 -0.108515225 -0.21311578 0.037188184 0.12943012 0.013632127 0.11352559 0.21534936
-0.022398438 -0.16807762 -0.043900758 -0.0668604 0.13406853 0.12404662 -0.016841477 0.15266874
-0.24404116 -0.1788363 0.0002973712 0.046061285 0.19739743 0.0016832108 -0.14081603 -0.071025826
-0.18843016 -0.13482761 -0.07392962 0.14388065 0.25036845 0.063548766 -0.19912264 -0.22677726
-0.09455989 -0.20260139 -0.16806376 -0.23104385 0.04791889 0.032953914 -0.028393755 0.025318602
0.03348757 0.05282023 0.021233499 -0.06163557 -0.01451433 -0.2325546 -0.17661616 -0.15189797
0.18320797 0.20044754 -0.18452255 0.105097294 -0.010430735 0.065395504 -0.20838809 -0.23102494
-0.13781372 0.090284795 0.0632893 -0.022743033 -0.0768113 0.012440789 -0.136132 0.10257711
0.06878913 -0.11269198 0.08276793 -0.069955766 0.07076647 0.08793048 0.23276095 0.14109656
-0.20585181 0.036196843 -0.051099718 -0.16923958 -0.2323151 0.18674457 -0.18166004 0.15921125
0.10816868 -0.09383972 -0.11588643 0.15140432 0.122254215 -0.030284708 -0.09213863 -0.09000186
-0.013981118 -0.21612343 -0.05693099 -0.13782685 -0.17957813 0.10537051 -0.19083488 -0.07400489
0.09407885 0.1098772 -0.011373585 -0.25804353 -0.0015518782 -0.16588655 -0.17746018 0.105788395
0.22556792 0.16190669 -0.23682982 -0.12919553 -0.16189727 0.16015556 0.24734867 -0.17717165
-0.15726297 0.2501596 0.13759704 0.0022314482 0.20962128 0.15720476 -0.20865293 -0.17650266
0.058523487 0.20271131 0.015962463 -0.018827582 0.16622774 -0.17396463 -0.21948537 0.09104448
-0.1011119 -0.22071253 -0.18401513 -0.08026328 -0.0059601576 0.007825459 -0.20387676 0.22556424
00000000: 9eac 46be 50c3 92bd c0a8 573e 8b3c 063d
00000010: 247e 083e 4893 5dbd 4387 0b3e 188a 103d
00000020: d9ba 37be 65c2 653e 7c6f 69be c27e 2f3e
00000030: 0503 27be 055b 793e d76f b63d fd8b 813e
00000040: 27c0 583e 4b96 203d 448f 6b3e a56b 1abe
00000050: 0934 36be 8f3e 48be beeb 28be 4eaf 0d3e
00000060: bd93 083e e998 7bbe 23fc 47be add9 193e
00000070: dbb7 693e 140a 0e3e 2679 7b3d 22ae c6bd
00000080: 5fa5 2b3d 977a 2a3e 7bd8 62be a7a4 e7bd
00000090: 90f9 983c cb2f 88be 9334 953c 9572 d53c
000000a0: 6ef7 753d 6abf dfbd 89b7 143e 8a7b 5bbe
000000b0: 663e 71be 74dc 383d 0048 033e a3f8 253b
000000c0: 3895 483e 9f86 023e 008f 103e 655a 38bd
000000d0: 7336 243e 46c9 53be 40d2 01be 364c e6bd
000000e0: dd3f 0a3e c9df 633e 9bf0 1abe d228 153e
000000f0: 3c2c 0cbe efc3 733d 10aa 3c3e 6d6e 723d
00000100: 5a55 febb 509c 103c 72ee a8bc 5f54 67be
00000110: af22 023d b50e 86bb ecb4 843e a1d6 48be
00000120: 1a0c 5c3e 90d0 613e b2a1 5fbe 9cca 40bd
00000130: c73e c43d f1c5 d43d 517b d4bd 5fdb 2fbe
00000140: c498 01be cfbc d6bd 2ee2 c13d 847e 16bd
00000150: 0ee5 f03d c06d 3abd 531f 573d 53b0 e63d
00000160: ccbb 47be f9b3 d1bd 3984 79be 0150 b3bd
00000170: 3e63 31be 18cf 75be 58d3 623e 3366 ccbd
00000180: b342 fd3a c7c0 26be d31e 46ba e8e1 6ebe
00000190: d822 63bd fe14 6fbd 7919 6d3d 9e74 3a3c
000001a0: b892 1b3e d10d 993b bc82 e6bd 4a18 7a3e
000001b0: e201 30bd b02e 5c3e c778 48be 9f15 17be
000001c0: 894e 4fbe e778 17be 00d3 f13b f4af 493e
000001d0: 69c3 4ebe 128b 913d f743 3d3e cc98 6a3e
000001e0: 301d 8a3d 3b3d debd 063b 5abe a352 183d
000001f0: 5489 043e 4959 5f3c 1b80 e83d 8b84 5c3e
00000200: ee7c b7bc 8a1c 2cbe 48d1 33bd 1bee 88bd
00000210: 4349 093e 280c fe3d 23f7 89bc 3255 1c3e
00000220: ede5 79be dd20 37be 7de8 9b39 c2aa 3c3d
00000230: 8d22 4a3e 2f9f dc3a 1432 10be fd75 91bd
00000240: d6f3 40be 4010 0abe 6a68 97bd 7355 133e
00000250: 4b30 803e db25 823d cee6 4bbe 4c38 68be
00000260: 9ea8 c1bd bd76 4fbe e818 2cbe c296 6cbe
00000270: 9946 443d affa 063d 059a e8bc f568 cf3c
00000280: 432a 093d 075a 583d e0f1 ad3c 9475 7cbd
00000290: 83cd 6dbc cb22 6ebe deda 34be 248b 1bbe
000002a0: df9a 3b3e 1f42 4d3e 7bf3 3cbe 403d d73d
000002b0: ace5 2abc 14ee 853d b063 55be cd91 6cbe
000002c0: 0a1f 0dbe 3ce7 b83d d29d 813d 994f babc
000002d0: 3e4f 9dbd 73d4 4b3c 3066 0bbe f313 d23d
000002e0: 51e1 8c3d 0ecb e6bd 3c82 a93d f844 8fbd
000002f0: 03ee 903d e514 b43d e358 6e3e 9e7b 103e
00000300: d1ca 52be 2443 143d f04d 51bd 244d 2dbe
00000310: 02e4 6dbe f839 3f3e 1705 3abe 4608 233e
00000320: 8a87 dd3d 0a2f c0bd dd55 edbd bc09 1b3e
00000330: 6b60 fa3d a317 f8bc 2eb3 bcbd e552 b8bd
00000340: 0f11 65bc 764f 5dbe 7830 69bd 7b22 0dbe
00000350: 54e3 37be 7ecc d73d 386a 43be e08f 97bd
00000360: 69ac c03d 4c07 e13d 4658 3abc 481e 84be
00000370: 6468 cbba 2ade 29be 1fb8 35be 96a7 d83d
00000380: 47fb 663e deca 253e 8483 72be d54b 04be
00000390: 66c8 25be d2ff 233e f848 7d3e 7c6c 35be
000003a0: 8b09 21be eb14 803e 3de6 0c3e 7d3d 123b
000003b0: f6a6 563e 49fa 203e 1da9 55be 1dbd 34be
000003c0: 53b6 6f3d 8e93 4f3e b6c3 823c 4d3c 9abc
000003d0: 9b37 2a3e c923 32be c6c0 60be 8775 ba3d
000003e0: c113 cfbd 7702 62be 766e 3cbe 1361 a4bd
000003f0: 6d4d c3bb 5b36 003c 12c5 50be 50fa 663e

model.backbone.encoder.layers.0.self_attn.W_Q.bias f4 [16]
0.13682052 0.19650905 -0.1641183 0.21067983 0.054400295 -0.17065518 0.019609595 0.18488038
-0.13420428 0.16368818 -0.15572892 -0.255848 0.20640975 -0.033641353 -0.20524654 0.145475
00000000: ae1a 0c3e ab39 493e a10e 28be 74bc 573e
00000010: d8d2 5e3d 3bc0 2ebe 4da4 a03c 4851 3d3e
00000020: d96c 09be e09d 273e 6777 1fbe 82fe 82be
00000030: 145d 533e 84cb 09bd 262c 52be 66f7 143e

model.backbone.encoder.layers.0.self_attn.W_K.weight f4 [16, 16]
0.12041187 -0.10497491 0.25559285 -0.23221669 0.17083243 0.016454896 0.22578213 -0.14301279
-0.01903822 -0.23348074 -0.22591531 0.024527624 0.1803707 0.14090626 -0.17540303 0.030457655
-0.122355096 -0.004694062 -0.12932374 -0.084770724 0.12450022 0.16327418 -0.01545048 0.108320944
0.187162 -0.19801407 -0.09148312 0.036340237 -0.11384085 -0.16689399 -0.00061893056 0.053129867
0.2005296 -0.19039886 -0.11036481 0.079325095 0.13910064 -0.25502 0.11033369 0.22404118
0.04200019 0.04909256 0.06936451 -0.07606984 0.07976566 0.097066544 0.01838131 -0.10701726
0.15597838 0.106499985 -0.22692221 -0.034265604 -0.16533527 -0.045634404 0.056046233 -0.032543283
0.25278178 0.20156416 -0.019940734 0.22972582 -0.059311982 -0.0066921986 -0.1241523 0.11812064
-0.24451567 -0.18632647 -0.15000613 0.12603016 0.017318057 -0.21802491 0.15858176 0.2022863
0.20690186 0.032088444 -0.007942406 -0.20708346 0.059827253 0.24152501 -0.09767558 -0.22486877
-0.13195293 0.0876805 -0.1430065 0.18643892 0.10028572 0.1257441 -0.095823094 -0.09883988
-0.1897887 0.03164018 0.2010315 0.1700846 0.15312128 -0.23471881 0.16400567 0.12314379
0.19406247 -0.1790048 0.21344224 -0.012938909 0.056583334 -0.17252089 0.054244887 0.11439385
-0.014344565 -0.15636389 -0.06878666 0.04862112 -0.017382363 0.030365746 -0.08966161 0.24382344
0.04486742 -0.15949102 -0.13241947 -0.14313984 0.19834155 -0.20209415 0.19835652 0.1268693
0.049709678 0.059682555 -0.23723131 0.111309364 -0.18383485 0.19757073 -0.21825983 0.18866841
0.26268664 0.12474698 -0.24941039 0.23592791 -0.13893972 0.0066737863 0.23472944 -0.077187695
0.08531522 0.05648633 0.17739458 -0.12824714 0.100516155 0.15997484 -0.07956702 0.16451837
-0.027941488 0.18209983 -0.07616448 0.14955959 0.24255213 0.20566674 0.14680198 0.2338839
0.023479989 0.23145068 0.24402708 -0.07301736 0.17744285 -0.07484509 -0.19743098 -0.21051396
-0.20345418 0.07282273 0.19634396 0.048337467 0.15984558 -0.20690496 0.006522146 0.1445425
-0.12782279 0.11453536 -0.1463986 0.20205782 -0.16946705 0.1317456 -0.06010643 0.09376298
0.23342118 -0.069808215 -0.25730175 -0.028017212 -0.25347206 0.13823555 0.06831417 -0.024311522
-0.06042828 -0.029097725 0.206393 -0.040240124 0.17776349 -0.21568479 -0.24400862 -0.1686852
0.15078844 -0.09343191 -0.0776495 0.033270855 0.24019161 -0.14141968 -0.10149549 0.08137044
0.1511467 0.046294276 -0.19653425 -0.18994762 0.012200219 0.1088674 0.019784415 -0.19111213
0.09398247 -0.00842379 0.08664074 -0.16054682 -0.116886914 -0.02566228 0.0009939099 0.07745769
-0.11967002 0.062192615 0.1468031 0.006667431 -0.033229776 0.19262868 0.20050058 0.19827962
-0.08802987 0.17127402 0.059516925 0.12428468 0.06936217 -0.047236133 0.006364253 0.16592027
-0.20794636 -0.23816258 -0.20964482 -0.02968064 -0.12388714 0.076596655 0.14420341 0.105069555
0.023559673 -0.0066606207 -0.13048221 0.025143372 0.1342901 0.12390666 -0.098370574 0.08327845
-0.22848561 0.19648412 0.1329265 -0.0066768 -0.13801958 0.19514814 -0.22446942 0.2062789
00000000: 809a f63d 16fd d6bd 11dd 823e 36ca 6dbe
00000010: b2ee 2e3e 6bcc 863c 6e33 673e f271 12be
00000020: 0bf6 9bbc 9315 6fbe 5856 67be 28ee c83c
00000030: 19b3 383e bb49 103e da9c 33be 5582 f93c
00000040: 4f95 fabd a5d0 99bb 716d 04be 469c adbd
00000050: f9f9 fe3d 5931 273e 0324 7dbc 5fd7 dd3d
00000060: 65a7 3f3e 33c4 4abe 815b bbbd 80d9 143d
00000070: 6425 e9bd 42e6 2abe ba3f 22ba b49e 593d
00000080: a257 4d3e ebf7 42be f206 e2bd 3275 a23d
00000090: 6670 0e3e fb91 82be a1f6 e13d 0d6b 653e
000000a0: 6408 2c3d 4815 493d fb0e 8e3d 81ca 9bbd
000000b0: 2e5c a33d d3ca c63d 6794 963c dd2b dbbd
000000c0: ccb8 1f3e aa1c da3d 4c5e 68be 175a 0cbd
000000d0: a64d 29be 24eb 3abd bc90 653d 1b4c 05bd
000000e0: 9d6c 813e d666 4e3e c05a a3bc 3f3d 6b3e
000000f0: 1ff1 72bd 3b4a dbbb 9043 febd 3ce9 f13d
00000100: 5162 7abe 5ecc 3ebe 359b 19be 0d0e 013e
00000110: 99de 8d3c ec41 5fbe 4263 223e 2424 4f3e
00000120: 15de 533e 2c6f 033d de20 02bc b00d 54be
00000130: 6c0d 753d 5552 773e 220a c8bd 0044 66be
00000140: ab1e 07be d591 b33d 4c70 12be d8e9 3e3e
00000150: 9962 cd3d 10c3 003e e63e c4bd 906c cabd
00000160: f857 42be 2299 013d 34db 4d3e a82a 2e3e
00000170: d3cb 1c3e 215a 70be 1af1 273e d032 fc3d
00000180: 50b8 463e 094d 37be 9a90 5a3e b8fd 53bc
00000190: edc3 673d 51a9 30be e32f 5e3d 5347 ea3d
000001a0: 7705 6bbc db1d 20be 05e0 8cbd f126 473d
000001b0: 7565 8ebc 96c1 f83c 82a0 b7bd daac 793e
000001c0: e6c6 373d 9d51 23be f898 07be 4093 12be
000001d0: 0c1a 4b3e c5f1 4ebe f91d 4b3e 07ea 013e
000001e0: 609c 4b3d b275 743d c4ec 72be 2af6 e33d
000001f0: 343f 3cbe fb4f 4a3e 817f 5fbe 4b32 413e
00000200: dd7e 863e 587b ff3d 7065 7fbe 1697 713e
00000210: 3746 0ebe c7af da3b ea5c 703e 9514 9ebd
00000220: bfb9 ae3d 365e 673d eda6 353e 3853 03be
00000230: 6adb cd3d 72d0 233e 09f4 a2bd 8177 283e
00000240: 8ce5 e4bc 6178 3a3e 1ffc 9bbd 2626 193e
00000250: 965f 783e 4d9a 523e 4253 163e 437f 6f3e
00000260: 1b59 c03c 6801 6d3e 3ce2 793e 208a 95bd
00000270: 94b3 353e 6248 99bd 592b 4abe f990 57be
00000280: 4b56 50be 1524 953d 640e 493e 82fd 453d
00000290: 8fae 233e e5de 53be bab7 d53b f302 143e
000002a0: fae3 02be 8491 ea3d 84e9 15be 3fe8 4e3e
000002b0: c588 2dbe 52e8 063e 2932 76bd ce06 c03d
000002c0: f605 6f3e 9cf7 8ebd 0ebd 83be 5a84 e5bc
000002d0: 17c7 81be 9f8d 0d3e 4de8 8b3d f528 c7bc
000002e0: a583 77bd 5a5e eebc b058 533e d4d2 24bd
000002f0: a207 363e 79dc 5cbe 65dd 79be d0bb 2cbe
00000300: 4968 1a3e 3b59 bfbd b306 9fbd 0547 083d
00000310: caf4 753e 52d0 10be dedc cfbd 8ca5 a63d
00000320: 33c6 1a3e 119f 3d3d 4640 49be a181 42be
00000330: 6de3 473c dff5 de3d ed12 a23c e6b2 43be
00000340: e279 c03d f003 0abc b370 b13d 6366 24be
00000350: 6862 efbd b439 d2bc 1546 823a 23a2 9e3d
00000360: 8e15 f5bd afbd 7e3d 8d53 163e 777a da3b
00000370: f21b 08bd 7440 453e 0650 4d3e d009 4b3e
00000380: 0149 b4bd 7562 2f3e 05c8 733d f788 fe3d
00000390: c10d 8e3d ad7a 41bd 398b d03b 01e7 293e
000003a0: e4ef 54be e4e0 73be 22ad 56be d024 f3bc
000003b0: 8ab8 fdbd b5de 9c3d 0faa 133e b52e d73d
000003c0: 3700 c13c 5641 dabb 219d 05be 79f9 cd3c
000003d0: 5883 093e c6c2 fd3d 8376 c9bd e48d aa3d
000003e0: 22f8 69be 2233 493e e21d 083e 0fc9 dabb
000003f0: 0155 0dbe ead4 473e 50db 65be c73a 533e

model.backbone.encoder.layers.0.self_attn.W_K.bias f4 [16]
-0.0666579 0.098779924 -0.15845974 -0.006355303 0.039597254 0.22003071 -0.11036557 -0.20371738
-0.057086606 -0.09523844 -0.1382414 -0.06479385 -0.11481545 0.119603716 -0.064783216 0.100160055
00000000: f083 88bd 214d ca3d 4543 22be 2540 d0bb
00000010: bb30 223d bb4f 613e 5807 e2bd 4a9b 50be
00000020: a5d3 69bd 5f0c c3bd 278f 0dbe a3b2 84bd
00000030: 5d24 ebbd cbf2 f43d 10ad 84bd b720 cd3d

model.backbone.encoder.layers.0.self_attn.W_V.weight f4 [16, 16]
0.13174136 0.07454904 -0.13424139 -0.09526861 -0.00042922352 -0.03493189 0.25349662 0.2299202
-0.2332564 0.015828593 -0.12972844 0.16008574 -0.19073811 -0.0535567 0.17847921 -0.16669722
0.17903449 -0.15210117 0.22779116 0.072047435 -0.037203357 -0.0011498283 0.11448854 -0.13961318
0.20863728 0.16219926 -0.20876603 0.09495684 0.22691448 -0.08964354 0.23764049 -0.14139064
-0.22005935 -0.20453426 0.1110341 0.21600276 0.16248131 -0.005876901 0.1649944 0.08082846
-0.1658752 0.06212384 -0.020694753 0.13259915 0.2384646 -0.038233146 0.106517516 -0.216465
-0.036007114 -0.10578898 -0.014155156 -0.16997688 0.0591251 0.15550469 -0.19350044 0.22501801
0.08750944 -0.11218049 0.0020878387 -0.14635833 0.23179364 -0.19284165 0.2375715 -0.120892696
0.065720335 -0.1570793 0.045168683 0.09264283 0.005943837 0.11713917 -0.12525803 -0.12624273
-0.19391152 -0.21036309 -0.064500295 0.006852191 -0.010080119 -0.062372543 -0.20162682 -0.010395509
0.17060043 -0.10235465 -0.1647086 0.054052092 -0.15051267 -0.037370134 0.03332361 0.01837071
0.23107007 0.12291559 -0.20439704 0.033614196 0.021757359 0.071130954 0.14062668 0.17538725
-0.12212775 0.1689429 0.07223064 0.010132699 0.116750225 0.1506001 -0.1580025 -0.13297418
0.1133078 0.213163 -0.11579945 -0.1420225 -0.22403389 -0.09016139 -0.007084346 -0.15593608
-0.05605817 -0.06608186 0.04643459 0.14144076 0.17983145 0.11836372 -0.21808217 0.10573976
0.03281269 0.19305825 -0.0062811286 0.03812654 -0.19484779 -0.10464992 -0.14993705 -0.14505734
0.05697195 -0.052661225 0.17167445 0.05364217 -0.2127976 -0.02232839 -0.1616538 -0.17931195
-0.07755744 -0.020916084 -0.027552612 -0.16874465 -0.18907215 0.054210544 -0.13602355 -0.14569369
-0.16920502 -0.23297869 -0.03788255 0.1507243 -0.09607628 -0.06329345 -0.08776626 -0.035609636
-0.2450681 -0.226635 -0.18144184 -0.0005872949 -0.1707961 0.07412088 -0.058431473 0.19344305
0.089481026 0.04891119 -0.074670255 -0.23219633 -0.1883795 -0.21070494 0.15639387 -0.12020293
0.06971536 0.20071815 0.21599133 0.0721525 0.16646118 -0.20328912 -0.080901414 -0.19220069
0.16440701 -0.018851902 0.18460234 0.09284452 0.11246669 -0.26581076 0.13305856 0.113079235
-0.26193124 -0.17713764 -0.08573599 0.0020685373 0.1734994 -0.17104167 -0.24371463 -0.10789282
-0.090006 -0.1764399 -0.058146447 0.09628637 0.19280009 -0.14467232 -0.04268519 -0.14630409
-0.18595047 0.23112656 -0.08575849 -0.22450645 0.10760955 -0.04514679 -0.12184112 -0.12268944
-0.19782613 -0.14885205 -0.25726238 0.12830912 0.13971375 -0.18946613 0.09248509 0.22971028
-0.14439556 -0.21900553 -0.24394071 -0.05518021 0.21631315 -0.06342424 0.24887316 0.19018148
0.101639934 0.05835027 -0.025112089 0.08596786 -0.21654758 -0.22285785 0.044302944 -0.08627241
-0.1792269 -0.061817303 0.13900538 0.17252886 0.10171815 0.009954733 -0.12416921 0.23105586
0.12746856 -0.071688056 0.017850937 -0.0153773995 -0.045480415 0.24557662 0.12556458 0.25100484
-0.03530438 0.012802558 0.101673685 -0.17277735 0.24223927 -0.12363125 -0.074655645 -0.033796553
00000000: 35e7 063e 2bad 983d 9376 09be 301c c3bd
00000010: 6809 e1b9 be14 0fbd 4fca 813e 3370 6b3e
00000020: c4da 6ebe f7aa 813c 88d7 04be 84ed 233e
00000030: da50 43be 455e 5bbd 41c3 363e adb2 2abe
00000040: d154 373e 69c0 1bbe 1642 693e 9b8d 933d
00000050: 8c62 18bd d6b5 96ba f878 ea3d c2f6 0ebe
00000060: 03a5 553e 9017 263e c3c6 55be bb78 c23d
00000070: 455c 683e 0897 b7bd 0758 733e b5c8 10be
00000080: 3d57 61be 6e71 51be d965 e33d d42f 5d3e
00000090: 8061 263e 0593 c0bb 4bf4 283e 6489 a53d
000000a0: 30db 29be 9175 7e3d 0b88 a9bc 12c8 073e
000000b0: 1030 743e 5c9a 1cbd db25 da3d 00a9 5dbe
000000c0: 327c 13bd e5a7 d8bd 07eb 67bc 6b0e 2ebe
000000d0: 292d 723d 9f3c 1f3e fb24 46be 1f6b 663e
000000e0: 2638 b33d e2be e5bd 1fd4 083b f5de 15be
000000f0: 505b 6d3e 4878 45be f145 733e 9796 f7bd
00000100: 6298 863d 65d9 20be cc02 393d 86bb bd3d
00000110: 85c4 c23b a9e6 ef3d a443 00be c645 01be
00000120: be90 46be 6c69 57be bb18 84bd 5888 e03b
00000130: 1527 25bc 5a7a 7fbd 4377 4ebe ed51 2abc
00000140: e1b1 2e3e 519f d1bd 5fa9 28be ba65 5d3d
00000150: fe1f 1abe 6d11 19bd 567e 083d 2c7e 963c
00000160: a29d 6c3e 2bbb fb3d 754d 51be 0aaf 093d
00000170: 7d3c b23c 1bad 913d 7100 103e b798 333e
00000180: 1d1e fabd 5eff 2c3e a8ed 933d 9f03 263c
00000190: be1a ef3d ea36 1a3e 68cb 21be 622a 08be
000001a0: eb0d e83d 6747 5a3e 4328 edbd 596e 11be
000001b0: 2469 65be 89a6 b8bd cd23 e8bb b5ad 1fbe
000001c0: 409d 65bd ed55 87bd 3232 3e3d d9d5 103e
000001d0: bc25 383e ae68 f23d ef50 5fbe 168e d83d
000001e0: 9966 063d 10b1 453e edd1 cdbb 932a 1c3d
000001f0: 2e86 47be b252 d6bd 1989 19be e989 14be
00000200: 6b5b 693d 4cb3 57bd 6dcb 2f3e e4b7 5b3d
00000210: 9de7 59be 07ea b6bc 9388 25be 8d9d 37be
00000220: 6fd6 9ebd 3558 abbc 04b6 e1bc 66cb 2cbe
00000230: 219c 41be e00b 5e3d c249 0bbe ba30 15be
00000240: 1544 2dbe f791 6ebe bc2a 1bbd 7957 1a3e
00000250: a4c3 c4bd ff9f 81bd ccbe b3bd 69db 11bd
00000260: 22f3 7abe 0113 68be e4cb 39be b2f4 19ba
00000270: 2ce5 2ebe b0cc 973d d755 6fbd ef15 463e
00000280: d441 b73d 1a57 483d b8ec 98bd e0c4 6dbe
00000290: 8ee6 40be 09c3 57be b725 203e f42c f6bd
000002a0: edc6 8e3d 0f89 4d3e d52c 5d3e b1c4 933d
000002b0: cd74 2a3e 062b 50be a4af a5bd 42d0 44be
000002c0: 505a 283e 4e6f 9abc 6508 3d3e 4525 be3d
000002d0: f054 e63d 5918 88be 8140 083e 1696 e73d
000002e0: da1b 86be 9263 35be 5a96 afbd 4c90 073b
000002f0: d4a9 313e 8c25 2fbe 5490 79be e9f6 dcbd
00000300: 1155 b8bd a9ac 34be f82a 6ebd ca31 c53d
00000310: 636d 453e fb24 14be aad6 2ebd bdd0 15be
00000320: cd69 3ebe 71ac 6c3e 26a2 afbd 05e5 65be
00000330: 6562 dc3d d7eb 38bd d687 f9bd 9a44 fbbd
00000340: ef92 4abe ac6c 18be e5b7 83be 7763 033e
00000350: 1f11 0f3e 6903 42be d368 bd3d 2c39 6b3e
00000360: 6edc 13be fc42 60be 98cb 79be a504 62bd
00000370: 3281 5d3e 91e4 81bd 9bd8 7e3e efbe 423e
00000380: 9928 d03d b100 6f3d deb7 cdbc eb0f b03d
00000390: a6be 5dbe d934 64be 0177 353d 97af b0bd
000003a0: 4287 37be 2434 7dbd 6d57 0e3e 68ab 303e
000003b0: 9b51 d03d 2d19 233c 6d4c febd e899 6c3e
000003c0: 1e87 023e 30d1 92bd 213c 923c 7df1 7bbc
000003d0: ac49 3abd 7078 7b3e 0094 003e b583 803e
000003e0: 539b 10bd d2c1 513c 4b3a d03d 8cec 30be
000003f0: 920d 783e 6132 fdbd 0fe5 98bd 416e 0abd

model.backbone.encoder.layers.0.self_attn.W_V.bias f4 [16]
-0.048160326 -0.043517012 -0.078193136 0.14796747 0.0629492 0.15850055 0.08488739 -0.19716942
-0.059374098 0.06876263 -0.15359323 -0.15210713 0.25045928 0.19153625 -0.11572355 0.16463679
00000000: c343 45bd e53e 32bd b923 a0bd c984 173e
00000010: 83eb 803d f84d 223e 71d9 ad3d c8e6 49be
00000020: 4132 73bd 6cd3 8c3d 8b47 1dbe f9c1 1bbe
00000030: 333c 803e 1422 443e 7800 edbd 8c96 283e

model.backbone.encoder.layers.0.self_attn.to_out.0.weight f4 [16, 16]
-0.14872873 0.04496781 0.12777708 0.11262841 -0.02603816 0.21226276 -0.12264495 -0.25285518
0.22465192 0.18448631 0.2165492 0.115392044 0.10116899 0.11432293 -0.083688825 -0.19601971
-0.029215384 -0.20758298 -0.08504636 0.058270995 -0.07130476 -0.12354229 -0.08512244 -0.08538264
0.1913363 -0.16175921 0.024834106 0.018938014 -0.061401207 0.053177238 0.25508082 -0.17385082
-0.181914 -0.23694034 0.012748176 -0.1907189 0.18208681 0.09123672 -0.1301008 0.12526721
-0.20551455 0.11405371 0.1989133 -0.20121104 0.16462299 -0.19454995 0.0022345926 0.2456408
-0.18791583 0.18410218 -0.0484348 -0.20250565 0.12831286 0.20270114 0.11724137 0.22415276
-0.08606494 0.1487637 -0.20138298 -0.17470941 0.013967543 0.108137 0.15403022 0.13075797
-0.1518069 0.0459003 0.0076294737 -0.14662634 -0.17882106 0.04841351 0.11670731 0.06358156
0.15547146 0.0919012 -0.18931103 -0.16992918 0.22054641 0.019051317 0.20164122 -0.2061933
0.19294025 -0.12231398 -0.015467575 0.24324533 0.057172902 -0.08563233 0.042118087 -0.11737254
-0.095947325 -0.17923394 0.1289115 -0.15353937 -0.07044992 0.21172716 0.08660851 -0.1875534
-0.1417895 -0.23535307 0.18957482 -0.23430021 0.03800237 -0.20844977 -0.014880013 0.10775815
0.109869376 0.18674545 0.13617897 -0.2476179 -0.16838717 0.05526507 -0.12846081 -0.025904413
-0.16599414 0.11117116 0.20259409 -0.23195964 0.08637988 0.056566913 -0.16015264 -0.13493189
-0.15022558 -0.07333174 -0.11715506 -0.21824111 -0.030646527 -0.033652827 0.12457714 0.16435163
0.14791545 0.07340987 -0.22360511 -0.16874379 -0.12000367 0.12775832 -0.22784226 0.20306832
-0.08382564 -0.15197663 0.1800855 0.13998288 -0.08317728 -0.11358462 -0.13708474 -0.06486161
0.071865134 0.033892576 -0.03237345 0.007900647 -0.12609868 0.06814751 -0.23275897 -0.052908733
-0.24405876 -0.09593348 -0.0631769 0.0010846688 0.17976215 -0.2381092 0.10169009 0.18351002
-0.23662016 0.052101474 0.06785784 -0.2269814 0.2384565 0.22789441 -0.11255768 -0.18353787
0.13251132 -0.16585565 -0.19192496 0.09011961 0.050352436 -0.0002696598 0.18803415 0.18805145
0.091137014 0.0854077 -0.23296729 -0.05536085 -0.15828466 0.08705873 -0.20904928 -0.023555992
-0.13246791 -0.15802373 -0.24711646 0.14338037 0.1542994 -0.17392592 0.056881726 -0.19380923
-0.24370717 -0.18626419 0.17994842 -0.2312245 -0.025061589 0.19230857 -0.040213306 -0.14057405
-0.007935579 0.09946983 -0.12724738 -0.1518965 0.18058893 -0.1653522 -0.042043235 0.005819528
-0.02784474 0.13451359 0.08271479 -0.09984546 0.18788688 -0.0607155 -0.1482785 -0.09242725
-0.17311779 -0.07403435 0.07691234 0.12679523 0.19342734 0.010692919 0.016996756 0.06336937
-0.040788513 -0.029145775 0.067722976 -0.2100399 -0.12461943 -0.075037904 0.13439305 0.044214707
0.067975596 0.11516424 0.14847447 0.065767065 -0.051734813 -0.059795063 0.021846741 -0.022215012
-0.035429146 -0.17223069 -0.023236606 0.10341995 0.22215675 0.10973904 -0.06532163 0.073205814
0.24576253 -0.22013906 0.11605642 -0.24447653 -0.17914844 -0.1482232 -0.16228934 -0.23417294
00000000: 584c 18be 2b30 383d ffd7 023e b9a9 e63d
00000010: fb4d d5bc 695b 593e 472d fbbd 3c76 81be
00000020: 270b 663e fbe9 3c3e 13bf 5d3e aa52 ec3d
00000030: b031 cf3d 2422 ea3d 0c65 abbd 64b9 48be
00000040: 1a55 efbc a290 54be c92c aebd 91ad 6e3d
00000050: 3b08 92bd bd03 fdbd ac54 aebd 18dd aebd
00000060: aaed 433e 35a4 25be e570 cb3c e523 9b3c
00000070: d57f 7bbd 60d0 593d f499 823e f305 32be
00000080: aa47 3abe 7da0 72be badd 503c d14b 43be
00000090: f774 3a3e 51da ba3d 2539 05be 0c46 003e
000000a0: 6872 52be fe94 e93d eeaf 4b3e 440a 4ebe
000000b0: ee92 283e 1a38 47be 3e72 123b 4389 7b3e
000000c0: 026d 40be 4885 3c3e 9263 46bd a45d 4fbe
000000d0: 7264 033e e390 4f3e 3e1c f03d 4d88 653e
000000e0: d142 b0bd 8355 183e 5737 4ebe 06e7 32be
000000f0: 1fd8 643c ee76 dd3d 19ba 1d3e 6be5 053e
00000100: 4573 1bbe f401 3c3d aa00 fa3b 3725 16be
00000110: de1c 37be 3f4d 463d 3e04 ef3d 0d37 823d
00000120: e933 1f3e b236 bc3d c0da 41be ea01 2ebe
00000130: ebd6 613e 8211 9c3c 097b 4e3e 5624 53be
00000140: 2192 453e c07f fabd b66b 7dbc 4e15 793e
00000150: 222e 6a3d 0160 afbd 0484 2c3d 0461 f0bd
00000160: 0880 c4bd 1a89 37be 6001 043e 6d39 1dbe
00000170: 0c48 90bd 01cf 583e cd5f b13d 000e 40be
00000180: 4431 11be 6500 71be e71f 423e 65ec 6fbe
00000190: 60a8 1b3d db73 55be 4ccb 73bc 4eb0 dc3d
000001a0: 3203 e13d 333a 3f3e 8072 0b3e 8c8f 7dbe
000001b0: b06d 2cbe a05d 623d 3b8b 03be 7e35 d4bc
000001c0: 5efa 29be b5ad e33d d374 4f3e d486 6dbe
000001d0: efe7 b03d b5b2 673d 0eff 23be 962b 0abe
000001e0: bcd4 19be f42e 96bd feee efbd 997a 5fbe
000001f0: 6d0e fbbc 8cd7 09bd 4d22 ff3d cb4b 283e
00000200: 2677 173e ea57 963d bdf8 64be 2ccb 2cbe
00000210: 7cc4 f5bd 14d3 023e 7b4f 69be 24f1 4f3e
00000220: c7ac abbd c39f 1bbe 5568 383e ac57 0f3e
00000230: da58 aabd 0e9f e8bd f15f 0cbe 2ad6 84bd
00000240: 072e 933d f1d2 0a3d 069a 04bd b771 013c
00000250: 0320 01be ec90 8b3d 5e58 6ebe d4b6 58bd
00000260: 8aea 79be c678 c4bd e462 81bd 722b 8e3a
00000270: 9213 383e e6d2 73be e542 d03d 0dea 3b3e
00000280: 8e4c 72be 5b68 553d 0df9 8a3d d06d 68be
00000290: f12d 743e 275d 693e a484 e6bd 5af1 3bbe
000002a0: 0cb1 073e 10d6 29be fa87 44be a190 b83d
000002b0: 5b3e 4e3d 2061 8db9 068c 403e 8f90 403e
000002c0: 0ba6 ba3d 3bea ae3d fa8e 6ebe 0fc2 62bd
000002d0: 6015 22be d94b b23d 0411 56be 7ff8 c0bc
000002e0: aba5 07be f9d0 21be 190c 7dbe 4ed2 123e
000002f0: a900 1e3e a319 32be d0fc 683d ed75 46be
00000300: 5f8e 79be 0abc 3ebe 6644 383e 1ec6 6cbe
00000310: f64d cdbc 8aec 443e b5b6 24bd a5f2 0fbe
00000320: 3b04 02bc d7b6 cb3d 234d 02be c28a 1bbe
00000330: 4eec 383e 1652 29be 8735 2cbd bdb1 be3b
00000340: a71a e4bc eebd 093e 5f66 a93d c77b ccbd
00000350: 6b65 403e d1b0 78bd 52d6 17be 804a bdbd
00000360: ca45 31be 529f 97bd 3884 9d3d 9cd6 013e
00000370: d111 463e 5a31 2f3c c83c 8b3c cdc7 813d
00000380: db11 27bd 1fc3 eebc 58b2 8a3d b314 57be
00000390: 7938 ffbd 79ad 99bd 559e 093e 7b1a 353d
000003a0: ca36 8b3d 3bdb eb3d b109 183e e2b0 863d
000003b0: e2e7 53bd abeb 74bd f0f7 b23c 42fc b5bc
000003c0: 271e 11bd 3e5d 30be b25a bebc d7cd d33d
000003d0: 0f7d 633e ddbe e03d 59c7 85bd eeec 953d
000003e0: 2ca9 7b3e 226c 61be fdae ed3d 0e58 7abe
000003f0: b072 37be d3c7 17be 2d2f 26be 08cb 6fbe

model.backbone.encoder.layers.0.self_attn.to_out.0.bias f4 [16]
-0.19880038 0.056965217 -0.11173234 -0.08066128 -0.15314184 0.19117945 0.0023504433 0.084400766
0.10148883 -0.045510326 0.22840267 -0.001889957 -0.20927423 -0.23769587 0.11690141 0.22290228
00000000: 5492 4bbe 5c54 693d edd3 e4bd be31 a5bd
00000010: 37d1 1cbe 8cc4 433e e509 1a3b 4fda ac3d
00000020: 60d9 cf3d 0969 3abd 64e2 693e 6fb8 f7ba
00000030: fc4b 56be 8c66 73be 026a ef3d 7f40 643e

model.backbone.encoder.layers.0.norm_attn.1.weight f4 [16]
1.0110632 1.0127133 1.0050117 0.9900369 0.9916525 1.0129005 1.011086 0.9915616
0.99652725 0.98970187 0.99371326 1.0028762 1.0066668 0.99743134 0.99317324 0.99188185
00000000: 856a 813f 97a0 813f 39a4 803f 0f73 7d3f
00000010: f0dc 7d3f b9a6 813f 446b 813f fbd6 7d3f
00000020: 691c 7f3f 1a5d 7d3f fe63 7e3f 3f5e 803f
00000030: 75da 803f a957 7f3f 9a40 7e3f f8eb 7d3f

model.backbone.encoder.layers.0.norm_attn.1.bias f4 [16]
0.0032218941 -0.00080548535 -0.013106444 0.0020649852 -0.0087378835 -0.010146291 0.0004564387 -0.0006956573
-0.011802272 -0.008632684 -0.0014310486 -0.00059919624 -0.0018873715 0.004408917 0.012001911 -0.0059181824
00000000: 6a26 533b 3527 53ba 69bc 56bc b454 073b
00000010: 5729 0fbc a13c 26bc 2a4e ef39 c55c 36ba
00000020: 515e 41bc 1a70 0dbc 0692 bbba 6113 1dba
00000030: ae61 f7ba ad78 903b aaa3 443c 50ed c1bb

model.backbone.encoder.layers.0.norm_attn.1.running_mean f4 [16]
-0.16669221 0.035906687 -0.0732461 0.007559999 0.09123249 0.08618082 -0.032819293 -0.018937785
-0.1390883 0.1802886 0.21006207 0.13942048 -0.07673268 -0.056305513 -0.042364903 0.13271227
00000000: 5db1 2abe e412 133d 0d02 96bd deb9 f73b
00000010: 1ad8 ba3d 927f b03d 866d 06bd 6a23 9bbc
00000020: 2a6d 0ebe 939d 383e 831a 573e 3ec4 0e3e
00000030: 0626 9dbd 9ca0 66bd d286 2dbd bae5 073e

model.backbone.encoder.layers.0.norm_attn.1.running_var f4 [16]
0.30485904 0.31193903 0.4334108 0.62392914 0.32219574 0.47185013 0.3020697 0.17238961
0.2421141 1.0531375 0.7019306 0.24071275 0.2858301 0.2670576 0.23190436 0.26939556
00000000: 7c16 9c3e 79b6 9f3e 05e8 dd3e d2b9 1f3f
00000010: d7f6 a43e 5796 f13e e1a8 9a3e e786 303e
00000020: c2ec 773e 36cd 863f b9b1 333f 677d 763e
00000030: 5358 923e c6bb 883e 5678 6d3e 37ee 893e

model.backbone.encoder.layers.0.ff.0.weight f4 [128, 16]
0.15651922 -0.052810203 0.2361471 0.20092508 0.115146644 0.14692542 0.05856329 -0.14738709
0.22037567 -0.11047461 -0.16367032 0.1290904 -0.02361927 0.20417286 -0.11621054 -0.03211027
-0.2103637 0.009323659 0.13560274 -0.19277039 -0.029047437 0.15188162 0.15553902 -0.04237212
-0.11895603 -0.004585063 0.18708105 0.0036651243 -0.12948464 -0.080632694 -0.11155703 0.14995262
0.10426172 -0.07339941 0.1940396 0.22187279 0.045052044 -0.21006328 0.23679703 0.013404123
-0.105389245 0.074735254 0.201248 0.2055011 -0.04750562 0.19716871 0.03873323 -0.01655104
0.11253498 -0.0773106 -0.015597266 0.061040074 0.10391939 0.23324636 -0.1301029 -0.07295576
-0.05188454 0.010432317 -0.07605191 0.043930963 -0.14769268 -0.20252793 0.11662204 -0.24176174
-0.15404451 0.06563334 -0.245334 0.017710475 0.18427107 -0.06006069 -0.2185074 -0.116958
-0.15020466 -0.0708338 -0.08880919 -0.22125863 -0.06213622 -0.115172826 0.15221038 -0.11632866
0.09451032 -0.03306647 -0.23302256 -0.08636326 -0.21585153 0.16553982 -0.14772405 -0.033056606
-0.06128855 -0.049250156 0.088700555 -0.2371698 -0.03145503 0.021437194 -0.049087185 0.030856172
-0.16286688 0.23313014 -0.15661085 -0.18595415 0.2064906 -0.11464216 0.03557066 0.18114752
0.15430352 0.1935723 -0.14701319 0.033394963 -0.0050485716 -0.15012264 0.08755944 -0.10496653
0.096008696 -0.022651725 0.03200907 -0.10060987 0.24251175 -0.15841633 0.04150751 -0.22354919
-0.18670908 -0.12204373 -0.18603906 0.07702743 -0.06587772 -0.21293187 0.12545018 -0.16519696
0.19346409 -0.17009783 0.13907917 0.14842494 -0.011230804 0.16379139 -0.027208904 0.09093581
-0.082439564 0.11136239 0.15810454 -0.11357835 -0.077647835 -0.23987916 -0.13163327 -0.019361714
-0.09792752 -0.17436929 -0.19661382 0.1951041 -0.22701102 -0.19349572 -0.08285421 0.18472861
-0.16801667 -0.08920885 -0.1376298 -0.060785867 0.116614856 -0.024229081 -0.112763934 -0.023531899
0.14657536 0.12908103 -0.026561748 0.16869013 -0.15909825 -0.16677438 0.1431648 0.08435787
-0.073435135 -0.027711336 0.02014544 -0.19677505 -0.10392127 -0.17990705 0.08680179 0.07831013
0.090360686 0.22984125 -0.22331181 -0.10838207 -0.11038303 0.13144596 -0.11226327 0.06985759
0.2311838 -0.014849794 -0.18836448 0.08158852 0.15489481 -0.06519644 -0.22404286 0.20533872
0.013944193 -0.183937 -0.064025104 0.17831391 -0.051644973 -0.18521494 0.09475638 -0.14450791
0.0039393487 0.034833223 -0.19576892 -0.12199576 -0.18572593 0.18498789 -0.0044607297 -0.02958415
0.08526076 -0.18053457 -0.14431839 -0.20135853 -0.14170435 -0.025017576 -0.2500598 -0.22106726
0.12830453 -0.16078284 -0.23400928 -0.006798265 -0.23364258 -0.22322729 -0.089900665 -0.0788583
-0.18536383 -0.1239515 0.24179788 0.22507694 0.1370555 -0.06695739 0.07142878 0.11201676
-0.17523883 0.13012685 -0.21919627 -0.10999777 0.1734114 -0.13500601 -0.1526534 0.19198813
0.16816221 -0.004171439 0.22187582 -0.22908765 0.13685744 -0.017732143 0.16262865 0.1646768
-0.20537874 0.16203257 0.09700964 -0.22201508 -0.008934865 0.08892714 0.18806493 -0.119045585
00000000: 9346 203e 834f 58bd 8cd0 713e 4ebf 4d3e
00000010: 01d2 eb3d 9e73 163e 0fe0 6f3d a4ec 16be
00000020: 29aa 613e 8340 e2bd 3199 27be 4630 043e
00000030: 337d c1bc b112 513e cbff edbd 0f86 03bd
00000040: 9569 57be 43c2 183c 72db 0a3e 9a65 45be
00000050: e4f4 edbc db86 1b3e 9f45 1f3e 638e 2dbd
00000060: 389f f3bd 4c3e 96bb 2d92 3f3e 9532 703b
00000070: 9f97 04be c122 a5bd 0378 e4bd 2e8d 193e
00000080: 2b87 d53d 6e52 96bd 51b2 463e 9f32 633e
00000090: 7e88 383d d41a 57be ec7a 723e f79c 5b3c
000000a0: 51d6 d7bd cc0e 993d f513 4e3e e16e 523e
000000b0: 4195 42bd 98e6 493e bca6 1e3d 0c96 87bc
000000c0: bd78 e63d 0555 9ebd ad8b 7fbc 2805 7a3d
000000d0: b0d3 d43d 22d8 6e3e b239 05be d469 95bd
000000e0: e284 54bd 4fec 2a3c 1bc1 9bbd f4f0 333d
000000f0: c03c 17be 7b63 4fbe 89d7 ee3d 6490 77be
00000100: d8bd 1dbe c66a 863d d638 7bbe 8f15 913c
00000110: 8eb1 3c3e 3302 76bd 67c0 5fbe ad87 efbd
00000120: 40cf 19be 5011 91bd 98e1 b5bd 9f91 62be
00000130: 8d82 7ebd bbdf ebbd 0add 1b3e b83d eebd
00000140: a08e c13d b570 07bd 779d 6ebe 39df b0bd
00000150: 2f08 5dbe 4583 293e f944 17be 5d66 07bd
00000160: b409 7bbd 88ba 49bd a3a8 b53d a4dc 72be
00000170: fdd6 00bd 0e9d af3c a50f 49bd 15c6 fc3c
00000180: 93c6 26be abb9 6e3e 985e 20be c46a 3ebe
00000190: 4672 533e 82c9 eabd 8ab2 113d bc7e 393e
000001a0: be01 1e3e d137 463e a08a 16be 28c9 083d
000001b0: 7d6e a5bb c0b9 19be 5d52 b33d b1f8 d6bd
000001c0: 35a0 c43d 1c90 b9bc f11b 033d 8c0c cebd
000001d0: 0055 783e e437 22be c703 2a3d 14ea 64be
000001e0: aa30 3fbe 10f2 f9bd 0681 3ebe 8fc0 9d3d
000001f0: e6ea 86bd d00a 5abe 0376 003e 6429 29be
00000200: 731b 463e 202e 2ebe c56a 0e3e b5fc 173e
00000210: 6801 38bc eeb8 273e 35e5 debc 8e3c ba3d
00000220: 13d6 a8bd f711 e43d 28e6 213e c49b e8bd
00000230: d405 9fbd e2a2 75be dfca 06be 759c 9ebc
00000240: 398e c8bd dd8d 32be 2255 49be 5fc9 473e
00000250: 9475 68be be23 46be 78af a9bd 7f29 3d3e
00000260: 900c 2cbe 21b3 b6bd d4ee 0cbe 9afa 78bd
00000270: c5d3 ee3d 117c c6bc c7f0 e6bd f8c5 c0bc
00000280: da17 163e d12d 043e 0698 d9bc 1bbd 2c3e
00000290: a7ea 22be e7c6 2abe cb99 123e d2c3 ac3d
000002a0: 2965 96bd e202 e3bc 0d08 a53c 667f 49be
000002b0: add4 d4bd 8e39 38be 23c5 b13d 1061 a03d
000002c0: 060f b93d 815b 6b3e daab 64be 6bf7 ddbd
000002d0: 7f10 e2bd c599 063e 49ea e5bd 7f11 8f3d
000002e0: 72bb 6c3e 8d4c 73bc 9ee2 40be e217 a73d
000002f0: bf9c 1e3e b685 85bd 7e6b 65be 5044 523e
00000300: 2f76 643c fb59 3cbe 981f 83bd ec97 363e
00000310: ae89 53bd fca8 3dbe a20f c23d e2f9 13be
00000320: a715 813b 48ad 0e3d a677 48be ead8 f9bd
00000330: f02e 3ebe 776d 3d3e 502b 92bb 765a f2bc
00000340: 319d ae3d 0ede 38be 33c8 13be ee30 4ebe
00000350: f21a 11be a9f1 ccbc d707 80be 755f 62be
00000360: 4362 033e 42a4 24be 21a0 6fbe fbc3 debb
00000370: 0040 6fbe b295 64be d71d b8bd 7680 a1bd
00000380: 04d0 3dbe 49da fdbd dd99 773e 927a 663e
00000390: 4758 0c3e f520 89bd 4149 923d 0b69 e53d
000003a0: cf71 33be f93f 053e fd74 60be 8346 e1bd
000003b0: c292 313e 043f 0abe 2c51 1cbe 8998 443e
000003c0: b732 2c3e 91b0 88bb 6a33 633e f495 6abe
000003d0: 5b24 0c3e 0043 91bc 2088 263e 09a1 283e
000003e0: ce4e 52be deeb 253e fdac c63d ec57 63be
000003f0: 8a63 12bc 6f1f b63d 1894 403e 2cce f3bd
