TSF_Finance/checkpoints/ixic_all_0613__PatchTST_custom_ftM_sl96_ll48_pl36_dm16_nh4_el3_dl1_df128_fc1_ebtimeF_dtTrue_Exp_0/checkpoint.pth (torch_old, 175258 bytes, 65 tensors)

model.backbone.W_pos f4 [38, 16]
000000 a3 e3 c6 bc c0 a1 0d bc df 1d 2d bc c1 46 f3 3c
       -0.024278468 -0.008644521 -0.010566204 0.029696824
000010 9c ca 6f 3c fc a2 2d 3c 0e 3b cb bc 43 df 18 3c
       0.014635708 0.010597941 -0.024808433 0.0093305735
000020 7e 53 4a 39 d1 b6 70 3b 77 70 bd ba 8e e8 30 bc
       0.00019295324 0.003673006 -0.0014453073 -0.010797633
000030 be c4 0e 3c 8b ca 05 bb 6c 52 a7 bc 6a d7 b4 3c
       0.008713899 -0.0020414914 -0.020425044 0.022075374
000040 92 b6 ae bb dd ea 89 3c e8 0a 5d 3c 1a fa 9f bb
       -0.0053318227 0.016835624 0.01349137 -0.0048821094
000050 45 78 02 3c d7 2d 7c 3b 76 e6 8f bc d2 d0 44 3c
       0.007963245 0.003847947 -0.017565947 0.012012677
000060 9d cb 82 bc ee 8d 12 39 05 8e cd 3b af 81 5a 3c
       -0.015966231 0.00013976518 0.0062730336 0.013336583
000070 4c 14 7b bc 23 27 82 3b 1a 83 5e bb 0a c7 50 bc
       -0.015324663 0.0039719506 -0.0033952654 -0.012742767
000080 b6 04 32 bc 95 ee 88 bc eb 87 d2 bb 1d 84 3f bc
       -0.010865381 -0.016715327 -0.006424894 -0.011689213
000090 9d 88 59 bc 06 57 44 3b b0 b3 3c bb 32 14 82 3b
       -0.0132772 0.0029959097 -0.0028793626 0.0039696926
0000a0 15 92 9a 3c dd 32 ba 3c db 2a 96 bb 92 89 9e 3a
       0.018868485 0.022729332 -0.0045827455 0.0012095443
0000b0 72 41 71 3c 51 a0 98 3c 67 40 bb 3b 55 be a4 3c
       0.014725076 0.018631132 0.0057144645 0.020110289
0000c0 5c c5 9c bb 7b 6b 80 3b 7c 6b 33 3c 29 9c 92 3c
       -0.0047842693 0.0039190627 0.010950919 0.017896729
0000d0 64 79 0d bc f3 22 b2 3b 73 2f dd 3b 6e 10 d9 bc
       -0.008634899 0.005436295 0.006750041 -0.026497092
0000e0 17 53 55 3b 82 71 b2 3c 70 d8 77 bc d4 28 48 bb
       0.0032550746 0.02178264 -0.015127286 -0.0030541914
0000f0 06 68 a5 3c 0f c4 43 3c 0e 3e ca bc 4a 02 00 bc
       0.020191204 0.0119485995 -0.024687793 -0.007813046
000100 d5 23 41 bc 61 c1 65 bc 2f fb 9e ba 59 cc b7 3c
       -0.011788328 -0.014023156 -0.0012129302 0.022436308
000110 5b b6 a7 bc b6 ab c8 3c 9f 63 d1 ba 63 a3 32 bc
       -0.020472696 0.02449594 -0.0015975124 -0.010903212
000120 9a 12 0b 3c c6 f6 0c bc c5 ca a9 3b dd 82 3c 3a
       0.008488322 -0.008603757 0.0051816427 0.0007191131
000130 cb 34 85 3c a9 25 1e 3c 3d 31 b6 bb 1c 3b 07 bc
       0.016260525 0.009652534 -0.005560069 -0.008253839
000140 eb 3d 42 3c 03 34 38 3c de 67 46 3c a9 10 31 38
       0.011855583 0.011242869 0.012109725 4.2215604e-05
000150 da f3 9c b9 02 a7 50 3c f4 5b d0 3c 92 01 5a b9
       -0.00029936322 0.01273513 0.025434472 -0.00020790685
000160 5d 80 0d 3c 5d e1 33 bb bf 74 17 3c c3 ee 6c 3c
       0.008636561 -0.002744756 0.009244143 0.014461222
000170 62 15 26 bc b1 e1 ab bc 10 66 c7 bc 6f 0a a0 bc
       -0.010136934 -0.020981641 -0.02434066 -0.019536225
000180 56 88 a7 3c 75 86 d5 3c a8 ab 0a 3c 3e 71 15 3d
       0.020450752 0.02606509 0.008463778 0.03648495
000190 33 a6 cd bc 37 bf 2f bc 3d d6 17 b8 d9 67 df bb
       -0.025103664 -0.0107267415 -3.620073e-05 -0.0068177995
0001a0 1f ab 9e bb 47 55 ef bb e7 10 55 3c d8 61 cd bc
       -0.0048421766 -0.007303867 0.013004518 -0.02507107
0001b0 ad b8 2a 3c bb 42 89 b9 16 dc 1d bb f9 5b b0 bb
       0.010420007 -0.00026180394 -0.002408748 -0.0053820577
0001c0 21 a2 7e bb 59 55 d6 bb 55 f4 0b ba ac 89 8b 3b
       -0.003885396 -0.006540936 -0.00053388375 0.004258355
0001d0 84 fe 1b 3c 96 d1 ad bc 2f 0a c6 bb a1 04 1d 3b
       0.0095211305 -0.021218102 -0.0060436944 0.0023959058
0001e0 ab 81 24 3c 06 57 13 3c fb 3a 80 3a 8a e2 85 3c
       0.010040681 0.008992916 0.0009783203 0.016343374
0001f0 42 4d 2f 3c 5d 83 a3 3c 9d d3 d1 3b 54 47 5b bc
       0.010699572 0.0199601 0.0064034 -0.013383705
000200 29 1f bb bc d5 86 b6 3c ce 90 40 ba 83 60 95 3c
       -0.022842007 0.02228109 -0.00073457963 0.018234497
000210 00 d1 2a bb 40 9f 3c 3c 03 62 e2 3b eb 2d 28 bc
       -0.0026064515 0.0115125775 0.0069086566 -0.010264854
000220 be 28 39 bc 7c bb e4 bc 2d 15 a2 3b e4 5a f7 3b
       -0.011301218 -0.02792143 0.004946372 0.007548677
000230 4e 8b 5e ba 13 c6 b5 bb 2a 45 2b bc 6b ef 5b bc
       -0.0008489386 -0.005547294 -0.010453502 -0.013423781
000240 fc b4 95 bc f4 eb 32 3c 3f f9 9f 3b 13 93 54 3c
       -0.018274777 0.010920513 0.0048820074 0.012974518
000250 4c b1 a1 3a 02 ea 9b 3b 61 b5 97 3c cf ac b8 3b
       0.0012336164 0.0047581205 0.018519105 0.0056358348
000260 2c e5 f2 3b 0e 99 7b bc c9 43 dc bc df fd 57 bc
       0.0074125733 -0.015356315 -0.026887791 -0.013183086
000270 29 a5 42 3b c4 23 af bc 7c 61 3a bc f4 f5 04 3c
       0.0029700494 -0.021379359 -0.011375781 0.00811528
000280 22 51 a4 3c 97 0d 6e 3b 86 36 85 bc 83 f4 32 3c
       0.020058218 0.0036324018 -0.01626135 0.010922554
000290 1f cd b6 bc 38 00 9c bb f8 16 bc bc a0 fd 6f 3c
       -0.022314606 -0.0047607683 -0.022960171 0.014647871
0002a0 9e af c2 bc 2e 07 f9 3a 39 b2 41 3c 8c fc 82 bc
       -0.023765381 0.0018999332 0.011822277 -0.015989564
0002b0 12 8d 4f bb d6 74 f2 bc a1 5c 9a 3b 83 2b b3 bc
       -0.0031669778 -0.029596727 0.0047107493 -0.021871334
0002c0 db 43 b3 3c 3d ca e8 3c 2e d9 b1 3c 72 1c b4 bc
       0.021882942 0.028416747 0.021710005 -0.02198622
0002d0 71 94 0c bc a9 34 14 3c 73 08 ca bb b0 9f 47 bc
       -0.008580313 0.009045758 -0.006165558 -0.012184069
0002e0 40 b7 13 3c 55 7c 76 bc 9f bd 2f bc c6 91 ba bc
       0.009015858 -0.0150442915 -0.010726362 -0.022774588
0002f0 8e cb 8b 38 5f c7 06 bc fe f4 a6 3c 6a 19 9f 3c
       6.6659515e-05 -0.008226245 0.020380493 0.019421298
000300 48 f1 0d 3c 50 75 1f bc 5c e7 e7 bc 20 e8 eb ba
       0.008663483 -0.009732559 -0.028308563 -0.0017998256
000310 3b b5 71 bb 77 32 50 3b 8d 74 d5 bb 4e 52 c1 3c
       -0.0036881703 0.003176836 -0.006514138 0.023598816
000320 93 ef 02 bd ec a4 e5 39 0b f4 8d bc 27 ed 7f 3b
       -0.031966757 0.0004380116 -0.017328283 0.0039051266
000330 8f 43 db bb b5 e3 d0 bc 8c 0d b5 bc 63 e4 5f 3c
       -0.006691403 -0.025499204 -0.022101186 0.0136652915
000340 eb 9a 03 3d 89 e5 ac bc fd a7 52 b9 17 85 14 bb
       0.032130163 -0.021105545 -0.00020089741 -0.0022662336
000350 53 45 a5 3c d8 32 68 bc 3b dc 34 3c c9 9f d3 ba
       0.020174658 -0.014172278 0.011038835 -0.0016145642
000360 9b 66 a1 bc cb 6c 66 3b db d8 8a bc 11 f7 d4 bb
       -0.019702246 0.003516006 -0.016949108 -0.006499179
000370 18 30 28 bc 52 d2 b9 3a f3 de dc bb 74 4e 65 3c
       -0.010265373 0.001417706 -0.006740445 0.013995755
000380 84 03 db ba a6 f1 99 3b 7d 76 0d 3b 99 44 33 3c
       -0.0016709422 0.004697996 0.0021585517 0.010941648
000390 ce 3c 86 3c db 5c b5 bb 34 11 07 bc 21 80 aa bc
       0.016386416 -0.005534751 -0.008243848 -0.02081305
0003a0 84 16 61 3c 84 b5 1c 3b 77 bd 83 bc d8 3e d6 bb
       0.013738278 0.0023911903 -0.016081555 -0.0065382533
0003b0 4a e4 96 bc ad b0 d7 bb 72 be 3d 3c 84 7d 0b bc
       -0.018419404 -0.0065823407 0.01158105 -0.008513812
0003c0 67 7b 71 3c 82 48 2c bc a9 50 8e 3b e0 e1 90 3c
       0.014738894 -0.010515334 0.0043431115 0.01768583
0003d0 70 51 b9 3b 90 e6 9c bc d8 f1 30 3a 5b 86 79 bc
       0.00565546 -0.01915291 0.0006749905 -0.015229787
0003e0 14 8a 34 bc e5 47 69 3b 50 d8 c8 bc ff 25 19 3c
       -0.0110192485 0.003559583 -0.024517208 0.009347438
0003f0 8e b2 e9 3b 80 bc 29 3c cd 64 69 3c bb b7 08 bc
       0.007131881 0.010359883 0.014245224 -0.008344586

model.backbone.W_P.weight f4 [16, 24]
000000 cc f8 14 be 4e 24 fa 3b 3e b7 c8 3d 39 e6 b5 3d
       -0.14548033 0.0076337224 0.09800576 0.08881802
000010 97 37 f7 3c 58 74 07 be b6 c1 37 be 00 42 43 3e
       0.030177874 -0.13227975 -0.17944989 0.19068146
000020 25 9a a6 bd 0b d9 25 be 04 7d fe 3d 6d 88 4d be
       -0.081348695 -0.16196077 0.124261886 -0.20071574
000030 25 ab f7 3d 4b 14 28 be 56 b4 b8 3d ee ab 82 bd
       0.1209319 -0.16413991 0.09018771 -0.06380449
000040 77 b7 fc b9 da 2f b4 bd 85 6d e4 3d 26 05 c5 3d
       -0.00048201878 -0.087981895 0.11153702 0.096201226
000050 a0 bd 04 3e 14 65 72 bd 0a 90 69 3e 8b 13 15 3d
       0.12962961 -0.059178427 0.22808853 0.03639559
000060 88 1f 82 bd b1 16 4b be 0c fb fe 3d e7 19 44 be
       -0.0635367 -0.19832875 0.12450227 -0.19150506
000070 56 f4 12 be 2c ef a1 bd 22 8a 88 3d a0 a2 90 3d
       -0.1435102 -0.079069465 0.06666972 0.07062268
000080 db 43 02 3e 7e 00 a1 3b 11 ec c1 3d 04 e1 03 3e
       0.12721197 0.0049133888 0.09468854 0.12878805
000090 c7 33 4d be 9b 91 36 be 18 dc 51 be 6d 3d 1c be
       -0.20039283 -0.17828982 -0.20494115 -0.15257807
0000a0 8f f2 bb 3d b8 90 2e 3e b4 54 7b 3d 59 05 2a be
       0.09177124 0.17047393 0.061360076 -0.16603602
0000b0 63 a0 b9 3d 73 6f de 3d 25 04 33 3e 2c f9 3e be
       0.090637945 0.10861101 0.1748205 -0.18649739
0000c0 b4 db f6 bc d8 b1 d7 bd 45 fe 32 3e 96 42 e2 3d
       -0.03013406 -0.10531968 0.17479809 0.110478565
0000d0 e8 46 cb 3c 62 c8 71 3c cb 0d b4 3d 3e 93 1d be
       0.024814084 0.014757248 0.08791693 -0.153882
0000e0 5c de 50 bc 33 b5 12 be bd f9 a7 3d f0 88 98 3d
       -0.012748327 -0.14326935 0.08201931 0.07447994
0000f0 38 63 26 be 2e ea 86 3b b0 10 d2 3d 30 24 dd 3d
       -0.16248786 0.004117272 0.10257089 0.10797918
000100 3b f3 49 3e 00 ab 30 be 67 61 4d bd ce 12 89 bd
       0.19721691 -0.17252731 -0.05014172 -0.0669304
000110 2c 9a 2a be 69 be 65 be c2 4d 42 be ad 8b 4e 3d
       -0.16660374 -0.22435917 -0.18974975 0.050426174
000120 26 aa 34 be 06 23 c5 bd 7a 19 0f be 71 bc 21 be
       -0.17643031 -0.09625821 -0.13974562 -0.15794541
000130 03 ca 3f 3e 65 3c 9b bc 50 af 8b bd 98 1e 3c 3e
       0.18729405 -0.018949697 -0.068205476 0.18371046
000140 0b c0 f3 bd db 75 ad bd 12 7d 8b bd 1b e6 0a be
       -0.11901864 -0.08469745 -0.06810965 -0.13564341
000150 23 03 c2 bd a8 6c 50 bd 08 e7 02 3c eb 28 06 be
       -0.094732545 -0.050884873 0.007989652 -0.13101546
000160 74 cb ab bc 48 73 40 3e ef 9d 21 bc 72 71 17 bd
       -0.020971037 0.18793976 -0.009864314 -0.036973424
000170 ab ff 5a be a4 c7 2a be 59 20 a9 3d 86 7e c9 3d
       -0.21386592 -0.1667772 0.08258123 0.098385856
000180 88 91 3d be 92 cf 5d 3d 7b 05 61 3d ba 77 84 bd
       -0.18512547 0.054153033 0.054936867 -0.064681485
000190 e7 70 32 3e e5 e6 45 3d 70 27 0a be e9 a5 43 3e
       0.17425881 0.0483159 -0.13491607 0.19106258
0001a0 21 fe e8 3d a0 da a0 bd 2b ad 0b 3d 18 7a 29 3e
       0.11376596 -0.078541994 0.034100693 0.16550481
0001b0 03 85 30 3e 4c bf e9 3d 1e eb 96 3d 90 90 e5 3b
       0.1723824 0.1141344 0.07369064 0.0070057586
0001c0 ca 2c 53 3d 7a e7 04 be 0a a4 a8 3c 33 fb 39 be
       0.051556386 -0.12978926 0.020586032 -0.18162231
0001d0 9f 51 0b 3e 68 c9 fa bd 70 3e ef bd b6 c9 3b 3e
       0.13605355 -0.122454464 -0.11681831 0.18338665
0001e0 a5 64 58 bd 12 b0 f6 bd 5c 8a 1b be 73 63 cf 3d
       -0.052830357 -0.120453015 -0.15189499 0.1012639
0001f0 22 bb 2d be fd c7 24 3e 92 42 87 3d b2 90 45 3e
       -0.16965917 0.16091914 0.06604494 0.19293478
000200 d9 11 98 bd 10 7d 2c be 3f b7 30 bc 29 8d 2f 3e
       -0.07425279 -0.16844583 -0.010785877 0.17143692
000210 d8 b4 ad bd 9f 61 36 be d0 1c 23 3e cd bd 11 3e
       -0.08481759 -0.17810677 0.1592896 0.1423256
000220 64 07 26 3e e3 b9 02 3e 5d 27 08 3c 9c 15 26 be
       0.16213757 0.12766223 0.008310166 -0.16219181
000230 6b 6d 12 be c8 fb e9 bd 68 22 24 be ca 9e 48 be
       -0.14299552 -0.114249766 -0.1602875 -0.19591823
000240 f6 33 19 3e aa 48 17 3e 9d 8f 09 be e6 2f 84 bc
       0.14961228 0.14773813 -0.1343369 -0.016136121
000250 84 d2 41 3e ff ea bf 3d 26 75 35 bd ae f9 70 bd
       0.18927962 0.09370994 -0.044301175 -0.058831863
000260 d8 17 d1 3d 9d 38 a3 bd 35 86 1c be 02 b8 6c bd
       0.10209626 -0.079697825 -0.15285571 -0.05779267
000270 69 ab 00 3e f9 e7 ac bd f6 39 10 be 12 40 95 bd
       0.12565388 -0.08442683 -0.1408461 -0.07287611
000280 f4 64 97 bd 1f f5 15 be 0c 42 2b bb 6e 71 cf 3d
       -0.07392302 -0.14644288 -0.0026131896 0.10129057
000290 d9 d5 41 3e 69 17 89 3d f8 2a 38 3e 16 de df 3d
       0.18929233 0.06693918 0.17985141 0.109310314
0002a0 92 87 4f bd 19 b6 1b be da ba 4a bd 59 a7 cf 3d
       -0.0506664 -0.15206183 -0.0494946 0.10139341
0002b0 1b 51 48 3d 62 1e 3f bd 58 0c cc ba 88 1d 9c 3d
       0.048905473 -0.046659835 -0.0015567644 0.0762282
0002c0 49 e4 aa bc ee b1 21 3e 9c 6a f4 bd b5 3a 05 3d
       -0.020860808 0.15790531 -0.119343966 0.03252669
0002d0 fa bd e9 3d 74 9e 2b 3e 13 15 02 3d 4f 94 5c 3c
       0.11413188 0.16759664 0.03175838 0.013463094
0002e0 e3 0b 32 3e b0 08 18 be 61 ad d8 bd 2e d8 05 be
       0.17387347 -0.14847064 -0.105799444 -0.13070747
0002f0 c3 67 33 3e 48 45 75 bc 0b b4 45 be 07 4c 1f bc
       0.1752005 -0.014970131 -0.19306962 -0.009722716
000300 38 7c 46 be cf db d6 3d 83 5f 1a 3e e9 06 9c 3d
       -0.19383323 0.10491144 0.15075497 0.076185055
000310 d1 4c 4c bd e7 36 f6 bd 59 ac 2d 3e fa ed 28 bd
       -0.049877945 -0.120221905 0.16960277 -0.041242577
000320 8f 51 9e 3d 73 e7 85 bc 0f 4a 29 3e 4b e8 0c bd
       0.077304 -0.016345715 0.16532157 -0.03440122
000330 5a 76 07 3e 18 ef 16 be f5 03 2d be 43 26 06 3d
       0.13228741 -0.14739645 -0.1689604 0.032751333
000340 ea bc 2a 3e 4a d9 0b be 98 f8 03 3e 06 75 87 3c
       0.16673627 -0.13657108 0.128878 0.016535293
000350 4f b0 46 be 96 36 17 be 2e 42 6d bd 11 ad 1c bb
       -0.19403194 -0.14766917 -0.057924442 -0.0023906867
000360 63 57 bc 3d a6 1d 3e 3e 99 48 3e 3e 5f ce 27 be
       0.09196355 0.18565997 0.18582381 -0.16387318
000370 60 38 ed 3d b0 6d 5d bd 81 cf 30 bc 20 83 43 3e
       0.11583018 -0.054059684 -0.01079166 0.19092989
000380 94 64 0d bd 1f b5 a5 bd 1c 55 ef 3d 4f ac a7 3b
       -0.034519747 -0.08091187 0.11686155 0.0051169763
000390 5e 1f 55 3d ae 88 17 3c 12 e3 3c 3e 19 9f 26 3e
       0.052031867 0.009248896 0.18445995 0.16271628
0003a0 0f c0 90 3d 54 2f e7 3c ec dc 8c 3d e1 0f 92 bd
       0.07067882 0.02822081 0.06878075 -0.07131935
0003b0 a3 17 02 3e 2b 10 3b 3e 16 5b 36 3e 71 63 b9 bd
       0.12704329 0.18267886 0.17808184 -0.0905217
0003c0 ba 8a d8 bd 44 88 24 3e 8a 5b 16 3e 9d eb df 3d
       -0.10573335 0.16067606 0.14683357 0.109336115
0003d0 22 ae 1e 3e be e9 33 3e fa be f4 bd b7 02 30 be
       0.15496114 0.17569634 -0.119504884 -0.17188536
0003e0 bc 9f 43 bc c4 b9 f0 3d a8 8a c8 bd 5a 0d 04 be
       -0.011939939 0.11754182 -0.097920716 -0.12895718
0003f0 5f 75 4e be 29 de df 3c 45 29 93 3c ba 44 f9 bd
       -0.20161961 0.027327614 0.017964015 -0.12171312

model.backbone.W_P.bias f4 [16]
000000 0b 76 98 bd 0c 2d 8a 3c 2d 9e 39 3d 12 83 6a bd
       -0.0744439 0.016867183 0.045316864 -0.057253905
000010 37 45 11 3e 2d 1a 8c bd 87 fe db 3c 22 d0 12 be
       0.1418656 -0.0684093 0.026854767 -0.14337209
000020 6c 82 68 bd 32 03 28 3e 36 60 71 bc ba 31 b8 3d
       -0.056765005 0.16407469 -0.014732411 0.089938596
000030 78 b5 c5 3c 98 5e 16 3e 0c 33 eb bd 0f 3d 3b 3d
       0.024134383 0.14684522 -0.11484346 0.045712527

model.backbone.encoder.layers.0.self_attn.W_Q.weight f4 [16, 16]
000000 cd 3e 40 be 41 b8 92 bd 6a 78 5a 3e 31 35 0f 3d
       -0.18773957 -0.0716405 0.21334997 0.034962837
000010 e8 ca 0b 3e b9 04 42 bd d9 10 04 3e 18 ec 4a 3d
       0.13651621 -0.047367785 0.12897052 0.049541563
000020 c3 ff 38 be 42 39 65 3e 5f dc 6a be b2 9b 32 3e
       -0.18066315 0.22385123 -0.22935627 0.17442206
000030 be ef 2c be 03 79 77 3e 4e 15 b9 3d 20 38 77 3e
       -0.1688833 0.24167256 0.09037267 0.24142504
000040 77 c8 64 3e 0d bb 4e 3d 6a bc 61 3e 87 68 17 be
       0.22342096 0.050471354 0.2204453 -0.14785968
000050 a6 a5 44 be 2f 6a 5c be 03 5b 13 be 9d 53 f6 3d
       -0.19203815 -0.21524881 -0.14390187 0.12027667
000060 02 85 f6 3d 66 67 79 be 44 be 4d be 71 9a 19 3e
       0.12037088 -0.2435585 -0.20092112 0.15000321
000070 f0 d2 67 3e b5 f6 06 3e cf 91 89 3d 1b 47 c9 bd
       0.2263906 0.13180049 0.06717264 -0.098280154
000080 53 8c 17 3d 8b f5 2a 3e e8 86 58 be a0 c7 d3 bd
       0.036999058 0.1669523 -0.21145213 -0.1034081
000090 6e 92 d9 3c c6 7f 7e be 8f d8 d7 38 7f bd 40 3d
       0.02655908 -0.24853429 0.00010292336 0.047055718
0000a0 82 a0 97 3d 35 d1 f4 bd cb 32 1a 3e 13 5a 61 be
       0.07403661 -0.119539656 0.15058438 -0.22007017
0000b0 aa 83 7b be 78 1a 2a 3d 38 06 08 3e 85 2e 67 bb
       -0.24561945 0.04152915 0.13283622 -0.003527553
0000c0 24 a7 37 3e ee 4a e7 3d 0a c5 1a 3e 57 e5 6a bd
       0.17934853 0.112935886 0.15114227 -0.05734762
0000d0 21 68 3b 3e fb 1f 48 be 94 0c 0d be ee 03 d6 bd
       0.18301441 -0.1954345 -0.1377433 -0.10449968
0000e0 f1 65 19 3e 2a d8 69 3e d0 a8 0f be 7d fb 1c 3e
       0.14980294 0.22836366 -0.1402924 0.1533031
0000f0 e6 72 fd bd a8 9b 99 3d 52 b5 2c 3e 94 77 8e 3d
       -0.12375431 0.07500392 0.16866043 0.069564015
000100 e2 09 f3 bb 10 4e 02 3c 8f c6 d8 bc 08 cd 71 be
       -0.0074169496 0.007953182 -0.026461868 -0.2361337
000110 b2 d4 2f 3d 42 e2 1a bc 02 b8 82 3e 28 04 44 be
       0.04292745 -0.009453358 0.25531012 -0.1914221
000120 9e 09 60 3e 34 90 66 3e cb 75 6a be eb bc 2d bd
       0.21878669 0.22515947 -0.22896497 -0.042416494
000130 35 94 bb 3d 78 ac e6 3d 87 13 e3 bd 00 32 34 be
       0.091591276 0.112633646 -0.11087709 -0.17597198
000140 c2 a1 e1 bd fe db a4 bd b1 0b c4 3d 5c 4f 1f bc
       -0.11017181 -0.08049773 0.095725425 -0.009723511
000150 28 2a c0 3d e1 29 11 bd 4e ef 3d 3d fb 1a c4 3d
       0.09383041 -0.03544033 0.046370797 0.095754586
000160 01 b0 4d be fc 85 f5 bd 74 f1 78 be 9c 8f d6 bd
       -0.20086671 -0.11988446 -0.24310857 -0.1047661
000170 15 ce 46 be 0a 95 84 be 6f ae 74 3e 42 2f e3 bd
       -0.19414552 -0.25894958 0.23894666 -0.11092998
000180 6b d7 21 3c d6 b8 15 be 2f 21 6b bb 49 2e 66 be
       0.00987802 -0.1462129 -0.0035877933 -0.22478594
000190 3b b7 54 bd 2f 05 66 bd d5 3f 4d 3d e4 51 47 3c
       -0.051932555 -0.056157287 0.050109703 0.01216552
0001a0 6f 0d 13 3e 52 c0 84 bb 95 ab ff bd ac 59 7b 3e
       0.14360593 -0.0040512467 -0.124838986 0.24545926
0001b0 73 6b 7c bd fa 27 5c 3e 1e b4 4a be 51 d3 1f be
       -0.06162591 0.21499625 -0.19795272 -0.15607955
0001c0 c5 47 4e be 70 05 19 be ae 54 ce ba 7f ad 3f 3e
       -0.20144565 -0.1494348 -0.0015741789 0.18718527
0001d0 cd 57 43 be 91 cb 80 3d 15 ab 3a 3e 68 9a 71 3e
       -0.19076462 0.06288827 0.18229325 0.23594058
0001e0 d2 c8 85 3d d3 c8 d1 bd 41 8d 68 be 8b 10 2c 3d
       0.06532444 -0.10243382 -0.22710134 0.042007964
0001f0 fa bc f8 3d 86 a7 b3 3c a9 bd d9 3d 64 5a 53 3e
       0.121454194 0.021930467 0.10631878 0.2063995
000200 63 db 04 bd 33 ee 3a be 20 ce dd bc f4 c7 a3 bd
       -0.032435786 -0.18254928 -0.027075827 -0.079971224
000210 13 52 0c 3e 61 74 02 3e 45 0a 8e bc b1 ea 1a 3e
       0.13703184 0.12739708 -0.017338881 0.1512859
000220 57 82 6b be 20 c1 33 be d8 f0 14 3c f2 25 2c 3d
       -0.2299894 -0.1755414 0.009090625 0.042028375
000230 e5 2a 4f 3e bb 18 5b 3c 0d 06 14 be 3c 03 70 bd
       0.20231207 0.013372595 -0.14455433 -0.058596835
000240 b9 e4 3c be 5d 93 0a be ea 54 b1 bd b9 68 07 3e
       -0.18446626 -0.13532777 -0.08658774 0.13223542
000250 64 70 87 3e 9a 3b 5a 3d 5a bf 47 be 82 67 61 be
       0.26452935 0.053279497 -0.19506589 -0.22012141
000260 85 6c dd bd 8a bd 42 be 26 81 36 be 09 f1 64 be
       -0.10811714 -0.19017616 -0.17822704 -0.22357573
000270 36 06 57 3d 21 16 2a 3d ba 0a 19 bd 76 28 c0 3c
       0.052496158 0.04152501 -0.037363745 0.023456793
000280 94 15 12 3d 3f 73 8b 3d a8 f0 7d 3c 5c fe 7c bd
       0.03566511 0.06809091 0.015499271 -0.061766014
000290 96 d8 de bb fc de 69 be 56 52 3e be 25 4a 17 be
       -0.0068007214 -0.22838968 -0.18586096 -0.14774378
0002a0 2d ed 31 3e 7e 05 4a 3e d8 1d 40 be 26 a8 d4 3d
       0.17375632 0.19728658 -0.18761384 0.10383634
0002b0 25 5f 80 bc ee 45 87 3d bf b2 55 be 69 de 6e be
       -0.015670368 0.06605135 -0.20868967 -0.2332703
0002c0 f1 6a 0e be c2 dc 8a 3d 06 5b 92 3d 31 ac 05 bd
       -0.13907982 0.067803875 0.071462676 -0.032634918
0002d0 4d ee a5 bd 52 79 44 3c 70 77 02 be 1b 04 d9 3d
       -0.08102093 0.011991816 -0.12740874 0.10596486
0002e0 63 1f 9c 3d f2 0a df bd d1 32 b9 3d 6f 8a 94 bd
       0.07623174 -0.108907595 0.090428956 -0.072529666
0002f0 4c b3 a4 3d fa 33 b1 3d 80 30 6c 3e 67 be 17 3e
       0.08042011 0.08652492 0.23065376 0.14818726
000300 d4 06 50 be 96 06 7f 3d 9e fe 4d bd 55 ec 18 be
       -0.20315105 0.06226214 -0.05029165 -0.14933904
000310 19 55 73 be 64 28 40 3e a0 c9 42 be 36 51 15 3e
       -0.23762931 0.18765408 -0.19022226 0.14581761
000320 04 42 d1 3d 0c 4c e3 bd b3 1d f0 bd 2a a1 0e 3e
       0.102176696 -0.11098489 -0.11724415 0.13928667
000330 c2 3c c9 3d 62 70 07 bd 27 32 ab bd 7c ef d5 bd
       0.09826042 -0.03306616 -0.08359175 -0.10446069
000340 5b 25 b0 bc 37 c5 68 be 68 02 80 bd 79 94 1c be
       -0.021502187 -0.22731481 -0.06250459 -0.15291013
000350 79 d6 2d be 14 c7 c4 3d 27 a7 38 be c0 75 a3 bd
       -0.16976346 0.09608284 -0.18032514 -0.079814434
000360 e4 bf c3 3d 60 19 f6 3d b2 df 86 bb 9c 99 78 be
       0.095580846 0.12016559 -0.004116022 -0.24277347
000370 1e 22 e7 3b 4b 05 21 be 31 63 43 be ef fa 00 3e
       0.0070536276 -0.15724675 -0.19080807 0.12595724
000380 8e 5c 6a 3e 4e f4 2b 3e ea 4f 6a be 1b 85 f5 bd
       0.2288687 0.16792414 -0.22882047 -0.119882785
000390 b6 d0 2d be ec 68 30 3e 76 2f 70 3e 02 54 30 be
       -0.16974148 0.17227525 0.23455605 -0.17219546
0003a0 64 fb 19 be 70 e1 77 3e d3 d7 08 3e e2 ee 2f bc
       -0.15037304 0.24207091 0.1336358 -0.010738106
0003b0 dd 24 54 3e 9f 95 1f 3e 4d 6e 48 be 2f 0e 3a be
       0.20717187 0.1558442 -0.19573326 -0.18169473
0003c0 3a 26 83 3d ba a7 5c 3e 53 b8 fc 3b 5f cb 8c bc
       0.064037755 0.21548358 0.007712403 -0.017186819
0003d0 f1 6d 2d 3e 58 b6 42 be 37 3b 56 be 0f c2 a2 3d
       0.1693647 -0.19014871 -0.20921026 0.0794717
0003e0 3f 80 ec bd 15 b2 5e be a1 20 41 be 49 d7 8c bd
       -0.115478985 -0.2174762 -0.18860103 -0.06877
0003f0 fa 2b 88 bc 2a 12 28 3c 59 02 5d be 90 6a 5f 3e
       -0.016622532 0.010258237 -0.21582927 0.21817994

model.backbone.encoder.layers.0.self_attn.W_Q.bias f4 [16]
000000 73 90 08 3e a1 b0 4b 3e dc cb 2e be 8a 5d 5c 3e
       0.13336353 0.19891597 -0.17069954 0.21520057
000010 77 79 32 3d d7 2b 26 be 8b 24 d1 3c 62 3b 32 3e
       0.04357287 -0.16227661 0.02553012 0.17405465
000020 62 cb 13 be f4 5e 2f 3e f0 b9 18 be 14 92 8a be
       -0.14433053 0.17126065 -0.1491468 -0.27064574
000030 e0 ff 72 3e 0a 39 df bc f6 00 5b be 2d 8c 2c 3e
       0.23730421 -0.027248878 -0.21387085 0.16850348

model.backbone.encoder.layers.0.self_attn.W_K.weight f4 [16, 16]
000000 6f 36 00 3e b9 63 ca bd 01 c3 81 3e 6b ab 74 be
       0.12520765 -0.09882302 0.2534409 -0.23893516
000010 b4 61 30 3e bf eb d2 3c 42 a6 67 3e e2 bb 1c be
       0.17224771 0.025747178 0.22622016 -0.15306047
000020 a3 57 58 bc bc b7 64 be a6 e9 64 be 95 3a d3 3c
       -0.013204488 -0.22335714 -0.22354755 0.02578477
000030 32 ef 38 3e f6 e9 12 3e ec ec 38 be 80 02 41 3d
       0.18059996 0.14347062 -0.18059129 0.047121525
000040 4d 27 f9 bd ff 83 0f 3c 3f 4c 06 be 4b 0b 94 bd
       -0.12165699 0.008759498 -0.13115023 -0.072287165
000050 c7 d0 ff 3d 63 0b 22 3e a1 5d 74 bc 45 df d9 3d
       0.12490993 0.15824656 -0.014914901 0.106382884
000060 de a0 3c 3e 09 cf 53 be 63 f1 b9 bd ec de 24 3d
       0.18420741 -0.20684446 -0.09079244 0.040251657
000070 00 b8 e9 bd 16 f4 28 be 54 ab 0f 3c 93 92 78 3d
       -0.11412048 -0.16499361 0.008768875 0.06068666
000080 91 db 3e 3e 9b 1f 4e be 04 6f d7 bd 01 6d a7 3d
       0.18638445 -0.20129244 -0.105192214 0.08175088
000090 77 36 1a 3e e8 95 7a be 41 e2 c2 3d 27 0b 7a 3e
       0.15059839 -0.24471247 0.09515811 0.24418317
0000a0 56 83 32 3d 0d 0f 30 3d cc c7 85 3d 34 7e b0 bd
       0.043582283 0.042983104 0.06532249 -0.08617821
0000b0 86 a7 9a 3d 0c e4 dc 3d cf ba d2 3c d4 eb f6 bd
       0.07551484 0.10785684 0.025723843 -0.120566994
0000c0 c4 91 1f 3e 42 ce e6 3d 82 26 69 be c8 4e 17 bd
       0.15582949 0.11269809 -0.22768596 -0.036940366
0000d0 e1 b5 20 be 44 a3 0a bd fa 92 52 3d 8e 18 0f bd
       -0.15694381 -0.03384711 0.0514097 -0.034935527
0000e0 c1 3a 84 3e 7d 78 54 3e b6 d0 94 bc db 47 6d 3e
       0.25826076 0.20749088 -0.018165927 0.23171942
0000f0 57 7f 73 bd 22 a9 9e 3b 3d d5 ff bd ac 6d 0c 3e
       -0.059447613 0.0048419395 -0.12491844 0.13713712
000100 53 07 73 be 39 c8 4b be 79 71 27 be ff 11 e7 3d
       -0.23733263 -0.19900598 -0.1635188 0.11282729
000110 63 a4 fd 3b 3d e1 69 be f5 b2 2b 3e 06 46 3c 3e
       0.0077405437 -0.22839828 0.16767485 0.18386087
000120 1a 98 47 3e 48 f3 43 3d cb a3 a3 bc f6 1f 60 be
       0.19491616 0.047839433 -0.019975564 -0.21887192
000130 d7 50 87 3d 69 71 7c 3e b5 ef d6 bd d3 1e 67 be
       0.06607216 0.24652638 -0.10494939 -0.22570352
000140 dc ad f9 bd 5e 99 b9 3d ac 65 18 be a5 5e 3d 3e
       -0.12191364 0.090624556 -0.14882535 0.18493135
000150 03 21 e1 3d 40 e6 e1 3d b7 42 a1 bd ae 80 c2 bd
       0.109926246 0.11030245 -0.07874053 -0.094972
000160 ed bb 46 be cd 60 19 3d 79 c1 4a 3e f1 f8 48 3e
       -0.19407625 0.037445832 0.19800366 0.19626214
000170 67 39 22 3e 8b 9c 74 be 68 39 1d 3e 0a e7 ea 3d
       0.1584221 -0.23887841 0.1535393 0.114698485
000180 0b bf 4a 3e 42 c8 47 be 71 34 4e 3e 1b 11 f3 bc
       0.1979944 -0.19509986 0.20137192 -0.029671242
000190 cd 0f 5a 3d 77 02 3a be f8 16 7c 3d 96 22 d1 3d
       0.053237725 -0.18165003 0.061545342 0.10211675
0001a0 21 93 9d bc d6 51 0c be 80 d5 a6 bd 8c 3d 1d 3d
       -0.019235196 -0.13703093 -0.08146191 0.038388774
0001b0 08 e5 3f bc bb 73 28 3d 10 75 cc bd 46 ab 7c 3e
       -0.01171232 0.041125994 -0.099832654 0.2467471
0001c0 dd 9b 24 3d 1b eb 16 be 08 3e fb bd 08 3f 04 be
       0.040187705 -0.14738123 -0.12267691 -0.1291467
0001d0 ed e4 3f 3e 62 4c 48 be 76 eb 42 3e 93 1f f6 3d
       0.18739672 -0.19560388 0.19035134 0.12017741
0001e0 df 72 68 3d cc 7a 22 3d 9a 9c 64 be 06 ad d3 3d
       0.056750175 0.03966789 -0.22325364 0.10335736
0001f0 d6 c7 46 be c1 24 3f 3e 8c 2b 51 be 6e 87 41 3e
       -0.19412169 0.18666364 -0.20426768 0.18899319
000200 2c a1 8a 3e ef 44 07 3e 3f c0 83 be ff e3 6e 3e
       0.2707609 0.1320989 -0.2573261 0.23329161
000210 ca d0 11 be 76 29 da 35 c7 fb 76 3e c6 e3 9d bd
       -0.14239803 1.6254332e-06 0.24119483 -0.0770946
000220 ea 60 87 3d 29 12 7e 3d 55 51 27 3e b5 2c 03 be
       0.06610282 0.062029038 0.1633962 -0.12810023
000230 97 91 c4 3d fd a0 14 3e e1 56 b0 bd 8b 33 15 3e
       0.095980816 0.14514537 -0.08610321 0.14570443
000240 d0 c1 fa bc 4c 55 32 3e 31 78 99 bd f0 88 1d 3e
       -0.030609995 0.1741535 -0.07493628 0.15384269
000250 b3 8c 7e 3e 59 45 51 3e 7d 64 10 3e 34 03 78 3e
       0.2485836 0.2043661 0.14100833 0.24219972
000260 21 c8 c5 3c 61 9d 6c 3e 02 f1 75 3e d4 97 8a bd
       0.02414328 0.2310691 0.24017718 -0.0676724
000270 2a dc 35 3e 83 fb 84 bd c1 ea 47 be 36 31 57 be
       0.17759767 -0.064932846 -0.19523145 -0.21014866
000280 03 1d 58 be e3 94 a3 3d 97 73 49 3e 0d 59 30 3d
       -0.21104817 0.07987382 0.19673 0.043053675
000290 a2 1a 2b 3e e6 14 4b be 4f be 92 3b dd ae 1c 3e
       0.16709378 -0.19832191 0.004478253 0.1530108
0002a0 ca e8 d8 bd a7 71 ee 3d ae f4 02 be 7f b5 51 3e
       -0.10591276 0.11642771 -0.1278865 0.20479392
0002b0 81 18 2c be 2f 8c 0c 3e ec 9b 80 bd 2e 37 d7 3d
       -0.16806222 0.13725351 -0.0627974 0.105085716
0002c0 ec 86 78 3e ca d6 91 bd 47 b0 86 be 3c 88 b7 bc
       0.24270219 -0.07121046 -0.26306364 -0.022403829
0002d0 8c 14 87 be 0c f9 05 3e 8f 94 9d 3d fb 3b e9 bc
       -0.26382864 0.13083285 0.07694351 -0.028470984
0002e0 08 7b b9 bd 20 68 f6 bc 78 84 3b 3e e3 91 42 bd
       -0.090566695 -0.030078948 0.18312252 -0.04750241
0002f0 13 79 32 3e e3 66 63 be 90 7e 77 be a3 bf 3c be
       0.17428999 -0.22207217 -0.24169374 -0.18432479
000300 74 20 1e 3e 13 a1 b2 bd 42 64 9a bd d2 85 12 3d
       0.15442067 -0.08722129 -0.07538654 0.035772152
000310 8e 22 74 3e 83 a0 fa bd d4 2c fd bd b3 c5 aa 3d
       0.23841307 -0.122376464 -0.12362066 0.083384894
000320 c4 28 1e 3e 02 ff 5f 3d 70 3f 54 be e6 f1 5c be
       0.15445238 0.054686554 -0.20727324 -0.21576652
000330 8d 72 d6 bb 01 3e e1 3d fa 73 00 3d 8c 5e 4d be
       -0.0065444172 0.109981544 0.031360604 -0.20055598
000340 37 d1 ca 3d 0d 15 84 bb ea d6 a6 3d a6 4f 17 be
       0.09903186 -0.0040308298 0.0814646 -0.14776477
000350 f0 49 07 be e0 7e 28 bd cb f5 a7 3c e9 62 6f 3d
       -0.13211799 -0.041136622 0.020502945 0.058443937
000360 19 80 07 be 22 a2 57 3d 0a e3 25 3e 13 7e a4 3c
       -0.13232459 0.052644856 0.1619989 0.020079648
000370 03 32 8c bc 1d 69 39 3e 89 6d 4c 3e 3d ef 53 3e
       -0.017113691 0.18106504 0.1996366 0.20696731
000380 63 34 bd bd 5a f9 2a 3e 57 df 5a 3d ce 13 f9 3d
       -0.092385076 0.16696683 0.05343565 0.121619806
000390 bc 8e 8f 3d 8e 6b 8e bd bc e6 0b 3d 64 d2 24 3e
       0.07009646 -0.06954108 0.034155592 0.16095883
0003a0 46 a0 60 be bf de 6f be fa 9b 4a be 86 1c 50 bb
       -0.2193614 -0.23424815 -0.19786063 -0.0031755283
0003b0 f9 36 d4 bd 56 65 a0 3d f9 8b 01 3e 3d 2d db 3d
       -0.10362048 0.07831828 0.12651052 0.10701988
0003c0 59 29 0c 3d d3 fc 27 bb bc af 09 be db af 80 3c
       0.03421912 -0.0025632873 -0.13445944 0.015708854
0003d0 f0 ae 15 3e a6 9f 0d 3e 40 c5 f9 bd 56 00 d0 3d
       0.14617515 0.13830432 -0.121958256 0.10156314
0003e0 a9 8e 64 be 9a 3c 5a 3e 5a ad da 3d c0 9a 8c bc
       -0.22320046 0.2131218 0.106775954 -0.017163634
0003f0 c9 5a 25 be 21 35 56 3e 3e c9 66 be 27 19 46 3e
       -0.16147913 0.20918705 -0.22537705 0.19345532

model.backbone.encoder.layers.0.self_attn.W_K.bias f4 [16]
000000 24 aa 88 bd fd 63 ca 3d 0c 3f 22 be 14 64 cf bb
       -0.06673077 0.098823525 -0.15844363 -0.006329069
000010 63 0a 22 3d bc 57 61 3e a9 08 e2 bd 1e 9b 50 be
       0.039560687 0.22006124 -0.11036808 -0.20371673
000020 43 e4 69 bd c5 1d c3 bd da 8d 0d be bc be 84 bd
       -0.057102453 -0.095271625 -0.13823643 -0.06481692
000030 12 23 eb bd 40 f6 f4 3d 5f c1 84 bd 87 30 cd 3d
       -0.114812985 0.11961031 -0.06482195 0.100190215

model.backbone.encoder.layers.0.self_attn.W_V.weight f4 [16, 16]
000000 c8 4a 0c 3e 84 0c a1 3d dc 69 05 be 65 14 ab bd
       0.13700402 0.07863715 -0.13028663 -0.08353499
000010 53 3c 74 bc 79 93 d8 bc c4 ee 7f 3e 5d 6a 69 3e
       -0.014906961 -0.026437508 0.24993426 0.2279448
000020 5c 31 6a be 54 6f a5 3a ca c9 f6 bd b6 48 17 3e
       -0.22870392 0.0012621679 -0.12050207 0.14773831
000030 33 b3 44 be 25 d6 82 bd b7 6d 41 3e c6 e4 28 be
       -0.19208984 -0.06388501 0.18889509 -0.1649352
000040 6e 1e 30 3e 1d b0 20 be 91 c6 72 3e 2d 6b 8b 3d
       0.17199108 -0.15692182 0.2370856 0.068075515
000050 d0 bc 0e bd ad a6 b9 3b 7d 1d e3 3d e1 62 16 be
       -0.034848034 0.0056656213 0.11089609 -0.14686157
000060 0c 03 5d 3e 5c 0d 1d 3e 33 3b 4e be a9 da b4 3d
       0.21583194 0.15337127 -0.2013977 0.088307686
000070 92 28 71 3e 45 5a ad bd 7c e2 6d 3e 0b c4 06 be
       0.23550633 -0.08464483 0.23230928 -0.13160722
000080 c8 9c 61 be dc 79 56 be a9 03 d3 3d b2 53 51 3e
       -0.22032464 -0.20944923 0.103034325 0.20442083
000090 8d 28 33 3e 7a 23 6f bc 7b 18 2b 3e 28 46 bc 3d
       0.17495938 -0.014595861 0.16708557 0.09193069
0000a0 1c 54 2d be 10 24 a1 3d 4e 1d 03 bd 91 c6 11 3e
       -0.16926616 0.078682065 -0.03201037 0.14235903
0000b0 f9 dc 72 3e 38 30 ff bc 09 fb c9 3d 87 4f 63 be
       0.23717107 -0.031150922 0.09862334 -0.22198306
0000c0 fa ca 06 bd d9 c5 d7 bd 79 cf 73 bc 7d 65 2a be
       -0.032908417 -0.10535783 -0.014881008 -0.16640277
0000d0 b7 00 62 3d eb 91 1f 3e 66 f9 45 be a4 d9 5f 3e
       0.055176463 0.15583007 -0.19333419 0.21860367
0000e0 05 71 b4 3d ce f1 f5 bd 9b 95 9f 3b 12 4e 1c be
       0.08810619 -0.12009011 0.0048701293 -0.15264156
0000f0 d9 17 6f 3e e3 1f 47 be bd c0 73 3e 23 4b f9 bd
       0.23348941 -0.19445758 0.23803993 -0.12172534
000100 c5 4a 95 3d 0d a8 1f be 04 2b 10 3d af 15 bf 3d
       0.07289652 -0.1559145 0.035197273 0.09330308
000110 af a9 96 3b b7 09 e7 3d 14 2d fa bd 37 60 e0 bd
       0.0045978646 0.1128115 -0.12215629 -0.109558515
000120 1d 6b 48 be cf de 50 be 05 29 9b bd 69 20 4d 3c
       -0.1957211 -0.20397495 -0.07576183 0.012519934
000130 3c dd a2 bc c7 87 87 bd 27 a6 45 be b9 f1 b0 bc
       -0.019880883 -0.06617694 -0.19301663 -0.021599637
000140 ff 99 29 3e c6 52 d7 bd ac 8b 26 be 3f e3 47 3d
       0.16562651 -0.10513835 -0.16264218 0.048800703
000150 23 3d 12 be 0c b2 1e bd e2 5c 0d 3d 14 2b f5 3c
       -0.14281134 -0.038744017 0.034512408 0.029927768
000160 51 72 6d 3e e3 84 06 3e b4 19 54 be f9 b7 2b 3d
       0.2318814 0.1313663 -0.2071293 0.041923497
000170 f0 b3 b1 3c d6 1a a0 3d a4 ed 0d 3e 74 2c 35 3e
       0.021692246 0.078176185 0.13860184 0.17692739
000180 cf c0 f8 bd a6 cf 2a 3e 8b c5 98 3d 57 76 26 3c
       -0.1214615 0.16680774 0.07459553 0.01016005
000190 98 d5 e8 3d 11 73 1a 3e eb b0 20 be 78 de 16 be
       0.11368865 0.15082957 -0.15692489 -0.14733303
0001a0 73 6b ee 3d c5 e2 50 3e cf 9b e2 bd d4 1a 18 be
       0.11641588 0.20399006 -0.110648744 -0.14853984
0001b0 f4 a2 60 be 04 f6 ba bd 34 36 26 bc 3c 11 1d be
       -0.21937162 -0.09128955 -0.010144759 -0.15338606
0001c0 a2 52 7e bd 32 a3 96 bd 28 87 3c 3d 84 77 0e 3e
       -0.062090524 -0.07355346 0.046027333 0.13912779
0001d0 08 77 3f 3e d1 7e ed 3d 7b 9a 62 be b8 86 f0 3d
       0.1869775 0.11596454 -0.22129242 0.117444456
0001e0 8f e6 f6 3c 65 37 48 3e e6 ab 4c bc 41 a2 28 3d
       0.030139236 0.19552381 -0.012492156 0.041170362
0001f0 70 e2 46 be 95 e7 c2 bd 90 b7 1a be 1c 31 13 be
       -0.19422317 -0.09516827 -0.15109086 -0.14374202
000200 2e 59 6d 3d c3 6b 5b bd c8 be 34 3e 87 99 66 3d
       0.057946377 -0.053569566 0.17650902 0.05629876
000210 ca 62 60 be 11 93 b7 bc da ae 1e be d8 dc 4d be
       -0.21912685 -0.022408994 -0.15496388 -0.20103776
000220 9e fd a0 bd 02 78 fd bc 25 01 98 bc f0 e7 2d be
       -0.07860874 -0.030941013 -0.018555233 -0.16983008
000230 ee ed 38 be 05 f7 4b 3d 6c 74 10 be 8d 96 12 be
       -0.18059513 0.049796123 -0.14106911 -0.14315243
000240 42 85 33 be 24 31 70 be 4d 4f c3 bc 77 b0 18 3e
       -0.17531303 -0.23456246 -0.023841524 0.14911066
000250 98 25 cc bd 90 bb 85 bd fb a2 a4 bd d6 8b 56 bd
       -0.09968108 -0.06529915 -0.080388986 -0.05237945
000260 ac cd 7e be 92 94 6a be 1d 40 2d be 4d 2d e2 3b
       -0.24883145 -0.22908238 -0.16918989 0.006902373
000270 9c cf 20 be 64 1e 9a 3d b7 26 92 bd e3 ac 4e 3e
       -0.15704197 0.07525328 -0.071362905 0.20183139
000280 3e 85 9d 3d 3c 87 3a 3d c9 6e 88 bd 07 05 6d be
       0.076914296 0.045539126 -0.066617556 -0.23146449
000290 7f 40 37 be 95 57 51 be 72 47 10 3e d6 02 eb bd
       -0.17895697 -0.20443566 0.14089754 -0.1147515
0002a0 60 6b 92 3d ea 07 52 3e 20 d4 5e 3e f5 01 a6 3d
       0.071493864 0.20510831 0.21760607 0.08105842
0002b0 10 87 2b 3e 83 46 45 be b9 4e a4 bd db 0d 3b be
       0.16750741 -0.1926518 -0.08022828 -0.18267004
0002c0 a3 71 24 3e 65 b7 a0 bc 40 fa 47 3e 3f 42 c9 3d
       0.16058974 -0.0196187 0.19529057 0.098270886
0002d0 0b 58 d4 3d db cf 87 be 68 b5 0d 3e 90 7b c3 3d
       0.10368355 -0.2652577 0.13838732 0.09545052
0002e0 b6 d9 85 be bf 6f 43 be 6d 83 92 bd c5 03 cf ba
       -0.26142663 -0.19085597 -0.07153974 -0.001579397
0002f0 48 51 3c 3e 9c ce 33 be a5 32 7d be 16 39 cc bd
       0.18390381 -0.17559284 -0.2472635 -0.09971826
000300 5e 00 d0 bd 9a 98 3a be eb f2 32 bd 6c 2c bc 3d
       -0.1015632 -0.18222275 -0.043688696 0.0918816
000310 01 85 4b 3e c5 e9 fd bd 41 b5 84 bd 16 de 1a be
       0.19874956 -0.123981036 -0.06479884 -0.15123782
000320 eb 47 32 be bd bd 66 3e eb 65 9d bd 2e 41 72 be
       -0.17410247 0.22533317 -0.07685455 -0.23657677
000330 d6 dd de 3d a9 74 27 bd 5e 28 00 be 04 c1 f1 bd
       0.108821556 -0.04088274 -0.12515399 -0.11804393
000340 ca 62 47 be b4 ad 18 be 6f f8 82 be b8 6a 08 3e
       -0.19471279 -0.14910012 -0.25580165 0.1332196
000350 3c 39 06 3e 20 92 45 be c5 e8 c8 3d c7 83 5e 3e
       0.1310777 -0.19294024 0.09810022 0.21729957
000360 f9 e2 12 be 0a e4 6c be 70 f3 74 be 4f d0 6a bd
       -0.14344396 -0.23133865 -0.23920989 -0.057327565
000370 d2 66 62 3e b0 e3 8e bd 1a 07 80 3e 2f d2 43 3e
       0.22109535 -0.06977022 0.25005418 0.19123147
000380 57 59 e1 3d fc 7d 80 3d 47 d8 ec bc 32 d9 be 3d
       0.11003368 0.062740296 -0.028911723 0.093187705
000390 6c df 6a be d2 37 68 be 3e 69 63 3d 51 77 bb bd
       -0.22936791 -0.22677544 0.05552029 -0.09153617
0003a0 6f 4d 38 be bc 77 95 bd 6c a5 0f 3e 6a 75 2b 3e
       -0.17998289 -0.07298228 0.14027947 0.16744009
0003b0 72 cc cd 3d 47 da 26 bb dd 5b ef bd 38 c6 67 3e
       0.100487605 -0.0025459693 -0.116874434 0.22634208
0003c0 8b fd 12 3e 65 4e 5f bd af 2f 14 ba 66 0c e5 bb
       0.14354531 -0.054518122 -0.00056528574 -0.0069900034
0003d0 4e e5 4d bd 7f 70 66 3e 37 5f 0c 3e 52 22 81 3e
       -0.05026751 0.22503851 0.13708197 0.25221497
0003e0 cd 43 5c bd 82 15 86 3c 13 46 ae 3d 65 9c 26 be
       -0.053775597 0.016367678 0.08509459 -0.16270597
0003f0 b8 69 69 3e e8 30 04 be f6 a2 89 bd 94 f7 45 bd
       0.22794235 -0.12909281 -0.067205355 -0.048331812

model.backbone.encoder.layers.0.self_attn.W_V.bias f4 [16]
000000 38 35 6d bd 8e 9c 2e bd 78 be 9f bd cf 2f 15 3e
       -0.05791208 -0.04262977 -0.07800001 0.14569019
000010 b4 6e 64 3d 0b 0f 26 3e 27 23 ab 3d 56 a7 47 be
       0.055769637 0.16216676 0.08356314 -0.19497427
000020 91 58 3a bd bf fc ad 3d a9 39 15 be 2e a4 0f be
       -0.04549462 0.08495473 -0.14572777 -0.14027473
000030 14 c8 84 3e 44 04 43 3e 76 bd 06 be 91 6b 2a 3e
       0.25933897 0.19044596 -0.13158211 0.16642596

model.backbone.encoder.layers.0.self_attn.to_out.0.weight f4 [16, 16]
000000 da 5c 33 be 0a 9e 0f 3d ba 76 04 3e 9b c2 05 3e
       -0.17515889 0.035062827 0.12935916 0.13062517
000010 19 7a 9f bc 16 45 5f 3e 39 c4 e5 bd 19 3a 89 be
       -0.0194674 0.21803698 -0.11219067 -0.26802137
000020 53 51 61 3e 82 65 40 3e c1 1d 52 3e 43 ff ca 3d
       0.22003679 0.18788722 0.20519163 0.099119686
000030 ed 6c e2 3d 16 98 f7 3d ab 0e c8 bd 17 61 2d be
       0.11055932 0.12089555 -0.09768423 -0.16931568
000040 07 93 df bc ea df 54 be f2 d5 b3 bd 24 e1 5a 3d
       -0.027291788 -0.20788541 -0.08781041 0.053437367
000050 22 6e 7c bd 6a bb fd bd 49 a2 c0 bd 31 cb c4 bd
       -0.06162847 -0.12389262 -0.094059534 -0.09609068
000060 51 1a 4f 3e 3f 14 1b be d2 72 ac 3c 96 db de 3c
       0.20224883 -0.15144442 0.021050844 0.027204316
000070 ab a6 7a bd b7 b3 5c 3d 18 08 89 3e 64 a9 2e be
       -0.061194103 0.053882327 0.26763988 -0.17056805
000080 2e e7 35 be 9a d6 72 be 70 40 8d 3b a8 08 48 be
       -0.1776397 -0.23714676 0.00431066 -0.19534552
000090 c5 bc 34 3e 0c ac ca 3d a0 93 02 be bc b0 09 3e
       0.17650135 0.098960966 -0.12751627 0.13446325
0000a0 14 f1 56 be 31 f1 f3 3d d3 6e 48 3e ae ae 4f be
       -0.20990402 0.11911238 0.19573526 -0.20281479
0000b0 ea 0d 32 3e a9 b3 3e be 56 2a 6f bb 3a 9d 70 3e
       0.1738812 -0.18623222 -0.003649374 0.23497477
0000c0 f0 26 44 be f8 ce 3b 3e a8 db 54 bd 53 19 4e be
       -0.19155478 0.18340671 -0.051967293 -0.20126848
0000d0 b6 e4 04 3e 7a 87 47 3e 7c 18 db 3d 82 4c 5f 3e
       0.12977871 0.19485274 0.106980294 0.21806529
0000e0 11 40 98 bd a1 02 21 3e 6c a8 50 be e0 e7 2f be
       -0.07434095 0.15723659 -0.20376748 -0.17178297
0000f0 f5 b1 81 3c 19 b0 ca 3d 83 7b 23 3e 5e 7b 09 3e
       0.015831927 0.09896869 0.15965085 0.13425967
000100 d3 36 1a be 68 71 46 3d d6 ed 0f 3c ac 84 11 be
       -0.15059976 0.048447996 0.008784732 -0.14210767
000110 89 44 38 be 41 39 51 3d c1 6e f6 3d 25 37 82 3d
       -0.17994894 0.051079992 0.120328434 0.06358174
000120 f5 b6 1e 3e c4 e9 b0 3d 03 20 42 be 6b 46 32 be
       0.1549948 0.08638337 -0.18957524 -0.17409675
000130 8a 12 5c 3e c2 2a b2 3c 72 b2 46 3e 2b b1 4f be
       0.21491447 0.021748904 0.19404009 -0.20282428
000140 de 60 56 3e f0 56 e3 bd ac 78 80 bc bf 17 71 3e
       0.2093539 -0.111005664 -0.01568254 0.23544215
000150 ce ff 44 3d 15 51 c7 bd 69 26 e9 3c 69 a1 ce bd
       0.048095517 -0.09732262 0.028460698 -0.1008938
000160 9b 18 bc bd e4 c8 37 be 31 10 06 3e e3 ac 10 be
       -0.091843806 -0.17947727 0.13092114 -0.14128451
000170 76 bb a5 bd 4e 76 4f 3e 4f 8d c9 3d 61 c2 5e be
       -0.08092396 0.20259973 0.098414056 -0.21753837
000180 b2 3d 17 be 9d 15 77 be 4a b4 48 3e ed f6 66 be
       -0.14769629 -0.24129339 0.19600025 -0.22555132
000190 ff 23 0d 3d cc 64 4c be 32 06 b1 b9 c8 93 d6 3d
       0.034458157 -0.19960326 -0.00033764687 0.10477406
0001a0 09 fd be 3d 8c b7 2a 3e 3a b4 13 3e b1 8b 83 be
       0.093256064 0.1667158 0.1442422 -0.25692514
0001b0 32 d3 21 be 92 35 5d 3d 72 27 14 be 2e 85 8d bc
       -0.15803221 0.054006167 -0.14468172 -0.01727542
0001c0 37 dd 22 be cc 17 f2 3d e1 76 4d 3e 0e 69 6d be
       -0.159047 0.11820945 0.2006488 -0.23184606
0001d0 77 e8 a0 3d 75 2c 49 3d 76 7b 28 be ef 5d f5 bd
       0.07856839 0.049114663 -0.16453347 -0.11980807
0001e0 25 75 1d be 72 59 9f bd e4 ea ea bd b3 92 5b be
       -0.15376718 -0.07780732 -0.11470583 -0.2144268
0001f0 f6 85 2c bd 3e c8 21 bd b8 9e f9 3d 41 19 15 3e
       -0.042119943 -0.039497606 0.12188476 0.14560415
000200 cf 5c 14 3e 30 51 90 3d 01 4a 71 be 51 32 2b be
       0.14488529 0.07046735 -0.23563386 -0.16718413
000210 8c f3 f3 bd ab ac 09 3e 8d 67 64 be 7a f6 51 3e
       -0.11911687 0.13444774 -0.22305126 0.2050418
000220 84 fe ac bd 53 6b 0e be a4 33 2a 3e 12 db 09 3e
       -0.084469825 -0.13908128 0.16621262 0.13462475
000230 d8 47 9a bd 26 2c d6 bd f9 60 14 be 9f 42 87 bd
       -0.07533234 -0.104576394 -0.14490117 -0.06604504
000240 85 ad 80 3d c1 4c e8 3c 5a a9 e5 bc c1 34 e8 3c
       0.06283096 0.028356912 -0.028034855 0.028345468
000250 82 c0 fe bd 4f ba 70 3d dd f8 63 be 1c 6b 4e bd
       -0.12439062 0.058771428 -0.22262903 -0.050395116
000260 9f 15 79 be 90 0d d8 bd eb 40 84 bd b6 e2 a6 bb
       -0.24324654 -0.10549462 -0.064576946 -0.005092944
000270 66 b8 35 3e 99 60 7c be 99 ef b1 3d 58 56 41 3e
       0.17746124 -0.24646224 0.08688278 0.18880594
000280 e0 b6 5a be da 78 7b 3d 9a e2 82 3d 9e c7 7d be
       -0.21358824 0.06139455 0.06390877 -0.24783179
000290 37 bf 6f 3e 0d a6 6a 3e 7d b2 fe bd 8a 08 38 be
       0.23412786 0.22914906 -0.12436388 -0.17972007
0002a0 61 0e 10 3e 09 3a 28 be 90 8a 3b be b2 16 da 3d
       0.14067985 -0.16428389 -0.18314576 0.1064886
0002b0 2b 63 48 3d ad 3e 91 bb 49 fa 54 3e df 5d 2c 3e
       0.0489227 -0.0044325204 0.20798601 0.16832684
0002c0 6e 6f 90 3d a2 cb a4 3d a7 aa 67 be 30 26 c0 bc
       0.070525035 0.080466524 -0.22623692 -0.02345571
0002d0 b2 68 24 be ba 0b 8a 3d 04 da 4c be 33 b5 a3 bc
       -0.16055563 0.06740518 -0.20005041 -0.019983863
0002e0 11 f7 0d be 4a d5 34 be f0 fc 78 be 9f 9b 06 3e
       -0.1386378 -0.17659488 -0.24315238 0.13145302
0002f0 22 9c 16 3e d0 61 43 be db 27 1f 3d c3 df 3a be
       0.14707997 -0.19080281 0.03885637 -0.18249421
000300 5f 28 7a be 00 a0 3e be 8a 8b 3c 3e 37 0d 67 be
       -0.24429463 -0.18615723 0.18412605 -0.22563635
000310 c8 80 f9 bc 1f f6 4b 3e b6 6b e5 bc 2a 9c 0b be
       -0.030456915 0.19918106 -0.028005462 -0.1363379
000320 ac 61 a5 bc fb 68 b8 3d 7a 68 f8 bd fa 06 23 be
       -0.020188175 0.090043984 -0.12129302 -0.1592063
000330 97 0d 41 3e 42 d0 28 be 25 b0 63 bd 9d c4 f0 3b
       0.1885284 -0.16485694 -0.055587906 0.007347657
000340 22 48 e7 bc 46 ee 0a 3e 5e 4e ac 3d 97 0e c8 bd
       -0.028232638 0.13567457 0.08413385 -0.09768408
000350 34 86 3c 3e 2d e5 41 bd 16 f3 09 be d3 4c bc bd
       0.1841057 -0.0473377 -0.13471636 -0.091943406
000360 09 1d 38 be c7 15 9d bd 73 ca 94 3d 60 67 f3 3d
       -0.17979826 -0.07670169 0.072651766 0.118849516
000370 c0 64 50 3e 19 cf 83 3c c4 ed f9 3b 7e 11 85 3d
       0.20350933 0.016089963 0.007627221 0.06497477
000380 1b 49 64 bd 63 b5 01 bd e3 ce 87 3d 5b cc 49 be
       -0.05573378 -0.031667124 0.066312574 -0.19706862
000390 d6 c9 fe bd 9e fa bf bd 67 95 fe 3d fd 3d 3c 3d
       -0.12440841 -0.09373973 0.1243084 0.045957554
0003a0 9f 32 9b 3d 94 98 f3 3d 41 7e 10 3e 4a cc 82 3d
       0.075780146 0.11894336 0.14110662 0.06386621
0003b0 7d 3f 71 bd 9a e5 92 bd 57 51 c7 3c ac ba 91 bc
       -0.058898438 -0.07172699 0.024330778 -0.017789207
0003c0 e6 39 ff bc 4e b3 2d be 58 4a db bc c6 61 d8 3d
       -0.031155538 -0.1696293 -0.026768848 0.10565524
0003d0 bb 2e 5d 3e 8c fb d6 3d 96 fe 7c bd f9 74 aa 3d
       0.21599858 0.104971975 -0.06176623 0.08323092
0003e0 45 97 71 3e ab 89 65 be 76 ac ee 3d f8 a3 7e be
       0.23592861 -0.22415797 0.11653988 -0.24867237
0003f0 de 27 39 be 97 0e 1b be 22 a5 31 be 40 c4 7f be
       -0.18081614 -0.15142284 -0.1734815 -0.24977207

model.backbone.encoder.layers.0.self_attn.to_out.0.bias f4 [16]
000000 e0 c4 3e be ee b2 74 3d b1 3d e8 bd e5 63 a7 bd
       -0.1862979 0.059740953 -0.11339892 -0.0817335
000010 68 31 1c be d5 f0 34 3e 1a c3 25 3c 45 f8 8a 3d
       -0.15253222 0.17669995 0.010117317 0.06785635
000020 d4 fd d5 3d 66 7d 3e bd d1 46 64 3e 7c 8b ad bb
       0.104488045 -0.046506308 0.2229264 -0.005296169
000030 7f 11 53 be 46 e0 6a be 26 f4 e4 3d 75 87 5a 3e
       -0.20612143 -0.22937116 0.1117938 0.21340735

model.backbone.encoder.layers.0.norm_attn.1.weight f4 [16]
000000 1a 24 81 3f c9 25 82 3f d7 31 81 3f a5 e6 7b 3f
       1.0089142 1.0167781 1.0093335 0.9839881
000010 f3 4a 7d 3f fb cf 82 3f e1 d4 83 3f 2a 25 7b 3f
       0.9894249 1.0219721 1.029934 0.9810358
000020 04 3f 80 3f e3 d9 7d 3f 5d dc 7a 3f 71 8c 81 3f
       1.0019231 0.99160594 0.979925 1.0120984
000030 28 96 7e 3f 7e 9e 7b 3f 15 86 7e 3f 06 40 7a 3f
       0.9944787 0.98288715 0.9942334 0.9775394

model.backbone.encoder.layers.0.norm_attn.1.bias f4 [16]
000000 24 e5 7a bc f8 c5 2d bc 11 ec d2 bb be e0 e1 bb
       -0.01531342 -0.010606281 -0.0064368327 -0.0068932464
000010 63 25 31 bc c2 5f 98 39 86 ca 92 bc 47 33 b3 bb
       -0.010812136 0.00029063044 -0.017918836 -0.005468759
000020 24 2e 0d bc fe 4e 2f bc 5e 10 ea 3b 7b 7b bc bb
       -0.008616958 -0.010699986 0.0071430644 -0.0057520247
000030 33 c1 57 3c 47 89 23 3c 1d c4 0c 3c 6a cb 6e bc
       0.013168621 0.00998146 0.008591679 -0.014574865

model.backbone.encoder.layers.0.norm_attn.1.running_mean f4 [16]
000000 a6 01 1d be 28 6d 4e bc e8 d9 cb 3b 66 88 f4 bc
       -0.1533266 -0.012599267 0.006221045 -0.029850196
000010 a1 ef c2 3d eb ae 48 3d 40 1d d3 bb 46 5b 0d bd
       0.09518362 0.04899494 -0.006442696 -0.034510873
000020 a2 46 bc bd 33 c0 2e 3e 55 3b 76 3e c9 2e c8 3d
       -0.0919316 0.17065506 0.24046071 0.097745486
000030 1b 6a 00 bc a0 c0 e2 bc c9 17 9c bd 6b b9 21 3e
       -0.0078377975 -0.027679741 -0.07621724 0.15793388

model.backbone.encoder.layers.0.norm_attn.1.running_var f4 [16]
000000 e2 8b 7a 3e 0f a9 b5 3e 45 2a e8 3e b2 c9 55 3f
       0.24467424 0.35480544 0.4534475 0.8351089
000010 01 f9 eb 3e 5c b6 d6 3e 4a 3a 9f 3e a4 8a 35 3e
       0.46088412 0.41936004 0.3109916 0.17728668
000020 19 1c 4b 3e 35 9c ba 3f 52 22 53 3f 9d 76 77 3e
       0.19834937 1.4578921 0.82474244 0.24166341
000030 d8 74 7f 3e da 73 d0 3e 76 29 6b 3e 38 10 87 3e
       0.24946916 0.40713388 0.22965035 0.2637956
