TSF_Finance/checkpoints/ixic_stm_0705__PatchTST_custom_ftM_sl96_ll48_pl30_dm16_nh4_el3_dl1_df128_fc1_ebtimeF_dtTrue_Exp_0/checkpoint.pth (torch_old, 160642 bytes, 65 tensors)

model.backbone.W_pos f4 [38, 16]
000000 18 75 24 bc 11 8d ab bb a3 fa 80 bb 72 e7 71 3c
       -0.010037683 -0.0052353223 -0.003936128 0.0147646535
000010 a0 80 20 3b 70 1b 00 3b 94 ea d9 bb 99 f3 88 3c
       0.002449073 0.0019547604 -0.0066502783 0.016717719
000020 1a 55 71 3a 70 ba a8 3b bd c3 28 bc 84 fb 7b 3a
       0.00092061015 0.005149178 -0.010300574 0.0009612369
000030 86 06 5f 3c 20 22 8e ba 5f 69 6f bc db 14 50 3c
       0.013612395 -0.001084391 -0.014612525 0.012700285
000040 37 16 1c bb c0 b5 3c 3c 1f 99 35 3c ac 70 9d 3b
       -0.0023816952 0.011517942 0.01108387 0.0048046913
000050 33 42 36 b8 12 bc 53 3c 40 b2 8d bc e4 81 83 3c
       -4.3453834e-05 0.012923257 -0.01729691 0.016053148
000060 4b 90 35 bc 29 5a 1f 3b be ca 9c 3c d9 d3 50 3c
       -0.011081765 0.0024315214 0.019139644 0.012745821
000070 4c e3 23 bc 0c df 56 3c bb 10 4b bb fb a3 38 bc
       -0.010002922 0.013114702 -0.0030985314 -0.011269565
000080 28 24 61 bc db 34 8c bc 07 d0 d3 3b a5 5d 26 bc
       -0.0137415305 -0.017115047 0.006464008 -0.0101541625
000090 97 16 b3 bc 7a e8 83 3c 32 df 77 bc 6c 10 88 3b
       -0.021861358 0.016102064 -0.0151288975 0.0041523483
0000a0 f9 35 e2 3c b7 08 7b 3c 99 07 9b 3b 97 2d f8 3a
       0.027613627 0.015321902 0.0047311303 0.0018934485
0000b0 cf 2f e4 3a 1a 9b 83 3c c2 e1 84 3c ca 66 93 3c
       0.0017409268 0.01606517 0.016220931 0.01799335
0000c0 1f 9b 2b bc 60 9b db 3b e2 f6 70 3c a6 8f e8 3b
       -0.0104739955 0.0067018718 0.014707299 0.0070972024
0000d0 5e 49 53 bc 8e bf 80 3c c9 b7 bf b9 21 63 b2 bc
       -0.01289591 0.01571634 -0.0003656729 -0.021775784
0000e0 ee 41 8a 3c 67 69 6c 3c 21 68 82 bc 07 9e 65 bc
       0.01687714 0.014429427 -0.015918793 -0.014014727
0000f0 50 c6 27 3c 55 fa 89 3b ef 8a 88 bc c2 15 38 bc
       0.0102401525 0.00421075 -0.016667811 -0.011235656
000100 6a 2a 10 bc 33 3e 26 bc 7a b3 24 3b 92 74 1b 3c
       -0.008799175 -0.010146665 0.002513139 0.009488242
000110 1b 9f 7e bc a9 68 c6 3c 47 f8 26 bc 5b 84 cf bb
       -0.015540863 0.024219828 -0.01019103 -0.0063329167
000120 11 cb c9 3c e0 19 25 bc 40 cc 47 3c 98 02 c2 ba
       0.024632962 -0.01007697 0.012194693 -0.0014801798
000130 35 14 f0 3b 2a 46 26 3c ca 82 c1 bb ca 7e 3b bc
       0.0073266276 0.010148564 -0.005905484 -0.011443803
000140 c1 b2 51 3b 44 31 72 3b 79 5c 6a 3c e8 46 62 3b
       0.0031997415 0.0036955634 0.014304274 0.0034527127
000150 e3 b7 a1 3b 3f 8d 06 3c 1b 8f 77 3c b3 84 0e 3c
       0.004935251 0.008212387 0.015109803 0.00869863
000160 b1 57 32 3c 61 3e b3 ba 43 4c 9d 3c 79 a9 7c 3c
       0.010885165 -0.0013675207 0.019201403 0.015421265
000170 96 df 59 bc ec 85 7c bc 4f d4 83 bc be 17 6c bb
       -0.013297936 -0.015412789 -0.016092448 -0.0036024894
000180 be f8 81 3c 7a a3 96 3c 47 2c 21 3c 65 15 b3 3c
       0.01586568 0.018388499 0.009837217 0.021860788
000190 13 62 fc bc 83 0f 07 3b 50 12 2c 3b 5c e7 65 bc
       -0.030808484 0.002060861 0.0026256032 -0.014032211
0001a0 b1 f1 02 bc 2b ee 0a bc 19 49 1c 3c d7 43 5e bc
       -0.007992194 -0.008479635 0.009538912 -0.013565979
0001b0 dd fd 2d 3c 81 76 d0 bb 27 65 33 3c 7f 04 c4 3a
       0.010619608 -0.006361783 0.01094941 0.0014954953
0001c0 98 5d 61 bc 72 58 5d 39 73 99 5f 3c 97 ae df 3b
       -0.013755225 0.00021109151 0.013647425 0.0068262327
0001d0 be c6 0a 3c 97 fb 00 bc 84 53 90 bc 68 be 22 3c
       0.008470235 -0.007872484 -0.017617948 0.009933092
0001e0 b4 e8 87 3c 84 34 74 3c 45 8d 7f 3c 1d 6d 9b 3b
       0.016590454 0.014905099 0.015597646 0.004743232
0001f0 77 c3 39 ba b8 47 43 3c 03 84 f0 3b 6c 0c c9 bb
       -0.00070863165 0.011918955 0.007339956 -0.006135514
000200 7c 47 b3 bc 3f ed 9b 3c 34 68 0b 3c b1 fe 1a 3c
       -0.021884672 0.019034026 0.008508731 0.009460137
000210 78 b6 c5 3b 3b 24 29 3c 8f 0d 10 3c a6 14 89 bb
       0.006033715 0.010323579 0.008792295 -0.0041833697
000220 2d 5a 01 bc 4d 26 e7 bc 95 a3 4e 3b b8 28 62 3a
       -0.007895035 -0.028216505 0.0031530608 0.00086272834
000230 77 74 16 bc dd 70 8e bc 52 ea 25 bc 16 4e 48 bc
       -0.009183041 -0.017387802 -0.010126667 -0.012225648
000240 bc fd 84 bc c8 a0 29 3c c3 82 d5 bb 4c 1f df 3b
       -0.016234271 0.010353275 -0.006515832 0.006809151
000250 03 25 22 3c 39 c7 51 3c f5 94 03 3c 65 da 0e 3c
       0.00989652 0.012803846 0.00803112 0.0087190615
000260 40 d5 c7 3b d7 99 d0 bc 50 5d 36 bc ea 0a a9 bb
       0.0060984194 -0.025463982 -0.011130646 -0.0051587718
000270 ea 6b 0f 3c d8 71 e6 bc 66 16 b0 bb a5 79 ab 3c
       0.008753756 -0.028130457 -0.005373764 0.020932028
000280 ca 04 3a 3c d7 23 dc bb 6f 9c 8c bb 8d 12 a7 3b
       0.011353681 -0.0067181396 -0.0042911093 0.005098647
000290 cf d3 9c bc 17 74 28 3c d2 db d6 bc ff 53 22 3c
       -0.019143967 0.010281584 -0.026227865 0.009907722
0002a0 24 ec 09 bc b8 14 89 3b 99 7b 10 3c 2e e8 24 bc
       -0.008418117 0.004183378 0.0088185305 -0.010065122
0002b0 65 1c 43 3b cd 29 0a bd 38 17 47 3c 3c c0 a7 bb
       0.0029771563 -0.03373127 0.012151532 -0.0051193517
0002c0 63 7e 52 3c 50 c1 91 3c 5b 4c b6 3c 25 a2 7d bc
       0.012847516 0.017792374 0.022253206 -0.015480553
0002d0 9f cd 93 bb 1e be 15 3c 9b 4c 19 bc 70 df 1c bc
       -0.004510596 0.009139566 -0.009356643 -0.009574756
0002e0 45 fd 8a 3c 6f 8a 4b bc b6 16 3d bc f8 e3 b9 bc
       0.016966471 -0.012423142 -0.011541059 -0.022691712
0002f0 3c bf 16 3c f9 32 48 ba a3 94 7e 3c d0 63 b7 3c
       0.009200867 -0.000763699 0.015538367 0.022386461
000300 02 d8 f4 ba 1f f0 46 bb 3a d0 86 bc 99 bb 4f 3b
       -0.0018680098 -0.0030355526 -0.016456712 0.003169751
000310 31 01 06 bc 64 f5 86 3c f0 01 90 bc b6 c7 cb 3c
       -0.008178995 0.016474433 -0.017579049 0.024875503
000320 f0 e5 79 bc 88 40 59 39 62 b1 45 bc ae 9a 75 3a
       -0.015252575 0.00020718772 -0.012066217 0.00093690574
000330 e2 a6 59 bc ae ad b5 bc bd ca 35 bc 21 61 90 3c
       -0.013284417 -0.022177543 -0.0110957 0.01762444
000340 a1 58 86 3c ef 85 93 bc 8a 40 19 3c 44 f1 8f ba
       0.016399683 -0.0180082 0.009353766 -0.0010981937
000350 ac 1c 84 3c 3b e6 1c bc 92 36 6e bb fd 2a 60 3c
       0.016126953 -0.009576376 -0.0036348444 0.013682124
000360 f2 7f 2a bc 16 f6 a9 b9 c5 25 bd bb 85 99 9f bc
       -0.010406481 -0.0003241754 -0.0057723247 -0.019482384
000370 92 e0 97 bc 6d 61 b8 bb a7 be d8 bb ed 98 7c 3c
       -0.0185397 -0.0056268484 -0.0066145244 0.01541732
000380 30 03 68 bc 21 29 3d 3b 2a 01 8a 3b 13 b1 88 bb
       -0.014160916 0.0028863626 0.0042115645 -0.0041714995
000390 bf b7 04 3c f3 e9 e0 ba 91 38 5b bc ed c2 ab bc
       0.008100449 -0.0017159566 -0.013380186 -0.020966971
0003a0 a9 30 90 3c 23 63 53 3b 3a 03 d1 b9 50 44 dd bc
       0.017601328 0.0032255135 -0.0003986599 -0.027010113
0003b0 f0 41 b0 bc 9a 81 66 bc 29 c3 96 ba 6f b5 0c bc
       -0.021515816 -0.014068985 -0.0011502254 -0.008588179
0003c0 ae 6b 91 3c f3 a7 c5 ba 62 47 95 3c 87 ed a7 3c
       0.017751541 -0.001507996 0.018222515 0.020499004
0003d0 7c 63 2d 3a 80 28 40 bb 00 6f 4b bc da fb 94 bb
       0.00066142506 -0.0029321015 -0.012416601 -0.0045466246
0003e0 2f 2b 8b ba 40 1f 9b ba 40 c0 3c bc af 24 b3 3b
       -0.0010617728 -0.0011834875 -0.011520445 0.0054670195
0003f0 45 60 0c 3b 93 b4 42 3c f9 97 9c 3c 10 6b c9 bb
       0.0021419686 0.011883873 0.019115435 -0.006146796

model.backbone.W_P.weight f4 [16, 24]
000000 9d 4c 1c be d7 bd 38 3a aa c2 bb 3d d9 63 a8 3d
       -0.152636 0.00070473313 0.091679886 0.082221694
000010 7b ee d2 3c 0b 52 09 be 4f 40 39 be 20 d7 46 3e
       0.025748482 -0.13410203 -0.18090938 0.19418001
000020 ec d0 9b bd 6b 47 1f be d9 2d 06 3e 02 1c 44 be
       -0.07608208 -0.15554588 0.13103427 -0.19151309
000030 b4 b4 07 3e d9 3f 1c be 7b 5e cc 3d 91 e3 65 bd
       0.13252527 -0.15258731 0.09978958 -0.056125227
000040 12 f6 b3 3b c8 24 ab bd 81 6b e7 3d 44 12 c9 3d
       0.0054919804 -0.08356625 0.112998016 0.09817937
000050 41 dd 07 3e 7e c7 5e bd 9f 0e 6e 3e 4c 49 25 3d
       0.13267995 -0.05438947 0.23247765 0.040353104
000060 9d 32 64 bd 31 29 43 be 8f 0e 08 3e b1 53 3c be
       -0.05571233 -0.19058682 0.13286804 -0.183913
000070 68 37 0d be 33 08 98 bd e0 a2 92 3d b4 c2 9d 3d
       -0.13790667 -0.07423439 0.07159972 0.07703152
000080 48 52 08 3e 49 14 fc 3b 69 2b c4 3d dd 34 04 3e
       0.13312638 0.007692848 0.09578592 0.1291079
000090 f0 bb 4c be d5 37 36 be fb 9c 51 be dc 9b 1a be
       -0.19993567 -0.17794736 -0.2047004 -0.15098518
0000a0 83 0a c2 3d 40 87 32 3e 18 db 83 3d f5 50 27 be
       0.09474661 0.17434406 0.06438273 -0.16339476
0000b0 49 c5 b9 3d 3e ac d7 3d 3a 50 2d 3e 98 b9 4a be
       0.09070832 0.105308995 0.16925135 -0.19797361
0000c0 8c b2 b1 bc 51 06 c4 bd be 47 3d 3e 99 6d f3 3d
       -0.021691583 -0.09571517 0.18484399 0.118861385
0000d0 a6 fc f8 3c 62 80 8e 3c 66 16 ba 3d 5d 30 1d be
       0.03039391 0.017395202 0.090863034 -0.1535048
0000e0 56 90 59 bc a8 47 14 be 2a 56 a4 3d a1 94 91 3d
       -0.013279041 -0.1448046 0.08024247 0.07108427
0000f0 ae 49 2c be e1 43 c5 ba 88 df ca 3d 92 dc d5 3d
       -0.16824982 -0.0015050137 0.099059165 0.10442461
000100 bc b9 45 3e 36 26 33 be 39 f6 49 bd 3c a9 7b bd
       0.19309133 -0.17495045 -0.04930708 -0.06144069
000110 18 ae 20 be 78 8c 5e be b3 48 3f be e4 8c 48 3d
       -0.15691411 -0.21733272 -0.18680076 0.04896249
000120 b4 56 36 be 5d 74 c1 bd 79 f0 08 be 5c 88 1b be
       -0.17806512 -0.09446023 -0.13372983 -0.15188736
000130 df 6a 43 3e dc 25 7f bc f3 b6 76 bd b5 2d 46 3e
       0.19083737 -0.015572991 -0.060233068 0.19353373
000140 26 9f e2 bd bb 76 a7 bd fb 84 86 bd 71 ea 0f be
       -0.110655114 -0.08176943 -0.06568333 -0.14054276
000150 7c 34 cf bd 66 e8 64 bd 05 6f ef 3b df a7 03 be
       -0.101174325 -0.055885695 0.0073069357 -0.12857006
000160 a7 0b 8b bc df 38 43 3e 87 75 cb bb 33 02 0e bd
       -0.01697333 0.19064663 -0.0062090787 -0.034670066
000170 76 e0 5a be 27 a8 2b be 99 d7 a6 3d 7e 49 c2 3d
       -0.21374688 -0.16763364 0.08146591 0.09486674
000180 5a a3 3b be be 8f 53 3d 13 49 4f 3d 58 76 92 bd
       -0.18324032 0.051650755 0.0506068 -0.071514785
000190 c3 a8 2c 3e d9 37 27 3d 73 a5 12 be e6 4f 3c 3e
       0.16861252 0.040824745 -0.14320926 0.18389854
0001a0 8b a4 d9 3d 97 1e af bd 3d d3 de 3c ba ad 23 3e
       0.10627087 -0.085507564 0.027200336 0.1598424
0001b0 8a 46 2c 3e d9 f3 e2 3d 89 9e 91 3d 2a f6 b2 3b
       0.16823784 0.110816665 0.07110316 0.005461474
0001c0 d0 17 4c 3d f1 9a 07 be ab 31 97 3c 2f db 3b be
       0.049827397 -0.13242699 0.0184563 -0.1834533
0001d0 76 af 0a 3e 18 49 f6 bd 92 c9 e7 bd b0 0c 42 3e
       0.13543496 -0.1202566 -0.11317743 0.18950152
0001e0 0e 17 5c bd ee 34 f5 bd 1b ad 18 be c4 a2 d4 3d
       -0.053732924 -0.11972986 -0.14909784 0.103826076
0001f0 8b e9 2e be b4 98 24 3e 7a 6a 88 3d e7 e9 43 3e
       -0.17081277 0.16073877 0.06660934 0.19132195
000200 c5 e2 9e bd 4d ca 31 be 68 a7 84 bc e8 7d 28 3e
       -0.077580966 -0.17362328 -0.016193107 0.1645428
000210 0a c6 bf bd 74 ad 3f be 6d a9 1e 3e f4 55 0e 3e
       -0.09363945 -0.18718511 0.15494318 0.13899976
000220 2a 19 23 3e ad 7d 01 3e 10 c2 cf 3b a0 a2 28 be
       0.15927568 0.12645598 0.0063402727 -0.16468287
000230 bc 18 15 be 0e e9 ef bd 21 73 25 be 24 4a 49 be
       -0.14560217 -0.117143735 -0.161572 -0.19657189
000240 cf 36 1c 3e 84 ec 17 3e c0 17 0b be 28 9a 99 bc
       0.15255283 0.14836317 -0.13583279 -0.018750265
000250 1e 5b 3f 3e 4f dc bb 3d ad 62 3e bd 30 0e 75 bd
       0.18687102 0.0917288 -0.046480823 -0.059827983
000260 7c 47 d3 3d ba 36 9c bd 06 f0 18 be 10 b1 53 bd
       0.10316369 -0.07627626 -0.14935312 -0.05168253
000270 1c 7d 08 3e ed 28 9e bd 8b 99 0c be 14 21 8f bd
       0.13328975 -0.0772265 -0.13730447 -0.06988731
000280 10 02 94 bd a9 a4 15 be 0c 89 1f bb da 20 d2 3d
       -0.07226956 -0.14613594 -0.002434316 0.10260172
000290 a5 0e 45 3e bf 39 8f 3d cf 55 3a 3e 99 1c e3 3d
       0.19243868 0.06993436 0.18196796 0.11089439
0002a0 21 16 85 bd 26 79 26 be 7c bc 69 bd d6 26 bf 3d
       -0.064983614 -0.16257152 -0.05706452 0.09333579
0002b0 ff 9e 27 3d cf 9d 65 bd 0f bf 24 bc f4 6a 8b 3d
       0.040923115 -0.0560587 -0.010055318 0.06807509
0002c0 b5 92 e2 bc 86 bf 1a 3e 1f 02 02 be 5a d9 e3 3c
       -0.027657846 0.15112123 -0.12696122 0.027813602
0002d0 ff fb df 3d f6 5a 2a 3e 5a 76 0e 3d 9f 45 a3 3c
       0.10936736 0.16636261 0.034780838 0.019930659
0002e0 b0 9a 39 3e 5d f6 11 be cb 25 c6 bd 36 4e fd bd
       0.18125415 -0.14254136 -0.09675177 -0.12368433
0002f0 60 9c 3c 3e cb e2 bd bb 6e cc 3c be 50 20 22 bb
       0.18419027 -0.005794858 -0.18437359 -0.0024738498
000300 56 fb 41 be 1e 07 e5 3d aa 2f 22 3e fd 8d a9 3d
       -0.18943533 0.11182998 0.15838495 0.08279035
000310 ac aa 36 bd 0c 1a f2 bd a8 cb 2e 3e 3e 70 2e bd
       -0.04459636 -0.11821374 0.17069876 -0.04258751
000320 87 5e 97 3d a9 bb bb bc 0b 57 21 3e 67 84 30 bd
       0.073910765 -0.022916632 0.1575586 -0.04309502
000330 04 f3 fd 3d 19 e4 1e be 3c 1c 33 be c6 b0 e9 3c
       0.12399867 -0.155167 -0.1749124 0.028526675
000340 2e 98 28 3e dc 12 0d be 3f 89 04 3e d6 90 96 3c
       0.16464302 -0.13776726 0.1294298 0.01837961
000350 19 ee 43 be 3b 59 16 be e0 46 70 bd 90 31 a3 bb
       -0.19133796 -0.14682476 -0.05866134 -0.0049802735
000360 f3 d0 b7 3d c0 e6 3a 3e 02 9a 36 3e 27 f0 34 be
       0.08975401 0.18252087 0.17832187 -0.17669736
000370 95 3f d3 3d ab 13 87 bd 29 44 c1 bc cf d6 37 3e
       0.10314862 -0.06595548 -0.023592072 0.17953037
000380 96 49 46 bd 39 e2 c3 bd 62 74 d0 3d b4 28 f5 bb
       -0.04841002 -0.09564633 0.10178448 -0.007481659
000390 15 99 34 3d 1a 46 8e 3b ae 28 36 3e 88 72 1f 3e
       0.044091303 0.004341853 0.17788956 0.15571034
0003a0 be 01 84 3d 92 df be 3c 2c 8f 88 3d 6b ae 91 bd
       0.06445645 0.023299966 0.06667933 -0.07113346
0003b0 24 f1 06 3e f1 e2 42 3e e8 51 40 3e 2f 71 a5 bd
       0.13177925 0.19031884 0.18781245 -0.08078229
0003c0 c1 62 c7 bd 13 d9 2d 3e 3e c3 21 3e 47 c8 f7 3d
       -0.09735633 0.16977338 0.15797135 0.12098747
0003d0 56 39 28 3e 9c 77 3a 3e d9 c4 e9 bd 38 62 2b be
       0.16428122 0.1820969 -0.11414499 -0.16736686
0003e0 c8 55 0b bc 76 09 f5 3d f2 89 c3 bd b6 25 03 be
       -0.008504339 0.11964695 -0.09547795 -0.12807354
0003f0 b8 8f 52 be 6d e1 ac 3c f2 6a 79 3c e1 a4 fc bd
       -0.20562637 0.021103585 0.015223252 -0.12336136

model.backbone.W_P.bias f4 [16]
000000 d4 2d a5 bd b6 77 8a 3c fe 50 3d 3d b3 a3 85 bd
       -0.08065382 0.016902786 0.04621982 -0.06525364
000010 c2 cd 15 3e 39 4f 80 bd 0a 0a d5 3c 97 83 0f be
       0.14629272 -0.062651105 0.026005764 -0.14015041
000020 ed 02 47 bd 09 69 26 3e af a9 16 bc c3 b3 b6 3d
       -0.048586775 0.16251005 -0.009195729 0.089210056
000030 68 4f c2 3c 68 a5 17 3e 4d 03 e7 bd 61 87 3f 3d
       0.023719504 0.14809191 -0.112799264 0.046759967

model.backbone.encoder.layers.0.self_attn.W_Q.weight f4 [16, 16]
000000 38 78 3c be d3 74 9c bd de 51 53 3e 1e 58 db 3c
       -0.18405235 -0.0763947 0.20636699 0.026775416
000010 4c 6b 07 3e 94 60 84 bd 75 19 17 3e 61 d7 08 3d
       0.13224524 -0.06463733 0.14755805 0.033408526
000020 84 77 3f be d8 5b 72 3e d8 77 68 be b1 ef 39 3e
       -0.18697935 0.23667848 -0.22701967 0.18157841
000030 5d 50 20 be 9b c8 77 3e 30 63 a5 3d f2 eb 80 3e
       -0.15655656 0.24197619 0.08075559 0.25180012
000040 d5 9a 5b 3e 89 8e 3a 3d e2 6a 65 3e 74 d8 17 be
       0.21445782 0.04554609 0.22404054 -0.14828664
000050 eb c0 38 be 76 25 58 be 36 d1 17 be a7 c2 05 3e
       -0.18042342 -0.2110804 -0.14825901 0.13062535
000060 49 ed 04 3e 46 98 78 be ed 02 49 be 31 c2 1a 3e
       0.12981142 -0.24276838 -0.19630022 0.1511314
000070 20 74 6a 3e fc 36 10 3e dd db 88 3d d9 5d c9 bd
       0.2289586 0.14083475 0.066825606 -0.09832353
000080 52 71 38 3d da cf 22 3e ae 72 63 be 9c f5 f3 bd
       0.045029946 0.15899602 -0.22211716 -0.11912081
000090 87 e9 f8 3c af b2 87 be 68 b2 80 3c a0 a0 04 3d
       0.030384792 -0.26503512 0.01571007 0.032379746
0000a0 68 2e 72 3d 62 ec d4 bd a6 9e 14 3e 4b 6c 55 be
       0.059126288 -0.10396649 0.14513645 -0.20842092
0000b0 f3 af 6c be 4e 90 43 3d c8 d9 ef 3d 32 16 d6 3a
       -0.23113994 0.04774504 0.1171146 0.0016333519
0000c0 cc ea 3a 3e 7e 20 00 3e 66 0c 1c 3e 28 12 3e bd
       0.1825363 0.12512395 0.15239105 -0.046404034
0000d0 a7 9a 2e 3e b2 ff 41 be 88 3f 14 be 34 c0 ea bd
       0.17051183 -0.18945196 -0.1447736 -0.11462441
0000e0 ab e2 10 3e a0 70 60 3e dd 49 0f be 0b c1 11 3e
       0.14148967 0.21917963 -0.1399302 0.14233796
0000f0 e0 f9 0b be e3 56 83 3d 43 f7 38 3e 37 90 82 3d
       -0.13669538 0.06413057 0.18063073 0.06375163
000100 9e aa 69 bb 73 ce d3 3b 44 60 07 bd f0 1e 71 be
       -0.0035654674 0.0064638196 -0.03305079 -0.23546958
000110 cd 05 3b 3d 1f 38 89 bc 5c ad 86 3e 49 f9 45 be
       0.04565983 -0.016750393 0.26304138 -0.19333376
000120 ce 12 59 3e a5 e6 68 3e 0e 46 69 be 21 55 ff bc
       0.2119858 0.22744234 -0.2278063 -0.031168522
000130 79 2b cd 3d 23 fa e7 3d 36 bb ef bd 3b 67 2f be
       0.100180574 0.11327007 -0.117056295 -0.17129223
000140 cd 7c 05 be 3d d3 d0 bd d5 cf cf 3d d7 ad 14 bd
       -0.13035889 -0.101965405 0.10147063 -0.0362986
000150 e0 23 ee 3d ca 91 25 bd 42 9e 45 3d 09 4c c1 3d
       0.11627936 -0.04042224 0.04824663 0.09438331
000160 40 8d 41 be 67 42 ce bd 8d 7c 79 be 9e 53 c4 bd
       -0.18901539 -0.10071259 -0.24363919 -0.09586261
000170 fd af 35 be 40 15 6f be ac 92 61 3e 14 24 bf bd
       -0.17742915 -0.2334795 0.22028607 -0.09333053
000180 ae 62 5d 3a dd 16 25 be 25 6f 85 bb 38 83 79 be
       0.00084451854 -0.16122003 -0.0040720874 -0.24366462
000190 6c a2 09 bd f5 10 88 bd 24 6d 72 3d ad 76 22 3c
       -0.033602163 -0.06643859 0.059186116 0.00991599
0001a0 6b e4 15 3e fd 65 7b 3c d2 c8 fa bd 83 0a 86 3e
       0.14637916 0.01534414 -0.12245335 0.26179895
0001b0 a1 9b 2d bd a6 3c 6d 3e 7c ad 5f be 45 ce 10 be
       -0.042384747 0.23167667 -0.21843523 -0.14141186
0001c0 37 67 4d be 41 d8 15 be 46 d4 45 ba dd d1 45 3e
       -0.20058905 -0.14633276 -0.0007546585 0.19318338
0001d0 50 7d 47 be 26 7d 7f 3d 1d 7e 3f 3e b7 3f 6d 3e
       -0.19481397 0.06237521 0.18700452 0.23168837
0001e0 24 5f 83 3d 57 82 dd bd 8c 8e 61 be 08 bc 40 3d
       0.06414631 -0.10815876 -0.22027034 0.04705432
0001f0 f0 74 02 3e 79 1c 92 3c 06 67 de 3d 6a c6 58 3e
       0.1273992 0.017835842 0.10859494 0.21169439
000200 a6 ec d0 bc e3 af 26 be c5 79 1e bd 42 5d 9b bd
       -0.025503468 -0.16278033 -0.038690347 -0.07586147
000210 ee 84 14 3e be 15 f5 3d b4 62 5f bc 21 7a 0b 3e
       0.14503834 0.119670376 -0.0136343725 0.13620807
000220 63 d2 83 be df c6 2f be 4c f3 51 b9 79 95 58 3d
       -0.2574645 -0.17165707 -0.00020022428 0.052876923
000230 ab e1 46 3e c3 6f ad 3c fa a5 19 be b5 78 8f bd
       0.19422023 0.021171456 -0.15004721 -0.07005445
000240 aa e5 39 be 2e 1f 0a be ec 94 a9 bd d5 c5 0a 3e
       -0.18154016 -0.13488457 -0.08280358 0.1355203
000250 0e 9b 82 3e 2d 5c 70 3d d1 64 47 be 73 ac 5e be
       0.25508922 0.058681656 -0.19472052 -0.21745472
000260 af 9a ce bd 0d 59 46 be fd eb 34 be a4 93 6b be
       -0.10088097 -0.19369908 -0.17668147 -0.23005539
000270 05 ca 40 3d b3 a0 0c 3d be df 00 bd 01 96 b0 3c
       0.04706766 0.034332942 -0.031463377 0.021555902
000280 70 f5 fe 3c 5c 56 50 3d 87 17 63 3c 07 01 97 bd
       0.031122893 0.05086361 0.01386059 -0.07373243
000290 cb 33 9c 39 c4 45 6e be 5b a2 39 be 6b 52 0c be
       0.00029793227 -0.23268801 -0.1812834 -0.13703315
0002a0 f7 29 3c 3e 43 52 54 3e 24 2e 46 be 5b 78 e0 3d
       0.18375383 0.20734505 -0.19353539 0.10960456
0002b0 40 95 07 bc 95 53 99 3d 32 2c 61 be d2 5d 65 be
       -0.00827533 0.07486645 -0.21989515 -0.22399071
0002c0 04 0c 04 be 35 42 bc 3d d6 30 6a 3d 16 a7 ef bc
       -0.12895209 0.091923155 0.05717548 -0.029254477
0002d0 db 62 9a bd 54 f8 0f 3b 3d 90 ff bd 1d c4 b6 3d
       -0.075383864 0.0021968083 -0.12478683 0.089241244
0002e0 17 f6 49 3d 7d 2a d1 bd c1 03 9d 3d 36 ad 7c bd
       0.049306955 -0.10213182 0.076667316 -0.061688624
0002f0 dd 48 89 3d fe d9 c5 3d f5 be 68 3e e8 50 09 3e
       0.06703351 0.09660719 0.22729094 0.1340977
000300 7f 42 67 be be 3b 39 3d dd 23 24 bd f5 d5 25 be
       -0.2258396 0.04522299 -0.040073264 -0.161949
000310 7a e1 5c be 51 f2 44 3e e5 a4 47 be e7 08 27 3e
       -0.21570387 0.19233061 -0.19496496 0.1631199
000320 2e 4d f6 3d 12 80 d2 bd 94 25 d9 bd 18 a3 20 3e
       0.120264396 -0.10278334 -0.106028706 0.15687215
000330 f2 63 fd 3d ac f2 9b bc 0b e4 c8 bd f3 6e a7 bd
       0.12372579 -0.019036613 -0.09809121 -0.08175459
000340 33 29 10 3b 50 5e 5b be 68 b8 8a bd 5b ff 09 be
       0.0021997213 -0.21422696 -0.06773454 -0.13476317
000350 0e 8f 4b be 15 e3 d2 3d 38 bd 3c be 22 1f aa bd
       -0.1987879 0.10297219 -0.18431556 -0.08306719
000360 97 55 b2 3d 13 bc d9 3d af 68 4c bc 6c e1 86 be
       0.08707731 0.106315754 -0.01247613 -0.26343858
000370 b6 41 28 bc 89 0c 3a be 60 ed 2b be 84 16 d2 3d
       -0.010269573 -0.18168844 -0.1678977 0.10258201
000380 aa 28 56 3e 72 28 25 3e 2c 76 6b be f2 98 09 be
       0.2091395 0.1612871 -0.22994298 -0.1343725
000390 6c 94 17 be 9c a6 2a 3e 12 a3 71 3e b2 64 2a be
       -0.14802712 0.16665119 0.23597363 -0.16639975
0003a0 f7 88 14 be 30 4b 81 3e 27 0b 0d 3e 30 67 6b 3a
       -0.14505373 0.25252676 0.13773786 0.0008979915
0003b0 6d e2 5c 3e 52 1a 31 3e 7e ea 59 be 1f f3 2a be
       0.2157075 0.17295197 -0.21280858 -0.16694306
0003c0 47 de 64 3d c4 d8 57 3e ea 89 94 3c f3 ce 44 bc
       0.055876043 0.21078783 0.018132169 -0.012012231
0003d0 08 2c 2c 3e 70 95 37 be b3 66 5f be 64 cc c0 3d
       0.16813672 -0.179281 -0.2181652 0.094139844
0003e0 b0 b5 ce bd f5 63 67 be 50 21 36 be f6 fc 90 bd
       -0.10093248 -0.22596724 -0.17786145 -0.070794985
0003f0 dd 06 2b bc 9c eb 5b 3b fb d4 53 be 58 37 66 3e
       -0.010438648 0.0033557182 -0.20686714 0.2248205

model.backbone.encoder.layers.0.self_attn.W_Q.bias f4 [16]
000000 d7 b6 0a 3e 9e e4 53 3e b2 ca 23 be c4 33 60 3e
       0.1354631 0.2069268 -0.15995291 0.21894747
000010 09 9d 59 3d 6f 02 10 be a5 0f 46 3d 18 77 3b 3e
       0.053128276 -0.14063428 0.048354764 0.1830715
000020 bf 7f c8 bd 66 56 1b 3e dc 99 29 be 10 68 60 be
       -0.09789991 0.15169677 -0.16562599 -0.21914697
000030 d6 0a 71 3e e0 a5 50 bd 0a aa 54 be 5f d7 1a 3e
       0.2353929 -0.05093944 -0.2076799 0.1512122

model.backbone.encoder.layers.0.self_attn.W_K.weight f4 [16, 16]
000000 66 e1 ff 3d a5 61 d3 bd 8d 08 7e 3e 60 33 6d be
       0.12494163 -0.103213586 0.2480795 -0.2316413
000010 c9 db 36 3e 7f 21 96 3c 83 ab 66 3e 9e 7e 0b be
       0.17857279 0.018326519 0.22526364 -0.1362252
000020 95 85 c0 bc d5 70 6c be bb 3f 6f be 09 62 0a 3d
       -0.023501197 -0.23089917 -0.23364155 0.0337849
000030 00 a0 39 3e cf 41 15 3e 15 62 39 be 13 eb c5 3c
       0.18127441 0.14575885 -0.18103822 0.024159944
000040 57 2a e8 bd f0 59 6d 3c de da 0f be 13 6f 84 bd
       -0.11336201 0.014486775 -0.14048335 -0.06466498
000050 fe 54 f4 3d c5 0a 1d 3e bd 72 d8 bb 4d 00 d6 3d
       0.119302735 0.1533614 -0.0066054747 0.10449276
000060 7d 55 2f 3e ff 18 54 be 55 b1 d2 bd e1 28 28 3d
       0.17122455 -0.2071266 -0.1028773 0.04105461
000070 be e2 fb bd fb ef 2c be f8 75 02 3c fc 0f 39 3d
       -0.12299107 -0.1688842 0.007962696 0.04518126
000080 eb ea 3e 3e 65 33 50 be 26 6a cb bd 97 eb 8c 3d
       0.18644302 -0.20332105 -0.099323556 0.06880873
000090 a4 8e 13 3e 81 8c 76 be c5 88 c6 3d cb b2 6b 3e
       0.14409882 -0.24077035 0.096940555 0.23017423
0000a0 d4 cb 6d 3d 13 5c 4d 3d fa ef a2 3d 4f fc bb bd
       0.058055714 0.050136637 0.07955928 -0.091789834
0000b0 62 10 a6 3d ac dd cd 3d 0a a8 a9 3c 2c d5 d1 bd
       0.081085935 0.10052046 0.02071001 -0.102457374
0000c0 72 6e 24 3e 01 8a e6 3d d1 86 72 be 74 7e e7 bc
       0.16057757 0.11256791 -0.23684241 -0.02825854
0000d0 35 fa 21 be d3 ec 32 bd 34 07 67 3d 81 bd d6 bc
       -0.15818103 -0.043682884 0.056403354 -0.02621341
0000e0 3f f5 7c 3e b4 a6 4b 3e 54 ff f2 bc 45 7e 74 3e
       0.24702929 0.19887811 -0.029662766 0.23876293
0000f0 f8 ee 83 bd 05 99 40 ba 31 83 01 be d7 1c e4 3d
       -0.06442064 -0.00073470204 -0.12647702 0.11138313
000100 2d 19 80 be 92 84 4f be 46 29 15 be 27 d2 fa 3d
       -0.25019208 -0.20265415 -0.14566526 0.12247115
000110 b4 08 b6 3c 6f 5c 68 be ae 7a 28 3e 97 45 55 3e
       0.022220947 -0.2269151 0.16453049 0.20827328
000120 10 6f 59 3e ab 24 f9 3c 65 6c e5 3b c9 cc 42 be
       0.21233773 0.030412992 0.007001447 -0.19023432
000130 46 c9 a0 3d bd 16 78 3e fc 06 e2 bd 5b df 5e be
       0.0785089 0.24227424 -0.110364884 -0.21764891
000140 a1 cd f6 bd c3 0d d1 3d 8c 58 1f be 0d 06 36 3e
       -0.12050939 0.10207703 -0.15561122 0.17775746
000150 e5 1d bd 3d ee 92 fd 3d 30 cd b7 bd 60 0f ec bd
       0.092342176 0.1238154 -0.08974683 -0.1152637
000160 c4 4d 49 be 45 1f 30 3d 6c 78 3a 3e d5 91 19 3e
       -0.19658571 0.04299857 0.1821 0.14997037
000170 96 09 15 3e 66 07 6b be c4 cd 2d 3e e1 23 fd 3d
       0.14554438 -0.22952041 0.16973025 0.12360359
000180 f9 9a 3c 3e 57 ad 4b be f9 25 61 3e a0 c0 ad bc
       0.18418492 -0.19890343 0.21987142 -0.021210015
000190 b7 ab 89 3d ee f9 38 be 18 90 6e 3d b3 7b 00 3e
       0.06722205 -0.1806409 0.058242887 0.12547188
0001a0 6d 09 0c bb b4 8c 1e be 9a 57 5c bd 2c b4 8c 3d
       -0.0021367923 -0.15483361 -0.05379448 0.068703026
0001b0 a0 19 0f 3b a4 59 18 3d 88 7a d9 bd df b5 82 3e
       0.0021835342 0.037194863 -0.10619074 0.25529382
0001c0 74 7c 42 3d 0e a1 23 be 8c 88 04 be cf d5 09 be
       0.04748197 -0.15979406 -0.12942713 -0.13460468
0001d0 e8 03 45 3e 91 c8 4f be b3 d2 4e 3e 57 af f0 3d
       0.19239771 -0.20291354 0.20197563 0.117521934
0001e0 3b 4a 4a 3d 26 47 61 3d 33 fd 68 be 87 9e f9 3d
       0.049387198 0.054999493 -0.22752838 0.1218844
0001f0 e8 f5 3a be 56 f8 3a 3e 06 10 5f be ff 14 3d 3e
       -0.18257868 0.18258795 -0.21783456 0.1846504
000200 76 25 76 3e b5 26 e3 3d 64 ed 73 be f5 c8 6d 3e
       0.24037728 0.11091367 -0.23821026 0.2322119
000210 3c bf f3 bd 8a 55 a8 3c 8b 7c 65 3e ae 49 5c bd
       -0.119017094 0.0205486 0.2241079 -0.053781204
000220 fe f8 b8 3d e2 f2 72 3d 85 fc 30 3e a9 10 06 be
       0.090318665 0.059313662 0.17283829 -0.13092293
000230 c0 51 d4 3d e4 f7 2e 3e 61 5f a4 bd 81 3d 34 3e
       0.10367155 0.1708675 -0.080260046 0.17601587
000240 c1 57 a6 bb 74 48 4c 3e fa 3c b7 bd 07 ab 22 3e
       -0.005076379 0.19949514 -0.08947177 0.15885554
000250 4d 17 69 3e 6f e6 43 3e 09 2e 1d 3e 04 8a 61 3e
       0.22762795 0.19130872 0.15349592 0.22025305
000260 02 b1 5e 3c 6c ec 66 3e ae 85 70 3e e4 09 85 bd
       0.013592007 0.22551125 0.23488495 -0.06496027
000270 08 22 2d 3e 58 6e ae bd fd ce 43 be 0a 51 69 be
       0.16907513 -0.0851714 -0.19121929 -0.2278482
000280 86 11 5b be 85 cb 6b 3d 4a 22 47 3e df 8a 0d 3d
       -0.21393403 0.05756714 0.19446674 0.034556266
000290 f6 c2 30 3e 6d 1b 52 be 9f 72 42 3c 72 ce 1e 3e
       0.17261872 -0.20518275 0.011868148 0.1550844
0002a0 13 6a fe bd 5a 8f 01 3e 88 fa 10 be 9f 7a 58 3e
       -0.12422576 0.1265234 -0.1415807 0.21140526
0002b0 1f a1 20 be e6 91 12 3e 97 7a 94 bd 59 f6 e7 3d
       -0.15686463 0.14313468 -0.07249945 0.11326284
0002c0 97 17 51 3e 1f fb a5 bd 95 29 6c be 08 ef 6a bc
       0.20419155 -0.08104538 -0.23062737 -0.014339216
0002d0 cc d1 6f be 93 5e 27 3e a8 c5 36 3d 94 f3 c9 3b
       -0.23419875 0.16344671 0.044622093 0.00616307
0002e0 92 31 37 bd c4 2e 38 bd 0b 6f 59 3e 2e a2 68 bd
       -0.04472501 -0.044966474 0.21233766 -0.05679529
0002f0 24 07 35 3e 42 43 51 be a9 b9 6a be 7a 8e 26 be
       0.17678505 -0.20435813 -0.22922386 -0.16265288
000300 46 99 24 3e 0f ed ae bd dc 79 91 bd a6 95 50 3d
       0.16074094 -0.08541309 -0.07103321 0.050923966
000310 6b 66 60 3e 67 c4 e6 bd 07 18 01 be 54 0e 9d 3d
       0.2191407 -0.112679295 -0.12606822 0.076687485
000320 b4 76 0d 3e 54 34 4d 3d 0a b2 59 be 00 7d 73 be
       0.13814813 0.050098732 -0.21259323 -0.23778152
000330 f6 61 63 bc 93 dc b5 3d 51 7a 3c 3d 4a 9b 68 be
       -0.013878336 0.08879962 0.046015088 -0.22715488
000340 f2 10 ae 3d 15 e4 67 bb 0a 79 c1 3d 63 fc 18 be
       0.08499326 -0.003538375 0.094469145 -0.14940028
000350 05 27 ff bd 82 62 f4 bc c1 93 0c 3c b9 44 86 3d
       -0.12458614 -0.029832128 0.008580149 0.065560766
000360 35 05 db bd 52 2c 45 3d 5a 04 29 3e 69 bd 71 3c
       -0.106943525 0.04813797 0.16505566 0.014754632
000370 6e 3b c6 bc 24 16 3f 3e 11 48 50 3e ec 5c 60 3e
       -0.02419826 0.1866079 0.20339991 0.21910447
000380 e9 13 d3 bd 21 46 2e 3e 26 9e 93 3d ed cc fc 3d
       -0.10306532 0.1701894 0.07207899 0.12343774
000390 cd 95 9b 3d f8 46 61 bd 39 d4 84 3c d3 fc 26 3e
       0.075969316 -0.05499932 0.016214477 0.16307382
0003a0 c9 dd 3a be 6f e5 79 be d3 9f 3d be 9e 46 41 bc
       -0.18248667 -0.24403928 -0.18518 -0.011796622
0003b0 b6 92 f1 bd 91 e6 a2 3d 56 24 0c 3e c8 7a fd 3d
       -0.11795561 0.07954133 0.13685736 0.12376934
0003c0 e0 31 3e 3d 96 6c ee ba 30 62 09 be 16 cd df 3c
       0.046434283 -0.001819032 -0.13416362 0.027319472
0003d0 41 a8 00 3e bf 9b 0f 3e 5f ea ed bd e9 d9 b6 3d
       0.12564184 0.14024256 -0.11616968 0.08928282
0003e0 ff 47 7e be 3e e2 53 3e 6e 44 d2 3d aa b4 11 bd
       -0.24832152 0.20691773 0.10266958 -0.035572685
0003f0 8f a1 22 be 44 45 40 3e 48 d6 58 be 30 38 32 3e
       -0.15881942 0.18776423 -0.21175492 0.17404246

model.backbone.encoder.layers.0.self_attn.W_K.bias f4 [16]
000000 18 b2 88 bd 97 5e ca 3d 6f 42 22 be aa 1a d0 bb
       -0.06674594 0.09881323 -0.15845655 -0.006350835
000010 8d 03 22 3d 31 59 61 3e 82 07 e2 bd 76 9b 50 be
       0.039554168 0.2200668 -0.11036588 -0.20371804
000020 2e e8 69 bd 01 20 c3 bd 9b 8b 0d be 21 be 84 bd
       -0.05710619 -0.09527589 -0.13822787 -0.06481577
000030 8a 27 eb bd 7b f7 f4 3d c7 bb 84 bd 2a 2c cd 3d
       -0.11482151 0.11961266 -0.06481128 0.10018189

model.backbone.encoder.layers.0.self_attn.W_V.weight f4 [16, 16]
000000 44 d9 01 3e 5d 26 82 3d ad 9e 00 be ab 26 c2 bd
       0.12680537 0.063549735 -0.1256053 -0.094800316
000010 d1 b5 35 3a d5 e1 de bc 63 26 7c 3e 41 13 6c 3e
       0.0006931695 -0.027207294 0.24624018 0.2305422
000020 b7 8a 68 be ff 10 3d 3c d4 1c f3 bd 60 08 1e 3e
       -0.22709166 0.011539697 -0.11870733 0.15432882
000030 de 34 3a be 7f 87 56 bd 31 cb 35 3e 95 00 24 be
       -0.1818423 -0.052375313 0.17753293 -0.16015847
000040 23 2a 31 3e 3a 16 24 be 28 bf 70 3e 57 96 8a 3d
       0.1730123 -0.16024104 0.2351042 0.06766956
000050 5b 73 e3 bc 78 75 09 3c fd 2f cd 3d 68 66 0c be
       -0.027764967 0.008389823 0.10018919 -0.1371094
000060 6a 8a 5a 3e fb 50 20 3e ea 3b 54 be 9a 8e b2 3d
       0.21341863 0.15655892 -0.2072598 0.08718605
000070 9b ff 6d 3e db 7f a7 bd f0 22 6d 3e 7f 6a 0d be
       0.23242037 -0.08178683 0.23157859 -0.13810156
000080 7e 14 53 be 61 4a 45 be f9 88 c3 3d db 0e 5f 3e
       -0.20613286 -0.19266655 0.0954761 0.2178301
000090 6f 38 23 3e 4b e0 89 bc 21 14 30 3e 40 e4 b4 3d
       0.15939496 -0.016830584 0.17195179 0.08832598
0000a0 f0 98 33 be ce 7c 8d 3d 31 c0 1b bd 5e d4 0d 3e
       -0.1753881 0.0690857 -0.038025085 0.13850543
0000b0 ab c7 65 3e fa 03 31 bd 44 21 e0 3d 7e 66 6b be
       0.22439449 -0.043216683 0.10943845 -0.22988316
0000c0 82 50 18 bd be 99 e6 bd 57 86 14 bc 26 f8 2c be
       -0.037186153 -0.11259793 -0.009065232 -0.16891536
0000d0 10 2d 85 3d 0b bc 26 3e e1 2f 4f be c3 c5 66 3e
       0.065027356 0.1628267 -0.20233108 0.22536378
0000e0 48 36 b9 3d 79 a0 ee bd 7c 09 8f 3b 40 1b 1c be
       0.090435565 -0.116517015 0.0043651443 -0.1524477
0000f0 a0 1d 72 3e 94 57 41 be 41 7c 70 3e 40 38 f7 bd
       0.23644114 -0.18881065 0.23484899 -0.12071276
000100 6a f0 99 3d 05 06 1e be bd 05 0b 3d 8a de bc 3d
       0.075165585 -0.15431984 0.03394102 0.092221335
000110 37 44 14 bb 53 c8 d8 3d 5d df e4 bd 34 49 ef bd
       -0.0022623667 0.10585084 -0.11175416 -0.11683884
000120 29 cc 4b be 97 6d 4f be dc de 8e bd af bc 4d 3c
       -0.199021 -0.20256649 -0.06976101 0.012557193
000130 52 53 83 bc 68 16 92 bd fa 80 48 be 9b 96 82 bc
       -0.016030941 -0.0713318 -0.1958045 -0.015940955
000140 a6 84 2c 3e ed 6d d5 bd fc 91 29 be 65 b8 4a 3d
       0.16847476 -0.10421357 -0.16559595 0.04949226
000150 cd cf 1a be fe c8 45 bd ca 2c 30 3d a1 51 b8 3c
       -0.15118332 -0.048287384 0.043011464 0.022499861
000160 ac 2e 6a 3e b3 57 05 3e 84 ab 50 be d5 c6 20 3d
       0.22869366 0.13021736 -0.20377928 0.03925212
000170 02 02 b0 3c 92 38 93 3d a0 b3 0e 3e e5 98 34 3e
       0.021485332 0.07188524 0.13935709 0.1763645
000180 61 f4 fd bd 34 9f 28 3e 96 70 9d 3d 0b 04 ff 3b
       -0.12400127 0.16466981 0.0768749 0.0077824644
000190 e7 f1 fa 3d 11 fe 23 3e 3d 1a 29 be 72 1c 09 be
       0.122531705 0.16014887 -0.16513915 -0.13389757
0001a0 e6 10 f6 3d 6f a1 56 3e f2 14 e8 bd 77 a2 13 be
       0.12014942 0.2096002 -0.1133212 -0.14417444
0001b0 f2 71 60 be a7 c3 ae bd d3 dd 3e bc 2d 40 1c be
       -0.21918467 -0.085334115 -0.011649567 -0.15258856
0001c0 3f d1 69 bd 59 21 8a bd dc da 2c 3d 19 e8 0e 3e
       -0.05708432 -0.06744642 0.042200908 0.13955726
0001d0 66 a5 38 3e 48 44 dc 3d 63 7e 54 be bf 32 d0 3d
       0.18031844 0.10755211 -0.20751338 0.10165929
0001e0 f3 41 bf 3c c6 05 4a 3e db d7 0c bc 55 cb 2c 3d
       0.023346877 0.19728765 -0.008596386 0.0421861
0001f0 08 20 44 be ca 63 cc bd 82 12 1c be d3 c5 0e be
       -0.19152844 -0.09979971 -0.15241435 -0.13942651
000200 1d f7 5d 3d 07 be 62 bd e4 a8 35 3e d5 d5 56 3d
       0.054190744 -0.055357005 0.17740208 0.05245002
000210 52 9d 56 be 72 d8 78 bc bf ce 2a be f3 e8 3e be
       -0.2095845 -0.015188323 -0.1668043 -0.1864355
000220 df 34 98 bd dd 8b ea bc b7 e8 ca bc cc fb 2e be
       -0.07431959 -0.028631145 -0.02476917 -0.1708824
000230 84 fa 3d be bc 55 71 3d 0b 4b 10 be b8 ef 12 be
       -0.18552595 0.058919653 -0.14091127 -0.14349258
000240 f1 75 37 be 34 7a 6b be 67 f1 ef bc 7f 75 13 3e
       -0.17916085 -0.22995836 -0.029289914 0.1440029
000250 00 91 b1 bd 9d c3 81 bd f5 d2 be bd f3 c2 44 bd
       -0.08670235 -0.063361384 -0.093175806 -0.04803748
000260 ea e0 7b be b9 c5 66 be 9f 93 38 be e5 ed cb 3b
       -0.24597517 -0.22536363 -0.18025063 0.0062234276
000270 bb ae 2a be 24 af b2 3d c6 00 96 bd d0 31 4e 3e
       -0.16668217 0.08724812 -0.07324366 0.2013619
000280 df 17 a1 3d 7a ef 2e 3d 1f 14 8d bd 7f 0b 6a be
       0.07865881 0.04270885 -0.068886034 -0.22855948
000290 5a e7 3d be 8b 5d 56 be 1c fa 1b 3e 4f ae fc bd
       -0.18545285 -0.20934121 0.15232128 -0.12337934
0002a0 2a 85 8f 3d ed 16 4d 3e 47 88 64 3e 4f fa 99 3d
       0.07007821 0.20028277 0.2231761 0.07518446
0002b0 69 80 33 3e 70 1e 4d be fa 1d a6 bd ea 7e 3a be
       0.17529453 -0.20031142 -0.08111186 -0.18212476
0002c0 d0 15 1b 3e 0d 5a c4 bc b2 a7 4d 3e cc 1c ba 3d
       0.1514504 -0.02396872 0.20083502 0.09087524
0002d0 a6 b0 f6 3d de c0 83 be c9 4b 03 3e 66 bb cb 3d
       0.12045412 -0.25733083 0.12821878 0.09947853
0002e0 0d bc 83 be 11 97 3d be da 37 92 bd c2 50 2a 3a
       -0.2572941 -0.18514659 -0.07139559 0.0006497019
0002f0 06 ab 3e 3e a3 7e 23 be ce fe 82 be a0 08 c4 bd
       0.18619928 -0.15966277 -0.25585026 -0.095719576
000300 bc c0 bf bd 6f a0 30 be c8 f6 6a bd c8 22 b3 3d
       -0.09362933 -0.172487 -0.057364255 0.08746868
000310 46 ab 4a 3e c7 18 10 be ff 4d 4f bd 2e 50 1b be
       0.19791898 -0.14071952 -0.050611492 -0.15167305
000320 1c 4c 41 be 11 21 73 3e c2 9a b9 bd ca f2 68 be
       -0.1887669 0.23743083 -0.09062721 -0.22748867
000330 86 cd d0 3d 47 1d 1f bd 04 2c 03 be a9 d9 ff bd
       0.101954505 -0.03884628 -0.1280976 -0.12492687
000340 40 6b 4b be a9 f9 1c be 04 eb 82 be c6 99 00 3e
       -0.19865131 -0.15329613 -0.25569928 0.1255866
000350 ae 9e 14 3e c5 6d 40 be cb 4f bb 3d d2 0b 6c 3e
       0.14513656 -0.18791874 0.09146079 0.23051384
000360 c0 86 0f be f3 f5 63 be 0c 56 78 be 5d 90 51 bd
       -0.14016247 -0.22261791 -0.24251574 -0.051163066
000370 f1 33 64 3e de 03 6f bd b9 39 78 3e ae 34 46 3e
       0.22285439 -0.058353297 0.2424077 0.19356033
000380 8d 8f e1 3d 50 2a 6a 3d 40 15 ef bc 94 a5 b0 3d
       0.11013708 0.05716926 -0.029184937 0.086253315
000390 99 68 61 be 59 b1 63 be 24 55 4e 3d f4 61 9e bd
       -0.22012557 -0.22235622 0.050374165 -0.07733527
0003a0 8a 45 33 be 97 07 86 bd 54 21 0c 3e 85 6e 31 3e
       -0.17506996 -0.065444164 0.13684589 0.17327316
0003b0 70 3e d0 3d 7e b1 94 3b 70 87 f8 bd ee cd 67 3e
       0.10168159 0.0045377603 -0.12135208 0.2263715
0003c0 5e e2 0a 3e cf 49 85 bd 56 0f 0b 3c 6d 21 53 bc
       0.13562915 -0.065082185 0.008487543 -0.012886387
0003d0 47 c5 4a bd 3b 23 6e 3e f7 18 0a 3e 3f 56 80 3e
       -0.049504545 0.23255627 0.13486086 0.250658
0003e0 bb 86 37 bd 72 7e 96 3c 2f f2 c2 3d 33 36 2c be
       -0.044806223 0.01837084 0.09518849 -0.1681755
0003f0 51 33 72 3e 95 22 03 be f2 97 92 bd 28 5a 21 bd
       0.23652388 -0.12806161 -0.071578875 -0.03939262

model.backbone.encoder.layers.0.self_attn.W_V.bias f4 [16]
000000 a7 ed 52 bd 28 fc 35 bd 0a f6 a7 bd 1e 9c 18 3e
       -0.051496174 -0.044429928 -0.08201225 0.14903304
000010 e6 ed 56 3d 6a 7a 22 3e f9 b3 ad 3d 6b bf 45 be
       0.05247297 0.1586701 0.08481593 -0.19311301
000020 0b d9 5a bd 21 18 ae 3d 78 26 17 be d3 07 11 be
       -0.053429645 0.08500696 -0.14760768 -0.14163141
000030 86 76 85 3e 9e ae 42 3e 1b 14 04 be 67 e7 28 3e
       0.2606699 0.19011924 -0.12898295 0.16494523

model.backbone.encoder.layers.0.self_attn.to_out.0.weight f4 [16, 16]
000000 30 83 29 be 7e 84 1f 3d dd d4 02 3e b8 61 05 3e
       -0.1655395 0.038944714 0.12776513 0.13025558
000010 fe 85 8a bc e6 18 5c 3e 29 90 dc bd ab 92 84 be
       -0.016909596 0.21493873 -0.10769684 -0.2589315
000020 4d 15 62 3e 11 25 45 3e 9c 6c 4e 3e e8 6d cd 3d
       0.22078438 0.19252421 0.20158619 0.100307286
000030 1d 3c df 3d d4 3b fc 3d 3f f6 d3 bd a0 b6 38 be
       0.109001376 0.12316099 -0.10349702 -0.18038416
000040 c8 09 10 bd cf 92 52 be 6a f9 98 bd 5a fa 83 3d
       -0.035165578 -0.20563816 -0.07469447 0.06444235
000050 13 16 84 bd 35 08 00 be 8a 05 ab bd a2 56 b7 bd
       -0.06449523 -0.1250313 -0.08350666 -0.08952071
000060 95 d4 43 3e 2e 2a 1f be ea 0f 73 3c 57 f2 8c 3c
       0.19124062 -0.15543434 0.014835337 0.0172054
000070 d5 21 76 bd 6a d8 61 3d 43 08 83 3e 2e ef 2a be
       -0.06009086 0.05513803 0.2559224 -0.16692802
000080 17 2a 36 be 4e 64 75 be c2 92 2f 3b 5a 2f 4e be
       -0.17789494 -0.23964044 0.0026790355 -0.2013525
000090 e4 49 33 3e 89 d1 cd 3d a3 a5 09 be 44 4b fa 3d
       0.17508656 0.10049731 -0.13442092 0.12221387
0000a0 43 15 54 be 46 bf f1 3d c6 f8 4c 3e 86 ab 4d be
       -0.20711236 0.11804061 0.20016775 -0.20084962
0000b0 80 65 2e 3e b8 4b 41 be 2d 24 b8 3b 30 f8 7a 3e
       0.17030907 -0.1887654 0.005619547 0.24508739
0000c0 4a e9 48 be bb ca 3c 3e 2e 46 24 bd b1 51 47 be
       -0.19620243 0.1843671 -0.04010599 -0.19464757
0000d0 e5 a0 f7 3d ed 61 49 3e 1d a2 f0 3d 66 d8 67 3e
       0.12091235 0.19666262 0.11749671 0.22641143
0000e0 5f a2 ba bd ef 43 0f 3e ef c0 49 be 5a 99 35 be
       -0.09113001 0.13990758 -0.19702505 -0.1773428
0000f0 51 fb 62 3c 07 04 c7 3d 44 d3 1d 3e 8d df 07 3e
       0.013853864 0.09717565 0.15412623 0.13268872
000100 02 40 19 be 01 c0 48 3d ef 68 b5 3b 41 e0 11 be
       -0.14965823 0.049011234 0.0055361907 -0.14245702
000110 98 ef 37 be 3d ec 50 3d b3 ac f4 3d e3 a3 82 3d
       -0.17962492 0.051006544 0.11947002 0.06378915
000120 1a 69 1d 3e 6b 1f b4 3d f8 c7 3e be 17 59 31 be
       0.15372124 0.08795055 -0.1863097 -0.17319141
000130 68 f7 60 3e 49 7e ac 3c e9 59 48 3e b3 af 51 be
       0.21969378 0.021056311 0.19565548 -0.2047718
000140 34 73 56 3e d3 14 e5 bd fe 63 ff bb d4 51 62 3e
       0.20942384 -0.111856125 -0.0077939024 0.22101527
000150 81 c5 29 3d e3 bc bd bd 35 bb ca 3c 22 24 d9 bd
       0.04144812 -0.09264543 0.02474747 -0.10602595
000160 49 c9 ba bd 88 9b 43 be aa 94 13 3e c9 4d 0b be
       -0.09120423 -0.19102299 0.1441218 -0.13603891
000170 05 6c a5 bd 6a 98 49 3e 62 0b dd 3d 1b 00 56 be
       -0.08077244 0.19687048 0.10793187 -0.20898478
000180 71 39 0f be d9 53 74 be a5 ab 37 3e 4d 09 6b be
       -0.13986756 -0.2386011 0.17936571 -0.22952767
000190 c4 4a 3d 3d ef 0a 4d be 6f 59 d8 bb 87 23 d4 3d
       0.04621388 -0.20023702 -0.006602458 0.10358339
0001a0 a8 14 e2 3d 99 61 41 3e 8d cf 0b 3e 4c 7e 80 be
       0.11039096 0.18884887 0.13653393 -0.25096357
0001b0 3e f4 25 be 8f 32 85 3d ba 0b 0c be 0e 27 d4 bc
       -0.16206452 0.06503784 -0.13676348 -0.025897529
0001c0 62 f4 10 be b8 18 01 3e 44 c1 53 3e a3 5f 82 be
       -0.14155725 0.12607086 0.20679194 -0.2546359
0001d0 5c 1e a1 3d 41 f8 5c 3d d1 34 2a be 8a dd f4 bd
       0.07867119 0.05394769 -0.1662171 -0.11956318
0001e0 cd 7b 15 be 4c 6d b2 bd c0 27 cd bd 57 86 4c be
       -0.14598008 -0.08712253 -0.10017347 -0.19973122
0001f0 ce 30 21 bd 98 c5 2f bd db d8 0e 3e 02 d3 0f 3e
       -0.039353184 -0.04291305 0.13949911 0.14045337
000200 31 8b 14 3e d9 70 8c 3d 7d ae 6e be e6 4d 31 be
       0.14506222 0.068574615 -0.2330875 -0.17314872
000210 a1 7b ee bd be 19 0a 3e d4 8b 6a be 44 b6 4a 3e
       -0.11644674 0.13486382 -0.22904903 0.19796091
000220 bd c9 a2 bd b9 b3 0c be cf 72 31 3e 1f 66 0f 3e
       -0.07948635 -0.13740434 0.17328952 0.140038
000230 0d 25 a4 bd 4d f3 d6 bd b0 2e 0a be c5 06 74 bd
       -0.080148794 -0.10495625 -0.13494372 -0.05957677
000240 a9 73 8a 3d 63 56 eb 3c 71 cf 21 bd bb c3 ab 3c
       0.06760342 0.028727716 -0.039504472 0.020967355
000250 8b 6d f8 bd b6 5b 83 3d 4a e3 66 be 99 92 5a bd
       -0.12130269 0.06413977 -0.22547641 -0.053362463
000260 3c 13 75 be 8c dd c6 bd 54 f6 87 bd ae 69 5a bb
       -0.23933119 -0.097102255 -0.0663878 -0.003332715
000270 16 6d 3a 3e 3c e3 74 be f2 70 c0 3d bb 5b 3c 3e
       0.18205675 -0.23914808 0.093965426 0.18394367
000280 d8 85 69 be 9b cd 62 3d d5 18 8c 3d 64 76 70 be
       -0.22804964 0.055371862 0.06840674 -0.23482662
000290 d6 4f 6b 3e 04 1d 65 3e de 9b 02 be d3 bb 39 be
       0.22979674 0.2237435 -0.12754771 -0.18138056
0002a0 fa 96 0c 3e e3 f4 2b be d7 a2 3e be bd 6a d2 3d
       0.13729468 -0.16792636 -0.18616806 0.10274265
0002b0 29 0e 32 3d 61 78 00 bc 3c d8 4d 3e a1 bd 35 3e
       0.043470535 -0.007841201 0.20102018 0.17748119
0002c0 bc 5c ac 3d 89 8d af 3d a3 95 70 be e8 0f 0d bd
       0.08416125 0.085719176 -0.23494582 -0.034438998
0002d0 e0 ff 1a be dd 99 94 3d aa 4a 4f be 08 7f b6 bc
       -0.15136671 0.072559096 -0.20243326 -0.02227737
0002e0 c5 3b 02 be b1 9f 25 be b7 22 7e be b0 24 0f 3e
       -0.12718113 -0.16174199 -0.2481793 0.13978839
0002f0 37 80 18 3e d3 ce 36 be 1c da 49 3d ea fc 45 be
       0.1489266 -0.17852335 0.04928027 -0.1933476
000300 80 80 78 be 48 74 41 be c1 aa 2a 3e 96 7f 6b be
       -0.24267769 -0.18892014 0.166667 -0.22997889
000310 59 53 d7 bc a7 5f 4c 3e ee 36 1b bd 56 00 16 be
       -0.02628486 0.19958363 -0.037894182 -0.14648566
000320 f2 15 03 bc f5 98 d0 3d ce 85 01 be c8 ad 1f be
       -0.008000838 0.10185424 -0.12648699 -0.15593636
000330 a3 92 41 3e 74 a3 24 be 79 e3 39 bd 39 e7 e9 3b
       0.18903594 -0.16077977 -0.04538295 0.0071381596
000340 ea 4a e7 bc 85 c7 05 3e f2 c3 8f 3d d6 63 d6 bd
       -0.028233964 0.13064392 0.070197955 -0.10468261
000350 2c 83 3e 3e 8b 91 40 bd 32 da 11 be 48 f5 cc bd
       0.18604726 -0.0470138 -0.14243391 -0.10007721
000360 4f 9c 35 be d9 0c 8f bd a0 e2 98 3d 81 a3 f4 3d
       -0.17735408 -0.06984872 0.074651 0.119452484
000370 5c c3 51 3e b0 32 8a 3c 89 0b 48 3c 4c fb 89 3d
       0.2048468 0.016869873 0.012209781 0.06737384
000380 e8 fb 54 bd d3 e7 ee bc 84 e4 a0 3d 9c 0d 4c be
       -0.05199805 -0.029163277 0.07856086 -0.19927067
000390 79 fd 04 be 87 d3 b5 bd a0 00 07 3e 2c d6 54 3d
       -0.12987317 -0.08878236 0.13183832 0.051962063
0003a0 30 93 86 3d 38 5e d4 3d 73 85 1d 3e 6d 2e 87 3d
       0.065710425 0.10369533 0.15382938 0.06600652
0003b0 d7 e6 6a bd 7c 04 9a bd ec df a5 3c e4 54 9c bc
       -0.057349052 -0.075203866 0.020248376 -0.019083448
0003c0 1e c5 ce bc e2 c4 2a be dc d7 db bc 45 91 bf 3d
       -0.025240477 -0.16676667 -0.026836328 0.0935388
0003d0 de 8c 58 3e db 19 d9 3d 2e 23 9a bd f3 61 a7 3d
       0.21147487 0.10600635 -0.07526241 0.08172979
0003e0 9c 2c 7d 3e 37 e8 66 be 65 17 01 3e ce 1d 70 be
       0.24724048 -0.2254952 0.1260658 -0.2344887
0003f0 2b da 40 be ad 0e 21 be 0d db 20 be 78 34 7f be
       -0.18833224 -0.15728255 -0.15708561 -0.24922359

model.backbone.encoder.layers.0.self_attn.to_out.0.bias f4 [16]
000000 c2 bb 41 be 83 7b 7f 3d 9c 07 e4 bd f8 f2 a7 bd
       -0.1891928 0.06237365 -0.11134264 -0.082006395
000010 cf db 1b be c7 d0 36 3e 90 dd ef 3b 43 f6 91 3d
       -0.15220569 0.1785308 0.0073201135 0.07127049
000020 85 59 d5 3d bd a5 34 bd 42 85 5f 3e 6e 93 77 bb
       0.10417465 -0.044103373 0.21828178 -0.0037777084
000030 70 11 52 be f1 7b 6a be 25 64 e2 3d 5a 99 56 3e
       -0.20514464 -0.22898842 0.11054257 0.20956936

model.backbone.encoder.layers.0.norm_attn.1.weight f4 [16]
000000 9b c1 7f 3f f9 dd 82 3f d3 f3 81 3f ac 0c 7f 3f
       0.99904794 1.0223991 1.0152534 0.9962871
000010 46 69 7d 3f 0d 6e 83 3f 99 6d 82 3f 24 ca 7b 3f
       0.9898876 1.026796 1.0189697 0.9835532
000020 00 29 81 3f 3e 1c 7a 3f 13 7b 7c 3f 40 87 81 3f
       1.0090637 0.97699344 0.98625296 1.01194
000030 94 45 7e 3f ab 3f 7a 3f 47 55 7d 3f bb 22 7d 3f
       0.9932492 0.977534 0.9895825 0.9888112

model.backbone.encoder.layers.0.norm_attn.1.bias f4 [16]
000000 a3 9f c9 bb c6 8f ce 3b e5 95 07 bc 22 0b 01 bc
       -0.0061530634 0.00630376 -0.008275484 -0.007876189
000010 df 54 6b bc 95 1d a9 bb 77 46 f2 bb 22 b9 2d bc
       -0.014363497 -0.005160997 -0.007393654 -0.010603221
000020 27 7d 09 bc e4 5f 67 bc 18 99 f3 3b a7 21 d7 bb
       -0.008391655 -0.014121983 0.0074340217 -0.006565291
000030 ea df 19 3b 95 cb 08 3c 5f af 07 3c 3f 8d d7 bb
       0.002347941 0.008349319 0.008281558 -0.006578117

model.backbone.encoder.layers.0.norm_attn.1.running_mean f4 [16]
000000 ec 9d 16 be 60 9d 96 37 d9 b3 bd bc 6d cf 48 bd
       -0.1470868 1.7954677e-05 -0.023157047 -0.04902594
000010 9a 3d d6 3d df 8c 4b 3d 68 06 8b bc 02 e6 2e bd
       0.10460968 0.049694892 -0.016970828 -0.04269982
000020 18 8a ac bd 51 8a 4c 3e 81 dd 46 3e 45 8f f2 3d
       -0.08424777 0.19974639 0.19420435 0.11843733
000030 3c bc eb bc b1 98 95 bc df ba a2 bd b0 9a ed 3d
       -0.02877628 -0.018261285 -0.07945799 0.1160177

model.backbone.encoder.layers.0.norm_attn.1.running_var f4 [16]
000000 8d ec 90 3e 12 d7 92 3e 83 96 eb 3e fe a6 48 3f
       0.28305474 0.2867971 0.4601327 0.7837981
000010 9d db c8 3e 59 ae ec 3e 3c f7 b3 3e 36 48 1f 3e
       0.39230052 0.46226767 0.35149562 0.1555489
000020 b1 d6 48 3e ea 99 9e 3f 23 fa 59 3f 8d bb 8c 3e
       0.19613148 1.2390721 0.85147303 0.2748684
000030 c2 9a 52 3e 4a 31 b6 3e 2f d4 6d 3e c5 50 8d 3e
       0.20566848 0.3558448 0.23225473 0.27600685
