TSF_Finance/checkpoints/ixic_all_0613__PatchTST_custom_ftM_sl96_ll48_pl30_dm16_nh4_el3_dl1_df128_fc1_ebtimeF_dtTrue_Exp_0/checkpoint.pth (torch_old, 160642 bytes, 65 tensors)

model.backbone.W_pos f4 [38, 16]
-0.014107152 -0.00722219 -0.013763086 0.020891698 0.008137192 0.005525943 -0.016386913 0.011608695
-0.0021890197 0.0069919736 -0.0015683095 -0.015195802 0.01659762 0.0052779643 -0.018885473 0.020612976
-0.005778279 0.014379613 0.01907844 -0.0037586435 0.0071956567 0.0075666294 -0.017760098 0.01044126
-0.011977549 -0.0029618666 0.011926213 0.0042069424 -0.01170461 0.007905198 -0.00673285 -0.01043266
-0.0047093225 -0.014240064 -0.0046310336 -0.013676974 -0.013655197 0.006168383 -0.0047014416 -0.0057070833
0.025696255 0.01968875 -0.0031688672 0.009212245 0.010125482 0.016154017 0.0052465964 0.022970712
-0.00091468135 0.0043423017 0.006756707 0.012408673 -0.0071858005 0.00475596 0.0064181923 -0.030159926
0.0061846282 0.019696616 -0.019355644 -0.004990171 0.017620502 0.0065038195 -0.024857543 -0.011471756
-0.011985499 -0.015856335 -0.003462092 0.019079944 -0.020557461 0.027428249 -0.0050026216 -0.008712327
0.012862595 -0.005742805 0.0012102295 0.00689531 0.019248307 0.015096391 -0.008196939 -0.012043097
0.013518654 0.007940296 0.01537231 -0.0032864616 0.0079788035 0.0116933575 0.025235243 -0.0012603983
0.011233942 -0.0033152783 0.00968522 0.013513771 -0.012561676 -0.018533042 -0.019343179 -0.014869628
0.018852009 0.021097124 0.0019558382 0.029007062 -0.025036326 -0.008303522 0.005174523 -0.016051538
-0.014543158 -0.0064012236 0.015504174 -0.022666235 0.014115649 0.0028671948 0.003387399 -0.00735504
-0.017047362 -0.007439069 0.00373358 0.0035993105 0.009155399 -0.019920135 -0.0046103247 0.008952688
0.008499767 0.0073030144 0.005809059 0.00756379 -0.0025098019 0.020504816 0.008692203 -0.01499579
-0.022111801 0.023829 0.0004487381 0.01528361 0.002091277 0.013206365 0.002559366 -0.0041601188
-0.01104005 -0.029518176 0.0033912417 0.0052868593 -0.0063182497 -0.0074463338 -0.009776922 -0.021690259
-0.013097714 0.008302486 0.00076120533 0.010153116 0.0019541774 0.007136014 0.015947333 0.0068245707
0.005221092 -0.022094486 -0.019899147 -0.013077262 0.008394394 -0.024388485 -0.011419525 0.0078739
0.018764552 -0.0022157757 -0.015940435 0.011094654 -0.023171186 -0.0005544481 -0.029689904 0.013495274
-0.019516751 0.0023159268 0.015366951 -0.012241818 0.00010465367 -0.027214235 0.007367476 -0.012849024
0.020084145 0.02204506 0.024608241 -0.023068171 -0.0075151776 0.005309383 -0.009461478 -0.0020873372
0.005485391 -0.00901723 -0.022548087 -0.018930996 0.0065968265 -0.0033617117 0.020762853 0.018372202
0.005826797 -0.0062119733 -0.0273142 -0.0036255778 -0.008741593 0.0060588657 -0.007028142 0.015854731
-0.027959064 -0.0002673842 -0.024960618 0.0058160475 -0.005650008 -0.02058143 -0.019845335 0.018810024
0.018286278 -0.024166107 -0.0033030882 -0.0036954607 0.019924816 -0.016548747 0.0072506405 0.004054024
-0.015718332 0.005159974 -0.016483836 -0.007780092 -0.008687211 0.00037094098 -0.007427275 0.01353714
-0.004097135 -0.0011059428 -0.001778688 0.004064323 0.017345386 -0.004320957 -0.008195935 -0.016084325
0.009704268 0.0058414573 -0.013989504 -0.015277972 -0.02183901 -0.0074375044 0.0025693981 -0.004902704
0.013129289 -0.007942364 0.008453481 0.019412635 0.0020675047 -0.012418936 -0.00033274142 -0.016341273
-0.00607411 0.006264392 -0.028032878 0.014690729 0.012140913 0.015789248 0.013814415 -0.00882631
00000000: af21 67bc 1fa8 ecbb 917e 61bc 1125 ab3c
00000010: db51 053c f812 b53b d93d 86bc 6532 3e3c
00000020: a875 0fbb ed1c e53b bc8f cdba d0f7 78bc
00000030: bbf7 873c c6f2 ac3b b5b5 9abc 8bdc a83c
00000040: b857 bdbb 7898 6b3c 634a 9c3c 9353 76bb
00000050: 8bc9 eb3b 7df1 f73b a07d 91bc d211 2b3c
00000060: 7b3d 44bc e01b 42bb 2a66 433c 64da 893b
00000070: b1c4 3fbc ce84 013c 3d9f dcbb bfed 2abc
00000080: a950 9abb 284f 69bc edbf 97bb 6315 60bc
00000090: 0cba 5fbc 2620 ca3b 8d0e 9abb 7c02 bbbb
000000a0: f480 d23c 4d4a a13c c5ac 4fbb f5ee 163c
000000b0: 5ae5 253c 6e55 843c a4eb ab3b 132d bc3c
000000c0: 3ac7 6fba de49 8e3b 5e67 dd3b bf4d 4b3c
000000d0: dd76 ebbb e2d7 9b3b b34f d23b f311 f7bc
000000e0: 6ca8 ca3b cc5a a13c ba8f 9ebc 9784 a3bb
000000f0: df58 903c fe1d d53b 0ca2 cbbc 08f4 3bbc
00000100: d45e 44bc 25e5 81bc 44e4 62bb 8b4d 9c3c
00000110: 1f68 a8bc 35b1 e03c 08ed a3bb 26be 0ebc
00000120: a2bd 523c 242e bcbb 90a0 9e3a 0df2 e13b
00000130: a0ae 9d3c da56 773c 744c 06bc 6950 45bc
00000140: 587d 5d3c 0418 023c 24dc 7b3c ad61 57bb
00000150: 87b9 023c 7f95 3f3c 24ba ce3c f333 a5ba
00000160: 910e 383c 2445 59bb c2ae 1e3c dd68 5d3c
00000170: 7dcf 4dbc 9bd2 97bc 9675 9ebc bd9f 73bc
00000180: 876f 9a3c e0d3 ac3c 852d 003b 38a0 ed3c
00000190: fb18 cdbc 7f0b 08bc 0c8f a93b 847e 83bc
000001a0: 6d46 6ebc 5bc1 d1bb 3805 7e3c 8aae b9bc
000001b0: 5345 673c 8ce7 3b3b 20ff 5d3b 8c02 f1bb
000001c0: e9a6 8bbc 6fc3 f3bb 14af 743b 69e2 6b3b
000001d0: 8700 163c 8d2f a3bc 3512 97bb 4cae 123c
000001e0: 9b42 0b3c 204e ef3b eb59 be3b abd9 f73b
000001f0: 7d7b 24bb b7f9 a73c be69 0e3c e7b0 75bc
00000200: cf23 b5bc 0935 c33c 9c44 eb39 1b68 7a3c
00000210: ce0d 093b 825f 583c 09bb 273b 9b51 88bb
00000220: 53e1 34bc 1ad0 f1bc 983f 5e3b 643d ad3b
00000230: 5209 cfbb 6000 f4bb 622f 20bc c5af b1bc
00000240: cb97 56bc 2607 083c a08b 473a 4159 263c
00000250: a811 003b 39d5 e93b fba3 823c a6a0 df3b
00000260: b215 ab3b 7fff b4bc 8903 a3bc 0342 56bc
00000270: a488 093c 5cca c7bc f618 3bbc 8801 013c
00000280: 1eb8 993c 8c36 11bb 8495 82bc 5ac6 353c
00000290: 80d1 bdbc 6258 11ba 3e38 f3bc 481b 5d3c
000002a0: 98e1 9fbc cec6 173b aac5 7b3c e891 48bc
000002b0: 8379 db38 63f0 debc de6a f13b b684 52bc
000002c0: 8187 a43c d797 b43c 3997 c93c 76f9 bcbc
000002d0: e141 f6bb 55fa ad3b 5104 1bbc b5cb 08bb
000002e0: cbbe b33b 01bd 13bc c4b6 b8bc 2d15 9bbc
000002f0: 312a d83b 2a50 5cbb dc16 aa3c 4d81 963c
00000300: b7ee be3b cf8d cbbb 07c2 dfbc 1a9b 6dbb
00000310: e638 0fbc 7389 c63b 544c e6bb c8e1 813c
00000320: 680a e5bc b32f 8cb9 367a ccbc 8b94 be3b
00000330: b423 b9bb 639a a8bc af92 a2bc 7b17 9a3c
00000340: 1bcd 953c 00f8 c5bc a078 58bb 8b2f 72bb
00000350: 5e39 a33c 3d91 87bc c896 ed3b 9ed7 843b
00000360: bbc3 80bc 0015 a93b 1c09 87bc 24f0 febb
00000370: ce54 0ebc db7a c239 8060 f3bb e1ca 5d3c
00000380: 4241 86bb 48f5 90ba de22 e9ba 032e 853b
00000390: e917 8e3c d196 8dbb 3e48 06bc 46c3 83bc
000003a0: a6fe 1e3c b269 bf3b 3c34 65bc 7650 7abc
000003b0: b9e7 b2bc 4fb6 f3bb 5963 283b dda6 a0bb
000003c0: 3b1c 573c b020 02bc 7880 0a3c 3f07 9f3c
000003d0: f97e 073b cb78 4bbc cc73 aeb9 22de 85bc
000003e0: 5409 c7bb 8745 cd3b 35a5 e5bc 62b1 703c
000003f0: aeea 463c 7458 813c db55 623c 3a9c 10bc

model.backbone.W_P.weight f4 [16, 24]
-0.14110701 0.012237519 0.102650374 0.092782184 0.033094477 -0.12919383 -0.17685917 0.19383761
-0.07849682 -0.16016316 0.12649672 -0.1988914 0.123407945 -0.1611832 0.094074376 -0.06010166
0.0030526442 -0.084104076 0.115183204 0.098825954 0.13166697 -0.05823134 0.22863187 0.03463572
-0.06129138 -0.19636382 0.1276378 -0.18985866 -0.14207777 -0.0779871 0.06712664 0.07084113
0.12626752 0.002713883 0.093030296 0.127183 -0.20288697 -0.18047215 -0.20686719 -0.15461898
0.09093301 0.17060208 0.060254816 -0.16861774 0.086680114 0.102065265 0.16767746 -0.19725934
-0.029186776 -0.103937164 0.1763986 0.11212412 0.025782023 0.015685413 0.0891214 -0.15299982
-0.012238508 -0.14274769 0.0830964 0.07463077 -0.16240649 0.004975926 0.104873635 0.11016555
0.19887792 -0.17198694 -0.05047587 -0.0680408 -0.16684052 -0.2205011 -0.18516417 0.055269707
-0.17324588 -0.09359949 -0.13735084 -0.15656826 0.18842931 -0.017070517 -0.06544752 0.18768199
-0.113871835 -0.08029919 -0.063339636 -0.13355616 -0.093722835 -0.05000496 0.010463341 -0.12858959
-0.018261604 0.19050603 -0.0076348623 -0.035626806 -0.21324508 -0.1657569 0.08372649 0.09961865
-0.18640986 0.05202373 0.053027883 -0.068140805 0.17068112 0.043602854 -0.13982216 0.18729419
0.11032981 -0.082350805 0.030375289 0.1619158 0.16933833 0.11145752 0.07142835 0.005177646
0.050144747 -0.13175458 0.01920009 -0.18337414 0.13420191 -0.12450578 -0.11874242 0.18209346
-0.053452473 -0.12085711 -0.15221547 0.10077568 -0.17063797 0.16020846 0.0660869 0.19238904
-0.0745954 -0.16918725 -0.011150381 0.17100109 -0.08548765 -0.17927013 0.1594974 0.14223571
0.16183385 0.12765992 0.008060029 -0.1623856 -0.14337648 -0.11269674 -0.15746109 -0.19189246
0.14788623 0.14559604 -0.1362278 -0.017931288 0.18811263 0.09277677 -0.04565968 -0.05932808
0.10186698 -0.08031103 -0.15382682 -0.057866853 0.12630723 -0.083401084 -0.140093 -0.0720714
-0.07305362 -0.14587381 -0.0022991989 0.10238837 0.19054215 0.06798434 0.18028048 0.10892887
-0.05323273 -0.15455092 -0.052992217 0.09712338 0.04384838 -0.052262962 -0.0081029935 0.07065534
-0.02650586 0.151975 -0.12647301 0.025632706 0.10675156 0.15997887 0.024727449 0.008014937
0.1699348 -0.15183967 -0.10711057 -0.13178521 0.17475584 -0.016606996 -0.19512267 -0.011718085
-0.19502231 0.10487666 0.1505653 0.076208934 -0.04936851 -0.1200894 0.17007573 -0.04106778
0.077632405 -0.016654585 0.16430782 -0.03601782 0.13058746 -0.14963186 -0.17060743 0.031475686
0.16568877 -0.13775584 0.12812182 0.016377615 -0.19359522 -0.14597908 -0.056009326 -0.00020342291
0.08869276 0.18165958 0.18055506 -0.17064568 0.10941159 -0.05967205 -0.016376447 0.18625157
-0.039347813 -0.08663323 0.110468335 -0.002947773 0.04389245 0.0038006608 0.17961995 0.1592509
0.06870269 0.026344756 0.068446115 -0.071360655 0.12885456 0.18461776 0.1812995 -0.08809952
-0.098753415 0.1678588 0.15518686 0.11847778 0.16420762 0.18481222 -0.11110759 -0.1632511
-0.0031804766 0.12626827 -0.08979796 -0.121051244 -0.19511776 0.032438837 0.023762729 -0.11736756
00000000: 5b7e 10be e07f 483c 5c3a d23d 9604 be3d
00000010: 138e 073d 634b 04be 921a 35be 5e7d 463e
00000020: f1c2 a0bd d001 24be 5b88 013e 30aa 4bbe
00000030: 4ebd fc3d 350d 25be 11aa c03d 292d 76bd
00000040: df0e 483b c23e acbd 2ce5 eb3d 4365 ca3d
00000050: b5d3 063e fc83 6ebd 791e 6a3e 2fde 0d3d
00000060: ac0c 7bbd 9913 49be 7cb3 023e 4f6a 42be
00000070: d67c 11be b3b7 9fbd b179 893d 2815 913d
00000080: 464c 013e 67db 313b ab86 be3d 433c 023e
00000090: 9ac1 4fbe b1cd 38be fed4 53be 7054 1ebe
000000a0: 163b ba3d 50b2 2e3e c1cd 763d 21aa 2cbe
000000b0: 5885 b13d 9807 d13d a4b3 2b3e 5afe 49be
000000c0: 1b19 efbc 02dd d4bd d6a1 343e 55a1 e53d
000000d0: d234 d33c b27e 803c 4885 b63d fcab 1cbe
000000e0: 0684 48bc 732c 12be 722e aa3d 04d8 983d
000000f0: e34d 26be 180d a33b fdc7 d63d 7a9e e13d
00000100: a7a6 4b3e 581d 30be c9bf 4ebd fa58 8bbd
00000110: 3ed8 2abe 0acb 61be ad9b 3dbe 7d62 623d
00000120: 5e67 31be 17b1 bfbd b3a5 0cbe 6e53 20be
00000130: 9df3 403e 78d7 8bbc 5909 86bd b52f 403e
00000140: a335 e9bd e773 a4bd 36b8 81bd f2c2 08be
00000150: c2f1 bfbd 00d2 4cbd 6f6e 2b3c fdac 03be
00000160: 5c99 95bc 0314 433e de2d fabb 6aed 11bd
00000170: eb5c 5abe 2dbc 29be cb78 ab3d dd04 cc3d
00000180: 3ae2 3ebe d616 553d c433 593d 688d 8bbd
00000190: 08c7 2e3e e898 323d 8a2d 0fbe 0cca 3f3e
000001a0: 98f4 e13d 8aa7 a8bd 99d5 f83c 41cd 253e
000001b0: 0767 2d3e d743 e43d 0749 923d 3ea9 a93b
000001c0: 9464 4d3d acea 06be 8249 9d3c 6ec6 3bbe
000001d0: 3a6c 093e e3fc febd 3a2f f3bd b576 3a3e
000001e0: fbf0 5abd ef83 f7bd 5fde 1bbe 7b63 ce3d
000001f0: b8bb 2ebe b00d 243e 9258 873d a201 453e
00000200: 79c5 98bd 6c3f 2dbe 16b0 36bc e91a 2f3e
00000210: 2614 afbd 9792 37be 4953 233e 3da6 113e
00000220: c6b7 253e 48b9 023e 360e 043c 6948 26be
00000230: 49d1 12be 8ccd e6bd 7b3d 21be 757f 44be
00000240: 7d6f 173e 2117 153e 4d7f 0bbe a3e4 92bc
00000250: 99a0 403e bf01 be3d a505 3bbd 0002 73bd
00000260: a39f d03d 1c7a a4bd c784 1dbe cb05 6dbd
00000270: af56 013e 30ce aabd 8a74 0fbe 2c9a 93bd
00000280: 239d 95bd f25f 15be 28ae 16bb feb0 d13d
00000290: 7b1d 433e 603b 8b3d 729b 383e 1916 df3d
000002a0: 900a 5abd 9942 1ebe 5e0e 59bd 9fe8 c63d
000002b0: 5c9a 333d b011 56bd 6bc2 04bc bfb3 903d
000002c0: d122 d9bc 569f 1b3e 2482 01be aefb d13c
000002d0: 90a0 da3d 80d1 233e 3891 ca3c 1551 033c
000002e0: 6303 2e3e dc7b 1bbe c95c dbbd b4f2 06be
000002f0: 32f3 323e 650b 88bc 3dce 47be 36fd 3fbc
00000300: eeb3 47be 93c9 d63d ca2d 1a3e 6e13 9c3d
00000310: a236 4abd 6ef1 f5bd 5528 2e3e b036 28bd
00000320: bdfd 9e3d 326f 88bc 4f40 283e 6c87 13bd
00000330: b8b8 053e 1839 19be b7b3 2ebe a6ec 003d
00000340: 51aa 293e de0f 0dbe 5e32 033e 592a 863c
00000350: d33d 46be 8a7b 15be 096a 65bd ec4d 55b9
00000360: 8da4 b53d f804 3a3e 6de3 383e bebd 2ebe
00000370: 2f13 e03d ae6a 74bd e627 86bc bbb8 3e3e
00000380: 2c2b 21bd c36c b1bd 393d e23d 6d2f 41bb
00000390: 92c8 333d 8214 793b 4bee 373e ab12 233e
000003a0: ffb3 8c3d f5d0 d73c 7a2d 8c3d 8925 92bd
000003b0: 73f2 033e 700c 3d3e 93a6 393e 856d b4bd
000003c0: 3b3f cabd 2de3 2b3e 4ee9 1e3e 7aa4 f23d
000003d0: 0b26 283e 6a3f 3d3e 608c e3bd 4c2b 27be
000003e0: 8b6f 50bb 784c 013e fee7 b7bd b7e9 f7bd
000003f0: f3cc 47be 96de 043d 0eaa c23c 675e f0bd

model.backbone.W_P.bias f4 [16]
-0.07535772 0.016148636 0.039278578 -0.063991286 0.14407878 -0.066000074 0.02543233 -0.14169197
-0.054742783 0.16613454 -0.011100581 0.09060353 0.023333702 0.14869484 -0.116245806 0.045832723
00000000: 2655 9abd 254a 843c 93e2 203d dd0d 83bd
00000010: 6389 133e 0c2b 87bd 7657 d03c b317 11be
00000020: f839 60bd 2c1f 2a3e 36df 35bc 588e b93d
00000030: 5226 bf3c 7643 183e 4812 eebd 18bb 3b3d

model.backbone.encoder.layers.0.self_attn.W_Q.weight f4 [16, 16]
-0.18751627 -0.06713108 0.21429479 0.041050974 0.13179971 -0.044576697 0.12583669 0.051022682
-0.18004428 0.21928617 -0.22768448 0.16727535 -0.17198661 0.23929267 0.09649421 0.2401999
0.21950692 0.04341178 0.22135578 -0.15578671 -0.18255223 -0.21411762 -0.14396293 0.12571794
0.12258575 -0.23608626 -0.20216407 0.15645365 0.2333012 0.14186773 0.06018286 -0.094230235
0.040637307 0.17528374 -0.21135198 -0.0945912 0.015543938 -0.24697366 -0.001290192 0.042687293
0.0700175 -0.12740691 0.15198821 -0.2256453 -0.25215736 0.031936355 0.14099132 -0.007928808
0.18467657 0.12000368 0.15025215 -0.047291394 0.17137419 -0.19578233 -0.13708587 -0.11138604
0.1468679 0.22109793 -0.13910496 0.14563829 -0.13258624 0.06272602 0.17784631 0.06455471
-0.0063960343 0.00796323 -0.027344858 -0.2353791 0.036743138 -0.008284053 0.25649092 -0.1955128
0.21504149 0.22504283 -0.22767934 -0.04447508 0.0916721 0.107705496 -0.108234264 -0.17495087
-0.11405243 -0.085426584 0.097164236 -0.013659845 0.102388926 -0.03393431 0.0433305 0.10121068
-0.19550915 -0.116085194 -0.24505797 -0.10353305 -0.19166088 -0.25091383 0.23486556 -0.10990634
0.007247335 -0.1489896 0.00045302612 -0.22444002 -0.053925898 -0.051111653 0.047235902 0.010859407
0.14705797 -0.0034041533 -0.12233951 0.23909144 -0.06154344 0.21289451 -0.1943397 -0.15529487
-0.20168604 -0.15054297 -0.0007859066 0.18673521 -0.19574696 0.06543863 0.1828102 0.23278049
0.064330496 -0.10236529 -0.22557738 0.03914277 0.122014895 0.018816767 0.10984636 0.20956193
-0.033319622 -0.17780645 -0.029225519 -0.07892972 0.14059086 0.12312732 -0.015429269 0.14363553
-0.2341733 -0.17798302 0.011242581 0.046809617 0.20609038 0.016207257 -0.14719811 -0.055554967
-0.18748946 -0.1366557 -0.08037424 0.13704373 0.2604319 0.0593258 -0.1971048 -0.2168751
-0.10010003 -0.19529732 -0.17221019 -0.22947037 0.05092622 0.03654328 -0.03159627 0.025144812
0.031025546 0.06624235 0.021670286 -0.05579606 -0.012201114 -0.22095193 -0.18845068 -0.14334315
0.17918795 0.19224289 -0.18197536 0.09781602 -0.016841061 0.059540067 -0.20188466 -0.23279892
-0.1381997 0.0715075 0.06775253 -0.037096363 -0.07451929 0.007245429 -0.12683454 0.100647986
0.072123274 -0.106144935 0.08812437 -0.06784068 0.08290423 0.09383522 0.22437048 0.1508243
-0.20263207 0.06138847 -0.04633457 -0.14531274 -0.24199666 0.19309545 -0.19292496 0.1472203
0.10291002 -0.11206706 -0.11604084 0.13829328 0.0974603 -0.039123736 -0.07716318 -0.102563195
-0.020257466 -0.22962286 -0.06357398 -0.15500541 -0.17163633 0.09568106 -0.17872396 -0.07804672
0.096175596 0.1207918 -0.005109479 -0.24488892 0.010278249 -0.1570555 -0.19127975 0.12525694
0.2278878 0.16989519 -0.22874075 -0.11947297 -0.1686597 0.17114373 0.23227702 -0.17432389
-0.15106434 0.24206258 0.13315724 -0.010621582 0.2052124 0.15724243 -0.19628888 -0.18264991
0.06791863 0.21560675 0.012024442 -0.012957841 0.16314767 -0.1864702 -0.20992659 0.07970041
-0.11559272 -0.2213068 -0.18661115 -0.07104277 -0.017415175 0.0038619146 -0.20939597 0.21929298
00000000: 4404 40be 057c 89bd 1870 5b3e 1125 283d
00000010: 81f6 063e 0e96 36bd 55db 003e 29fd 503d
00000020: 875d 38be 8e8c 603e 1f26 69be 3b4a 2b3e
00000030: 421d 30be 2309 753e c29e c53d f6f6 753e
00000040: 6cc6 603e 8dd0 313d 17ab 623e 8d86 1fbe
00000050: f9ee 3abe a641 5bbe 056b 13be 34bc 003e
00000060: 3d0e fb3d 99c0 71be 1904 4fbe 6335 203e
00000070: 83e6 6e3e c645 113e 4d82 763d c8fb c0bd
00000080: 4e73 263d 957d 333e a76c 58be 08b9 c1bd
00000090: 00ac 7e3c aae6 7cbe a91b a9ba dfd8 2e3d
000000a0: 5665 8f3d f576 02be cca2 1b3e 900f 67be
000000b0: c51a 81be b2cf 023d 0760 103e d5e7 01bc
000000c0: db1b 3d3e 7dc4 f53d b3db 193e 9fb4 41bd
000000d0: b77c 2f3e 2a7b 48be 3d60 0cbe 5d1e e4bd
000000e0: 8a64 163e 7f67 623e 8871 0ebe 3422 153e
000000f0: b0c4 07be 8076 803d 581d 363e 4335 843d
00000100: d395 d1bb 3578 023c 5302 e0bc 3807 71be
00000110: f97f 163d d6b9 07bc c752 833e 8234 48be
00000120: d633 5c3e a171 663e c624 69be 802b 36bd
00000130: 95be bb3d b394 dc3d eda9 ddbd 5226 33be
00000140: 5294 e9bd 22f4 aebd 0bfe c63d 8bcd 5fbc
00000150: 49b1 d13d b4fe 0abd 537b 313d 8c47 cf3d
00000160: 8d33 48be 13be edbd 7af0 7abe 2309 d4bd
00000170: c042 44be c777 80be 9980 703e 9316 e1bd
00000180: 0d7b ed3b bb90 18be 2384 ed39 9bd3 65be
00000190: 67e1 5cbd 745a 51bd 6f7a 413d a7eb 313c
000001a0: 5d96 163e 3718 5fbb 238d fabd 63d4 743e
000001b0: f914 7cbd 0501 5a3e fc00 47be 9e05 1fbe
000001c0: c986 4ebe f027 1abe 4d05 4eba 8437 3f3e
000001d0: e471 48be b004 863d 9932 3b3e 025e 6e3e
000001e0: b5bf 833d e5a4 d1bd c2fd 66be 2b54 203d
000001f0: f2e2 f93d 9f25 9a3c 21f7 e03d 6797 563e
00000200: 287a 08bd e512 36be 5b6a efbc e8a5 a1bd
00000210: 0df7 0f3e 2d2a fc3d 0bcb 7cbc 3115 133e
00000220: 20cb 6fbe 2e41 36be cd32 383c 71bb 3f3d
00000230: 5b09 533e 15c5 843c 1abb 16be 9b8d 63bd
00000240: 3dfd 3fbe 79ef 0bbe 409b a4bd 3155 0c3e
00000250: 5457 853e 9cff 723d d7d5 49be 8214 5ebe
00000260: 3f01 cdbd 05fc 47be de57 30be 48fa 6abe
00000270: 0398 503d 68ae 153d 176b 01bd 7efc cd3c
00000280: 4929 fe3c 12aa 873d e285 b13c 698a 64bd
00000290: 2ee7 47bc 3941 62be 37f9 40be 8cc8 12be
000002a0: 0c7d 373e 52db 443e c057 3abe c453 c83d
000002b0: 44f6 89bc 49e0 733d daba 4ebe d762 6ebe
000002c0: 3984 0dbe 8672 923d d7c1 8a3d 5bf2 17bd
000002d0: 929d 98bd 106b ed3b eae0 01be 8820 ce3d
000002e0: 5eb5 933d 8462 d9bd 8d7a b43d 0ef0 8abd
000002f0: b1c9 a93d ae2c c03d 60c1 653e af71 1a3e
00000300: c87e 4fbe 7a72 7b3d 51c9 3dbd ddcc 14be
00000310: f9cd 77be d0ba 453e 1f8e 45be ebc0 163e
00000320: 7dc2 d23d 6a83 e5bd d2a6 edbd c19c 0d3e
00000330: 4499 c73d 3640 20bd bb07 9ebd a70c d2bd
00000340: fcf2 a5bc 4122 6bbe 1333 82bd bdb9 1ebe
00000350: 6fc1 2fbe 6ef4 c33d 6a03 37be f5d6 9fbd
00000360: b6f7 c43d b161 f73d 6b6d a7bb 29c4 7abe
00000370: 1a66 283c 28d3 20be d7de 43be 5b43 003e
00000380: 6b5b 693e 01f9 2d3e 043b 6abe 3fae f4bd
00000390: 21b5 2cbe 4d40 2f3e 07da 6d3e f681 32be
000003a0: 9cb0 1abe 41df 773e 5f5a 083e 2506 2ebc
000003b0: 3323 523e 2904 213e f4ff 48be 9408 3bbe
000003c0: ec18 8b3d 04c8 5c3e 2a02 453c 204d 54bc
000003d0: 2f10 273e 0bf2 3ebe fff6 56be f839 a33d
000003e0: e0bb ecbd 409e 62be fe16 3fbe df7e 91bd
000003f0: 45aa 8ebc 2d18 7d3b e66b 56be 578e 603e

model.backbone.encoder.layers.0.self_attn.W_Q.bias f4 [16]
0.13042237 0.20394953 -0.17351556 0.21287635 0.04277472 -0.15786438 0.024809798 0.17402114
-0.13636678 0.16148596 -0.1576409 -0.26227608 0.2309712 -0.027602749 -0.213769 0.16298603
00000000: 718d 053e 25d8 503e 10ae 31be 42fc 593e
00000010: 8b34 2f3d 33a7 21be eb3d cb3c 9932 323e
00000020: bca3 0bbe 935c 253e 9e6c 21be 0d49 86be
00000030: b783 6c3e 291f e2bc 43e6 5abe cfe5 263e

model.backbone.encoder.layers.0.self_attn.W_K.weight f4 [16, 16]
0.12394216 -0.08831483 0.25686312 -0.2263815 0.16600135 0.030685531 0.22118443 -0.15815566
-0.012766267 -0.2383735 -0.22094929 0.015863132 0.17496952 0.13479091 -0.17118752 0.045563456
-0.11893046 0.010623953 -0.13183765 -0.07018138 0.12145463 0.1572152 -0.013783644 0.105408005
0.18075866 -0.20841622 -0.091333464 0.038271375 -0.11613857 -0.16964956 0.01082337 0.05802212
0.18977094 -0.20763204 -0.10804921 0.07214409 0.15223587 -0.25175625 0.10146122 0.24345098
0.043925785 0.054301474 0.06482739 -0.075792 0.08153749 0.1121303 0.016163819 -0.117746525
0.15744969 0.122676864 -0.22753185 -0.025300601 -0.16393854 -0.033635203 0.049654868 -0.041538667
0.2578583 0.19418524 -0.017257055 0.22404443 -0.06563293 -0.0030443138 -0.11663788 0.13447216
-0.23484303 -0.196459 -0.16465975 0.11662948 0.00902909 -0.23004296 0.17097196 0.1853759
0.19048136 0.047805257 -0.020474162 -0.21586463 0.06507903 0.24238832 -0.10249967 -0.22788413
-0.12583904 0.08736554 -0.14547676 0.18221883 0.111873 0.11515479 -0.08678881 -0.09436058
-0.1886258 0.037851833 0.198384 0.19130576 0.15852632 -0.23363875 0.15351126 0.11883303
0.20140356 -0.19078249 0.19990179 -0.024445495 0.052302495 -0.1825188 0.06374538 0.10186647
-0.024190271 -0.13824259 -0.08242571 0.039279394 -0.014296891 0.035979558 -0.09623303 0.24321072
0.036521215 -0.149977 -0.12091936 -0.13325708 0.19171834 -0.19478315 0.18984333 0.12574929
0.058816638 0.043555513 -0.2237787 0.10901456 -0.19130543 0.18723962 -0.20734237 0.19006217
0.26699737 0.12676774 -0.25634727 0.22958079 -0.13356802 0.0033323115 0.23889291 -0.07263334
0.07258994 0.0641104 0.16522592 -0.12511066 0.09811761 0.15383719 -0.08876818 0.14918496
-0.023638917 0.17699502 -0.08118769 0.15241379 0.2458475 0.19735952 0.14825863 0.23309554
0.019311387 0.23340476 0.2361009 -0.06772522 0.1784353 -0.06618596 -0.19610369 -0.21073009
-0.21443057 0.07965877 0.20443742 0.04657134 0.16176192 -0.19418085 0.00040871795 0.15208791
-0.10549283 0.11138412 -0.12496876 0.19963628 -0.16966091 0.1283025 -0.0595385 0.102210216
0.23784125 -0.08012971 -0.26338884 -0.029526012 -0.25101584 0.13402694 0.073573224 -0.022258554
-0.08226526 -0.024611127 0.18457218 -0.041197468 0.1783625 -0.2090637 -0.24665819 -0.17836617
0.15502249 -0.08888477 -0.0732873 0.035206348 0.2345732 -0.12442825 -0.12103715 0.07640188
0.15664008 0.048445486 -0.20396753 -0.2197833 -0.0031740407 0.108425386 0.030745365 -0.19650991
0.09947061 -0.006066146 0.07778032 -0.15138218 -0.13078432 -0.04620937 0.025236942 0.058935605
-0.13306163 0.05510008 0.15897946 0.025323248 -0.015111759 0.18391941 0.19621253 0.21154018
-0.0915781 0.16703592 0.053133715 0.12379476 0.06938447 -0.07027158 0.03647046 0.15985018
-0.21943328 -0.23349003 -0.19633768 6.3744286e-05 -0.10396098 0.07730618 0.12857737 0.10940825
0.034180235 -0.00074335735 -0.13130794 0.020371743 0.14153276 0.14053258 -0.12282459 0.095356226
-0.22313996 0.20764413 0.11165192 -0.025397375 -0.15938838 0.20563535 -0.22066991 0.19330655
00000000: 63d5 fd3d 68de b4bd 9083 833e 8dd0 67be
00000010: 42fc 293e 3960 fb3c 2c7e 623e 8ff3 21be
00000020: 9b29 51bc 2f18 74be 8840 62be 66f3 813c
00000030: 362b 333e a106 0a3e c84b 2fbe bfa0 3a3d
00000040: d091 f3bd 1710 2e3c 7300 07be 41bb 8fbd
00000050: 34bd f83d 05fd 203e cbd4 61bc 27e0 d73d
00000060: cc18 393e 106b 55be 0a0d bbbd 72c2 1c3d
00000070: 0fda edbd 9db8 2dbe 8154 313c 9aa8 6d3d
00000080: 5053 423e 7e9d 54be e748 ddbd 48c0 933d
00000090: b8e3 1b3e 32e6 80be e6ca cf3d 374b 793e
000000a0: 86eb 333d 396b 5e3d 39c4 843d d638 9bbd
000000b0: 21fd a63d 92a4 e53d fc69 843c 1725 f1bd
000000c0: 7e3a 213e 023e fb3d 1cfe 68be 3543 cfbc
000000d0: 81df 27be 11c5 09bd e762 4b3d 7324 2abd
000000e0: 0106 843e 7fd8 463e ab5e 8dbc e76b 653e
000000f0: 8f6a 86bd 1c83 47bb d7df eebd 12b3 093e
00000100: b17a 70be 8c2c 49be 919c 28be 70db ee3d
00000110: c0ee 133c 6290 6bbe 4613 2f3e 2ed3 3d3e
00000120: 8c0d 433e 72cf 433d 6eb9 a7bc 9e0b 5dbe
00000130: 2848 853d a534 783e 59eb d1bd 755a 69be
00000140: f3db 00be b4ec b23d dcf7 14be 9397 3a3e
00000150: ac1d e53d 46d6 eb3d 55be b1bd 1f40 c1bd
00000160: 1f27 41be 860a 1b3d 2d25 4b3e a8e5 433e
00000170: b954 223e ff3e 6fbe 0e32 1d3e bb5e f33d
00000180: bc3c 4e3e 7c5c 43be 0eb3 4c3e eb41 c8bc
00000190: 243b 563d 35e6 3abe f08c 823d 5e9f d03d
000001a0: ad2a c6bc 778f 0dbe d0ce a8bd 6ee3 203d
000001b0: 823d 6abc 4d5f 133d d315 c5bd 3b0c 793e
000001c0: 4597 153d 9293 19be 92a4 f7bd 8b74 08be
000001d0: d051 443e 3c75 47be 4a66 423e 6cc4 003e
000001e0: b7e9 703d 4467 323d 3e26 65be 0743 df3d
000001f0: 92e5 43be bebb 3f3e 8f51 54be a89f 423e
00000200: e1b3 883e 67cf 013e f33f 83be 3a17 6b3e
00000210: 0ec6 08be e962 5a3b 58a0 743e cac0 94bd
00000220: 09aa 943d 504c 833d fc30 293e 021d 00be
00000230: e3f1 c83d 7f87 1d3e 17cc b5bd f1c3 183e
00000240: 67a6 c1bc 2f3e 353e bb45 a6bd 5c12 1c3e
00000250: 72bf 7b3e 9d18 4a3e 1cd1 173e 99b0 6e3e
00000260: ea32 9e3c a801 6f3e 6fc4 713e 85b3 8abd
00000270: beb7 363e 818c 87bd 68cf 48be a1c9 57be
00000280: b093 5bbe 2324 a33d 0b58 513e 97c1 3e3d
00000290: eba4 253e 58d7 46be 3249 d639 efbc 1b3e
000002a0: a00c d8bd 5c1d e43d 9fef ffbd 746d 4c3e
000002b0: 97bb 2dbe bb61 033e a4de 73bd 9753 d13d
000002c0: a88c 733e 0c1b a4bd e7da 86be 89e0 f1bc
000002d0: 2685 80be 5c3e 093e 8fad 963d 9257 b6bc
000002e0: b07a a8bd 469d c9bc 7d00 3d3e adbe 28bd
000002f0: a9a4 363e cb14 56be f793 7cbe 9fa5 36be
00000300: 37be 1e3e 3809 b6bd a717 96bd 8834 103d
00000310: f533 703e 3dd4 febd 53e2 f7bd 9778 9c3d
00000320: 4266 203e c66e 463d dddc 50be e00e 61be
00000330: 9103 50bb 210e de3d b4dd fb3c e539 49be
00000340: 3fb7 cb3d 85c6 c6bb 4a4b 9f3d ee03 1bbe
00000350: 53ec 05be 0946 3dbd b4bd ce3c 7666 713d
00000360: 4f41 08be 9fb0 613d 83cb 223e b372 cf3c
00000370: 5097 77bc 5f55 3c3e f0eb 483e fd9d 583e
00000380: 4d8d bbbd 770b 2b3e bda2 593d 1b88 fd3d
00000390: 7219 8e3d 8cea 8fbd 0d62 153d c4af 233e
000003a0: 1eb3 60be 0318 6fbe bf0c 49be 74ae 8538
000003b0: 7fe9 d4bd b452 9e3d c9a9 033e 6f11 e03d
000003c0: 9300 0c3d dedd 42ba 9775 06be a4e2 a63c
000003d0: f7ed 103e c6e7 0f3e 758b fbbd 204a c33d
000003e0: cd7e 64be aaa0 543e c3a9 e43d 280e d0bc
000003f0: b536 23be 1392 523e 4bf7 61be 27f2 453e

model.backbone.encoder.layers.0.self_attn.W_K.bias f4 [16]
-0.066724285 0.09879196 -0.15845305 -0.0063376944 0.039555613 0.22007498 -0.110366955 -0.20371665
-0.057106026 -0.09526827 -0.13824053 -0.06481866 -0.11481537 0.11961679 -0.06482368 0.10017835
00000000: bea6 88bd 7053 ca3d 8441 22be 6fac cfbb
00000010: 1105 223d 565b 613e 1208 e2bd 199b 50be
00000020: 02e8 69bd 031c c3bd ed8e 0dbe a5bf 84bd
00000030: 5224 ebbd a6f9 f43d 47c2 84bd 4f2a cd3d

model.backbone.encoder.layers.0.self_attn.W_V.weight f4 [16, 16]
0.13581197 0.07989797 -0.13144015 -0.084695555 -0.012809696 -0.029750604 0.25216827 0.22453947
-0.23157266 0.0024556066 -0.123144165 0.1500437 -0.19135933 -0.062323995 0.1868632 -0.16506724
0.16890518 -0.15636042 0.23961195 0.06957002 -0.036352046 0.010055257 0.10629143 -0.14354146
0.21912494 0.14957799 -0.19932121 0.0831316 0.2351493 -0.08716432 0.23463239 -0.13086769
-0.21788849 -0.20906222 0.102826 0.20684135 0.17153299 -0.012521453 0.1658107 0.09299261
-0.1680366 0.076326646 -0.031547286 0.14055096 0.23533039 -0.034020662 0.101455316 -0.2225931
-0.035775058 -0.10574982 -0.012250349 -0.16697009 0.057613514 0.15903166 -0.19597693 0.21648559
0.089283854 -0.1207466 0.0052608405 -0.15270899 0.23507456 -0.19229071 0.23689581 -0.119770736
0.07447624 -0.15431923 0.0355524 0.09382073 0.003276014 0.11271176 -0.12237203 -0.11123334
-0.19832847 -0.20228289 -0.07457055 0.011884699 -0.0194477 -0.066564195 -0.19472283 -0.021217972
0.16649179 -0.104173996 -0.16292453 0.04936797 -0.14316583 -0.04088468 0.035110462 0.02776247
0.22963804 0.13369378 -0.2065255 0.042597573 0.021028515 0.078727886 0.13709041 0.1759493
-0.12214428 0.1670044 0.0747239 0.010340476 0.11537307 0.1526209 -0.15754706 -0.14667277
0.11714955 0.20370677 -0.11148142 -0.14749768 -0.21893755 -0.09028255 -0.010241742 -0.1525431
-0.05359179 -0.06645824 0.041234225 0.14511998 0.18200538 0.10642657 -0.21011226 0.10699375
0.02019477 0.19566225 -0.013203124 0.045370266 -0.19621329 -0.09906184 -0.14996003 -0.14787252
0.055698946 -0.053975265 0.17654712 0.05524031 -0.21487069 -0.019651663 -0.15775418 -0.19745457
-0.07730707 -0.029498171 -0.019989919 -0.16927163 -0.18050578 0.053320404 -0.14186364 -0.14283225
-0.17825004 -0.23614307 -0.02670583 0.14694694 -0.095548905 -0.06451117 -0.08304336 -0.04970374
-0.24571256 -0.2291021 -0.17176408 0.0064669023 -0.15813106 0.07754389 -0.07004466 0.2017432
0.0800336 0.046500895 -0.06880552 -0.23116279 -0.18079452 -0.21252988 0.14920782 -0.12044439
0.06604544 0.20756301 0.21964262 0.08310132 0.17075448 -0.1954855 -0.08392917 -0.1833079
0.15531236 -0.019836167 0.197512 0.09688155 0.10985931 -0.26312223 0.1356035 0.09784031
-0.26038605 -0.19032055 -0.07138934 -0.00052941625 0.18484211 -0.16985568 -0.2492971 -0.09741287
-0.102348596 -0.18193232 -0.043538827 0.0930551 0.19665746 -0.120842434 -0.067869686 -0.14716439
-0.17222857 0.22345488 -0.07637867 -0.2404595 0.10613951 -0.042364087 -0.12121997 -0.11866582
-0.19597602 -0.14923485 -0.25575498 0.132393 0.13306716 -0.19104883 0.0958009 0.22036286
-0.14208288 -0.2310621 -0.24012971 -0.05820815 0.22148363 -0.06900128 0.25013986 0.19187906
0.10979152 0.06369491 -0.02951448 0.093923114 -0.22876717 -0.22317448 0.052896142 -0.08219055
-0.17823733 -0.0746282 0.13899168 0.16451281 0.09955431 -0.0021523032 -0.114839 0.22619432
0.1384495 -0.05983445 0.0034354965 -0.010532368 -0.04817522 0.23175275 0.13418992 0.2567905
-0.04768522 0.018493645 0.0898568 -0.16400291 0.23171897 -0.12713605 -0.06972129 -0.043331724
00000000: 4b12 0b3e 8ca1 a33d 3f98 06be dd74 adbd
00000010: c2df 51bc 8ab7 f3bc 331c 813e aded 653e
00000020: 6221 6dbe 3eee 203b 0233 fcbd 0ea5 193e
00000030: b3f3 43be 7247 7fbd 1159 3f3e 6307 29be
00000040: 7bf5 2c3e f21c 20be d65c 753e ba7a 8e3d
00000050: e2e5 14bd cebe 243c 52af d93d 88fc 12be
00000060: 4a62 603e f92a 193e dc1a 4cbe e640 aa3d
00000070: faca 703e 3583 b2bd 7943 703e 2e02 06be
00000080: 291e 5fbe 6814 56be 7096 d23d 38ce 533e
00000090: 58a6 2f3e c826 4dbc 48ca 293e e972 be3d
000000a0: c911 2cbe 2551 9c3d ba37 01bd 97ec 0f3e
000000b0: 73fa 703e 4059 0bbd cec7 cf3d 72ef 63be
000000c0: de88 12bd 5d93 d8bd b0b5 48bc 35fa 2abe
000000d0: 26fc 6b3d 32d9 223e 2dae 48be 66ae 5d3e
000000e0: 74da b63d fe49 f7bd 2163 ac3b bf5f 1cbe
000000f0: 63b7 703e dbe7 44be d194 723e 5c4a f5bd
00000100: 0087 983d dc05 1ebe 659f 113d 1525 c03d
00000110: 65b2 563b 6cd5 e63d 309e fabd 4ece e3bd
00000120: 9e16 4bbe 3f23 4fbe 72b8 98bd 0ab8 423c
00000130: c850 9fbc cf52 88bd 6c65 47be 50d1 adbc
00000140: d37c 2a3e 2d59 d5bd b0d5 26be 1236 4a3d
00000150: 109a 12be b276 27bd fdcf 0f3d 1f6e e33c
00000160: 3c26 6b3e 06e7 083e 6c7b 53be cb7a 2e3d
00000170: fe43 ac3c 163c a13d 6e61 0c3e 0e2c 343e
00000180: c826 fabd 3403 2b3e d808 993d 1a6b 293c
00000190: b748 ec3d a748 1c3e 0454 21be 6331 16be
000001a0: 1aec ef3d 8298 503e 5f50 e4bd a209 17be
000001b0: 2a31 60be 0fe6 b8bd fbcc 27bc 4234 1cbe
000001c0: 1183 5bbd 421b 88bd 38e5 283d 559a 143e
000001d0: 9e5f 3a3e 2cf6 d93d ab27 57be 8a1f db3d
000001e0: 816f a53c af5b 483e ea51 58bc 2cd6 393d
000001f0: 23ec 48be efe0 cabd 1f8f 19be e56b 17be
00000200: 9424 643d 2b15 5dbd c5c8 343e aa43 623d
00000210: 1007 5cbe 86fc a0bc 508a 21be 8831 4abe
00000220: 2b53 9ebd 26a6 f1bc e6c1 a3bc 8b55 2dbe
00000230: 82d6 38be 7f66 5a3d b444 11be 9e42 12be
00000240: 2e87 36be 7dcf 71be 2fc6 dabc 4279 163e
00000250: 25af c3bd 6f1e 84bd a312 aabd 2696 4bbd
00000260: 139c 7bbe be99 6abe ece2 2fbe 4fe8 d33b
00000270: 1ced 21be 55cf 9e3d 9373 8fbd c595 4e3e
00000280: a8e8 a33d b977 3e3d e9e9 8cbd f0b5 6cbe
00000290: 3322 39be 6fa1 59be efc9 183e 8cab f6bd
000002a0: d542 873d 668b 543e ffe9 603e 0631 aa3d
000002b0: 43da 2e3e 5a2d 48be 0fe3 abbd 11b5 3bbe
000002c0: 340a 1f3e 757f a2bc 9640 4a3e d669 c63d
000002d0: ebfd e03d f5b7 86be a5db 0a3e 8060 c83d
000002e0: 5251 85be 64e3 42be 9334 92bd 86c8 0aba
000002f0: 4047 3d3e a6ee 2dbe bd47 7fbe 6680 c7bd
00000300: 249c d1bd 774c 3abe c555 32bd ac93 be3d
00000310: 9360 493e 3d7c f7bd 43ff 8abd 43b2 16be
00000320: b05c 30be 5bd1 643e 6c6c 9cbd 043b 76be
00000330: ac5f d93d f785 2dbd 2d42 f8bd 1107 f3bd
00000340: f0ad 48be 05d1 18be 51f2 82be 0892 073e
00000350: c242 083e 4ea2 43be 4333 c43d cda6 613e
00000360: 2d7e 11be 8b9b 6cbe 90e4 75be ab6b 6ebd
00000370: 9bcc 623e 8b50 8dbd 5512 803e f27b 443e
00000380: 60da e03d 7a72 823d 5ac8 f1bc c35a c03d
00000390: f141 6abe da87 64be a0a9 583d 8553 a8bd
000003a0: d983 36be abd6 98bd d653 0e3e 0c76 283e
000003b0: 21e3 cb3d a80d 0dbb b630 ebbd 7c9f 673e
000003c0: b5c5 0d3e f814 75bd 1126 613b f48f 2cbc
000003d0: 6153 45bd 9850 6d3e 1569 093e 0b7a 833e
000003e0: 9451 43bd fc7f 973c d806 b83d 61f0 27be
000003f0: bd47 6d3e f42f 02be 09ca 8ebd 9b7c 31bd

model.backbone.encoder.layers.0.self_attn.W_V.bias f4 [16]
-0.053302344 -0.046279103 -0.081797905 0.14917855 0.05834746 0.16465682 0.084002234 -0.19219576
-0.048747107 0.08107409 -0.1450718 -0.14327702 0.25802493 0.18683666 -0.13214199 0.16368976
00000000: 8f53 5abd 288f 3dbd a985 a7bd 43c2 183e
00000010: bffd 6e3d cc9b 283e 5d09 ac3d f7ce 44be
00000020: 0cab 47bd 2c0a a63d b48d 14be 36b7 12be
00000030: d81b 843e 1c52 3f3e 3b50 07be 4a9e 273e

model.backbone.encoder.layers.0.self_attn.to_out.0.weight f4 [16, 16]
-0.17323337 0.033636484 0.12644039 0.13292547 -0.018829849 0.21782315 -0.10997806 -0.26442355
0.21949953 0.18906498 0.20240566 0.09943822 0.108046405 0.11983967 -0.104818694 -0.1723926
-0.029199038 -0.21020249 -0.08696835 0.057104852 -0.0625954 -0.12637125 -0.09514112 -0.09293076
0.20078032 -0.1510879 0.019056844 0.025591237 -0.062617235 0.053082693 0.26669878 -0.17221682
-0.1768988 -0.23697212 0.003030104 -0.19666064 0.17733073 0.10103926 -0.12609258 0.13052952
-0.21027978 0.11722319 0.19806091 -0.20257021 0.1760227 -0.18660124 -0.0016320759 0.23893349
-0.19194183 0.1845248 -0.04841665 -0.20151864 0.12892479 0.19576676 0.10768748 0.21800444
-0.079612695 0.1543715 -0.20247376 -0.17249912 0.016597 0.099341825 0.16066803 0.13442612
-0.15017073 0.049825054 0.009668645 -0.14307362 -0.17929067 0.0479318 0.11940382 0.0670244
0.15840879 0.086360954 -0.18713298 -0.1713033 0.21216276 0.019002737 0.19646642 -0.20532522
0.21528754 -0.10763932 -0.01512945 0.224831 0.048007436 -0.09516049 0.027667554 -0.10457199
-0.08646439 -0.18140094 0.13524874 -0.13759497 -0.07839118 0.20348227 0.1068726 -0.21600848
-0.14205343 -0.2363207 0.19616427 -0.23109095 0.03517806 -0.19721909 -0.0029658354 0.107662216
0.09559988 0.1669739 0.14863354 -0.25251615 -0.16077915 0.054881394 -0.1422696 -0.020283429
-0.15726173 0.12091494 0.20073436 -0.23405449 0.07803511 0.047355715 -0.16583927 -0.12109853
-0.1476447 -0.07739313 -0.112945996 -0.20955186 -0.04083983 -0.040923603 0.12795825 0.14675936
0.14663365 0.070722215 -0.2367475 -0.17020932 -0.115349025 0.13640673 -0.22480746 0.20132716
-0.083891295 -0.1384725 0.16962068 0.1382542 -0.07430134 -0.10241246 -0.13821672 -0.06497415
0.06447787 0.02976824 -0.029047953 0.022676952 -0.124946676 0.064271346 -0.22105224 -0.0525743
-0.24444461 -0.10495364 -0.06436266 -0.0058775847 0.18073045 -0.24485108 0.084893085 0.19173239
-0.22285764 0.05890527 0.06710136 -0.2358063 0.23424923 0.2259367 -0.1207776 -0.18017542
0.13369645 -0.16528335 -0.18827498 0.09979085 0.050325334 -0.0025643294 0.20049809 0.17206813
0.07554332 0.08363999 -0.22484136 -0.030796867 -0.15961969 0.0702635 -0.20255286 -0.02189518
-0.13689151 -0.17255524 -0.24504073 0.1335484 0.14677194 -0.18609281 0.04128609 -0.18322673
-0.24248059 -0.18443729 0.1832956 -0.22982761 -0.03058073 0.20221186 -0.028014207 -0.1392213
-0.018272934 0.091709115 -0.12094449 -0.15919356 0.18909875 -0.16398007 -0.05477401 0.008411055
-0.026751082 0.13621373 0.082291655 -0.09998056 0.18411204 -0.049246054 -0.13704847 -0.09247793
-0.1771816 -0.077113844 0.07592227 0.12007232 0.20056848 0.0136830835 0.009195053 0.065382645
-0.052657604 -0.031091431 0.06981057 -0.19986989 -0.12442084 -0.092495814 0.1222142 0.04476956
0.0731886 0.11615272 0.14477938 0.066168636 -0.05789831 -0.07148618 0.027372051 -0.018061234
-0.029796882 -0.16665448 -0.026874658 0.10239423 0.21551397 0.10752041 -0.06088163 0.08057087
0.23784055 -0.22538845 0.119845234 -0.24692842 -0.1778583 -0.15224107 -0.1707591 -0.24506564
00000000: 1764 31be 69c6 093d 9779 013e 9d1d 083e
00000010: 0e41 9abc 080d 5f3e 2d3c e1bd 8662 87be
00000020: 7cc4 603e 409a 413e 6e43 4f3e 44a6 cb3d
00000030: 6f47 dd3d 806e f53d 2fab d6bd b087 30be
00000040: d232 efbc 523f 57be 761c b2bd c7e6 693d
00000050: 0432 80bd 7767 01be 59d9 c2bd 7b52 bebd
00000060: 5b99 4d3e c9b6 1abe 191d 9c3c b7a4 d13c
00000070: 773d 80bd 3d6d 593d be8c 883e 9b59 30be
00000080: f624 35be d2a8 72be b694 463b 6861 49be
00000090: 3096 353e aced ce3d 6a1e 01be 88a9 053e
000000a0: 9553 57be b612 f03d 7bd0 4a3e 916e 4fbe
000000b0: 4b3f 343e 6514 3fbe 61eb d5ba fbaa 743e
000000c0: 668c 44be 12f4 3c3e 8a50 46bd e75a 4ebe
000000d0: dc04 043e 1577 483e 418b dc3d 8e3c 5f3e
000000e0: fb0b a3bd 9013 1e3e 4855 4fbe 9ca3 30be
000000f0: 6ff6 873c ba73 cb3d 2986 243e 00a7 093e
00000100: 5bc6 19be 5b15 4c3d 3d69 1e3c e481 12be
00000110: f997 37be 2354 443d fd89 f43d 1744 893d
00000120: ea35 223e 03de b03d ca9f 3fbe 226a 2fbe
00000130: 3241 593e a1ab 9b3c 7e2e 493e c640 52be
00000140: 5674 5c3e 0172 dcbd 83e1 77bc 193a 663e
00000150: 72a3 443d 81e3 c2bd 11a7 e23c d729 d6bd
00000160: 3e14 b1bd 2bc1 39be a57e 0a3e b2e5 0cbe
00000170: 8e8b a0bd a85d 503e 06e0 da3d 5431 5dbe
00000180: 7476 11be 0efe 71be 49df 483e 1ba3 6cbe
00000190: df16 103d cdf3 49be 765e 42bb 027e dc3d
000001a0: dfc9 c33d 35fb 2a3e 6433 183e cc49 81be
000001b0: 4aa3 24be 50cb 603d 1faf 11be 6f29 a6bc
000001c0: 3809 21be 41a2 f73d 4f8d 4d3e fbab 6fbe
000001d0: dfd0 9f3d 11f8 413d c5d1 29be 8202 f8bd
000001e0: 2c30 17be 4a80 9ebd 3b50 e7bd c394 56be
000001f0: aa47 27bd 829f 27bd 7d07 033e 1648 163e
00000200: 2227 163e cfd6 903d f06d 72be 5a4b 2ebe
00000210: 1c3c ecbd 35ae 0b3e ed33 66be b528 4e3e
00000220: 33cf abbd bccb 0dbe 0bb1 2d3e 8292 0d3e
00000230: 4d2b 98bd a0bd d1bd af88 0dbe 2b11 85bd
00000240: f90c 843d 86dc f33c f9f5 edbc 04c5 b93c
00000250: 0be4 ffbd b2a0 833d 855b 62be 2658 57bd
00000260: b04f 7abe eff1 d6bd 92d0 83bd c198 c0bb
00000270: 6711 393e 3eba 7abe 6ddc ad3d 7f55 443e
00000280: cb34 64be a746 713d 706c 893d 3577 71be
00000290: 08df 6f3e f35b 673e 3f5a f7bd e87f 38be
000002a0: b9e7 083e 0a40 29be 28cb 40be 255f cc3d
000002b0: f021 4e3d 4f0e 28bb 5f4f 4d3e a132 303e
000002c0: 75b6 9a3d 714b ab3d d03c 66be b649 fcbc
000002d0: 5873 23be 4fe6 8f3d 046a 4fbe 855d b3bc
000002e0: 4a2d 0cbe 52b2 30be f5eb 7abe e9c0 083e
000002f0: 624b 163e 1d8f 3ebe 9a1b 293d ca9f 3bbe
00000300: d54c 78be 21dd 3cbe d7b1 3b3e ee57 6bbe
00000310: 7084 fabc a010 4f3e 0d7e e5bc 0790 0ebe
00000320: 1fb1 95bc fdd1 bb3d bfb1 f7bd a303 23be
00000330: 1aa3 413e 64ea 27be b65a 60bd 86ce 093c
00000340: 1625 dbbc 9d7b 0b3e 8788 a83d 9cc2 ccbd
00000350: de87 3c3e 3bb6 49bd 6f56 0cbe 1265 bdbd
00000360: 186f 35be dded 9dbd 237d 9b3d 7ae8 f53d
00000370: d361 4d3e 032f 603c d9a6 163c 56e7 853d
00000380: 80af 57bd 75b3 febc d8f8 8e3d b1aa 4cbe
00000390: 5ad0 febd 726e bdbd 704b fa3d 4960 373d
000003a0: e8e3 953d 7ae1 ed3d 0c41 143e 6c83 873d
000003b0: c726 6dbd 5967 92bd 5a3b e03c 27f5 93bc
000003c0: 9718 f4bc 79a7 2abe 3e28 dcbc 11b4 d13d
000003d0: b2af 5c3e a933 dc3d 045f 79bd 5702 a53d
000003e0: 798c 733e 3bcc 66be 6b71 f53d ceda 7cbe
000003f0: 7c20 36be 15e5 1bbe 79db 2ebe 7df2 7abe

model.backbone.encoder.layers.0.self_attn.to_out.0.bias f4 [16]
-0.18929575 0.057219055 -0.11095362 -0.08083172 -0.15560274 0.18007182 0.0067777573 0.07009065
0.10496021 -0.043410905 0.22432229 -0.0045482293 -0.20383726 -0.23131256 0.11108709 0.21736628
00000000: bfd6 41be 875e 6a3d a73b e3bd 1a8b a5bd
00000010: 5356 1fbe bf64 383e f317 de3b b08b 8f3d
00000020: 61f5 d63d a2cf 31bd beb4 653e 5009 95bb
00000030: b7ba 50be 33dd 6cbe a181 e33d 4495 5e3e

model.backbone.encoder.layers.0.norm_attn.1.weight f4 [16]
1.0099566 1.0058062 1.0078197 0.98589337 0.988744 1.0219474 1.0304441 0.9868433
1.0062448 0.99206626 0.9835332 1.0110891 0.9895498 0.98335874 0.9933216 0.97601
00000000: 4246 813f 42be 803f 3c00 813f 8263 7c3f
00000010: 541e 7d3f 2ccf 823f 98e5 833f c3a1 7c3f
00000020: a1cc 803f 0ef8 7d3f d5c8 7b3f 5e6b 813f
00000030: 2353 7d3f 66bd 7b3f 534a 7e3f cbdb 793f

model.backbone.encoder.layers.0.norm_attn.1.bias f4 [16]
-0.0128452135 -0.010267377 -0.008138437 -0.0078803925 -0.01201489 -0.0027266326 -0.011684398 -0.0035729506
-0.011445291 -0.015560075 0.0065987865 -0.003612652 0.012900767 0.010608714 0.007862248 -0.007337591
00000000: bb74 52bc 8038 28bc 1457 05bc c31c 01bc
00000010: 1ada 44bc 4eb1 32bb eb6f 3fbc 2a28 6abb
00000020: 0885 3bbc afef 7ebc a23a d83b 3ec2 6cbb
00000030: bd5d 533c 2cd0 2d3c a9d0 003c 2d70 f0bb

model.backbone.encoder.layers.0.norm_attn.1.running_mean f4 [16]
-0.16110303 -0.016009329 0.011944933 -0.04243373 0.08514081 0.06136819 -0.014819248 -0.039039813
-0.08222773 0.17559285 0.2521515 0.101439305 -0.008407525 -0.036710568 -0.076538146 0.17827028
00000000: 31f8 24be ff25 83bc aeb4 433c fece 2dbd
00000010: 4e5e ae3d 365d 7b3d 6ecc 72bc 36e8 1fbd
00000020: 0367 a8bd 9dce 333e 001a 813e 69bf cf3d
00000030: b7bf 09bc d25d 16bd 08c0 9cbd 7c8c 363e

model.backbone.encoder.layers.0.norm_attn.1.running_var f4 [16]
0.24223796 0.35444218 0.43721443 0.7576503 0.40445334 0.4109129 0.30947128 0.14467248
0.19793615 1.304153 0.7494534 0.21207386 0.25691906 0.37366349 0.2454848 0.2592589
00000000: 3a0d 783e 7279 b53e 92da df3e 5ff5 413f
00000010: 8214 cf3e 2d63 d23e 0573 9e3e 0625 143e
00000020: c6af 4a3e 7cee a63f 2edc 3f3f e429 593e
00000030: e58a 833e d250 bf3e 5e60 7b3e 95bd 843e

model.backbone.encoder.layers.0.ff.0.weight f4 [128, 16]
0.14854008 -0.06496949 0.24008419 0.18568003 0.12732427 0.14717959 0.05341496 -0.14224617
0.23246352 -0.101783045 -0.15750045 0.12695184 -0.016331483 0.21545745 -0.12552549 -0.022702252
-0.206006 0.015788322 0.1281562 -0.18855415 -0.03200818 0.14772679 0.15882288 -0.04497757
-0.12459962 -0.004210568 0.18874353 0.005689956 -0.12858908 -0.08408137 -0.1122145 0.14969128
0.10157411 -0.076165125 0.191207 0.21719734 0.041732926 -0.21243322 0.24388422 0.014779318
-0.10237039 0.07510768 0.2048788 0.20845395 -0.040475056 0.19391684 0.038859334 -0.012770025
0.10862804 -0.08583079 -0.01593726 0.055862363 0.10910276 0.23937075 -0.13475862 -0.061117087
-0.051884323 0.0182747 -0.076058 0.037952937 -0.14378199 -0.19203791 0.11317068 -0.2378826
-0.16037327 0.060276285 -0.24229492 0.012888963 0.19314562 -0.04545189 -0.23730904 -0.10587675
-0.14173551 -0.067603484 -0.09100489 -0.23034848 -0.068712324 -0.10587488 0.15288866 -0.112572014
0.08575146 -0.039585516 -0.23421857 -0.09603668 -0.2094824 0.1552834 -0.12940773 -0.03547611
-0.056359015 -0.046161752 0.09684625 -0.21860953 -0.015576303 0.022334373 -0.063950956 0.043606274
-0.1525321 0.22726437 -0.16760726 -0.19001141 0.2077561 -0.11889264 0.041036922 0.17911853
0.14814977 0.20537387 -0.15429263 0.03989376 -0.0018807179 -0.14947549 0.07868379 -0.109466985
0.11285994 -0.012104771 0.019863605 -0.09894876 0.23988698 -0.16312544 0.043715578 -0.22638698
-0.20492113 -0.11419074 -0.20297664 0.0814729 -0.07635563 -0.21492366 0.120456226 -0.18204477
0.17940982 -0.17184924 0.14612368 0.14975636 -0.004792676 0.17616917 -0.037832882 0.10012987
-0.08091674 0.10590415 0.15861537 -0.12073445 -0.07290771 -0.2391499 -0.12933108 -0.019497305
-0.09045713 -0.17036 -0.2048275 0.18836688 -0.21822779 -0.20293462 -0.07244987 0.1844269
-0.16431776 -0.08139306 -0.14323814 -0.04965587 0.120008096 -0.019416787 -0.12731768 -0.01581695
0.16444542 0.13772984 -0.032307774 0.18201599 -0.16942996 -0.17542475 0.1491123 0.081895895
-0.085423574 -0.033205725 0.014004809 -0.19072776 -0.11234854 -0.19450922 0.091669366 0.06398788
0.08441431 0.23596661 -0.21697602 -0.09377191 -0.114308804 0.13620839 -0.12098364 0.06785673
0.24223886 -0.025495961 -0.17516872 0.075154215 0.14904839 -0.07038327 -0.20753634 0.20989506
-0.0051661422 -0.18916376 -0.052990403 0.17421994 -0.04827058 -0.18272229 0.09309401 -0.1371406
0.015398513 0.03082171 -0.17909575 -0.12171185 -0.17042427 0.18810233 -0.0069774333 -0.015738644
0.07244695 -0.18401895 -0.13444509 -0.19930227 -0.13430525 -0.0198785 -0.26053476 -0.21961676
0.13823378 -0.16322632 -0.22836484 -0.014748127 -0.23464252 -0.22495805 -0.08738706 -0.0743762
-0.17033851 -0.11222686 0.22741057 0.22517692 0.13810086 -0.0735985 0.072543904 0.11245396
-0.18776342 0.13670948 -0.23754136 -0.10092041 0.1609272 -0.1350316 -0.1534829 0.18166044
0.16973437 -0.0032363988 0.21969995 -0.22606628 0.12987651 -0.023637298 0.1686278 0.1623123
-0.21161649 0.16085553 0.09726622 -0.21645123 -0.0047289785 0.0840329 0.19194402 -0.12143452
00000000: e41a 183e b90e 85bd a1d8 753e e822 3e3e
00000010: 4b61 023e 3fb6 163e a5c9 5a3d fba8 11be
00000020: eb0a 6e3e a173 d0bd cc47 21be aaff 013e
00000030: 9ac9 85bc e1a0 5c3e c189 00be 13fa b9bc
00000040: 3df3 52be 8356 813c 613b 033e 5714 41be
00000050: 021b 03bd b145 173e 77a2 223e 673a 38bd
00000060: 162e ffbd cef8 89bb fc45 413e cf72 ba3b
00000070: dbac 03be da32 acbd b7d0 e5bd ac48 193e
00000080: 1606 d03d 76fc 9bbd c5cb 433e fb68 5e3e
00000090: 25f0 2a3d 1888 59be c9bc 793e f424 723c
000000a0: 91a7 d1bd 0ed2 993d c0cb 513e f474 553e
000000b0: 2cc9 25bd 2392 463e f72a 1f3d 5e39 51bc
000000c0: 6178 de3d 0ec8 afbd db8e 82bc efcf 643d
000000d0: 4571 df3d 9b1d 753e 2afe 09be e955 7abd
000000e0: a884 54bd d3b4 953c 4cc4 9bbd 8a74 1b3d
000000f0: 963b 13be 96a5 44be 08c6 e73d 7f97 73be
00000100: e438 24be 44e4 763d 291c 78be 3b2c 533c
00000110: f7c7 453e c32b 3abd 2401 73be e9d5 d8bd
00000120: 1d23 11be b273 8abd c660 babd 79e0 6bbe
00000130: 0cb9 8cbd eed4 d8bd d88e 1c3e 288c e6bd
00000140: 769e af3d 6c24 22bd fed6 6fbe e1ae c4bd
00000150: 8e82 56be 9d02 1f3e 7683 04be 664f 11bd
00000160: b6d8 66bd 1b14 3dbd 5457 c63d 2ddb 5fbe
00000170: c033 7fbc 93f6 b63c b8f8 82bd 7e9c 323d
00000180: 6031 1cbe feb7 683e 3da1 2bbe 5a92 42be
00000190: 04be 543e fc7d f3bd 5516 283d d96a 373e
000001a0: 93b4 173e 874d 523e e3fe 1dbe a467 233d
000001b0: 6c82 f6ba 1a10 19be f824 a13d 3a30 e0bd
000001c0: 1d23 e73d 1753 46bc 00b9 a23c a6a5 cabd
000001d0: efa4 753e 5b0a 27be 1b0f 333d fdd1 67be
000001e0: d8d6 51be d6dc e9bd 1cd9 4fbe 44db a63d
000001f0: 5760 9cbd f314 5cbe c1b1 f63d f269 3abe
00000200: 35b7 373e 3ff9 2fbe 72a1 153e bb59 193e
00000210: e10b 9dbb b165 343e a7f6 1abd e410 cd3d
00000220: adb7 a5bd 46e4 d83d 116c 223e a043 f7bd
00000230: a350 95bd b6e3 74be 5e6f 04be d0b8 9fbc
00000240: 9641 b9bd da72 2ebe 4dbe 51be 3fe3 403e
00000250: 1b77 5fbe 18ce 4fbe 9960 94bd 68da 3c3e
00000260: ea42 28be 68b1 a6bd 05ad 12be f463 4bbd
00000270: cec6 f53d f40f 9fbc 915f 02be 8c92 81bc
00000280: 6164 283e 0d09 0d3e 2855 04bd 6662 3a3e
00000290: 0c7f 2dbe 8ca2 33be e5b0 183e 09b9 a73d
000002a0: 8ef2 aebd ba02 08bd 6d74 653c 234e 43be
000002b0: fe16 e6bd 6d2d 47be 26bd bb3d 140c 833d
000002c0: 69e1 ac3d 3ba1 713e f62e 5ebe 7d0b c0bd
000002d0: bc1a eabd 367a 0b3e 45c6 f7bd 78f8 8a3d
000002e0: 770d 783e e8dc d0bc 6e5f 33be 74ea 993d
000002f0: 24a0 183e 1b25 90bd 6884 54be bbee 563e
00000300: be48 a9bb 25b4 41be 770c 59bd b666 323e
00000310: 5fb7 45bd 8d1b 3bbe 13a8 be3d 966e 0cbe
00000320: 0b4a 7c3c d07d fc3c e064 37be 1044 f9bd
00000330: b383 2ebe e69d 403e f4a2 e4bb 54ee 80bc
00000340: 115f 943d 776f 3cbe f9ab 09be e515 4cbe
00000350: 5187 09be 3cd8 a2bc d064 85be 37e3 60be
00000360: 288d 0d3e cd24 27be 79d8 69be 21a2 71bc
00000370: 2146 70be 675b 66be fdf7 b2bd 8d52 98bd
00000380: 386d 2ebe 32d7 e5bd 51de 683e c794 663e
00000390: 506a 0d3e cfba 96bd e691 943d 434e e63d
000003a0: 0e45 40be 92fd 0b3e 0b3e 73be 5caf cebd
000003b0: 1aca 243e b945 0abe 9f2a 1dbe 3205 3a3e
000003c0: d9ce 2d3e c319 54bb 06f9 603e eb7d 67be
000003d0: 59fe 043e 02a3 c1bc c4ac 2c3e 3235 263e
000003e0: feb1 58be 50b7 243e 8333 c73d 64a5 5dbe
000003f0: 8cf5 9abb 7119 ac3d f98c 443e a9b2 f8bd
