TSF_Finance/checkpoints/ixic_stm_0705__PatchTST_custom_ftM_sl96_ll48_pl15_dm16_nh4_el3_dl1_df128_fc1_ebtimeF_dtTrue_Exp_0/checkpoint.pth (torch_old, 124102 bytes, 65 tensors)

model.backbone.W_pos f4 [38, 16]
0	0xbc487a78	-0.01223623
1	0xba817722	-0.0009877423
2	0xbc52d56b	-0.012868266
3	0x3c87cfb8	0.01657854
4	0xbafdc9c6	-0.0019362501
5	0x39c6a272	0.00037886534
6	0xbc04220f	-0.008064761
7	0x3c793277	0.015209786
8	0xbbce2d7c	-0.0062920433
9	0x3c82e05d	0.015976125
10	0xbbde2a40	-0.006779939
11	0xbb92fda4	-0.0044858027
12	0x3c95aee9	0.01827188
13	0x3ad7aa08	0.0016453872
14	0xbc659ad0	-0.014013961
15	0x3c5d5445	0.013508861
16	0x3b4fc814	0.003170495
17	0x3c3d7d82	0.011565568
18	0x3c2ca9d6	0.010538539
19	0xb8a34e1c	-7.786995e-05
20	0x3b03c653	0.0020107224
21	0x3c0f7af8	0.008757345
22	0xbc51ea66	-0.012812233
23	0x3c1a4d76	0.009417882
24	0xbc3d2a8d	-0.011545789
25	0x3b9fe3f1	0.0048794677
26	0x3c8466bf	0.016162274
27	0x3c28d8f8	0.010305636
28	0xbc0b0827	-0.00848583
29	0x3c7128b8	0.014719181
30	0xbc184d07	-0.0092957085
31	0xbbe7e21a	-0.007076514
32	0xbc1311bc	-0.008976396
33	0xbc75ccdf	-0.015002458
34	0x3a133652	0.00056156993
35	0xbc124b99	-0.008929157
36	0xbc8764f2	-0.016527627
37	0x3c5d6c43	0.013514581
38	0xbc4a5875	-0.012350191
39	0x3af47e8d	0.0018653438
40	0x3cb40749	0.02197613
41	0x3c89f756	0.016841572
42	0x3b40e576	0.0029433644
43	0x3aed622d	0.0018110924
44	0x3bc20dbd	0.005922048
45	0x3c8e858a	0.01739766
46	0x3c389166	0.011265134
47	0x3c8b72bb	0.017022481
48	0xbbeba945	-0.0071918094
49	0x3c02b882	0.00797856
50	0x3c3d59ee	0.011557085
51	0x3c4460ce	0.011985971
52	0xbc3fb812	-0.011701601
53	0x3c217cfa	0.009856457
54	0x3bc7469b	0.006081415
55	0xbcb9e9e1	-0.02269453
56	0x3c74d3f2	0.01494311
57	0x3c4c2841	0.012460769
58	0xbc8d8bd8	-0.017278597
59	0xbc42c1c6	-0.0118870195
60	0x3c6240e9	0.013809421
61	0x3c4636d9	0.012098038
62	0xbc90aa74	-0.017659403
63	0xbc807b47	-0.015683783
64	0xbc40487f	-0.011736034
65	0xbc0fa4f6	-0.008767357
66	0xba184f12	-0.0005810122
67	0x3c6bc93a	0.014391238
68	0xbc4151a8	-0.0117992535
69	0x3cb203a7	0.021730257
70	0xbbbbc229	-0.005729933
71	0xbb69491c	-0.0035596555
72	0x3c827937	0.01592694
73	0xbbc06ed8	-0.0058725886
74	0x3c4c7aeb	0.012480478
75	0xb9b2c7f5	-0.00034099785
76	0x3c44eb6f	0.012019022
77	0x3c5fdd94	0.013663668
78	0xbc77ad27	-0.015116966
79	0xbc35281a	-0.011056924
80	0x3b8d4dd7	0.0043122577
81	0xba1bec58	-0.0005947999
82	0x3c6779b7	0.01412814
83	0x3b165d67	0.0022943856
84	0x3c0f8d9d	0.008761791
85	0x3be6143f	0.0070214565
86	0x3c997f89	0.018737571
87	0x3be73710	0.0070561245
88	0x3c6b785e	0.0143719595
89	0x3b9b63ee	0.004742137
90	0x3c83fc51	0.016111525
91	0x3cad49a9	0.021153288
92	0xbc1add7e	-0.009452222
93	0xbc82c525	-0.015963146
94	0xbc523025	-0.012828861
95	0xbc845fc6	-0.01615895
96	0x3c5e4d32	0.0135682095
97	0x3c4c9002	0.012485506
98	0x3c59ac0d	0.013285649
99	0x3cba2d27	0.022726608
100	0xbca8f304	-0.020623691
101	0xbad801f5	-0.0016480075
102	0x3a0d0048	0.0005378765
103	0xbc2f2da1	-0.010692031
104	0xbc322589	-0.010873207
105	0x3b43f114	0.0029898332
106	0x3c6bcd86	0.014392262
107	0xbc92c6b7	-0.01791702
108	0x3c594fa2	0.013263615
109	0xbba47bcb	-0.00501964
110	0x3c02a163	0.007973048
111	0x39ef468b	0.0004563819
112	0xbc1c6e22	-0.009547742
113	0xbb9b921f	-0.0047476436
114	0x3bfa99d6	0.007647733
115	0x3b84e270	0.0040553138
116	0x3c3c2d22	0.01148537
117	0xbc4e8e58	-0.01260718
118	0xbc2a5771	-0.010396824
119	0x3b6aa06d	0.0035801188
120	0x3c2e269f	0.010629325
121	0x3cada917	0.021198792
122	0x3bc86b40	0.006116301
123	0x3c36b498	0.011151455
124	0x3b8b047c	0.004242478
125	0x3c83b9df	0.016079841
126	0x3acf1213	0.0015798233
127	0xbc13f5c0	-0.009030759
128	0xbc909f74	-0.017654158
129	0x3c7f6362	0.01558766
130	0x3ba3d8fa	0.005000231
131	0x3bdbcc7d	0.0067077265
132	0x3b954e60	0.004556462
133	0x3bf7772f	0.0075520496
134	0x3c56b622	0.013104947
135	0xbc6adf3c	-0.01433545
136	0xbc51ccd8	-0.012805186
137	0xbca97848	-0.020687237
138	0x3bb6ab87	0.005574647
139	0x3a5dd22c	0.0008461799
140	0x38620296	5.3885007e-05
141	0xbbda4359	-0.0066608605
142	0xbc572aae	-0.013132734
143	0xbc93b53f	-0.01803076
144	0xbc84bfa1	-0.016204657
145	0x3c3b70b5	0.011440446
146	0xbb3bc44c	-0.0028650938
147	0x3c394709	0.01130844
148	0x3c2400de	0.010009972
149	0x3c78518d	0.015156162
150	0x3bcdae3d	0.0062768743
151	0x3c561095	0.013065477
152	0x39ae2db2	0.00033221912
153	0xbc91c47a	-0.017793883
154	0xbc67757e	-0.014127133
155	0xbb081a97	-0.0020767802
156	0x3bf00230	0.0073244795
157	0xbca05d35	-0.019575695
158	0xbbc5ad25	-0.0060326033
159	0x3c375e83	0.011191967
160	0x3c092e10	0.008372799
161	0x3a4a407a	0.0007715296
162	0xbbab38cd	-0.005225277
163	0x3c1f85d9	0.009736502
164	0xbc932454	-0.017961659
165	0x3b97756d	0.0046221525
166	0xbcc99505	-0.02460719
167	0x3be1d29c	0.0068915617
168	0xbc6b4bf3	-0.014361369
169	0x3bc3c28d	0.00597412
170	0x3c0eef68	0.008724071
171	0xbc150f2e	-0.009097857
172	0x3c0ce51e	0.008599548
173	0xbcd0bc71	-0.02548048
174	0x3c6441d2	0.013931708
175	0xbc3bbcf4	-0.011458624
176	0x3c1d7acd	0.0096117975
177	0x3c5c3bc5	0.013441985
178	0x3cb35439	0.021890746
179	0xbc8aa2ce	-0.016923334
180	0xbad560d0	-0.0016279463
181	0x3c0545f8	0.008134358
182	0xbc25a80e	-0.010110868
183	0xbc12f0b4	-0.008968521
184	0x3c87ab44	0.016561158
185	0xbc91d8d4	-0.017803587
186	0xbc56e187	-0.013115293
187	0xbcad39bb	-0.021145692
188	0x3b34f6a7	0.0027612837
189	0x3bba1d9a	0.0056797983
190	0x3c84c0a8	0.016205147
191	0x3ca0dbd9	0.019636082
192	0xbbfdd353	-0.007746139
193	0xbc15873e	-0.0091264825
194	0xbc895709	-0.016765134
195	0x3b81c2ee	0.003960005
196	0xbbebf1ee	-0.007200471
197	0x3c602bb6	0.0136822965
198	0xbc89f86c	-0.01684209
199	0x3c99f106	0.018791687
200	0xbc855e9a	-0.016280461
201	0xbb0d256b	-0.0021537195
202	0xbc834733	-0.016025161
203	0x3c26cd7c	0.010180827
204	0xbc348cfa	-0.01101994
205	0xbc90bdde	-0.01766866
206	0xbc5e8a8c	-0.013582837
207	0x3c8bebb4	0.017080165
208	0x3c89364b	0.016749522
209	0xbc95b2c3	-0.018273717
210	0x3b81e048	0.003963504
211	0xbbe5b591	-0.00701017
212	0x3c5e4696	0.013566634
213	0xbc871c9c	-0.016493134
214	0x3ad4c621	0.0016233363
215	0x3c110a7d	0.008852598
216	0xbc8c592b	-0.017132362
217	0x3b264c1e	0.002537496
218	0xbc33ab28	-0.0109661
219	0xbc936ae4	-0.017995305
220	0xbc7766f7	-0.015100232
221	0xb999d5b6	-0.0002934166
222	0xbc4eac3e	-0.012614308
223	0x3c2409ba	0.010012085
224	0xbc5becf2	-0.013423191
225	0x3acbf04f	0.0015559288
226	0xbb0c549a	-0.002141273
227	0xbbf6cf22	-0.0075320164
228	0x3c8a720d	0.016900087
229	0xbbf27523	-0.0073992177
230	0xbc98db8a	-0.018659372
231	0xbc8e4ba1	-0.017370047
232	0x3c9556a1	0.018229784
233	0x3b6555a1	0.0034993666
234	0xbb4566a7	-0.0030121
235	0xbc3c4812	-0.011491792
236	0xbc6fb0e9	-0.014629581
237	0xbbaff4ab	-0.005369743
238	0x3b223aa1	0.0024754184
239	0xbbacd667	-0.005274582
240	0x3c90247b	0.01759552
241	0xbbcbd0bb	-0.006219951
242	0x3c04e97a	0.008112306
243	0x3c694a21	0.014238865
244	0x3acaa1cf	0.00154596
245	0xbc76395f	-0.015028327
246	0xbc01c523	-0.007920536
247	0xbc676ac4	-0.014124576
248	0xbbad98bf	-0.00529775
249	0x3ae4ad08	0.0017446587
250	0xbc6c59de	-0.014425723
251	0x3bbc7e2f	0.005752347
252	0x3bcc5995	0.006236265
253	0x3c4a8116	0.012359878
254	0x3c587053	0.013210374
255	0xbbd52afe	-0.006505369

model.backbone.W_P.weight f4 [16, 24]
0	0xbe129b1d	-0.14316984
1	0x3c2f16d9	0.0106866
2	0x3dd059fc	0.10173413
3	0x3db953b6	0.0904917
4	0x3d01ba31	0.031671707
5	0xbe06e61e	-0.1317372
6	0xbe396d23	-0.18108039
7	0x3e45b760	0.19308233
8	0xbda2dabe	-0.07951878
9	0xbe23aa0f	-0.15982841
10	0x3e038fb4	0.12847787
11	0xbe47df85	-0.1951886
12	0x3e05db23	0.13071875
13	0xbe1e1dd3	-0.15441065
14	0x3dca413b	0.09875723
15	0xbd713869	-0.058891688
16	0x3b57385e	0.0032839994
17	0xbdab3f4c	-0.08361682
18	0x3dec5fd1	0.11541713
19	0x3dce1d93	0.100642346
20	0x3e07d558	0.13264978
21	0xbd7fd83e	-0.062462084
22	0x3e63eb7d	0.222578
23	0x3cd4670c	0.025928043
24	0xbd7502dc	-0.05981718
25	0xbe46f1d6	-0.1942819
26	0x3e05a332	0.13050535
27	0xbe3f7c1b	-0.18699686
28	0xbe0fbb84	-0.14036375
29	0xbda0f298	-0.07858771
30	0x3d866975	0.06563083
31	0x3d8dd8c7	0.069261126
32	0x3dfd0569	0.123545475
33	0xbb187bf0	-0.0023267232
34	0x3db42534	0.087961584
35	0x3dfc7660	0.12327266
36	0xbe5233bb	-0.20527546
37	0xbe38cd05	-0.18046959
38	0xbe5412a4	-0.20710236
39	0xbe1ddb22	-0.15415624
40	0x3dbb92dc	0.091588706
41	0x3e304e74	0.17217427
42	0x3d809b81	0.0627966
43	0xbe274c1f	-0.16337632
44	0x3dc18dc5	0.094508685
45	0x3de709db	0.11281177
46	0x3e390c70	0.18071151
47	0xbe3c47f5	-0.18386824
48	0xbd066eb4	-0.03282042
49	0xbdda273d	-0.10652015
50	0x3e34551a	0.17610589
51	0x3de48b6a	0.111594036
52	0x3cca2871	0.024677487
53	0x3c6eed7a	0.014582986
54	0x3dba7939	0.09105153
55	0xbe1c7475	-0.152788
56	0xbc38e29d	-0.011284498
57	0xbe125a77	-0.14292322
58	0x3da6e92f	0.08149945
59	0x3d92c5d5	0.0716664
60	0xbe2cddbc	-0.1688146
61	0xbb08a22b	-0.0020848613
62	0x3dca72d6	0.098851845
63	0x3dd846dd	0.10560391
64	0x3e481aef	0.19541524
65	0xbe34cefd	-0.17657085
66	0xbd5a6a4b	-0.053324025
67	0xbd91230d	-0.070867635
68	0xbe2e67ec	-0.1703183
69	0xbe5d42f7	-0.21607576
70	0xbe34d16e	-0.17658016
71	0x3d863e12	0.06554808
72	0xbe311aac	-0.17295331
73	0xbdb996f3	-0.090619944
74	0xbe068867	-0.13137971
75	0xbe1ad206	-0.1511918
76	0x3e42595e	0.18979403
77	0xbc89cbd8	-0.016820833
78	0xbd806fc7	-0.0627132
79	0x3e444b16	0.19169268
80	0xbde4cca9	-0.11171848
81	0xbda5ce64	-0.080960065
82	0xbd7f98c1	-0.062401537
83	0xbe0af46e	-0.13569805
84	0xbdcaa525	-0.0989478
85	0xbd5cc231	-0.053896133
86	0x3c28f6e5	0.0103127705
87	0xbe0158c9	-0.12631525
88	0xbc6f98aa	-0.0146238
89	0x3e45cd97	0.19316708
90	0xbba40461	-0.005005405
91	0xbd09fcba	-0.033688284
92	0xbe5a7bb6	-0.21336254
93	0xbe28acaf	-0.16472124
94	0x3db0359d	0.08603976
95	0x3dd10249	0.10205514
96	0xbe3bab58	-0.18327081
97	0x3d53ea1f	0.051736947
98	0x3d4fcfb9	0.05073521
99	0xbd93ca3c	-0.072163075
100	0x3e2baea3	0.16765837
101	0x3d22524f	0.039629277
102	0xbe14550b	-0.14485566
103	0x3e3b809d	0.18310781
104	0x3dd8febc	0.10595462
105	0xbdae4276	-0.0850877
106	0x3ce1a2bb	0.027543416
107	0x3e23f9a1	0.16013195
108	0x3e2bd3b2	0.16779974
109	0x3dde4700	0.10853386
110	0x3d89ea19	0.06734104
111	0x3a742aaf	0.00093142217
112	0x3d3a8eab	0.045546215
113	0xbe0b2982	-0.13590053
114	0x3c821189	0.015877502
115	0xbe3e7de6	-0.18602714
116	0x3e070988	0.1318723
117	0xbe01acbb	-0.12663548
118	0xbdf8436e	-0.12122236
119	0x3e382ead	0.17986555
120	0xbd591883	-0.05300189
121	0xbdf4d832	-0.119552985
122	0xbe18d99d	-0.14926763
123	0x3dd7daec	0.10539803
124	0xbe2c492e	-0.16824791
125	0x3e29870d	0.16555424
126	0x3d946109	0.072450705
127	0x3e49f170	0.19721007
128	0xbd93dc7c	-0.072197884
129	0xbe2ce9f7	-0.16886126
130	0xbc39402f	-0.0113068065
131	0x3e2e4d11	0.17021586
132	0xbdb62d7e	-0.08895396
133	0xbe3a703c	-0.18206877
134	0x3e23d13c	0.15997785
135	0x3e126ce2	0.14299348
136	0x3e26c54a	0.16286197
137	0x3e02799b	0.12741701
138	0x3bacdcf4	0.005275363
139	0xbe2bbf60	-0.16772223
140	0xbe16aee7	-0.14715157
141	0xbde34b17	-0.110983066
142	0xbe1cdb92	-0.15318134
143	0xbe3cd67d	-0.18441196
144	0x3e1b4654	0.15163547
145	0x3e172bb7	0.1476277
146	0xbe0ca572	-0.13734987
147	0xbca60530	-0.020266145
148	0x3e3fca9a	0.1872963
149	0x3dbcd00b	0.092193685
150	0xbd3dea7c	-0.0463662
151	0xbd72cff7	-0.059280362
152	0x3dd53c44	0.104118854
153	0xbd9d56d7	-0.07682579
154	0xbe1a3113	-0.15057783
155	0xbd5a494b	-0.053292554
156	0x3e07d2a5	0.13263948
157	0xbda09220	-0.07840371
158	0xbe0d6bc6	-0.13810644
159	0xbd92678c	-0.07148656
160	0xbd96fe0f	-0.073726766
161	0xbe158c1b	-0.14604227
162	0xba4397bc	-0.000746127
163	0x3dd91533	0.105997466
164	0x3e47d4f3	0.19514827
165	0x3d8a7ba4	0.06761864
166	0x3e3586c2	0.17727187
167	0x3dcf13fe	0.10111235
168	0xbd468586	-0.04846718
169	0xbe196142	-0.14978507
170	0xbd404761	-0.046943072
171	0x3dd28f63	0.10281255
172	0x3d495f79	0.049163315
173	0xbd4568eb	-0.04819576
174	0xbafb3dbe	-0.0019168181
175	0x3d9ca5e5	0.07648829
176	0xbc9fb021	-0.019493164
177	0x3e23f544	0.1601153
178	0xbdf1b01e	-0.1180117
179	0x3d18d721	0.037314538
180	0x3df43e15	0.11925904
181	0x3e32d846	0.17465314
182	0x3d258de1	0.04041851
183	0x3ccfb606	0.02535535
184	0x3e4085ae	0.18800995
185	0xbe0ac360	-0.13551092
186	0xbdb3192e	-0.08745037
187	0xbde66b08	-0.11250883
188	0x3e4b22de	0.1983752
189	0x3c279c9b	0.010230209
190	0xbe2c87be	-0.16848657
191	0x3c6f9f96	0.014625451
192	0xbe4be53c	-0.19911665
193	0x3dd6b327	0.10483389
194	0x3e1c6c12	0.152756
195	0x3da094a2	0.078408495
196	0xbd466f95	-0.048446257
197	0xbdf5c662	-0.12000729
198	0x3e2f2292	0.17103031
199	0xbd2d6b86	-0.04233887
200	0x3d9a373d	0.07530067
201	0xbca3c4c8	-0.019991294
202	0x3e2581f5	0.16162856
203	0xbd1e9b85	-0.038722534
204	0x3e035b31	0.12827756
205	0xbe1b3f0d	-0.1516077
206	0xbe305cbe	-0.17222878
207	0x3cffec91	0.031240733
208	0x3e2a19c0	0.16611385
209	0xbe0e1680	-0.1387577
210	0x3e038db1	0.1284702
211	0x3c8cdb3a	0.01719438
212	0xbe446e85	-0.19182785
213	0xbe10f491	-0.14155795
214	0xbd4ef0c5	-0.050522584
215	0x3be8fb75	0.007110054
216	0x3dc4f29c	0.096165866
217	0x3e412845	0.18863018
218	0x3e3d00bd	0.18457313
219	0xbe2ef01d	-0.17083783
220	0x3de21a0e	0.11040126
221	0xbd724e02	-0.059156425
222	0xbc8ff328	-0.017572
223	0x3e3ebbba	0.186263
224	0xbd27bcf7	-0.040951695
225	0xbdb65167	-0.08902245
226	0x3ddb2762	0.10700871
227	0xbb6839a9	-0.0035434759
228	0x3d45bf48	0.048278123
229	0x3bf5f5ed	0.0075061233
230	0x3e38d208	0.1804887
231	0x3e210d7e	0.15727803
232	0x3d861e51	0.06548751
233	0x3ccd9a91	0.025098117
234	0x3d8cdb60	0.0687778
235	0xbd90c6f0	-0.07069194
236	0x3e024385	0.12721069
237	0x3e37ac5d	0.17936845
238	0x3e3262ec	0.17420548
239	0xbdc7fe50	-0.09765303
240	0xbdc79e1f	-0.09746956
241	0x3e2e758d	0.1703703
242	0x3e2258f2	0.15854242
243	0x3df8bbdc	0.12145206
244	0x3e290706	0.16506585
245	0x3e3c7701	0.18404771
246	0xbde3b147	-0.11117797
247	0xbe280200	-0.16407013
248	0xbb962295	-0.004581759
249	0x3dfd9600	0.12382126
250	0xbdba93a4	-0.091101915
251	0xbdfb6360	-0.12274814
252	0xbe4b7c47	-0.19871627
253	0x3cf43d87	0.029814495
254	0x3ccbc721	0.024875225
255	0xbde982b5	-0.114018835

model.backbone.W_P.bias f4 [16]
0	0xbda3c1f4	-0.07995978
1	0x3ca8f44a	0.020624299
2	0x3d278b2f	0.04090422
3	0xbd8b4c95	-0.06801716
4	0x3e13ee2e	0.14446327
5	0xbd861201	-0.06546403
6	0x3d078fb9	0.03309605
7	0xbe1b384e	-0.15158197
8	0xbd679399	-0.056537244
9	0x3e303629	0.1720816
10	0xbb929917	-0.004473816
11	0x3dd7b491	0.10532487
12	0x3cdae1e8	0.026719049
13	0x3e20803d	0.15673919
14	0xbdf554b8	-0.119790494
15	0x3d4f5b65	0.05062427

model.backbone.encoder.layers.0.self_attn.W_Q.weight f4 [16, 16]
0	0xbe3a754d	-0.18208809
1	0xbd831d84	-0.06402114
2	0x3e537cc6	0.20653066
3	0x3d243b9e	0.040095918
4	0x3e03fcb5	0.12889369
5	0xbd64e831	-0.055885497
6	0x3e0c0eb3	0.13677482
7	0x3d20dcd7	0.03927311
8	0xbe3d2d0d	-0.18474217
9	0x3e670ee0	0.22564268
10	0xbe69c3f1	-0.22828652
11	0x3e2cc94f	0.16873668
12	0xbe2c56cd	-0.16829987
13	0x3e73a7f4	0.23794538
14	0x3dbd64c8	0.09247738
15	0x3e7a250f	0.24428199
16	0x3e57278f	0.21011184
17	0x3d09b419	0.03361902
18	0x3e68a920	0.22720766
19	0xbe218cfb	-0.15776436
20	0xbe2edf50	-0.17077374
21	0xbe56a356	-0.20960745
22	0xbe196264	-0.1497894
23	0x3e074623	0.13210349
24	0x3e05c041	0.1306162
25	0xbe719387	-0.23591433
26	0xbe495fb3	-0.19665413
27	0x3e25c385	0.16187866
28	0x3e74996f	0.23886655
29	0x3e15a5ba	0.14614001
30	0x3d64126c	0.05568163
31	0xbdbad2ae	-0.09122215
32	0x3d3b6cf1	0.04575819
33	0x3e309ef8	0.17248142
34	0xbe629add	-0.22129388
35	0xbddc9f8a	-0.10772617
36	0x3cb2fd7e	0.02184939
37	0xbe8428d7	-0.25812408
38	0x3bf33385	0.007421913
39	0x3d20d891	0.039269034
40	0x3d7dd5e6	0.061971568
41	0xbdeb38a7	-0.11485415
42	0x3e127e40	0.14305973
43	0xbe619e76	-0.22033104
44	0xbe7b20fa	-0.24524298
45	0x3d367de3	0.04455365
46	0x3e061a87	0.13096057
47	0xbb90fe3b	-0.004424838
48	0x3e3f3e58	0.18676126
49	0x3e03168a	0.12801567
50	0x3e19d74f	0.1502354
51	0xbd2215ea	-0.03957168
52	0x3e2c32df	0.16816281
53	0xbe419923	-0.18906073
54	0xbe15134b	-0.14558141
55	0xbdda6b9a	-0.106650546
56	0x3e177d60	0.1479392
57	0x3e5abe45	0.21361645
58	0xbe152380	-0.14564323
59	0x3e0e9637	0.1392449
60	0xbe12ce56	-0.14336523
61	0x3d7bfe71	0.06152195
62	0x3e415e6d	0.18883677
63	0x3d6a2e43	0.057173025
64	0xbbda8539	-0.0066687134
65	0x3be09aa5	0.0068543726
66	0xbce2196f	-0.027600018
67	0xbe717b71	-0.23582245
68	0x3d237aab	0.039911907
69	0xbc4a1dc7	-0.012336201
70	0x3e85a10c	0.26099432
71	0xbe4a3d2e	-0.197499
72	0x3e60407b	0.21899597
73	0x3e674cd2	0.22587898
74	0xbe63b059	-0.2223524
75	0xbd21ae3b	-0.0394728
76	0x3dd0b044	0.1018987
77	0x3de2cda7	0.11074381
78	0xbde6a412	-0.11261763
79	0xbe2a1ee2	-0.16613343
80	0xbdf82162	-0.12115742
81	0xbdca6964	-0.09883383
82	0x3dc9e63b	0.09858366
83	0xbcde6d9c	-0.027151875
84	0x3de32cac	0.11092505
85	0xbd17a1b9	-0.037019465
86	0x3d3d61ca	0.046235837
87	0x3dd72553	0.10505166
88	0xbe4a7172	-0.19769838
89	0xbdd71d8c	-0.105036825
90	0xbe7b86eb	-0.24563186
91	0xbdc8b352	-0.09799828
92	0xbe3d12ec	-0.1846425
93	0xbe779708	-0.24178708
94	0x3e68b6a7	0.22725926
95	0xbdd5eedf	-0.10445952
96	0x3bda7269	0.006666471
97	0xbe1dd6c0	-0.15413952
98	0xb90cb9cd	-0.00013420657
99	0xbe6f55f0	-0.23372626
100	0xbd4d8f87	-0.050185706
101	0xbd750172	-0.05981583
102	0x3d6e79f3	0.05822177
103	0x3c0956fe	0.008382557
104	0x3e1508ca	0.14554134
105	0x3b9dc4c0	0.004814714
106	0xbdeaebea	-0.11470778
107	0x3e80c949	0.25153568
108	0xbd3bd70c	-0.04585938
109	0x3e607990	0.21921372
110	0xbe52d767	-0.20589982
111	0xbe11e74b	-0.14248388
112	0xbe4fb071	-0.20282151
113	0xbe1b9dae	-0.15196869
114	0x3b085427	0.0020802112
115	0x3e3fbbac	0.18723935
116	0xbe46a58b	-0.19399087
117	0x3d7edc2e	0.0622217
118	0x3e40fa0b	0.18845384
119	0x3e67adc9	0.22624888
120	0x3d90511c	0.070467204
121	0xbdd409ba	-0.10353418
122	0xbe5c87a0	-0.21536112
123	0x3d3998e8	0.04531184
124	0x3e0c6c68	0.13713229
125	0x3ca2377f	0.019801853
126	0x3dd7e0e6	0.10540943
127	0x3e63220b	0.22180955
128	0xbd1689ae	-0.036752395
129	0xbe309cdb	-0.17247336
130	0xbcf6d29e	-0.030129727
131	0xbda0f9cc	-0.07860145
132	0x3e18bb9b	0.14915316
133	0x3e01d6e8	0.12679636
134	0xbc862494	-0.016374864
135	0x3e0e9c2e	0.13926765
136	0xbe7baf3e	-0.24578568
137	0xbe324749	-0.17410006
138	0x3c0c5866	0.008565998
139	0x3d4af2d1	0.049547974
140	0x3e4fadd0	0.20281148
141	0x3cb713d0	0.022348315
142	0xbe1b36a8	-0.15157568
143	0xbd6b5eb1	-0.05746335
144	0xbe34cdad	-0.17656584
145	0xbe072f22	-0.13201573
146	0xbda51901	-0.0806141
147	0x3e112d0e	0.14177343
148	0x3e81a23d	0.2531909
149	0x3d82d96e	0.06389128
150	0xbe4bd7f6	-0.19906601
151	0xbe5ada04	-0.21372229
152	0xbdca7505	-0.09885601
153	0xbe49d13d	-0.19708724
154	0xbe33afcf	-0.17547534
155	0xbe6d0684	-0.23147017
156	0x3d1fc81f	0.03900921
157	0x3cf0e0c8	0.029404059
158	0xbcdfab4d	-0.027303362
159	0x3c5d6074	0.013511766
160	0x3d268302	0.040652283
161	0x3d83a230	0.06427419
162	0x3c902832	0.017597292
163	0xbd784c36	-0.060619555
164	0xbc66fe83	-0.014098766
165	0xbe6634f6	-0.2248114
166	0xbe3e47f1	-0.18582131
167	0xbe0e33be	-0.13886926
168	0x3e3c4839	0.18386926
169	0x3e4ab95c	0.19797271
170	0xbe426ed4	-0.1898759
171	0x3dcf6fd8	0.101287544
172	0xbcc2da6b	-0.02378579
173	0x3d7f6a7f	0.062357422
174	0xbe513ffa	-0.20434561
175	0xbe73db2f	-0.2381408
176	0xbe0c36c6	-0.1369277
177	0x3d9f4129	0.077761
178	0x3d85d38d	0.06534491
179	0xbd0dec6d	-0.0346493
180	0xbd8ccae3	-0.06874635
181	0x3bfb7311	0.007673629
182	0xbe021e7a	-0.12706938
183	0x3dc89d5a	0.097956374
184	0x3d802f43	0.062590145
185	0xbdd24e30	-0.10268819
186	0x3dad6f17	0.08468454
187	0xbd7a1a9e	-0.06106054
188	0x3d9fe0b7	0.07806533
189	0x3dc3aac9	0.09554059
190	0x3e627d64	0.22118145
191	0x3e14d36d	0.14533778
192	0xbe65d9ec	-0.22446412
193	0x3d30757c	0.04308079
194	0xbd1b1f88	-0.037871867
195	0xbe27df98	-0.16393888
196	0xbe644602	-0.22292331
197	0x3e4bd0b1	0.19903828
198	0xbe4a97a5	-0.1978441
199	0x3e28795d	0.16452546
200	0x3dfbc202	0.122928634
201	0xbdd8b30c	-0.105810255
202	0xbdd9d5a1	-0.106364496
203	0x3e155078	0.14581478
204	0x3df7fdd5	0.121089615
205	0xbcbdad79	-0.023154007
206	0xbdb971df	-0.09054922
207	0xbda3e0fe	-0.08001898
208	0x39f87938	0.0004739256
209	0xbe6210eb	-0.22076766
210	0xbd99bdb3	-0.075068854
211	0xbe167c21	-0.14695789
212	0xbe3d57a2	-0.1849046
213	0x3db4ae15	0.08822266
214	0xbe319aee	-0.17344257
215	0xbda733d1	-0.0816418
216	0x3dafac54	0.08577791
217	0x3df26983	0.11836531
218	0xbc6904cc	-0.014222335
219	0xbe7d6afb	-0.24747841
220	0x3aea79e1	0.0017889106
221	0xbe2cd497	-0.16877972
222	0xbe3dab48	-0.1852237
223	0x3dde3cbb	0.10851427
224	0x3e5786b3	0.21047477
225	0x3e2a18e5	0.16611059
226	0xbe65635c	-0.22401184
227	0xbdfcc0e6	-0.1234148
228	0xbe21f1e5	-0.15814932
229	0x3e31f4c5	0.17378528
230	0x3e6a62de	0.22889277
231	0xbe349482	-0.17634776
232	0xbe1a5fe7	-0.15075646
233	0x3e78a175	0.24280341
234	0x3e0d3263	0.13788752
235	0xbc167243	-0.009182516
236	0x3e506016	0.20349154
237	0x3e270f3b	0.16314404
238	0xbe4d87fb	-0.20071404
239	0xbe348101	-0.17627336
240	0x3d7381bc	0.059449896
241	0x3e55c55c	0.20876068
242	0x3c857327	0.01629026
243	0xbc961e66	-0.018325042
244	0x3e2a76ea	0.16646925
245	0xbe369773	-0.17831211
246	0xbe5cd04d	-0.21563835
247	0x3dc29934	0.095018774
248	0xbdc3643c	-0.095406026
249	0xbe6414f8	-0.22273624
250	0xbe36fc27	-0.17869626
251	0xbd95c88f	-0.07313644
252	0xbb9c73d8	-0.004774552
253	0x3bcc04a7	0.0062261405
254	0xbe557da8	-0.20848715
255	0x3e6d6b95	0.2318557

model.backbone.encoder.layers.0.self_attn.W_Q.bias f4 [16]
0	0x3e0aea89	0.1356603
1	0x3e4e7488	0.2016164
2	0xbe233410	-0.15937829
3	0x3e59c826	0.21267757
4	0x3d4dba1b	0.050226312
5	0xbe1f0993	-0.15530996
6	0x3d0a14cf	0.03371125
7	0x3e3cdc30	0.1844337
8	0xbddc50ba	-0.10757585
9	0x3e14cfc3	0.1453238
10	0xbe2e7dd7	-0.17040192
11	0xbe76931a	-0.24079552
12	0x3e644890	0.22293305
13	0xbd364fb8	-0.04450962
14	0xbe49183b	-0.1963815
15	0x3e11a8f6	0.1422461

model.backbone.encoder.layers.0.self_attn.W_K.weight f4 [16, 16]
0	0x3e053b91	0.13011004
1	0xbdbdd183	-0.09268477
2	0x3e809091	0.25110295
3	0xbe5fc964	-0.21854168
4	0x3e2db31a	0.16962853
5	0x3ccc7df8	0.02496241
6	0x3e616b45	0.22013576
7	0xbe0f0a7c	-0.13968843
8	0xbcb576cb	-0.022151371
9	0xbe794acf	-0.24344943
10	0xbe6c6dc5	-0.23088749
11	0x3cf7498b	0.030186435
12	0x3e308e1e	0.17241713
13	0x3e0c5c64	0.13707119
14	0xbe2e121b	-0.16999094
15	0x3cd45c88	0.025923029
16	0xbdea75c4	-0.11448243
17	0x3bcff5ed	0.0063464553
18	0xbe0e1157	-0.13873802
19	0xbd8a9f7a	-0.06768699
20	0x3dfcfeb6	0.1235327
21	0x3e1d569d	0.15365072
22	0xbc22d1f5	-0.009937753
23	0x3dd5798e	0.10423575
24	0x3e32a0c4	0.1744414
25	0xbe4f0818	-0.20217931
26	0xbdcdc321	-0.100469835
27	0x3d3d17d2	0.046165295
28	0xbdf36a9d	-0.11885569
29	0xbe2bf71d	-0.16793485
30	0x3be230e0	0.006902799
31	0x3d3cdc26	0.046108387
32	0x3e434733	0.19070129
33	0xbe526ca9	-0.20549263
34	0xbdd5d31f	-0.10440659
35	0x3d7d3318	0.061816305
36	0x3e13bf97	0.14428554
37	0xbe80836b	-0.25100264
38	0x3dde17a0	0.1084435
39	0x3e6af211	0.22943904
40	0x3d4f609b	0.05062924
41	0x3d78149d	0.060566533
42	0x3d9cb39c	0.07651445
43	0xbdad3a74	-0.08458415
44	0x3db28624	0.087169915
45	0x3dd65a58	0.104664505
46	0x3c1e8196	0.00967445
47	0xbdcfa515	-0.10138909
48	0x3e284480	0.1643238
49	0x3def11fd	0.11673353
50	0xbe6d98a4	-0.23202759
51	0xbca2a4f0	-0.019854039
52	0xbe2810cd	-0.16412659
53	0xbd1dde39	-0.038542006
54	0x3d5b779c	0.053580865
55	0xbcf05d8c	-0.029341482
56	0x3e7fa572	0.24965456
57	0x3e4454b3	0.19172935
58	0xbcc8c876	-0.02450965
59	0x3e74da90	0.239115
60	0xbd87af6f	-0.06625258
61	0xbbe1a815	-0.006886492
62	0xbdf51b5c	-0.11968109
63	0x3dec9c43	0.11553242
64	0xbe78f556	-0.24312338
65	0xbe45fbc0	-0.19334316
66	0xbe221382	-0.15827754
67	0x3df20e87	0.11819177
68	0x3c91e7e1	0.017810764
69	0xbe69c0e3	-0.22827487
70	0x3e294364	0.16529614
71	0x3e4d9832	0.20077589
72	0x3e4b358b	0.19844644
73	0x3d22be45	0.039732236
74	0xbc24a5b3	-0.010049271
75	0xbe4aa5fa	-0.19789878
76	0x3d92f791	0.07176126
77	0x3e79333b	0.24335949
78	0xbddaf4f8	-0.10691255
79	0xbe657add	-0.2241015
80	0xbdfcdae7	-0.1234644
81	0x3dbf1301	0.093297966
82	0xbe135214	-0.14386779
83	0x3e43f607	0.1913682
84	0x3dcd1dd1	0.10015453
85	0x3e03ac53	0.12858705
86	0xbdcbd0ae	-0.09951912
87	0xbdd0455f	-0.101694815
88	0xbe447b47	-0.19187652
89	0x3d039d7e	0.032132618
90	0x3e437629	0.19088043
91	0x3e24350a	0.16035858
92	0x3e11b925	0.14230783
93	0xbe72ea61	-0.23722221
94	0x3e303beb	0.17210357
95	0x3de4cabb	0.1117148
96	0x3e466d66	0.1937767
97	0xbe405b7a	-0.18784896
98	0x3e53574a	0.20638767
99	0xbcbb0054	-0.022827305
100	0x3d77d629	0.060506973
101	0xbe3ae863	-0.18252711
102	0x3d7615d3	0.060079407
103	0x3dee24e1	0.11628128
104	0xbc889a10	-0.016675025
105	0xbe166f8e	-0.14690992
106	0xbd92780b	-0.07151803
107	0x3d6f3ba3	0.058406483
108	0xbbe5f8f2	-0.007018202
109	0x3d11d869	0.035606775
110	0xbdce122e	-0.10062061
111	0x3e7ccdf4	0.2468794
112	0x3d1a53bb	0.037677508
113	0xbe1fe8f2	-0.15616205
114	0xbdfca3ae	-0.12335907
115	0xbe0f494e	-0.13992807
116	0x3e476d9c	0.19475406
117	0xbe49312f	-0.19647668
118	0x3e48aaf1	0.19596459
119	0x3dfbcc13	0.122947834
120	0x3d737925	0.059441704
121	0x3d582c73	0.052776765
122	0xbe651c52	-0.22374085
123	0x3dea376d	0.11436353
124	0xbe3dda64	-0.1854034
125	0x3e450cb0	0.19243121
126	0xbe5db840	-0.21652317
127	0x3e4673a3	0.1938005
128	0x3e841010	0.25793505
129	0x3ded3794	0.11582866
130	0xbe786ef2	-0.24261072
131	0x3e6d2df2	0.23162058
132	0xbe09497a	-0.13406935
133	0x3c46ef25	0.012141977
134	0x3e6bb2b1	0.23017384
135	0xbd7b3e97	-0.061338987
136	0x3da46462	0.08026959
137	0x3d73d167	0.059525874
138	0x3e3a2c9f	0.18181084
139	0xbe052624	-0.1300283
140	0x3dd163f0	0.1022414
141	0x3e1c7357	0.15278374
142	0xbdad5e19	-0.08465213
143	0x3e26ee0a	0.16301742
144	0xbb91e41e	-0.0044522425
145	0x3e4d372a	0.20040575
146	0xbdca2f2d	-0.09872279
147	0x3e2136cd	0.15743561
148	0x3e6c9411	0.23103358
149	0x3e47ab15	0.19498856
150	0x3e1bac6a	0.1520249
151	0x3e622d57	0.22087608
152	0x3bc0c781	0.0058831577
153	0x3e6d00a1	0.23144771
154	0x3e65b87e	0.2243366
155	0xbd927146	-0.071505114
156	0x3e2a0188	0.16602147
157	0xbd9f6dff	-0.07784652
158	0xbe407746	-0.18795499
159	0xbe668a75	-0.22513755
160	0xbe65812b	-0.22412555
161	0x3d6688a4	0.056282654
162	0x3e58ce38	0.21172416
163	0x3d203443	0.03911234
164	0x3e2d8a32	0.16947249
165	0xbe4bc5d1	-0.1989968
166	0x3ba5480e	0.00504399
167	0x3e212fa1	0.15740825
168	0xbdd62263	-0.104557775
169	0x3df0875c	0.11744568
170	0xbdfb9742	-0.122847095
171	0x3e518c0c	0.2046358
172	0xbe1ff981	-0.15622522
173	0x3e0d839d	0.13819738
174	0xbd8dfed3	-0.069333695
175	0x3de9955a	0.1140544
176	0x3e664065	0.22485502
177	0xbda4fecf	-0.080564134
178	0xbe80ea2a	-0.25178653
179	0xbcda9958	-0.026684448
180	0xbe736799	-0.23769988
181	0x3e175fb7	0.14782606
182	0x3d6ff968	0.05858746
183	0x3b186bea	0.0023257681
184	0xbd8b2d98	-0.06795806
185	0xbcfd3fb4	-0.030914165
186	0x3e4c05dc	0.1992411
187	0xbd2f6bc0	-0.042827368
188	0x3e36fabe	0.17869088
189	0xbe54c6e0	-0.2077899
190	0xbe779ea7	-0.24181615
191	0xbe2d31b5	-0.16913493
192	0x3e25e159	0.16199245
193	0xbda43813	-0.08018508
194	0xbd9f7fdd	-0.0778806
195	0x3d595730	0.053061664
196	0x3e679815	0.22616608
197	0xbdf68418	-0.12036914
198	0xbdfe783d	-0.124252774
199	0x3da0ea2c	0.07857165
200	0x3e0ff87e	0.14059636
201	0x3d24ef60	0.04026735
202	0xbe588fff	-0.2114868
203	0xbe6598af	-0.22421525
204	0xbc6f4317	-0.014603398
205	0x3dbdc5a2	0.09266211
206	0x3d3af8ee	0.045647554
207	0xbe621282	-0.22077373
208	0x3dadb62f	0.084820144
209	0xbc2afdc1	-0.010436476
210	0x3dbaadd5	0.09115187
211	0xbe236912	-0.1595805
212	0xbdec03a7	-0.11524134
213	0xbcfc42be	-0.030793544
214	0x3b9b4002	0.004737855
215	0x3d928eb3	0.07156124
216	0xbde99f94	-0.1140739
217	0x3d71a4df	0.058995124
218	0x3e1b3d00	0.15159988
219	0x3c39063e	0.011292992
220	0xbce12dcf	-0.027487664
221	0x3e480a9f	0.19535302
222	0x3e4df025	0.20111139
223	0x3e548753	0.20754747
224	0xbdd03a66	-0.101673886
225	0x3e1de8eb	0.15420882
226	0x3d868cf5	0.06569854
227	0x3ddccac0	0.10780859
228	0x3d9e0e91	0.07717622
229	0xbd824826	-0.063614175
230	0x3cdabaaf	0.026700346
231	0x3e23d82b	0.1600043
232	0xbe45aeab	-0.19304912
233	0xbe6c0d52	-0.23051956
234	0xbe422177	-0.18958078
235	0xbc0ce3d7	-0.008599243
236	0xbdd5aeab	-0.10433706
237	0x3db56ed7	0.08859032
238	0x3dfeb4ec	0.12436852
239	0x3e037c28	0.1284033
240	0x3d2dd4e7	0.042439368
241	0x3b0cb113	0.002146785
242	0xbe07cd8a	-0.13262
243	0x3d008945	0.03138091
244	0x3e030977	0.1279658
245	0x3e0e6f6a	0.13909689
246	0xbded100f	-0.115753286
247	0x3db721f1	0.08942021
248	0xbe7689eb	-0.24076049
249	0x3e49a78d	0.19692822
250	0x3de4c811	0.11170972
251	0xbcf1af51	-0.029502543
252	0xbe210f44	-0.1572848
253	0x3e414645	0.18874462
254	0xbe58199c	-0.21103519
255	0x3e3b7be1	0.18308975

model.backbone.encoder.layers.0.self_attn.W_K.bias f4 [16]
0	0xbd88ab3a	-0.06673284
1	0x3dca5d7d	0.09881113
2	0xbe22419e	-0.15845343
3	0xbbcfddb8	-0.0063435696
4	0x3d220d13	0.03956325
5	0x3e615866	0.22006378
6	0xbde207c4	-0.110366374
7	0xbe509a37	-0.20371328
8	0xbd69e8df	-0.05710685
9	0xbdc31d6f	-0.095270984
10	0xbe0d8df3	-0.1382368
11	0xbd84c0d7	-0.06482094
12	0xbdeb2522	-0.11481692
13	0x3df4f6de	0.11961149
14	0xbd84bab0	-0.0648092
15	0x3dcd2dcc	0.10018501

model.backbone.encoder.layers.0.self_attn.W_V.weight f4 [16, 16]
0	0x3e088dfc	0.13335413
1	0x3d9aef7a	0.07565208
2	0xbe075c13	-0.13218717
3	0xbdb4e36c	-0.0883244
4	0xbbc53610	-0.0060184076
5	0xbcf6d818	-0.030132338
6	0x3e7cdb5a	0.24693051
7	0x3e67cbe3	0.2263637
8	0xbe6e5325	-0.23273905
9	0x3c07bf51	0.0082853595
10	0xbe03160e	-0.12801382
11	0x3e1d894d	0.15384407
12	0xbe44200f	-0.19152854
13	0xbd73121d	-0.059343446
14	0x3e3c8104	0.1840859
15	0xbe2c664b	-0.16835897
16	0x3e2e10a7	0.1699854
17	0xbe21620d	-0.1576006
18	0x3e73c6e0	0.23806334
19	0x3d8d0e4b	0.06887492
20	0xbd075884	-0.0330434
21	0x3c0aef54	0.008479912
22	0x3dd7668d	0.10517607
23	0xbe120cce	-0.14262697
24	0x3e5d9521	0.2163892
25	0x3e1d2c6e	0.1534898
26	0xbe4e5418	-0.20149267
27	0x3daf92b9	0.08572907
28	0x3e70e4de	0.23524806
29	0xbdae3b5d	-0.085074164
30	0x3e6eed22	0.23332646
31	0xbe071e25	-0.13195093
32	0xbe621c0d	-0.22081013
33	0xbe5303a0	-0.20606852
34	0x3ddf779c	0.109114856
35	0x3e565a67	0.20932923
36	0x3e2b67d7	0.1673883
37	0xbc2c81c3	-0.0105289845
38	0x3e2ff0dd	0.17181726
39	0x3db13920	0.08653474
40	0xbe2ab97e	-0.16672322
41	0x3d927c8c	0.07152662
42	0xbcb43985	-0.022000084
43	0x3e0cc782	0.13747981
44	0x3e7540f5	0.2395056
45	0xbd071f58	-0.032988876
46	0x3dceb44c	0.10092983
47	0xbe5c3d4b	-0.21507756
48	0xbd16ea66	-0.036844634
49	0xbddd43a5	-0.10803918
50	0xbbfadf89	-0.007656042
51	0xbe294c1b	-0.16532938
52	0x3d664229	0.05621544
53	0x3e2849cd	0.16434403
54	0xbe4d0fcc	-0.20025557
55	0x3e62b507	0.22139369
56	0x3dbafba1	0.09130026
57	0xbdfc8250	-0.12329543
58	0x3c00dd41	0.007865251
59	0xbe220454	-0.15821964
60	0x3e6fef1f	0.23431061
61	0xbe481681	-0.19539835
62	0x3e760ed4	0.24029094
63	0xbdf72da9	-0.12069256
64	0x3d95043c	0.07276198
65	0xbe1c8d31	-0.15288235
66	0x3d15e68f	0.03659683
67	0x3dbad471	0.09122551
68	0x3b994cad	0.00467833
69	0x3ddf97ee	0.1091765
70	0xbdf2502d	-0.118316986
71	0xbdf94a9d	-0.121724345
72	0xbe4c2a15	-0.19937928
73	0xbe4c9d98	-0.19981992
74	0xbd911f6a	-0.0708607
75	0x3c482d99	0.012217903
76	0xbc891ffb	-0.016738882
77	0xbd83161f	-0.06400704
78	0xbe4be136	-0.1991013
79	0xbc89cb6f	-0.016820638
80	0x3e2ea343	0.17054467
81	0xbdd12a2c	-0.10213122
82	0xbe2b8816	-0.16751131
83	0x3d4bb914	0.04973705
84	0xbe173d4b	-0.14769475
85	0xbd3a5e87	-0.045500305
86	0x3d189683	0.037252914
87	0x3cc370bb	0.023857465
88	0x3e69929a	0.2280983
89	0x3e07db84	0.13267332
90	0xbe547090	-0.20746064
91	0x3d26a9da	0.040689327
92	0x3c9ffb1e	0.019528922
93	0x3d9828be	0.07429646
94	0x3e0e0a8a	0.13871208
95	0x3e3295e1	0.17439987
96	0xbe043f4e	-0.12914774
97	0x3e22f3dc	0.15913337
98	0x3daaca32	0.08339347
99	0x3bdc0edb	0.006715638
100	0x3df1f104	0.11813548
101	0x3e277dcb	0.1635658
102	0xbe282d4a	-0.16423526
103	0xbe0c8e73	-0.13726215
104	0x3e014741	0.12624837
105	0x3e4fd5a3	0.2029634
106	0xbdd5c5ac	-0.104380935
107	0xbe1da3c1	-0.15394498
108	0xbe5bdc96	-0.21470866
109	0xbdb43f8a	-0.088011816
110	0xbc2c43ba	-0.010514194
111	0xbe1756c2	-0.14779189
112	0xbd3a2120	-0.045441747
113	0xbd5f505f	-0.054520007
114	0x3d121be1	0.03567112
115	0x3e1bfa8d	0.15232296
116	0x3e333953	0.17502336
117	0x3ddbbbc7	0.10729175
118	0xbe53c4a4	-0.20680481
119	0x3dd49eea	0.10381873
120	0x3c7f71c1	0.015591086
121	0x3e45b14b	0.19305913
122	0xbc7d7e3b	-0.01547199
123	0x3d3f4474	0.04669614
124	0xbe4efe37	-0.20214163
125	0xbddf0ef2	-0.108915225
126	0xbe149bc1	-0.1451254
127	0xbe1d6e13	-0.15374021
128	0x3d59cf7b	0.053176384
129	0xbd63aa28	-0.055582196
130	0x3e376fcc	0.17913741
131	0x3d645879	0.055748437
132	0xbe5ad95b	-0.21371977
133	0xbc7dd6b0	-0.01549308
134	0xbe2a08e6	-0.16604957
135	0xbe41c867	-0.18924104
136	0xbd956864	-0.072953016
137	0xbd08a34e	-0.033358864
138	0xbca916fc	-0.020640843
139	0xbe31fbbd	-0.17381187
140	0xbe3bd10e	-0.18341467
141	0x3d5fb145	0.054612417
142	0xbe0df0f7	-0.13861452
143	0xbe1177a9	-0.14205803
144	0xbe414d31	-0.18877102
145	0xbe75d264	-0.24006039
146	0xbc9ffe85	-0.019530544
147	0x3e1078a0	0.14108515
148	0xbdbba3db	-0.09162112
149	0xbd59d655	-0.05318292
150	0xbdcda2b2	-0.10040797
151	0xbd1af0e3	-0.037827384
152	0xbe741a7f	-0.23838232
153	0xbe6ba60e	-0.23012564
154	0xbe3143eb	-0.17311065
155	0xbb0faed7	-0.002192428
156	0xbe249ed4	-0.16076213
157	0x3da3c187	0.07995897
158	0xbd8d0551	-0.0688578
159	0x3e54895b	0.20755522
160	0x3dc2c22e	0.09509693
161	0x3d6d753f	0.057973143
162	0xbda9bfbf	-0.08288526
163	0xbe61d1e5	-0.22052725
164	0xbe44d65a	-0.19222394
165	0xbe615bb5	-0.2200764
166	0x3e237b03	0.15964894
167	0xbdeef8b4	-0.1166853
168	0x3d60e155	0.054902393
169	0x3e4ea6a9	0.20180763
170	0x3e57b697	0.21065746
171	0x3da8a43d	0.08234451
172	0x3e2656a9	0.16243996
173	0xbe53c9d0	-0.20682454
174	0xbd9ade1d	-0.07561896
175	0xbe4a9bea	-0.19786039
176	0x3e2325d4	0.15932399
177	0xbcafb565	-0.0214488
178	0x3e450b83	0.19242673
179	0x3dc4a06b	0.0960091
180	0x3ddd998d	0.10820303
181	0xbe855ee2	-0.26048952
182	0x3e047cef	0.12938283
183	0x3ddb6939	0.10713429
184	0xbe83a84a	-0.25714332
185	0xbe4415c4	-0.19148928
186	0xbda118f2	-0.07866086
187	0xbb404927	-0.0029340477
188	0x3e37daf6	0.1795462
189	0xbe32309b	-0.17401354
190	0xbe7a75b5	-0.24458964
191	0xbdd2e1ff	-0.102970116
192	0xbdc755a7	-0.09733134
193	0xbe3dd5e1	-0.1853862
194	0xbd4aa940	-0.049477816
195	0x3db355d4	0.08756605
196	0x3e451853	0.1924756
197	0xbe018480	-0.12648201
198	0xbd73f3ec	-0.059558794
199	0xbe0f962b	-0.14022128
200	0xbe2faf26	-0.17156658
201	0x3e6a7312	0.22895458
202	0xbda0a12e	-0.078432426
203	0xbe76334f	-0.2404301
204	0x3de1565c	0.110028
205	0xbd3a1d14	-0.045437887
206	0xbdf96169	-0.12176783
207	0xbdf2b8cf	-0.11851656
208	0xbe4ce5f5	-0.20009597
209	0xbe1b4eff	-0.15166853
210	0xbe806283	-0.25075158
211	0x3e07b7cc	0.13253707
212	0x3e0aef73	0.13567905
213	0xbe3c6a45	-0.18399914
214	0x3db7c5f4	0.089733034
215	0x3e671417	0.22566257
216	0xbe0dfa84	-0.13865095
217	0xbe6f1d2a	-0.23350969
218	0xbe723c6f	-0.23655866
219	0xbd7adc76	-0.061245404
220	0x3e642361	0.22279121
221	0xbd893dae	-0.067012176
222	0x3e805242	0.25062758
223	0x3e469114	0.1939128
224	0x3dd7f8c9	0.10545499
225	0x3d7c299f	0.06156313
226	0xbcc2eaff	-0.023793695
227	0x3dbcd418	0.09220141
228	0xbe62c121	-0.22143985
229	0xbe60fe6e	-0.21972057
230	0x3d46c051	0.04852325
231	0xbdbcaf5f	-0.09213137
232	0xbe358c4c	-0.177293
233	0xbd904d81	-0.07046033
234	0x3e108ce6	0.14116248
235	0x3e2d49f8	0.16922748
236	0x3dd03fe3	0.101684354
237	0x3bb3fa3f	0.005492478
238	0xbdf5a3e1	-0.11994148
239	0x3e6a35e6	0.22872123
240	0x3e096563	0.13417582
241	0xbd850b74	-0.06496325
242	0x3c079f5b	0.008277739
243	0xbc837184	-0.01604534
244	0xbd35f4aa	-0.044422783
245	0x3e706b1c	0.23478359
246	0x3e058203	0.13037877
247	0x3e818435	0.25296178
248	0xbd35a8c9	-0.04435042
249	0x3cac3c75	0.021024922
250	0x3dbd5782	0.092452064
251	0xbe2a5d75	-0.16637214
252	0x3e709afb	0.2349662
253	0xbdfbe214	-0.1229898
254	0xbd97446b	-0.073860966
255	0xbd25cd93	-0.040479254

model.backbone.encoder.layers.0.self_attn.W_V.bias f4 [16]
0	0xbd553ba5	-0.052058835
1	0xbd39a786	-0.04532578
2	0xbda00f5d	-0.0781543
3	0x3e13ad77	0.1442164
4	0x3d86980f	0.065719716
5	0x3e266d97	0.16252743
6	0x3da79fda	0.08184786
7	0xbe480489	-0.1953298
8	0xbd64bba2	-0.055843003
9	0x3d8f0158	0.06982678
10	0xbe1cdc1d	-0.15318342
11	0xbe1c9e6f	-0.15294813
12	0x3e7eba22	0.24875692
13	0x3e3e49fc	0.1858291
14	0xbdf4ff74	-0.11962786
15	0x3e2bc57d	0.16774555

model.backbone.encoder.layers.0.self_attn.to_out.0.weight f4 [16, 16]
0	0xbe25b857	-0.16183601
1	0x3d2577c6	0.040397428
2	0x3e031c78	0.12803829
3	0x3e012da6	0.1261507
4	0xbcb73c22	-0.02236754
5	0x3e584225	0.21118982
6	0xbdf1f67d	-0.11814592
7	0xbe820114	-0.25391448
8	0x3e67e8e4	0.22647434
9	0x3e42b48c	0.19014186
10	0x3e531255	0.20612462
11	0x3ddaac88	0.10677439
12	0x3dc8d869	0.09806902
13	0x3deda03e	0.116028294
14	0xbdc382e6	-0.09546451
15	0xbe3bd157	-0.18341576
16	0xbcfaba94	-0.030606546
17	0xbe559b47	-0.20860015
18	0xbda94c5f	-0.0826652
19	0x3d7719b5	0.06032725
20	0xbd7c6a6e	-0.061624937
21	0xbe01f1fa	-0.12689963
22	0xbdbfadba	-0.093593076
23	0xbdb73d80	-0.08947277
24	0x3e4ce960	0.200109
25	0xbe1ab16a	-0.1510674
26	0x3c749c08	0.014929779
27	0x3ccbca40	0.024876714
28	0xbd89815a	-0.06714125
29	0x3d6fc52f	0.05853766
30	0x3e870e00	0.2637787
31	0xbe335872	-0.17514208
32	0xbe336efd	-0.17522807
33	0xbe73e296	-0.23816904
34	0x3b8ed649	0.004359041
35	0xbe4ac914	-0.19803268
36	0x3e36d48f	0.17854522
37	0x3dd3f1db	0.10348865
38	0xbdffbfc4	-0.12487748
39	0x3e041190	0.12897325
40	0xbe54c7b2	-0.20779303
41	0x3def5a09	0.11687095
42	0x3e4d9bd1	0.2007897
43	0xbe495f7a	-0.19665328
44	0x3e337891	0.17526461
45	0xbe3df852	-0.18551758
46	0xba617763	-0.0008600859
47	0x3e73744c	0.23774832
48	0xbe4b9795	-0.19882043
49	0x3e3d2881	0.18472482
50	0xbd2cb74d	-0.042166997
51	0xbe450664	-0.19240719
52	0x3e00d1ac	0.12579983
53	0x3e46574f	0.19369243
54	0x3ded23f9	0.11579127
55	0x3e643927	0.22287427
56	0xbdb13491	-0.08652604
57	0x3e155152	0.14581802
58	0xbe51d0e6	-0.20489845
59	0xbe36b6b8	-0.17843139
60	0x3c64d18b	0.013965975
61	0x3dc91538	0.098185
62	0x3e1b8c1f	0.1519017
63	0x3e0cd135	0.13751681
64	0xbe251a9b	-0.1612343
65	0x3d3f8dfc	0.046766266
66	0x3bac876b	0.0052651665
67	0xbe09e1bb	-0.13465016
68	0xbe3e5a2c	-0.18589085
69	0x3d2ae8e5	0.04172601
70	0x3ded5178	0.115878046
71	0x3d84b25d	0.064793326
72	0x3e20f0a0	0.15716791
73	0x3daa98c0	0.08329916
74	0xbe40ccfa	-0.18828192
75	0xbe3502e6	-0.17676887
76	0x3e5b0498	0.21388471
77	0x3c240d6a	0.010012964
78	0x3e492afc	0.19645303
79	0xbe4b4469	-0.19850315
80	0x3e4f99f2	0.20273569
81	0xbdeb368c	-0.11485013
82	0xbc800686	-0.01562811
83	0x3e6fa286	0.23401842
84	0x3d4c48de	0.04987418
85	0xbdb33270	-0.087498546
86	0x3d1806ea	0.03711597
87	0xbde69f6d	-0.11260877
88	0xbdc57481	-0.09641362
89	0xbe3961e5	-0.1810375
90	0x3e0a0c5e	0.1348128
91	0xbe14eb30	-0.14542842
92	0xbd8ea5d3	-0.06965222
93	0x3e53e414	0.20692474
94	0x3dbe3261	0.09286953
95	0xbe50044b	-0.20314138
96	0xbe0d07bd	-0.13772483
97	0xbe71e71a	-0.23623314
98	0x3e415471	0.18879868
99	0xbe734eb4	-0.23760492
100	0x3d0daf83	0.03459121
101	0xbe4a2b95	-0.19743188
102	0xbc1dca13	-0.009630698
103	0x3de09f1e	0.10967849
104	0x3dcf5102	0.10122873
105	0x3e34d18d	0.17658062
106	0x3e13a5cd	0.14418717
107	0xbe8039b6	-0.2504403
108	0xbe2a845d	-0.16652055
109	0x3d6ea20c	0.05826001
110	0xbe0a94ec	-0.13533372
111	0xbcc4f597	-0.024042888
112	0xbe240b83	-0.16020016
113	0x3de70144	0.11279538
114	0x3e46111c	0.19342464
115	0xbe741f2d	-0.23840018
116	0x3da4b601	0.08042527
117	0x3d8133cb	0.06308707
118	0xbe1ece90	-0.15508485
119	0xbe0a687d	-0.13516422
120	0xbe208f38	-0.15679634
121	0xbd966db1	-0.07345141
122	0xbdf38924	-0.11891392
123	0xbe623ba0	-0.22093058
124	0xbcd0599a	-0.02543335
125	0xbd034699	-0.03204975
126	0x3df5a5ec	0.11994538
127	0x3e2233bb	0.15840046
128	0x3e2152e9	0.15754284
129	0x3d9c83bc	0.07642314
130	0xbe67e4d6	-0.22645888
131	0xbe3a1866	-0.1817337
132	0xbde15a13	-0.110035084
133	0x3e102ac4	0.14078814
134	0xbe691cf0	-0.22764945
135	0x3e4f8646	0.20266065
136	0xbda22b09	-0.079183646
137	0xbe0a6b0e	-0.135174
138	0x3e35f226	0.17768154
139	0x3e1a0377	0.15040384
140	0xbda004eb	-0.07813438
141	0xbdc5dff0	-0.09661853
142	0xbe03db52	-0.12876633
143	0xbd9520ed	-0.07281671
144	0x3d69f20b	0.057115596
145	0x3cf572f1	0.029962035
146	0xbd09f1ec	-0.03367798
147	0x3cd942a2	0.02652103
148	0xbe09f4f1	-0.13472344
149	0x3d77e565	0.060521502
150	0xbe632efb	-0.2218589
151	0xbd515944	-0.05111052
152	0xbe7d2da3	-0.2472444
153	0xbddf5c47	-0.109062724
154	0xbd864ce0	-0.065576315
155	0xbc43e50e	-0.011956466
156	0x3e37ab4a	0.17936435
157	0xbe8114c8	-0.25211167
158	0x3db4b863	0.088242315
159	0x3e48ef49	0.1962253
160	0xbe66e15c	-0.22546905
161	0x3d61a58f	0.05508953
162	0x3d8e3a13	0.069446705
163	0xbe6f353f	-0.23360156
164	0x3e7022f4	0.23450834
165	0x3e68afb7	0.2272328
166	0xbdef27a8	-0.11677486
167	0xbe3e189b	-0.18564074
168	0x3e0a134b	0.13483922
169	0xbe2a68c1	-0.16641523
170	0xbe415c56	-0.1888288
171	0x3dc8d2c3	0.098058246
172	0x3d5f33bf	0.05449271
173	0xbb1e6b85	-0.0024172973
174	0x3e476e60	0.19475698
175	0x3e35eecc	0.17766875
176	0x3db1b57b	0.08677193
177	0x3db1ca01	0.08681107
178	0xbe6ca251	-0.23108794
179	0xbd3f8221	-0.04675496
180	0xbe22a604	-0.15883642
181	0x3da5044d	0.08057461
182	0xbe540212	-0.20703915
183	0xbcb29be8	-0.021802858
184	0xbe0a384f	-0.13498043
185	0xbe2aefc1	-0.16693021
186	0xbe77a139	-0.24182595
187	0x3e0fac9f	0.14030693
188	0x3e187c42	0.1489115
189	0xbe376cc5	-0.17912586
190	0x3d62063c	0.055181727
191	0xbe43f24d	-0.19135399
192	0xbe772130	-0.24133754
193	0xbe3f7e52	-0.18700531
194	0x3e31f61a	0.17379037
195	0xbe70033b	-0.23438732
196	0xbd002c28	-0.03129211
197	0x3e4e9b74	0.20176488
198	0xbd0ac2fa	-0.03387735
199	0xbe105e4c	-0.14098471
200	0xbc631116	-0.013859054
201	0x3dc2880a	0.09498604
202	0xbdfb8ece	-0.12283097
203	0xbe1f6168	-0.15564501
204	0x3e3f7321	0.18696262
205	0xbe294247	-0.16529189
206	0xbd3ad7eb	-0.04561607
207	0x3bed9dcc	0.007251477
208	0xbcbec651	-0.023287924
209	0x3e0de716	0.13857684
210	0x3da5bc5b	0.080925666
211	0xbdd69d7f	-0.10479259
212	0x3e3b0059	0.18261851
213	0xbd553352	-0.052050896
214	0xbe12f0bc	-0.14349645
215	0xbdb4fe64	-0.08837584
216	0xbe307e74	-0.17235738
217	0xbd996c3a	-0.07491346
218	0x3da40f9e	0.08010791
219	0x3e000b21	0.12504245
220	0x3e481c75	0.19542105
221	0x3c06e4ad	0.0082332315
222	0x3c90ec8d	0.017690921
223	0x3d79e3d8	0.061008304
224	0xbd5393cf	-0.051654633
225	0xbcee4264	-0.029084392
226	0x3d9731d6	0.07382552
227	0xbe498429	-0.19679321
228	0xbdfe105a	-0.124054626
229	0xbdb4546e	-0.08805166
230	0x3e08013a	0.13281718
231	0x3d32a9ec	0.04361908
232	0x3d8fbd3e	0.07018517
233	0x3debcaec	0.11513314
234	0x3e1158d4	0.14194041
235	0x3d7c6173	0.061616372
236	0xbd5e8dc3	-0.054334413
237	0xbd89cf57	-0.06729
238	0x3c8f3c23	0.01748473
239	0xbc885ed4	-0.01664678
240	0xbcf8349f	-0.03029853
241	0xbe307b41	-0.17234518
242	0xbd00cb07	-0.031443622
243	0x3dcc3f6f	0.099730365
244	0x3e5ed062	0.21759179
245	0x3de73893	0.112900876
246	0xbd6aec92	-0.057354517
247	0x3d9438b3	0.07237377
248	0x3e7277d7	0.23678528
249	0xbe646f4a	-0.22308078
250	0x3df6251c	0.12018797
251	0xbe7e14b9	-0.24812593
252	0xbe2e85f0	-0.1704328
253	0xbe196322	-0.14979222
254	0xbe2ec4b5	-0.17067225
255	0xbe736573	-0.23769169

model.backbone.encoder.layers.0.self_attn.to_out.0.bias f4 [16]
0	0xbe4bb69a	-0.19893876
1	0x3d6bc0dd	0.057556976
2	0xbde3f6bd	-0.11131046
3	0xbda6064f	-0.08106672
4	0xbe2023ad	-0.15638609
5	0x3e3fe1ad	0.18738432
6	0x3b7f7583	0.0038979955
7	0x3daf0b02	0.085470214
8	0x3dd1b19a	0.10238953
9	0xbd391120	-0.045182347
10	0x3e6b899e	0.23001716
11	0xbb5a1403	-0.0033276088
12	0xbe53b226	-0.20673427
13	0xbe750493	-0.23927526
14	0x3ded9825	0.11601285
15	0x3e6645a1	0.22487499

model.backbone.encoder.layers.0.norm_attn.1.weight f4 [16]
0	0x3f80b3cc	1.005487
1	0x3f7fdc65	0.9994567
2	0x3f81b780	1.0134125
3	0x3f7c18d9	0.98475415
4	0x3f7da66c	0.99082065
5	0x3f831cb6	1.0243137
6	0x3f820827	1.0158738
7	0x3f7ecb23	0.9952871
8	0x3f8187cf	1.011957
9	0x3f7e61d6	0.99368036
10	0x3f7e2924	0.99281526
11	0x3f812175	1.0088335
12	0x3f7cd31b	0.9875962
13	0x3f7bcc57	0.9835867
14	0x3f7eadaa	0.9948374
15	0x3f7a9b20	0.9789295

model.backbone.encoder.layers.0.norm_attn.1.bias f4 [16]
0	0xbb828098	-0.0039826147
1	0xbb0e1983	-0.0021682687
2	0xbaf0f8e2	-0.001838472
3	0xbbb8d79c	-0.005640937
4	0xbbc71ba1	-0.0060762917
5	0x3a41d6aa	0.0007394353
6	0xbbb3ab1d	-0.005483045
7	0xbc0401ff	-0.0080571165
8	0xbbef679e	-0.0073060533
9	0xbbd10ec5	-0.0063799345
10	0x3b6a5c4b	0.0035760577
11	0xbba6da7c	-0.0050919633
12	0x39f4e489	0.0004670958
13	0x3bb45cc7	0.005504224
14	0x3bf21a86	0.0073884157
15	0xbbb6f080	-0.005582869

model.backbone.encoder.layers.0.norm_attn.1.running_mean f4 [16]
0	0xbe45a594	-0.19301444
1	0x3ba70f95	0.005098293
2	0xbc47b088	-0.012188084
3	0xbd254811	-0.04035193
4	0x3dbec5fc	0.09315106
5	0x3dabc8d1	0.08387912
6	0xbc561b8b	-0.01306809
7	0x3c2f3730	0.01069431
8	0xbdca7e1e	-0.09887336
9	0x3e5314ce	0.20613405
10	0x3e76e1b3	0.24109535
11	0x3e058bb7	0.13041578
12	0xbcce3b38	-0.025174722
13	0xbd142655	-0.03616937
14	0xbd981905	-0.07426647
15	0x3e3593e4	0.17732197

model.backbone.encoder.layers.0.norm_attn.1.running_var f4 [16]
0	0x3e83ff2d	0.2578062
1	0x3eaffd7e	0.34373087
2	0x3ee87733	0.45403442
3	0x3f39b0af	0.7253522
4	0x3ebefe05	0.37303177
5	0x3edb85ad	0.42875424
6	0x3eb0416d	0.34424916
7	0x3e7c2467	0.24623261
8	0x3e36fc42	0.17869666
9	0x3fa757b2	1.3073637
10	0x3f42ed30	0.7614317
11	0x3e796073	0.24353199
12	0x3e7cbd2c	0.24681538
13	0x3eaa168a	0.3322032
14	0x3e7cdfdf	0.24694775
15	0x3e8f429b	0.27980503
