TSF_Finance/checkpoints/ixic_test_nofred__PatchTST_custom_ftM_sl96_ll48_pl36_dm16_nh4_el3_dl1_df128_fc1_ebtimeF_dtTrue_Exp_0/checkpoint.pth (torch_old, 175258 bytes, 65 tensors)

model.backbone.W_pos f4 [38, 16]
0	0xbc4c0f3a	-0.012454802
1	0xbb8fc743	-0.0043877675
2	0xbcb4969f	-0.022044478
3	0x3cdb12e2	0.026742402
4	0x3c1ab9db	0.009443725
5	0xbb588064	-0.003303551
6	0xbc50bc98	-0.012740277
7	0x3bcac22a	0.006187697
8	0xbc523e88	-0.012832291
9	0x3c0f1aa4	0.008734379
10	0xbbe5eaaa	-0.0070164995
11	0xbb89f4e3	-0.004210101
12	0x3c9efac5	0.019406686
13	0x3bd6a8eb	0.0065508983
14	0xbc3ba6c0	-0.0114533305
15	0x3c8d5792	0.01725367
16	0xbb34817c	-0.0027543
17	0x3c981c6d	0.018568242
18	0x3c8a6713	0.016894853
19	0x3a8d896f	0.0010798405
20	0x3bebaee0	0.0071924776
21	0x3bd5f2a4	0.006529169
22	0xbc990a66	-0.018681716
23	0x3c8e06ed	0.017337287
24	0xbcb781f5	-0.022400836
25	0x3a96e935	0.0011513593
26	0x3baf5436	0.005350615
27	0x3c1430a1	0.009044797
28	0xbc6bf531	-0.01440172
29	0x3c2e6974	0.010645259
30	0xba3ae777	-0.0007129828
31	0xbc3cd887	-0.0115262335
32	0xbc4bf6c1	-0.012448967
33	0xbc694feb	-0.014240245
34	0xbbb18461	-0.005417392
35	0xbb928198	-0.004471015
36	0xbc976da5	-0.0184849
37	0x3b8e5bd1	0.0043444415
38	0xbb884331	-0.0041584005
39	0xbb85234d	-0.004063046
40	0x3c2ad7cd	0.0104274275
41	0x3ccaabcf	0.024740128
42	0xbbb8cc07	-0.0056395563
43	0xba19d3f2	-0.0005868069
44	0x3c5b96b6	0.0134026315
45	0x3cd37308	0.025811687
46	0x3c418825	0.011812245
47	0x3ca85bd3	0.020551598
48	0xbb85b3c3	-0.004080267
49	0x3aedf9d9	0.0018156125
50	0x3c73ff07	0.014892346
51	0x3c99c3fd	0.018770212
52	0xbc20361f	-0.0097785285
53	0x3bf94a55	0.007607738
54	0x3aea7248	0.0017886842
55	0xbcde41ae	-0.027130928
56	0x3ba83e10	0.0051343516
57	0x3cc314c1	0.023813607
58	0xbc4a8e84	-0.01236308
59	0xbbb01834	-0.005373979
60	0x3c96022d	0.018311584
61	0x3ca43449	0.020044463
62	0xbcae590c	-0.021282695
63	0xbc4a8107	-0.012359864
64	0xbc40c21a	-0.011765027
65	0xbc922bb3	-0.017843103
66	0xbc1cafd8	-0.009563409
67	0x3ca0aa3c	0.019612424
68	0xbc8b9535	-0.01703892
69	0x3c86037b	0.016359081
70	0xb9f26ac0	-0.00046237372
71	0xbbcd629d	-0.006267859
72	0x3c0b73aa	0.008511463
73	0xbb5efcbd	-0.0034025155
74	0x3b7948cd	0.0038037777
75	0x3bb44489	0.005501334
76	0x3c6b082d	0.014345211
77	0x3c590d83	0.01324785
78	0xbc0815ca	-0.008305976
79	0xbc7870d8	-0.015163623
80	0x3c098f36	0.008395961
81	0x3b90bc3c	0.0044169705
82	0x3c4cdbc4	0.012503568
83	0x3b49ad2a	0.003077338
84	0x3c130b4c	0.008974861
85	0x3c16fff7	0.0092163
86	0x3cdb3f31	0.02676353
87	0x3b8d7c76	0.0043178154
88	0x3c482d8f	0.012217893
89	0x3c05a7ea	0.00815771
90	0x3bfc9f33	0.0077094077
91	0x3c47c93c	0.012193974
92	0xbb1c1af0	-0.0023819767
93	0xbc7dfa08	-0.015501507
94	0xbc935a5b	-0.01798742
95	0xbcab28bd	-0.020893449
96	0x3c4c7310	0.012478605
97	0x3ca57cb5	0.020201067
98	0x3c009eaa	0.007850328
99	0x3d0a782d	0.033806015
100	0xbc9a155e	-0.018809017
101	0xbc44f1d2	-0.012020545
102	0xbaec876a	-0.0018045728
103	0xbbeabcf9	-0.0071636406
104	0xbc1bba60	-0.0095048845
105	0xbb2db493	-0.0026505336
106	0x3c15fc7a	0.009154433
107	0xbcc0b150	-0.02352205
108	0x3c761e6d	0.0150219025
109	0x3bb93455	0.0056519904
110	0xbb83c8cd	-0.00402174
111	0xbbeeb12a	-0.007284303
112	0xbc0ead1d	-0.008708266
113	0xbbea14e3	-0.007143603
114	0x3a99d2e5	0.0011735825
115	0x3b71bf3c	0.0036887666
116	0x3c7287a2	0.014802845
117	0xbcaf315e	-0.021385845
118	0xbb99fa6d	-0.0046990425
119	0x3af2092a	0.0018465866
120	0x3c492978	0.012277953
121	0x3c790a96	0.015200278
122	0xba8e557b	-0.0010859215
123	0x3cac49f0	0.02103135
124	0x3c56fd28	0.013121881
125	0x3cbb7971	0.022885056
126	0xb8d1d6d1	-0.00010005909
127	0xbc6517e8	-0.0139827505
128	0xbcc079b5	-0.023495534
129	0x3c9e3010	0.019310027
130	0xba19495b	-0.00058474176
131	0x3c7c5401	0.0154008875
132	0x3afeadcb	0.0019430456
133	0x3c2691fc	0.010166641
134	0x3c0a7d78	0.008452766
135	0xbc3de5a5	-0.011590396
136	0xbc379714	-0.011205453
137	0xbc5dac41	-0.013529838
138	0x3bbcfd1d	0.005767478
139	0x3c13c0ff	0.009018182
140	0xbb1b2e0a	-0.0023678564
141	0xbb197be2	-0.0023419787
142	0xbc34a39e	-0.0110253375
143	0xbc531de3	-0.0128855435
144	0xbca52548	-0.020159379
145	0x3c280a39	0.0102563435
146	0x3b7d81f1	0.0038682187
147	0x3c716bc7	0.014735169
148	0x3bd3f06c	0.0064678695
149	0x3c0700c4	0.008239929
150	0x3c6f9001	0.014621736
151	0x3bf7002f	0.0075378637
152	0x3bc6f32c	0.006071469
153	0xbc22322a	-0.009899655
154	0xbcde3e30	-0.027129263
155	0xbbd0ed6d	-0.0063759596
156	0x3baa3f4a	0.005195533
157	0xbcb06740	-0.021533608
158	0xbc2ae47c	-0.0104304515
159	0x3c1e6ee9	0.009669998
160	0x3c02f554	0.007993061
161	0xbb58f2f4	-0.0033103796
162	0xbc577a0a	-0.013151655
163	0x3c1f53d4	0.009724576
164	0xbc9e9f59	-0.019363092
165	0x3b9ff34e	0.004881299
166	0xbcd2ac4f	-0.025716929
167	0x3c7a6907	0.0152838295
168	0xbc99d745	-0.018779406
169	0x3baae954	0.005215803
170	0x3c4aa51d	0.012368468
171	0xbc15d7ac	-0.009145658
172	0x3ad40158	0.0016174717
173	0xbcddf244	-0.02709306
174	0x3c00faa8	0.007872261
175	0xbc9920ed	-0.018692458
176	0x3c71d953	0.014761287
177	0x3cdb0089	0.026733654
178	0x3cbe461e	0.023226794
179	0xbc991674	-0.018687464
180	0x3a55de6c	0.00081584486
181	0x3c37065b	0.011170949
182	0xbc949f85	-0.018142471
183	0xbbd94c7a	-0.006631431
184	0x3c7df7dc	0.015500989
185	0xbc810980	-0.0157516
186	0xbc31569a	-0.01082387
187	0xbcb46698	-0.022021577
188	0x3a9c1538	0.0011908179
189	0x39cb0578	0.00038723252
190	0x3cbdf8fa	0.02319001
191	0x3cbcbcc5	0.023039231
192	0xbb07d05c	-0.0020723557
193	0xbc68180b	-0.014165889
194	0xbcd1d4c7	-0.025614155
195	0x3a30aac8	0.00067393156
196	0xbaba9196	-0.0014234062
197	0x3bddb096	0.0067654354
198	0xbc1ba045	-0.00949866
199	0x3ce0225d	0.027360136
200	0xbcc686e5	-0.024234245
201	0x3b8979c1	0.0041954224
202	0xbc655dc3	-0.013999405
203	0x3b224603	0.0024760969
204	0xbbf3b928	-0.007437844
205	0xbca3b42f	-0.01998338
206	0xbc9637f0	-0.01833722
207	0x3ca892f4	0.020577885
208	0x3ce36dcf	0.027762322
209	0xbcbe8f28	-0.023261622
210	0xb8c92822	-9.591902e-05
211	0xba6e7430	-0.0009096293
212	0x3c9570e5	0.018242309
213	0xbc5dad51	-0.013530091
214	0x3c0b2892	0.008493559
215	0x39152b93	0.0001422598
216	0xbc79a759	-0.015237653
217	0x3beb04f2	0.0071722204
218	0xbc5f110f	-0.013614907
219	0xbb98e1e1	-0.0046655987
220	0xbc53c1b0	-0.012924597
221	0x3b745a9f	0.003728546
222	0xbc241001	-0.010013581
223	0x3c7c765b	0.0154090775
224	0xbb96444a	-0.0045857774
225	0x39f37fb2	0.00046443712
226	0x3ae6dcf4	0.0017613457
227	0x3bbd1047	0.0057697627
228	0x3cad289d	0.02113753
229	0xbc59f264	-0.013302419
230	0xbc815357	-0.01578681
231	0xbca7fd1f	-0.02050644
232	0x3c4f12c5	0.012638752
233	0xb9be4744	-0.0003629272
234	0xbc8ab5e5	-0.016932437
235	0xbb9f942a	-0.0048699575
236	0xbc8d28ca	-0.017231364
237	0xbbc8bc13	-0.006125936
238	0x3c463499	0.012097501
239	0xbb55c9c0	-0.0032621473
240	0x3c80c43b	0.01571857
241	0xbbaaba88	-0.0052102245
242	0x3a5528c2	0.00081313786
243	0x3c92dff2	0.017929051
244	0x3b3ca32c	0.0028783781
245	0xbcb0ca32	-0.02158079
246	0xba66c63f	-0.00088033447
247	0xbc72c792	-0.014818089
248	0xbc02ca49	-0.007982799
249	0x3bbbf496	0.005735944
250	0xbce3a9f5	-0.027791003
251	0x3c3f6862	0.011682602
252	0x3b8f1082	0.0043659816
253	0x3c4a8206	0.012360102
254	0x3c69fc5e	0.01428136
255	0xbb7fbdae	-0.003902297

model.backbone.W_P.weight f4 [16, 24]
0	0xbe30bf46	-0.17260465
1	0xbc4b31f9	-0.012402051
2	0x3d9822df	0.07428526
3	0x3d8e0d49	0.06936128
4	0x3ba9f226	0.005186337
5	0xbe121ebb	-0.14269535
6	0xbe45f194	-0.19330436
7	0x3e2a5a9b	0.16636126
8	0xbdc74c8c	-0.09731397
9	0xbe2d65fe	-0.16933438
10	0x3de5d1cc	0.11221656
11	0xbe488447	-0.1958171
12	0x3de77b33	0.11302795
13	0xbe1f6434	-0.15565568
14	0x3dbf8fe5	0.093536176
15	0xbd5413f4	-0.05177684
16	0x3c6cb0fd	0.014446494
17	0xbd8c5b38	-0.06853336
18	0x3e056209	0.13025679
19	0x3df26602	0.11835863
20	0x3e14f01b	0.14544718
21	0xbd5381d0	-0.05163747
22	0x3e685fa0	0.22692728
23	0x3d164cb4	0.036694244
24	0xbd90df71	-0.07073868
25	0xbe4c6b75	-0.19962867
26	0x3dfd3fd7	0.12365692
27	0xbe46150d	-0.19343968
28	0xbe1d2c62	-0.15348962
29	0xbdad082e	-0.08448826
30	0x3d5deda7	0.05418172
31	0x3d6e962a	0.058248676
32	0x3deac66e	0.11463629
33	0xbae1353a	-0.0017182
34	0x3daea7e0	0.08528113
35	0x3df12790	0.11775124
36	0xbe5543a9	-0.20826592
37	0xbe34c064	-0.17651516
38	0xbe4fd7b4	-0.20297128
39	0xbe1ce153	-0.1532033
40	0x3db4d387	0.08829408
41	0x3e32587a	0.17416564
42	0x3d81037b	0.06299492
43	0xbe29ccc1	-0.16582014
44	0x3db52bf1	0.08846272
45	0x3dd3ef2e	0.10348354
46	0x3e2f0091	0.1709006
47	0xbe46dae2	-0.19419435
48	0xbc826507	-0.015917314
49	0xbdb8231b	-0.08991071
50	0x3e40a2af	0.18812059
51	0x3de84c67	0.113426976
52	0x3d1d28f2	0.038369127
53	0x3ca00a49	0.019536154
54	0x3dc9266a	0.0982178
55	0xbe0cdaa6	-0.13755283
56	0x39c7ac71	0.00038084717
57	0xbe076232	-0.13221052
58	0x3dc7c20d	0.09753809
59	0x3d998480	0.074959755
60	0xbe1cad64	-0.15300518
61	0xbb1411d3	-0.0022593632
62	0x3dcc13ec	0.09964737
63	0x3dce53e5	0.10074595
64	0x3e3bf53e	0.18355271
65	0xbe3a51c2	-0.1819525
66	0xbd897100	-0.06711006
67	0xbdaf6a3c	-0.085651845
68	0xbe3dbb4a	-0.18528476
69	0xbe626229	-0.22107758
70	0xbe3bd0f0	-0.18341422
71	0x3d73ca26	0.059518956
72	0xbe4d3ccc	-0.20042723
73	0xbdea52aa	-0.11441548
74	0xbe2ab94e	-0.1667225
75	0xbe38e4c7	-0.18056022
76	0x3e224cbd	0.15849586
77	0xbd0d38c3	-0.03447796
78	0xbdb117e1	-0.08647133
79	0x3e2a7e92	0.16649845
80	0xbe033d3c	-0.12816328
81	0xbda2bfa0	-0.07946706
82	0xbd8e9da5	-0.06963662
83	0xbe07c61f	-0.13259171
84	0xbda67cc0	-0.08129263
85	0xbcf64143	-0.030060416
86	0x3cab3be7	0.020902587
87	0xbde30f2e	-0.1108688
88	0x3a9f9790	0.0012175906
89	0x3e52be38	0.20580375
90	0x3c47aac4	0.01218671
91	0xbc50ceb6	-0.012744596
92	0xbe3b1cd3	-0.18272714
93	0xbe085d02	-0.1331673
94	0x3ddfc151	0.10925544
95	0x3e014dc0	0.12627316
96	0xbe39da0e	-0.18149588
97	0x3d4b9da5	0.04971089
98	0x3d486328	0.048922688
99	0xbd85a69a	-0.06525917
100	0x3e309764	0.17245251
101	0x3d3b2078	0.04568526
102	0xbe0b861d	-0.13625379
103	0x3e47a350	0.19495893
104	0x3def35a4	0.11680153
105	0xbd9fc5db	-0.0780141
106	0x3d0a326b	0.03373949
107	0x3e26d1de	0.16290995
108	0x3e2f5465	0.17122038
109	0x3de1f14b	0.11032351
110	0x3d8c10f1	0.06839169
111	0x3b0fc84a	0.002193945
112	0x3d439ad4	0.047755077
113	0xbe09c4b3	-0.13453941
114	0x3c77e604	0.015130524
115	0xbe3dfd9c	-0.18553776
116	0x3e07b47b	0.13252442
117	0xbe00f63d	-0.12593932
118	0xbdf7a8e3	-0.120927595
119	0x3e36a46d	0.17836161
120	0xbd51fb31	-0.051264945
121	0xbdfec640	-0.12440157
122	0xbe1b6565	-0.15175398
123	0x3db6f562	0.08933522
124	0xbe2cc996	-0.16873774
125	0x3e1ead75	0.15495856
126	0x3d84bcfc	0.064813584
127	0x3e45d6c2	0.19320205
128	0xbd94fb44	-0.072744876
129	0xbe2fe84a	-0.17178455
130	0xbc68472d	-0.014177126
131	0x3e222470	0.15834212
132	0xbdaecdc0	-0.085353374
133	0xbe416c79	-0.18889035
134	0x3e17d47d	0.14827152
135	0x3e061923	0.13095526
136	0x3e17dce1	0.14830352
137	0x3dea2610	0.11433041
138	0xbc247265	-0.010037039
139	0xbe39b162	-0.18134072
140	0xbe22037f	-0.15821646
141	0xbdfab93b	-0.12242361
142	0xbe273381	-0.16328241
143	0xbe44fc46	-0.1923686
144	0x3e13c16d	0.14429255
145	0x3e17a5df	0.14809369
146	0xbe0379f6	-0.12839493
147	0xbc11c070	-0.008895978
148	0x3e43a405	0.19105537
149	0x3dc43647	0.09580665
150	0xbd388260	-0.04504621
151	0xbd8939d7	-0.06700485
152	0x3db5161f	0.0884211
153	0xbdbf6bcb	-0.09346732
154	0xbe258f49	-0.1616794
155	0xbd80b9b6	-0.062854216
156	0x3df1ed12	0.11812796
157	0xbdb140b5	-0.0865492
158	0xbe14db3a	-0.14536753
159	0xbd9f4351	-0.077765115
160	0xbd9377f1	-0.072006114
161	0xbe14aaec	-0.14518327
162	0x39a2ff79	0.0003108939
163	0x3dd0f0e8	0.10202199
164	0x3e416075	0.18884452
165	0x3d89a676	0.06721203
166	0x3e373245	0.1789027
167	0x3dd4f662	0.10398556
168	0xbd8da3b9	-0.06915993
169	0xbe2fc172	-0.17163637
170	0xbd9bc48d	-0.076058485
171	0x3d96b689	0.073590346
172	0x3d062337	0.032748427
173	0xbd6355ab	-0.05550162
174	0xbb82cf90	-0.0039920285
175	0x3d955bfc	0.07292935
176	0xbc3c3741	-0.011487783
177	0x3e27d33e	0.16389176
178	0xbde83cbb	-0.113397084
179	0x3d15dac2	0.036585577
180	0x3df313b5	0.11868993
181	0x3e310b42	0.17289451
182	0x3d08e6d4	0.03342326
183	0x3c73b76a	0.014875272
184	0x3e2cedd7	0.16887604
185	0xbe15b9da	-0.14621678
186	0xbddb53ad	-0.10709319
187	0xbe027371	-0.1273935
188	0x3e358d7d	0.17729755
189	0xbb0ec283	-0.0021783418
190	0xbe34fc5d	-0.17674394
191	0x3be30854	0.006928483
192	0xbe331e7b	-0.17492096
193	0x3de3444d	0.11097012
194	0x3e25b66b	0.16182868
195	0x3daa687f	0.08320712
196	0xbd2b359f	-0.041799184
197	0xbded7e77	-0.11596387
198	0x3e33891c	0.17532772
199	0xbcf250d0	-0.02957955
200	0x3da64fa5	0.0812066
201	0xbc9f31d8	-0.019432947
202	0x3e290191	0.16504504
203	0xbd16ff45	-0.036864538
204	0x3e02e4ce	0.12782595
205	0xbe1f22bf	-0.15540598
206	0xbe312752	-0.17300156
207	0x3cb5d3a5	0.022195647
208	0x3e1bfd6e	0.15233395
209	0xbe17cf1d	-0.14825101
210	0x3df01272	0.11722268
211	0x3c014ec5	0.007892315
212	0xbe4f7b77	-0.20261942
213	0xbe1c1d07	-0.15245448
214	0xbd72359c	-0.059133157
215	0xbb54bd9e	-0.0032461653
216	0x3d9a88af	0.075456016
217	0x3e2f0c4b	0.17094533
218	0x3e26d4c5	0.16292103
219	0xbe33d0d9	-0.17560138
220	0x3db8ee5c	0.090298384
221	0xbd8c426c	-0.068486065
222	0xbca8f0aa	-0.02062257
223	0x3e2b72e9	0.16743053
224	0xbd431110	-0.047623694
225	0xbdc19614	-0.09452453
226	0x3dd63fec	0.10461411
227	0xba62ead9	-0.0008656211
228	0x3d340099	0.043945882
229	0x3c4e46f7	0.0125901615
230	0x3e412f9a	0.18865815
231	0x3e2c083a	0.16800013
232	0x3dad04c2	0.08448173
233	0x3d269d88	0.040677577
234	0x3dba588f	0.090989225
235	0xbd4309ed	-0.047616888
236	0x3e179b7c	0.14805406
237	0x3e4e0b34	0.20121461
238	0x3e4bd724	0.19906288
239	0xbd9510d7	-0.072786026
240	0xbd9239f6	-0.071399614
241	0x3e390a3d	0.18070312
242	0x3e322578	0.17397106
243	0x3deb6788	0.114943564
244	0x3e348c6d	0.17631693
245	0x3e3aa937	0.18228613
246	0xbdce75f4	-0.100810915
247	0xbe1fc9fc	-0.15604395
248	0x3af9c6b1	0.0019056407
249	0x3df4b1c2	0.11947967
250	0xbdbe0354	-0.092779785
251	0xbe0cf5e4	-0.13765675
252	0xbe4b42f0	-0.19849753
253	0x3c7ae03a	0.015312249
254	0x3c12c555	0.00895818
255	0xbe06d9ac	-0.13168973

model.backbone.W_P.bias f4 [16]
0	0xbd93a3c7	-0.072089724
1	0x3c931ee2	0.017959062
2	0x3caea49f	0.021318732
3	0xbd786f56	-0.060653053
4	0x3e140a26	0.14456996
5	0xbda78351	-0.081793435
6	0x3d02aca5	0.031902928
7	0xbe111f80	-0.14172173
8	0xbd8a8cfb	-0.06765171
9	0x3e2e6015	0.1702884
10	0xbc8debd3	-0.017324364
11	0x3ddf8c8d	0.1091548
12	0x3cb6fee0	0.02233833
13	0x3e143a2d	0.14475317
14	0xbdfe773a	-0.124250844
15	0x3d1c1f3f	0.038115736

model.backbone.encoder.layers.0.self_attn.W_Q.weight f4 [16, 16]
0	0xbe442e8d	-0.19158383
1	0xbd8de6ed	-0.06928811
2	0x3e5c2c10	0.21501184
3	0x3d0e9adb	0.03481565
4	0x3e0b2e95	0.13591988
5	0xbd5f4dc3	-0.05451752
6	0x3e083207	0.13300334
7	0x3d4f59d3	0.050622772
8	0xbe36a844	-0.17837626
9	0x3e6097e5	0.21932943
10	0xbe6f25a9	-0.2335421
11	0x3e319506	0.17342004
12	0xbe27d326	-0.1638914
13	0x3e717d40	0.23582935
14	0x3dd6355c	0.10459396
15	0x3e765366	0.24055251
16	0x3e500703	0.20315175
17	0x3d49473f	0.04914021
18	0x3e773887	0.24142657
19	0xbe10bd7d	-0.14134784
20	0xbe4133ec	-0.18867463
21	0xbe4d8c43	-0.20073037
22	0xbe1f2d5a	-0.15544644
23	0x3ddbe06c	0.107361645
24	0x3e088dc7	0.13335334
25	0xbe8161ed	-0.25270024
26	0xbe3ba6cb	-0.18325345
27	0x3e1179fa	0.14206687
28	0x3e63ec4d	0.2225811
29	0x3e117de9	0.14208187
30	0x3d803ee3	0.06261995
31	0xbdb966b5	-0.09052793
32	0x3d3ee1d2	0.046602078
33	0x3e2ef293	0.17084722
34	0xbe61f098	-0.22064435
35	0xbdcbe32a	-0.099554375
36	0x3c488798	0.012239359
37	0xbe829ad8	-0.2550876
38	0x3c675b97	0.014120958
39	0x3d575bc1	0.052577738
40	0x3d88d761	0.06681705
41	0xbdf6f005	-0.12057499
42	0x3e1a5222	0.15070394
43	0xbe63355d	-0.22188325
44	0xbe7ba873	-0.24575977
45	0x3cd11f84	0.025527723
46	0x3e16bb0b	0.14719789
47	0xbc6bcf40	-0.014392674
48	0x3e4b088f	0.19827484
49	0x3dded920	0.10881257
50	0x3dffde62	0.12493588
51	0xbd7a0abb	-0.06104539
52	0x3e3e6e7c	0.18596834
53	0xbe52045e	-0.20509478
54	0xbe09ac56	-0.13444647
55	0xbdac8ca8	-0.084252656
56	0x3e008c8e	0.12553617
57	0x3e79a0bb	0.2437772
58	0xbe2e8d09	-0.17045988
59	0x3e226747	0.1585971
60	0xbe04f135	-0.12982638
61	0x3d95c7d5	0.073135056
62	0x3e294b54	0.16532642
63	0x3d5f3ef0	0.05450338
64	0xbc15bb7c	-0.009138938
65	0x3b6cfb66	0.0036160587
66	0xbce2989e	-0.027660664
67	0xbe6e11fa	-0.23249045
68	0x3d0784b6	0.033085547
69	0xbaf622ff	-0.001877874
70	0x3e839c21	0.25705054
71	0xbe4ebbc8	-0.2018882
72	0x3e594623	0.21218161
73	0x3e5f94f6	0.21834168
74	0xbe699a40	-0.22812748
75	0xbd5c2a64	-0.053751364
76	0x3db2321d	0.087009646
77	0x3ddd38ab	0.10801824
78	0xbde1704a	-0.110077456
79	0xbe38b55a	-0.1803793
80	0xbdeab81f	-0.114608996
81	0xbd9f783e	-0.07786606
82	0x3ddf982b	0.109176956
83	0xbb824b97	-0.003976296
84	0x3dc274b8	0.094949186
85	0xbcd1f0bd	-0.025627488
86	0x3d16f1ea	0.0368518
87	0x3dc878db	0.09788676
88	0xbe4430cd	-0.19159241
89	0xbe06dd6d	-0.13170405
90	0xbe6f9b02	-0.23398975
91	0xbde0c069	-0.10974199
92	0xbe4a1785	-0.19735534
93	0xbe873fac	-0.26415765
94	0x3e809d70	0.25120115
95	0xbddee5da	-0.108836845
96	0x3b8eb65b	0.0043552346
97	0xbe1a2379	-0.15052594
98	0x3bd1141a	0.00638057
99	0xbe60153b	-0.21883099
100	0xbd7a894b	-0.06116609
101	0xbd3c9d4e	-0.046048455
102	0x3d624434	0.055240825
103	0x3ba84b57	0.0051359343
104	0x3e17bf5c	0.14819092
105	0xbc994035	-0.018707374
106	0xbddb8d02	-0.107202545
107	0x3e6a56c4	0.22884661
108	0xbd61e72c	-0.055152103
109	0x3e4c2052	0.19934204
110	0xbe3bfd7d	-0.18358417
111	0xbe17f545	-0.14839657
112	0xbe489a14	-0.19590026
113	0xbe11df42	-0.14245322
114	0xbb9f96fc	-0.0048702937
115	0x3e4a7b97	0.19773708
116	0xbe5554e2	-0.20833161
117	0x3d95634b	0.07294329
118	0x3e3e59f0	0.18588996
119	0x3e6aae2e	0.22918007
120	0x3d704f19	0.058669183
121	0xbdee8068	-0.11645585
122	0xbe67690a	-0.22598663
123	0x3cd67e1d	0.026183182
124	0x3de8acbb	0.11361071
125	0x3bbeff3f	0.0058287675
126	0x3dfac3e4	0.122443944
127	0x3e50875a	0.20364133
128	0xbb297c71	-0.0025861526
129	0xbe280d32	-0.16411284
130	0xbd4840e0	-0.048889995
131	0xbd8f3610	-0.069927335
132	0x3e039bd5	0.12852414
133	0x3dd7fe97	0.10546606
134	0xbb1ea6e4	-0.0024208361
135	0x3e132d28	0.14372694
136	0xbe807b2a	-0.25093967
137	0xbe324612	-0.17409542
138	0x3b6a5906	0.0035758629
139	0x3d68f275	0.05687185
140	0x3e47097c	0.19437212
141	0x39b6f2ad	0.00034894553
142	0xbe17bacf	-0.14817356
143	0xbda49848	-0.08036858
144	0xbe4a1ccd	-0.19737549
145	0xbe0847db	-0.1330866
146	0xbd875967	-0.06608849
147	0x3e0aa998	0.13541257
148	0x3e88969d	0.2667741
149	0x3d85350e	0.0650426
150	0xbe4e8b44	-0.20170313
151	0xbe6b0954	-0.22952777
152	0xbdaa63f4	-0.08319846
153	0xbe5032d9	-0.20331897
154	0xbe32b67a	-0.17452422
155	0xbe6b545a	-0.22981396
156	0x3d5c8d08	0.053845435
157	0x3d3d9ce6	0.046292208
158	0xbd0600eb	-0.03271572
159	0x3d291d5a	0.041287757
160	0x3c894dc8	0.016760722
161	0x3d85ccc4	0.065331966
162	0x3d0bb528	0.03410831
163	0xbd687dc0	-0.05676055
164	0x383d7e6e	4.517886e-05
165	0xbe5c054b	-0.21486394
166	0xbe43f37b	-0.19135849
167	0xbe2004f3	-0.15626888
168	0x3e3bf000	0.18353271
169	0x3e48d38a	0.19611946
170	0xbe456cdd	-0.1927981
171	0x3dd084ff	0.10181617
172	0xbc591be9	-0.013251283
173	0x3d9acf99	0.07559127
174	0xbe545f41	-0.20739461
175	0xbe6265a4	-0.22109085
176	0xbdfa2b25	-0.122152604
177	0x3d9cb223	0.076511644
178	0x3d78b5df	0.06072032
179	0xbceef51f	-0.029169617
180	0xbdab265e	-0.08356927
181	0xba8a1da2	-0.0010537396
182	0xbdeda238	-0.116032064
183	0x3dcb94b7	0.099404745
184	0x3d8e7069	0.06955034
185	0xbddcbaff	-0.10777854
186	0x3db2f4e6	0.08738117
187	0xbd8d20c1	-0.06891013
188	0x3da4fe06	0.080562636
189	0x3da5b0e9	0.080903836
190	0x3e6400ca	0.22265926
191	0x3e16b540	0.14717579
192	0xbe4a8fd0	-0.19781423
193	0x3d33bb20	0.04387963
194	0xbd74ca56	-0.059763275
195	0xbe226f9a	-0.15862885
196	0xbe67f83a	-0.22653285
197	0x3e410938	0.18851173
198	0xbe3e17ff	-0.18563841
199	0x3e296592	0.16542652
200	0x3dc1e7ca	0.094680384
201	0xbdbbb198	-0.09164733
202	0xbe06119f	-0.1309266
203	0x3e13b4b3	0.144244
204	0x3dcd6329	0.10028679
205	0xbd088097	-0.033325758
206	0xbda6b6a7	-0.08140307
207	0xbdd414fd	-0.10355566
208	0xbca27881	-0.019832851
209	0xbe6ddd96	-0.2322906
210	0xbd64c7ff	-0.055854794
211	0xbe164197	-0.14673458
212	0xbe2c68fe	-0.16836926
213	0x3dcef247	0.101048045
214	0xbe428431	-0.1899574
215	0xbd9929aa	-0.0747865
216	0x3dc7044e	0.09717618
217	0x3decc34d	0.11560688
218	0xbc5ea143	-0.0135882525
219	0xbe7e7b2b	-0.24851672
220	0x3b7d954c	0.0038693724
221	0xbe20deab	-0.15709941
222	0xbe3bc372	-0.18336275
223	0x3ded25fe	0.11579512
224	0x3e54cdb9	0.20781602
225	0x3e1de3e3	0.15418963
226	0xbe73ee7d	-0.23821445
227	0xbe1657f2	-0.14681986
228	0xbe18caa0	-0.14921045
229	0x3e15c934	0.14627534
230	0x3e83ee40	0.25767708
231	0xbe3fa4b3	-0.18715172
232	0xbe20399e	-0.15646979
233	0x3e885ce2	0.26633364
234	0x3e097ce8	0.13426554
235	0x3c95765b	0.018244913
236	0x3e64ea06	0.22354898
237	0x3e3c67b9	0.18398942
238	0xbe6b4c39	-0.22978295
239	0xbe269de9	-0.16271175
240	0x3d6c6a33	0.057718467
241	0x3e4d4872	0.20047167
242	0x3c3019ba	0.010748321
243	0xbcc11ce3	-0.023573345
244	0x3e39bc81	0.18138315
245	0xbe31b3ab	-0.17353694
246	0xbe649b9d	-0.22324987
247	0x3dda7c18	0.106682
248	0xbdd09fc2	-0.101867214
249	0xbe58fba3	-0.21189742
250	0xbe4b0af9	-0.19828404
251	0xbda7d969	-0.081957646
252	0xbc2dc279	-0.010605448
253	0x3c518d25	0.012789999
254	0xbe4b6890	-0.19864106
255	0x3e6a8440	0.22902012

model.backbone.encoder.layers.0.self_attn.W_Q.bias f4 [16]
0	0x3df68709	0.12037475
1	0x3e742273	0.23841266
2	0xbe4c88d5	-0.19974072
3	0x3e432848	0.19058335
4	0x3d59c10e	0.053162627
5	0xbe3133bd	-0.17304893
6	0x3c6ad1d2	0.014332252
7	0x3e26fcbf	0.16307352
8	0xbe177c82	-0.1479359
9	0x3e358d6c	0.1772973
10	0xbdfaf36e	-0.12253462
11	0xbe8f2900	-0.27960968
12	0x3e66cd61	0.22539283
13	0xbcf88f57	-0.030341787
14	0xbe3ad287	-0.18244372
15	0x3e192f58	0.14959466

model.backbone.encoder.layers.0.self_attn.W_K.weight f4 [16, 16]
0	0x3e014944	0.12625605
1	0xbda5c9d1	-0.08095134
2	0x3e855f96	0.2604949
3	0xbe6d45e4	-0.23171192
4	0x3e2099df	0.15683697
5	0x3cdad76a	0.026714046
6	0x3e5a572a	0.21322313
7	0xbe33aae3	-0.17545657
8	0x3b5788f6	0.0032888032
9	0xbe6c68a5	-0.23086794
10	0xbe66a2c1	-0.22523023
11	0x3c8531ed	0.016259158
12	0x3e2e58f4	0.1702612
13	0x3dff9daf	0.12481248
14	0xbe37bb4b	-0.1794254
15	0x3d113e83	0.035460006
16	0xbe0c429d	-0.13697286
17	0x3b47a658	0.0030464139
18	0xbddcf306	-0.107885405
19	0xbd91a851	-0.07112182
20	0x3df21158	0.11819714
21	0x3e361e1a	0.1778492
22	0xbcf7b4c6	-0.030237567
23	0x3dbb8c87	0.09157663
24	0x3e533600	0.20626068
25	0xbe6516b9	-0.2237195
26	0xbd8b66ec	-0.0680674
27	0x3ce9f983	0.02856136
28	0xbde7c2c5	-0.11316446
29	0xbe394eb7	-0.18096434
30	0x3c2bf39e	0.010495095
31	0x3d5e2ed5	0.05424388
32	0x3e4a9d86	0.19786653
33	0xbe577fcf	-0.21044849
34	0xbdf47dbe	-0.11938046
35	0x3d9242b2	0.07141627
36	0x3e1ba626	0.152001
37	0xbe85add1	-0.26109174
38	0x3df6b3ce	0.12046014
39	0x3e83b1b0	0.25721502
40	0x3c903fe8	0.017608598
41	0x3d64def9	0.055876706
42	0x3d6821c8	0.05667284
43	0xbd9022ef	-0.07037913
44	0x3db6e941	0.089312084
45	0x3dec316c	0.11532864
46	0x3c6d725f	0.0144926
47	0xbde838fe	-0.113389954
48	0x3e1bcfb5	0.15215953
49	0x3e0942de	0.13404414
50	0xbe60efd7	-0.21966492
51	0xbce7186b	-0.028209886
52	0xbe366f9d	-0.17816015
53	0xbd0ef789	-0.034904037
54	0x3d2d7362	0.042346366
55	0xbd797605	-0.060903568
56	0x3e8c646d	0.2742037
57	0x3e43ed10	0.19133401
58	0xbc47449f	-0.012162357
59	0x3e5feaf5	0.21866973
60	0xbd86dc60	-0.06585002
61	0xbca8b4ce	-0.020594027
62	0xbe0018fc	-0.12509531
63	0x3df65108	0.12027174
64	0xbe734649	-0.2375728
65	0xbe37ad50	-0.17937207
66	0xbe1fa1ef	-0.15589117
67	0x3e042546	0.12904844
68	0xba8278a5	-0.0009954168
69	0xbe51ac83	-0.20475964
70	0x3e16e960	0.14737463
71	0x3e3818f5	0.1797827
72	0x3e578448	0.21046555
73	0x3d13787d	0.03600358
74	0xbd20279d	-0.03910028
75	0xbe790a28	-0.2432028
76	0x3d39e83f	0.045387503
77	0x3e85c2ba	0.26125127
78	0xbdc3d4d5	-0.09562079
79	0xbe6501a5	-0.22363909
80	0xbdfc3500	-0.123147964
81	0x3d88d42a	0.06681092
82	0xbe237771	-0.15963532
83	0x3e305ce1	0.1722293
84	0x3df5a7d6	0.11994903
85	0x3dd13c9a	0.10216637
86	0xbd98d5e4	-0.074626714
87	0xbdc19f12	-0.094541684
88	0xbe5aa8ee	-0.21353504
89	0x3d67d7d2	0.056602307
90	0x3e4a4083	0.19751172
91	0x3e55892d	0.2085311
92	0x3e367f82	0.17822078
93	0xbe77149e	-0.24128959
94	0x3e19727b	0.14985077
95	0x3e02ef5c	0.12786621
96	0x3e443bf5	0.19163497
97	0xbe3110f2	-0.1729162
98	0x3e58be62	0.21166375
99	0xbc5d4875	-0.013506045
100	0x3d28c79d	0.04120599
101	0xbe20ef46	-0.15716276
102	0x3d194f68	0.037429243
103	0x3dc78fbd	0.09744213
104	0xbc0f7fd8	-0.008758508
105	0xbe1ab7f3	-0.15109234
106	0xbdc9d6a2	-0.09855391
107	0x3c4b9aad	0.012427014
108	0xbd01c59b	-0.031682592
109	0x3d5cfbd8	0.053951114
110	0xbdb8f67f	-0.090313904
111	0x3e7bc0ee	0.24585316
112	0x3d314e76	0.043287717
113	0xbe19af7e	-0.15008351
114	0xbe03377d	-0.12814136
115	0xbe0940ff	-0.134037
116	0x3e4467e6	0.19180259
117	0xbe4ff486	-0.20308122
118	0x3e507947	0.20358764
119	0x3e086ff0	0.13323951
120	0x3d72c8e1	0.059273604
121	0x3d2774b3	0.040882777
122	0xbe5e04c8	-0.21681511
123	0x3df153f6	0.117835924
124	0xbe40efa8	-0.18841422
125	0x3e44fe07	0.19237529
126	0xbe55034d	-0.2080204
127	0x3e46f247	0.19428359
128	0x3e7b67d6	0.24551329
129	0x3e1efa4a	0.15525165
130	0xbe6958a0	-0.22787714
131	0x3e73f0f3	0.23822384
132	0xbe204217	-0.15650211
133	0x3c7d9529	0.015477457
134	0x3e55af00	0.20867538
135	0xbdabe864	-0.08393934
136	0x3dde8be7	0.10866528
137	0x3d433696	0.04765948
138	0x3e4eefba	0.20208636
139	0xbe0dc69d	-0.13845296
140	0x3db38b5d	0.08766816
141	0x3e1295e5	0.14314993
142	0xbda77203	-0.08176043
143	0x3e176332	0.14783934
144	0xbd29de82	-0.041471966
145	0x3e16f039	0.14740075
146	0xbdaeb0a6	-0.08529787
147	0x3e0991f6	0.13434586
148	0x3e8e67d0	0.27813578
149	0x3e45b7af	0.19308351
150	0x3e2e3744	0.1701327
151	0x3e873c54	0.26413214
152	0xbb683cf9	-0.0035436733
153	0x3e7d09af	0.24710725
154	0x3e663e71	0.22484757
155	0xbd3e1459	-0.046406124
156	0x3e539519	0.20662345
157	0xbd36834e	-0.044558816
158	0xbe5453d6	-0.20735106
159	0xbe3b2812	-0.18277004
160	0xbe442358	-0.19154108
161	0x3dc10181	0.09424115
162	0x3e459ccf	0.19298099
163	0x3d60a1f4	0.05484195
164	0x3e1ba325	0.15198953
165	0xbe4e020f	-0.20117973
166	0xbb9ddb4a	-0.004817401
167	0x3e13273d	0.14370437
168	0xbdd8bc69	-0.105828114
169	0x3de00d5a	0.109400466
170	0xbe0d0b2d	-0.13773794
171	0x3e43a520	0.19105959
172	0xbe3d6ada	-0.18497792
173	0x3deec231	0.11658133
174	0xbd62bf80	-0.05535841
175	0x3da6dfc8	0.08148152
176	0x3e59fae4	0.21287113
177	0xbd50bf51	-0.050963704
178	0xbe6dba54	-0.2321561
179	0xbcd13a93	-0.025540626
180	0xbe8ac689	-0.27104595
181	0x3e1d31f2	0.15351084
182	0x3d46fd06	0.048581146
183	0xbccc9b0a	-0.024976272
184	0xbd2cdfe5	-0.04220571
185	0xbd1cc074	-0.038269475
186	0x3e72d7aa	0.23715082
187	0xbd572a18	-0.052530378
188	0x3e2cb55c	0.16866058
189	0xbe67cbf4	-0.22636396
190	0xbe7bedb0	-0.2460239
191	0xbe350daf	-0.17681001
192	0x3e13f4a3	0.1444879
193	0xbd9c3423	-0.07627132
194	0xbdc9602e	-0.09832798
195	0x3d16cbc8	0.036815435
196	0x3e6d9f84	0.23205382
197	0xbe1439ea	-0.14475217
198	0xbdd326e0	-0.10310149
199	0x3da3e785	0.08003143
200	0x3e0bd56b	0.13655631
201	0x3d46c0b5	0.048523623
202	0xbe555889	-0.20834555
203	0xbe4a43e8	-0.19752467
204	0x3ba05406	0.004892829
205	0x3dd3b82d	0.10337863
206	0x3d160fda	0.03663621
207	0xbe3ef04d	-0.18646355
208	0x3d9a8f88	0.07546908
209	0xbc7aec3d	-0.015315113
210	0x3da58cf1	0.08083523
211	0xbe1e7618	-0.15474737
212	0xbdf5fbf3	-0.12010946
213	0xbd03c346	-0.03216865
214	0x3c0feec0	0.00878495
215	0x3db8cc6f	0.090233676
216	0xbe15b286	-0.14618883
217	0x3d7a30ca	0.061081685
218	0x3e21b79e	0.157927
219	0x3c9381d2	0.01800624
220	0xbcc2ac9a	-0.023763943
221	0x3e458aac	0.1929118
222	0x3e50fa8c	0.20408076
223	0x3e44cbb3	0.1921833
224	0xbdc28dc5	-0.09499697
225	0x3e205b67	0.15659867
226	0x3d6cd874	0.057823613
227	0x3e090ac2	0.1338301
228	0x3d91d9a9	0.071215935
229	0xbd69e95a	-0.057107307
230	0x3cb1e0a8	0.02171357
231	0x3e3be125	0.18347605
232	0xbe6c1097	-0.23053204
233	0xbe79221e	-0.24329421
234	0xbe5100f3	-0.20410518
235	0xbc50aab1	-0.0127360085
236	0xbddf696a	-0.10908778
237	0x3d9cefee	0.076629505
238	0x3e14209c	0.14465564
239	0x3dbb3379	0.09140677
240	0x3d114e55	0.035475094
241	0x3c0ca0d1	0.0085832635
242	0xbe1fc021	-0.15600635
243	0x3cdefa46	0.027218949
244	0x3e09fc96	0.1347526
245	0x3df04318	0.11731547
246	0xbdc5d61a	-0.09659977
247	0x3dad25a7	0.08454447
248	0xbe799c8e	-0.24376127
249	0x3e52a2ae	0.2056987
250	0x3ddb0eaf	0.1069616
251	0xbc3821f3	-0.011238563
252	0xbe119e0e	-0.1422045
253	0x3e45e0a3	0.19323973
254	0xbe5a7d7c	-0.21336931
255	0x3e54a7f1	0.2076719

model.backbone.encoder.layers.0.self_attn.W_K.bias f4 [16]
0	0xbd88c905	-0.066789664
1	0x3dca656f	0.09882628
2	0xbe22502d	-0.15850897
3	0xbbd1236c	-0.0063823964
4	0x3d21f295	0.039537985
5	0x3e6151cf	0.22003864
6	0xbde20e96	-0.11037938
7	0xbe5099d8	-0.20371187
8	0xbd69e074	-0.05709882
9	0xbdc32df8	-0.09530252
10	0xbe0d93bd	-0.13825889
11	0xbd84b459	-0.06479711
12	0xbdeb127f	-0.11478137
13	0x3df4fb37	0.11961978
14	0xbd84d364	-0.06485632
15	0x3dcd266e	0.100170955

model.backbone.encoder.layers.0.self_attn.W_V.weight f4 [16, 16]
0	0x3dfe2493	0.1240932
1	0x3d8c1996	0.06840818
2	0xbe06f01f	-0.13177536
3	0xbdb582a8	-0.08862811
4	0xbbae3a8e	-0.005317039
5	0xbc94c694	-0.018161096
6	0x3e71d3d8	0.23615968
7	0x3e66c796	0.22537073
8	0xbe72447e	-0.2365894
9	0x3bbc0e1b	0.005738986
10	0xbdf88412	-0.121345654
11	0x3e1b3824	0.15158135
12	0xbe47c4a9	-0.19508614
13	0xbd56f770	-0.05248207
14	0x3e2cf832	0.16891554
15	0xbe27f814	-0.16403228
16	0x3e34eac4	0.17667681
17	0xbe1c0541	-0.15236379
18	0x3e68990a	0.2271463
19	0x3d91dec2	0.07122566
20	0xbd25e41f	-0.040500756
21	0x3c1e3a1a	0.009657407
22	0x3dd68dba	0.10476251
23	0xbe14114b	-0.14459722
24	0x3e559752	0.20858505
25	0x3e219984	0.15781218
26	0xbe55f3ba	-0.20893756
27	0x3db3af9a	0.08773728
28	0x3e645d30	0.22301173
29	0xbdb053f8	-0.08609766
30	0x3e62e4a8	0.22157538
31	0xbe10d59c	-0.14143986
32	0xbe5795b5	-0.21053202
33	0xbe49db65	-0.19712599
34	0x3dd9db93	0.106375836
35	0x3e584259	0.2111906
36	0x3e2812ce	0.16413423
37	0xbcbeaa61	-0.023274602
38	0x3e387a79	0.1801547
39	0x3db3b67f	0.08775043
40	0xbe282036	-0.16418537
41	0x3d96ab9e	0.07356952
42	0xbcf53067	-0.029930307
43	0x3e102ca5	0.1407953
44	0x3e75b48b	0.23994653
45	0xbd264c6a	-0.040600218
46	0x3deb051b	0.11475583
47	0xbe64e22a	-0.223519
48	0xbd3a7c9f	-0.045529004
49	0xbde4fbee	-0.11180864
50	0xbc47309f	-0.012157588
51	0xbe2be1b7	-0.16785322
52	0x3d74e5fb	0.05978964
53	0x3e30c971	0.17264344
54	0xbe575807	-0.21029674
55	0x3e6425cc	0.22280043
56	0x3db607e5	0.088882245
57	0xbdee3758	-0.1163165
58	0x3c0a2f7f	0.0084341755
59	0xbe1e5f03	-0.15465932
60	0x3e6b1a13	0.22959165
61	0xbe3e02e1	-0.18555786
62	0x3e656357	0.22401176
63	0xbdf2fe29	-0.118648835
64	0x3d96b53a	0.07358785
65	0xbe197ec9	-0.14989771
66	0x3d25b0c9	0.0404518
67	0x3dbac414	0.0911943
68	0x3bb7265f	0.005589291
69	0x3dd70559	0.10499067
70	0xbde89b31	-0.113577254
71	0xbdf95140	-0.121737
72	0xbe498451	-0.19679381
73	0xbe45e6ce	-0.19326326
74	0xbd93c459	-0.07215185
75	0x3c986773	0.018604016
76	0xbc2a8778	-0.010408275
77	0xbd92e893	-0.07173266
78	0xbe3e9726	-0.18612346
79	0xbc68e439	-0.014214569
80	0x3e33b0a8	0.17547858
81	0xbdc9cb6d	-0.098532535
82	0xbe31edd8	-0.17375886
83	0x3d554587	0.05206826
84	0xbe17c30e	-0.14820501
85	0xbd5f93db	-0.054584365
86	0x3d3a537b	0.04548977
87	0x3cd098f7	0.025463564
88	0x3e63cf5e	0.22247073
89	0x3e0ad6d3	0.13558511
90	0xbe5b060e	-0.21389028
91	0x3d44c9d9	0.04804406
92	0x3cb2ae03	0.02181149
93	0x3d84e598	0.06489104
94	0x3e187a97	0.14890514
95	0x3e308a5a	0.17240277
96	0xbe01805d	-0.12646623
97	0x3e214bb2	0.15751532
98	0x3da6f843	0.08152821
99	0x3c417ed2	0.0118100215
100	0x3de9de59	0.114193626
101	0x3e26199d	0.16220708
102	0xbe261e32	-0.16222456
103	0xbe04ce84	-0.12969404
104	0x3e04def4	0.12975675
105	0x3e4b1969	0.19833912
106	0xbddb9569	-0.10721857
107	0xbe2115da	-0.15730992
108	0xbe637384	-0.22212034
109	0xbdab095e	-0.08351396
110	0xbc4c9672	-0.012487041
111	0xbe1d3717	-0.15353046
112	0xbd5dde32	-0.05416698
113	0xbd81e54b	-0.06342562
114	0x3d322458	0.04349169
115	0x3e12c21b	0.14331858
116	0x3e3a94ff	0.182209
117	0x3ddc5627	0.1075862
118	0xbe579f7a	-0.21056929
119	0x3dcd8257	0.10034626
120	0x3cab9839	0.020946609
121	0x3e4d31cf	0.20038532
122	0xbc1d7bdd	-0.009612051
123	0x3d4617db	0.048362594
124	0xbe43ae92	-0.19109562
125	0xbdd6ce7f	-0.10488605
126	0xbe164b32	-0.14677122
127	0xbe1652cf	-0.14680026
128	0x3d44637c	0.04794644
129	0xbd7ba05d	-0.06143223
130	0x3e38e215	0.18054993
131	0x3d6d1cdf	0.05788886
132	0xbe5bf2e4	-0.21479374
133	0xbb76090a	-0.0037542009
134	0xbe2c5589	-0.16829504
135	0xbe399ab5	-0.18125422
136	0xbd948318	-0.07251567
137	0xbd07e305	-0.033175487
138	0xbc807a09	-0.01568319
139	0xbe37a25b	-0.17933027
140	0xbe3af05c	-0.18255752
141	0x3d4ccf7b	0.050002556
142	0xbe0f5fe8	-0.14001429
143	0xbe11eec5	-0.1425124
144	0xbe40f315	-0.18842728
145	0xbe75b6b2	-0.23995474
146	0xbcdabb65	-0.026700685
147	0x3e167089	0.14691366
148	0xbda999fc	-0.08281323
149	0xbd459c29	-0.04824463
150	0xbdc6aaf8	-0.097005785
151	0xbd2fe75c	-0.04294525
152	0xbe7b5d03	-0.245472
153	0xbe701793	-0.23446493
154	0xbe2d1ab6	-0.1690472
155	0xbaa02595	-0.0012218232
156	0xbe25eedb	-0.16204397
157	0x3da12404	0.078681976
158	0xbd9bb83c	-0.07603499
159	0x3e4a3394	0.19746238
160	0x3db07b06	0.08617215
161	0x3d58f401	0.052967075
162	0xbd9669bb	-0.07344385
163	0xbe70d825	-0.23519953
164	0xbe3f25e8	-0.18666804
165	0xbe5fed47	-0.21867858
166	0x3e184429	0.14869751
167	0xbe0377a1	-0.12838604
168	0x3d8fb2f2	0.07016553
169	0x3e5018b8	0.2032193
170	0x3e5b5db4	0.21422464
171	0x3da59291	0.08084596
172	0x3e2e7c7c	0.17039675
173	0xbe437a8f	-0.19089721
174	0xbda49bff	-0.080375664
175	0xbe3cafe9	-0.1842648
176	0x3e1aa1df	0.15100811
177	0xbcdb0908	-0.026737705
178	0x3e41c5fc	0.18923181
179	0x3dc1a2d7	0.09454887
180	0x3df4ed31	0.11959303
181	0xbe80caa5	-0.25154606
182	0x3e001ed6	0.12511763
183	0x3ddabe8f	0.106808774
184	0xbe871c9d	-0.26389018
185	0xbe40c823	-0.18826346
186	0xbd9781ac	-0.0739778
187	0xbae159ab	-0.0017192861
188	0x3e37fee4	0.17968327
189	0xbe2c0170	-0.16797423
190	0xbe853c8a	-0.2602275
191	0xbdd2f82d	-0.10301242
192	0xbdb4d375	-0.08829395
193	0xbe2c4a09	-0.16825117
194	0xbd58f3b3	-0.052966785
195	0x3dda5a5f	0.10661768
196	0x3e43571c	0.19076198
197	0xbe0620f2	-0.13098505
198	0xbd689e54	-0.05679162
199	0xbe22f793	-0.15914755
200	0xbe3ec72e	-0.18630669
201	0x3e5d5fdf	0.21618603
202	0xbda6c1c1	-0.081424244
203	0xbe710f54	-0.23541003
204	0x3dc4f9d0	0.096179605
205	0xbd486cc9	-0.04893187
206	0xbdf55e20	-0.119808435
207	0xbe033308	-0.12812436
208	0xbe596401	-0.21229555
209	0xbe24463c	-0.16042417
210	0xbe7fbe32	-0.24974898
211	0x3df53fd9	0.119750686
212	0x3e1372b9	0.14399232
213	0xbe376e52	-0.17913178
214	0x3db354e0	0.08756423
215	0x3e674663	0.22585444
216	0xbe0a1d93	-0.13487844
217	0xbe632a61	-0.22184135
218	0xbe6b6fa5	-0.22991808
219	0xbd7445b0	-0.05963677
220	0x3e6c8575	0.23097785
221	0xbd6623ea	-0.056186594
222	0x3e6d9c61	0.23204185
223	0x3e50eaa4	0.20402008
224	0x3dda9ecc	0.10674819
225	0x3d5c5656	0.053793274
226	0xbcf9f69b	-0.030513098
227	0x3daac2c6	0.08337931
228	0xbe6313c1	-0.22175504
229	0xbe60fa0b	-0.21970384
230	0x3d40d8e0	0.047081828
231	0xbd920eda	-0.07131739
232	0xbe33d2a8	-0.17560828
233	0xbd7493f3	-0.059711408
234	0x3e0a7e22	0.13524678
235	0x3e298d88	0.16557896
236	0x3dcd12c7	0.10013347
237	0x3b932814	0.0044908617
238	0xbdfb142a	-0.12259705
239	0x3e68a678	0.22719753
240	0x3e0781bc	0.13233083
241	0xbd8a18c8	-0.06743008
242	0x3c69d92b	0.014272968
243	0xbcba8796	-0.02276973
244	0xbd2c7371	-0.04210228
245	0x3e69eed1	0.22845007
246	0x3e157f72	0.14599398
247	0x3e854f07	0.26036856
248	0xbd1457af	-0.036216434
249	0x3cf3e1d2	0.029770765
250	0x3dbba21f	0.091617815
251	0xbe241cad	-0.16026564
252	0x3e7a4cf3	0.24443416
253	0xbdfadef7	-0.122495584
254	0xbd89eb4e	-0.06734334
255	0xbd0b16ff	-0.033957478

model.backbone.encoder.layers.0.self_attn.W_V.bias f4 [16]
0	0xbd4278a0	-0.04747832
1	0xbd42de0a	-0.047575034
2	0xbda6b1bd	-0.0813937
3	0x3e18a39c	0.14906162
4	0x3d648ff1	0.055801336
5	0x3e1dc7fa	0.15408316
6	0x3da708d4	0.08155981
7	0xbe441a82	-0.19150737
8	0xbd718f64	-0.05897464
9	0x3db147bf	0.086562626
10	0xbe11dc73	-0.14244251
11	0xbe135d5b	-0.14391081
12	0x3e85a707	0.26103994
13	0x3e44402a	0.19165102
14	0xbe06c59a	-0.13161317
15	0x3e232b7a	0.15934554

model.backbone.encoder.layers.0.self_attn.to_out.0.weight f4 [16, 16]
0	0xbe25cbc2	-0.16191009
1	0x3cb2d47c	0.021829836
2	0x3de39bcd	0.11113701
3	0x3df482f2	0.11939038
4	0xbb894825	-0.0041895085
5	0x3e534943	0.20633416
6	0xbdf007a6	-0.11720209
7	0xbe8698a5	-0.26288334
8	0x3e6272d9	0.22114123
9	0x3e4ca853	0.19986086
10	0x3e4e61bc	0.2015447
11	0x3dd99e26	0.106258675
12	0x3ddda6a1	0.108227976
13	0x3df3b739	0.11900181
14	0xbdb7d8ae	-0.08976875
15	0xbe34d785	-0.17660339
16	0xbd14cb28	-0.036326557
17	0xbe58cebb	-0.21172611
18	0xbdb30e42	-0.08742954
19	0x3d82ae5b	0.06380912
20	0xbd884c8f	-0.066552274
21	0xbe045958	-0.12924707
22	0xbdb8b25e	-0.09018396
23	0xbdb393c5	-0.08768419
24	0x3e4452e4	0.19172245
25	0xbe241f66	-0.16027603
26	0x3c9ceea9	0.01915677
27	0x3c69969c	0.0142570995
28	0xbd81dbe9	-0.06340773
29	0x3d428ecf	0.047499474
30	0x3e8277a4	0.25481904
31	0xbe2a5a1a	-0.16635934
32	0xbe366a1b	-0.17813914
33	0xbe64ed1e	-0.22356078
34	0x3ca71f2b	0.020400604
35	0xbe430514	-0.19044906
36	0x3e2b47ce	0.1672661
37	0x3dd005a0	0.10157323
38	0xbdff094c	-0.12452945
39	0x3dfc27e5	0.12312297
40	0xbe5a34b5	-0.21309169
41	0x3ddef451	0.108864434
42	0x3e4ea171	0.20178773
43	0xbe51bc2b	-0.20481937
44	0x3e335179	0.17511548
45	0xbe3dda7b	-0.18540375
46	0xb93bbeb6	-0.00017904755
47	0x3e747014	0.2387088
48	0xbe416f75	-0.18890174
49	0x3e39c1ce	0.18140337
50	0xbd706536	-0.058690272
51	0xbe53b9e6	-0.20676383
52	0x3e0b7ec1	0.13622572
53	0x3e48d321	0.1961179
54	0x3ddb8864	0.10719374
55	0x3e64acd0	0.22331548
56	0xbdac62bb	-0.08417269
57	0x3e1e0bcc	0.15434188
58	0xbe517362	-0.20454171
59	0xbe3107ed	-0.1728818
60	0x3c3e88da	0.011629308
61	0x3dd511ed	0.1040381
62	0x3e1cdd08	0.15318692
63	0x3e082ea6	0.13299045
64	0xbe1b2d82	-0.15154079
65	0x3d37fae8	0.044917017
66	0x3b970069	0.004608203
67	0xbe13616c	-0.14392632
68	0xbe34aa55	-0.17643102
69	0x3d4f0b6f	0.050548013
70	0x3dee9168	0.11648828
71	0x3d8064c2	0.06269218
72	0x3e1e9b89	0.1548902
73	0x3dc157b4	0.09440556
74	0xbe4254e5	-0.18977697
75	0xbe2e1d49	-0.17003359
76	0x3e627acf	0.2211716
77	0x3cb1a7c0	0.021686435
78	0x3e480d45	0.19536312
79	0xbe50cd59	-0.20390834
80	0x3e4f5c68	0.20250094
81	0xbde079b6	-0.109607145
82	0xbb8d1dcf	-0.004306532
83	0x3e72989a	0.23691025
84	0x3d372905	0.044716854
85	0xbda8a839	-0.08235211
86	0x3d0c44dc	0.034245357
87	0xbde4ea6d	-0.11177526
88	0xbdbe7665	-0.09299926
89	0xbe39e792	-0.18154743
90	0x3e0cf17d	0.13763995
91	0xbe15b36e	-0.14619228
92	0xbd90e2ac	-0.07074484
93	0x3e588f80	0.21148491
94	0x3dc19df8	0.09453958
95	0xbe51e412	-0.20497158
96	0xbe12b270	-0.14325881
97	0xbe7543a0	-0.23951578
98	0x3e3dbe1b	0.1852955
99	0xbe6de5c6	-0.23232183
100	0x3d2ac122	0.041688092
101	0xbe5048ea	-0.20340315
102	0xb9b953fe	-0.0003534853
103	0x3dc91bab	0.0981973
104	0x3dd20018	0.10253924
105	0x3e388b03	0.18021779
106	0x3e0d5822	0.13803151
107	0xbe8159a7	-0.25263712
108	0xbe2a19d4	-0.16611415
109	0x3d6ea2f8	0.058260888
110	0xbe026d9f	-0.1273713
111	0xbc868470	-0.016420573
112	0xbe0f3969	-0.13986744
113	0x3e073d50	0.13206983
114	0x3e57c359	0.21070613
115	0xbe82bb1a	-0.25533372
116	0x3d8de480	0.069283485
117	0x3d836643	0.06415989
118	0xbe2df087	-0.16986285
119	0xbdf9bb92	-0.12193979
120	0xbe17b3cd	-0.14814682
121	0xbdbb9622	-0.09159495
122	0xbdc4fb3d	-0.096182324
123	0xbe4b4575	-0.19850715
124	0xbd11c8ad	-0.03559177
125	0xbd360250	-0.0444358
126	0x3e0f655b	0.14003508
127	0x3e0f1ebf	0.13976572
128	0x3e157322	0.14594701
129	0x3d9babb9	0.07601113
130	0xbe641145	-0.22272213
131	0xbe28dd8f	-0.16490768
132	0xbdea2300	-0.11432457
133	0x3e0de444	0.13856608
134	0xbe694bbe	-0.227828
135	0x3e4ac54e	0.19801828
136	0xbdaddd84	-0.084895164
137	0xbe0c4d8f	-0.13701461
138	0x3e3053cf	0.1721947
139	0x3e0c30fa	0.13690558
140	0xbd905d6f	-0.07049071
141	0xbdc3926c	-0.09549412
142	0xbe10137b	-0.14069931
143	0xbd8843be	-0.06653546
144	0x3da348c5	0.07972864
145	0x3cd05287	0.025429977
146	0xbd00657f	-0.031346794
147	0x3babeef2	0.0052469904
148	0xbdec7fa1	-0.11547781
149	0x3d7e4741	0.06207967
150	0xbe698d99	-0.22807921
151	0xbd440b27	-0.0478622
152	0xbe747057	-0.23870979
153	0xbdbebcf9	-0.093133874
154	0xbd7653a4	-0.06013836
155	0x3c20f342	0.009823622
156	0x3e342fe4	0.17596394
157	0xbe76a02b	-0.24084537
158	0x3dda0df4	0.106471926
159	0x3e3959ba	0.18100634
160	0xbe66a951	-0.22525527
161	0x3d9ac361	0.07556797
162	0x3db38b48	0.087668
163	0xbe6d4970	-0.23172545
164	0x3e5e15ee	0.21688053
165	0x3e6e5b53	0.23277025
166	0xbdfeed82	-0.12447645
167	0xbe33866e	-0.1753175
168	0x3e08d1a3	0.1336122
169	0xbe377596	-0.17915949
170	0xbe33e500	-0.17567825
171	0x3dd2731c	0.102758616
172	0x3d2dd87d	0.042442787
173	0xbbc6132a	-0.006044765
174	0x3e4d355b	0.20039885
175	0x3e2bd205	0.16779335
176	0x3db7f52a	0.08982308
177	0x3d8ebadc	0.06969234
178	0xbe7c8471	-0.24659897
179	0xbd615449	-0.05501202
180	0xbe110977	-0.14163767
181	0x3da52c2a	0.08065064
182	0xbe55b9dd	-0.20871682
183	0xbccb63ab	-0.024827799
184	0xbe042283	-0.1290379
185	0xbe1b11f6	-0.1514357
186	0xbe7f27be	-0.24917504
187	0x3e14e41f	0.14540146
188	0x3e1ad9ab	0.15122096
189	0xbe35d1e5	-0.1775585
190	0x3d6a60fb	0.057221394
191	0xbe41eb3b	-0.1893739
192	0xbe744320	-0.23853731
193	0xbe331d53	-0.17491655
194	0x3e454cdb	0.192676
195	0xbe6b9ac9	-0.23008265
196	0xbd0f441a	-0.034977056
197	0x3e4c8be8	0.19975245
198	0xbce802b1	-0.028321596
199	0xbe116699	-0.14199294
200	0xbc243f01	-0.010024787
201	0x3dc42d17	0.09578913
202	0xbe0182ef	-0.12647603
203	0xbe1dc3bb	-0.15406696
204	0x3e38cdce	0.18047258
205	0xbe2203f8	-0.15821826
206	0xbd41b1f6	-0.047288857
207	0x3a9ed0c8	0.0012116665
208	0xbcdf7b22	-0.027280394
209	0x3e0ed9ca	0.13950267
210	0x3d9d0863	0.07667615
211	0xbdd0a43e	-0.10187577
212	0x3e412840	0.1886301
213	0xbd1f21ba	-0.038850524
214	0xbe086d98	-0.13323057
215	0xbdcf59c6	-0.10124545
216	0xbe3ee6e9	-0.18642773
217	0xbd8f5b14	-0.06999794
218	0x3d90e6cb	0.0707527
219	0x3df2d218	0.118564785
220	0x3e5256a8	0.20540869
221	0x3cf0e2ae	0.029404964
222	0x3ba0b20a	0.0049040364
223	0x3d85b42d	0.065285064
224	0xbd35846d	-0.044315744
225	0xbd1f4a25	-0.03888907
226	0x3d69028d	0.0568872
227	0xbe58a884	-0.21158034
228	0xbde2bde9	-0.11071379
229	0xbdae6ee0	-0.085172415
230	0x3df1f731	0.11814726
231	0x3d331d80	0.043729305
232	0x3d99e41f	0.07514214
233	0x3e00f1c9	0.12592234
234	0x3e14d1e7	0.14533196
235	0x3d92266f	0.07136237
236	0xbd62177b	-0.055198174
237	0xbd81c60e	-0.06336604
238	0x3ce2734b	0.027642867
239	0xbc8c1d2d	-0.017103756
240	0xbcb7e51f	-0.02244812
241	0xbe1beaa5	-0.15226229
242	0xbbabb8be	-0.005240529
243	0x3dcf4f60	0.101225615
244	0x3e5201d5	0.20508511
245	0x3de9a0e4	0.114076406
246	0xbd7e18c3	-0.062035333
247	0x3da69bfa	0.08135219
248	0x3e7f1180	0.2490902
249	0xbe6b0d35	-0.22954257
250	0x3e0285a7	0.12746297
251	0xbe7122fb	-0.235485
252	0xbe393a62	-0.18088678
253	0xbe197be5	-0.14988668
254	0xbe259b72	-0.16172579
255	0xbe81cb2f	-0.2535033

model.backbone.encoder.layers.0.self_attn.to_out.0.bias f4 [16]
0	0xbe3e8379	-0.1860484
1	0x3d65e739	0.056128714
2	0xbddd8ada	-0.108174995
3	0xbda94941	-0.08265925
4	0xbe1af3d4	-0.15132076
5	0x3e3c7142	0.1840258
6	0x3c3a3cf6	0.011367073
7	0x3d912956	0.07087962
8	0x3ddc47ac	0.10755858
9	0xbd3fd515	-0.04683407
10	0x3e58fe96	0.21190867
11	0x39bc0896	0.0003586455
12	0xbe5307cb	-0.20608442
13	0xbe674dd0	-0.22588277
14	0x3de79c46	0.11309104
15	0x3e5b0dbc	0.21391958

model.backbone.encoder.layers.0.norm_attn.1.weight f4 [16]
0	0x3f81873a	1.0119393
1	0x3f7dfefa	0.9921719
2	0x3f817787	1.0114602
3	0x3f7cafc4	0.987057
4	0x3f7eb363	0.9949247
5	0x3f8006b2	1.0002043
6	0x3f82b91a	1.0212739
7	0x3f80a04c	1.0048919
8	0x3f815f17	1.0107144
9	0x3f807305	1.0035101
10	0x3f80acf6	1.0052783
11	0x3f7f0b58	0.99626684
12	0x3f811fd7	1.0087842
13	0x3f7e7252	0.9939319
14	0x3f7885d8	0.9707923
15	0x3f80dce0	1.0067406

model.backbone.encoder.layers.0.norm_attn.1.bias f4 [16]
0	0x3b242937	0.002504898
1	0xbb5396af	-0.003228586
2	0xbcb9b040	-0.02266705
3	0x3bcbd207	0.0062201056
4	0xbc60a023	-0.013710055
5	0xbc85e586	-0.016344797
6	0xbb4657c3	-0.0030264712
7	0x3a93c40a	0.0011273634
8	0xbc90e75b	-0.017688444
9	0xbb7c871e	-0.0038532685
10	0xbbdddba4	-0.006770568
11	0xbb93a024	-0.0045051742
12	0x3b85e60c	0.0040862616
13	0xbbe65765	-0.007029461
14	0x3c26b6fc	0.010175463
15	0xbc80123c	-0.015633695

model.backbone.encoder.layers.0.norm_attn.1.running_mean f4 [16]
0	0xbe32eaac	-0.17472333
1	0xbc783159	-0.015148484
2	0x3c700231	0.01464896
3	0xbd4ac4a4	-0.049503937
4	0x3db3e424	0.08783749
5	0x3da79d07	0.081842475
6	0xbc25fa7d	-0.010130522
7	0xbd1ecec6	-0.038771413
8	0xbdb1768f	-0.086651914
9	0x3e2607b5	0.16213877
10	0x3e739b5e	0.23789737
11	0x3dfd1e21	0.12359262
12	0xbcb46ce9	-0.022024589
13	0xbc8a6072	-0.016891692
14	0xbdacc174	-0.08435336
15	0x3e1af363	0.15131907

model.backbone.encoder.layers.0.norm_attn.1.running_var f4 [16]
0	0x3ee26353	0.44216403
1	0x3f00d998	0.5033202
2	0x3f1a0c0f	0.6017465
3	0x3f4341d8	0.76272345
4	0x3ee54fc0	0.44787407
5	0x3f151cdd	0.58247167
6	0x3ebd89a6	0.3701908
7	0x3e77972a	0.24178758
8	0x3eaae8b4	0.33380663
9	0x3f98f994	1.1951165
10	0x3f720f61	0.94554716
11	0x3ea1e10b	0.31617007
12	0x3edab7ec	0.42718446
13	0x3edf316c	0.43592393
14	0x3ec80c9d	0.39072123
15	0x3ec7b2ac	0.39003503
